trained_managers/100_100_10_MH_gin_32_overall.pth (torch, 450582 bytes, 104 tensors)

key_policy.weight f4 [64, 32]
0	0x3ca584aa	0.02020486
1	0x3ca924c3	0.020647412
2	0x3e3057c3	0.17220978
3	0x3d026c80	0.031841755
4	0xbdd0c782	-0.10194303
5	0xbccc0f04	-0.024909504
6	0x3d436303	0.047701847
7	0x3db5a31d	0.08869002
8	0x3bcb53f3	0.006205076
9	0xbe045c9d	-0.12925954
10	0xbd73c56b	-0.059514444
11	0xbcc185fc	-0.023623459
12	0x3d163a35	0.036676604
13	0x3da25952	0.07927193
14	0xbdd14454	-0.10218111
15	0x3db568a0	0.08857846
16	0x3df7cdd5	0.12099806
17	0x3d37a9b7	0.044839587
18	0xbd718d7f	-0.05897283
19	0xbdbc510f	-0.09195148
20	0xbdf189b8	-0.11793846
21	0xbda659ae	-0.08122574
22	0xbd59acd9	-0.053143356
23	0x3df2ec19	0.11861438
24	0x3d0374bb	0.032093745
25	0xbd3c88f9	-0.046029065
26	0xbdfe3a11	-0.12413419
27	0x3df6fbb3	0.120597266
28	0xbdd07475	-0.101784624
29	0xbd135484	-0.035969272
30	0xbab6d446	-0.001394876
31	0xbe291ef1	-0.1651571
32	0x3e031ce6	0.12803993
33	0xbe172c6e	-0.14763042
34	0x3dab5d76	0.08367436
35	0x3d8006ee	0.06251322
36	0xbd82a6b5	-0.06379453
37	0xbdc3fb45	-0.0956941
38	0x3e07e548	0.13271058
39	0xbd9d71a1	-0.076876886
40	0x3e1f4293	0.1555274
41	0x3b06e752	0.0020584655
42	0x3e2fca74	0.17167073
43	0x3dfd97b1	0.123824485
44	0xbd3b3e11	-0.045713488
45	0xbcde9e53	-0.027175104
46	0x3c24d062	0.010059448
47	0x3df07b6a	0.11742289
48	0x3c6b1154	0.014347393
49	0xbda7ffff	-0.08203124
50	0xbbd03fef	-0.0063552777
51	0xbcc2d239	-0.023781883
52	0x3e24122b	0.16022556
53	0x3d9a4c0c	0.07534036
54	0xbdfaea73	-0.12251749
55	0xbe004a23	-0.12528281
56	0xbdce2334	-0.10065308
57	0x3dd2d52c	0.102945656
58	0x3c406579	0.011742943
59	0xbd5de9cf	-0.054178055
60	0x3d0e9388	0.034808666
61	0x3dd8651f	0.10566162
62	0xbc155294	-0.009113926
63	0x3d66bb1b	0.05633078
64	0xbc7b56e3	-0.01534054
65	0x3d1f4b16	0.038889967
66	0x3e09d250	0.13459134
67	0xbced33b9	-0.028955327
68	0xbd7618ef	-0.060082372
69	0xbd6ac489	-0.057316337
70	0x3d46d276	0.048540555
71	0xbdb2dbd0	-0.08733332
72	0x3e312461	0.17299034
73	0x3dada0a7	0.08477908
74	0xbe294f74	-0.16534215
75	0xbd8f28dc	-0.06990215
76	0x3e1242d3	0.14283304
77	0xbda284ce	-0.07935487
78	0xbe387d66	-0.18016586
79	0x3de07471	0.109597094
80	0xbe1383c5	-0.14405735
81	0xbd001beb	-0.031276625
82	0xbd5072f5	-0.05089088
83	0xbddcae2b	-0.107754074
84	0x3e2ee8c9	0.17080988
85	0x3dbc182c	0.09184298
86	0xbdb938cc	-0.09044036
87	0xbc1097c9	-0.008825251
88	0xbd57100b	-0.052505534
89	0xbd891bcd	-0.06694756
90	0x3d6487b6	0.055793487
91	0xbc929e47	-0.017897738
92	0x3d744fff	0.059646603
93	0xbcf29416	-0.029611629
94	0xbdfd67d7	-0.123733215
95	0x3e463743	0.19357018
96	0x3e32d1a1	0.1746278
97	0xbdd323ef	-0.10309588
98	0xbd868bdf	-0.06569647
99	0xbdc0a6f0	-0.09406841
100	0x3ddb6e1e	0.107143626
101	0x3dc1586d	0.09440694
102	0x3d86926d	0.06570897
103	0xbd34eb25	-0.044169564
104	0x3cbe090b	0.023197671
105	0x3df72bf8	0.12068933
106	0x3d211239	0.03932402
107	0x3e2c28d2	0.16812447
108	0x3da49392	0.08035959
109	0xbe046f49	-0.12933077
110	0xbe142384	-0.14466673
111	0x3deb0d56	0.11477153
112	0xbd0be0c4	-0.0341499
113	0xbd917170	-0.071017146
114	0x3db80395	0.08985058
115	0xbd622632	-0.055212207
116	0xbe051e6b	-0.12999885
117	0xbd9d46ca	-0.076795176
118	0xbd1d3499	-0.03838024
119	0xbd593442	-0.053028353
120	0x3d195bfb	0.037441235
121	0xbd74e3a4	-0.059787408
122	0x3e308089	0.17236532
123	0x3d839ee1	0.06426788
124	0xbdab76c1	-0.0837226
125	0xbdbe9802	-0.09306337
126	0xbd973dde	-0.07384847
127	0x3de141c8	0.10998875
128	0xbd842709	-0.06452758
129	0x3cbaf21c	0.022820525
130	0x3e0ad2f3	0.13557033
131	0xbd68235a	-0.05667434
132	0xbc84ce73	-0.016211724
133	0xbdc51da5	-0.09624795
134	0x3e1f91f4	0.1558302
135	0x3d5ced5c	0.0539373
136	0xbca8d161	-0.020607652
137	0xbd980e73	-0.07424631
138	0x3e1d7ca3	0.15379576
139	0x3dcd722e	0.10031544
140	0x3d758289	0.05993894
141	0x3dd8e763	0.105910085
142	0x3e1b8f61	0.15191413
143	0x3d823c41	0.06359149
144	0xbe145beb	-0.14488189
145	0xbd8be2b4	-0.068303496
146	0xbd610deb	-0.054944914
147	0x3e4616a5	0.19344576
148	0x3db57a1c	0.08861181
149	0xbdbeaca4	-0.09310272
150	0x3dbb519d	0.09146426
151	0xbdb26dd2	-0.08712353
152	0x3e35403e	0.17700288
153	0xbd2bd396	-0.04194983
154	0x3d88ea89	0.06685359
155	0x3ded87b0	0.11598146
156	0x3de85e62	0.11346127
157	0xbd282c36	-0.041057788
158	0x3e18f109	0.14935698
159	0x3cc1eac5	0.023671517
160	0xbce5db12	-0.028058562
161	0xbe266e03	-0.16252904
162	0x3d3990da	0.045304157
163	0x3c23a286	0.009987479
164	0xbcfe41c0	-0.031037211
165	0xbd76a46d	-0.060215402
166	0x3e1a8512	0.15089825
167	0xbd61d9e8	-0.055139452
168	0xbd8cd2ee	-0.06876169
169	0xbd7435d2	-0.05962164
170	0xbd62228e	-0.055208735
171	0xbdd95a75	-0.106129564
172	0x3e281d5c	0.1641745
173	0x3e24c52f	0.16090845
174	0xbdfc1741	-0.12309123
175	0xbdd996c1	-0.10624457
176	0x3cf784da	0.030214716
177	0x3d619f87	0.055083778
178	0xbd8af59b	-0.06785127
179	0xbe262017	-0.16223179
180	0x3e2a185d	0.16610856
181	0xbd073a91	-0.033014838
182	0x3e0660d3	0.13122873
183	0xbd97d363	-0.07413366
184	0xbd2fa491	-0.042881552
185	0x3d908186	0.07055955
186	0x3b844dc7	0.004037592
187	0xbcf2fa6f	-0.029660432
188	0xbd34eb55	-0.044169743
189	0x3df08ff1	0.11746205
190	0x3dba5178	0.0909757
191	0x3d0022ae	0.031283073
192	0x3e231841	0.15927221
193	0x3c5dffc1	0.013549746
194	0x3e3aab37	0.18229376
195	0xbc6f3a25	-0.014601265
196	0x3e2a31ed	0.16620608
197	0x3d2a6689	0.04160169
198	0xbdfda5f3	-0.12385168
199	0xbda7ef7b	-0.08199974
200	0xbe3ed420	-0.18635607
201	0x3d99f367	0.075171284
202	0x3dc7e83c	0.09761092
203	0x3e36927c	0.17829317
204	0xbde6aaf9	-0.11263079
205	0xbca6b629	-0.020350533
206	0xbe102b89	-0.14079107
207	0x3e00268c	0.12514704
208	0xbc8ddd31	-0.017317386
209	0xbdbca849	-0.09211785
210	0xbcd287ed	-0.02569958
211	0x3d84949c	0.064736575
212	0x3e17f074	0.1483782
213	0xbd82e456	-0.06391208
214	0x3c772358	0.01508411
215	0xbdf0c4c4	-0.1175628
216	0x3d2ddd45	0.042447347
217	0x3d3c5ffd	0.04598998
218	0x3d9fa34a	0.07794817
219	0x3df3c967	0.11903649
220	0x3da6c8f0	0.081437945
221	0x3d0c34a1	0.03422988
222	0xbe15a904	-0.14615256
223	0xbc4838f1	-0.012220607
224	0xbdb6484b	-0.089005075
225	0x3c36c469	0.011155226
226	0xbde76625	-0.112987794
227	0x3be0fb0e	0.0068658656
228	0xbe05db76	-0.13071999
229	0x3de98d72	0.11403932
230	0xbdaa2e06	-0.083095595
231	0xbdb82711	-0.08991826
232	0x3e3463d1	0.17616202
233	0x3d1ae51c	0.037816152
234	0xbe10b31e	-0.14130828
235	0xbdd1445a	-0.10218115
236	0xbc180ffa	-0.009281153
237	0xbe334003	-0.17504887
238	0x3dd92911	0.10603536
239	0x3dc375ee	0.09543978
240	0xbe0bf898	-0.1366905
241	0x3c893d68	0.016752914
242	0x3e1c2217	0.15247379
243	0xbdb2a4ea	-0.08722861
244	0xbe20935d	-0.15681215
245	0xbd6ef534	-0.058339313
246	0xbe056432	-0.13026503
247	0x3d3ddc84	0.04635288
248	0xbd79ab61	-0.060954455
249	0xbe2584c2	-0.16163924
250	0xbdeeef87	-0.1166678
251	0x3e0b8479	0.13624753
252	0xbdf51fff	-0.119689934
253	0x3d89882b	0.06715425
254	0xbda90327	-0.082525544
255	0xbdba6b8d	-0.09102545

key_policy.bias f4 [64]
0	0xbd37aeac	-0.044844314
1	0xbc377f28	-0.01119975
2	0xbdefa2fc	-0.11701009
3	0x3e39f803	0.18161015
4	0xbe047c8a	-0.12938133
5	0xbdf77fa7	-0.120848946
6	0xbb604e81	-0.003422648
7	0x3d7c91f3	0.061662626
8	0x3da90982	0.082537666
9	0x3e24feb6	0.1611279
10	0x3db3ea72	0.08784951
11	0xbe256fd8	-0.16155946
12	0xba305b5d	-0.00067274814
13	0x3d89c553	0.0672709
14	0xbc70dfe8	-0.014701821
15	0x3dd8ee2d	0.105923034
16	0xbdeff7ad	-0.11717162
17	0x3cfd21a0	0.030899823
18	0xbd56d092	-0.052445002
19	0xbd16398d	-0.03667598
20	0xbe2a7f16	-0.16650042
21	0x3dcf1b4e	0.1011263
22	0xbe23bf52	-0.15990952
23	0xbc8ed222	-0.017434184
24	0x3d4717a1	0.04860652
25	0x3ae10d08	0.0017170021
26	0x3e070490	0.13185334
27	0x3d2733ed	0.040821005
28	0x3df642a3	0.12024429
29	0xbddc770c	-0.10764894
30	0x3d7ab433	0.061207008
31	0xbd2dd40e	-0.04243856
32	0x3e29e833	0.16592483
33	0xbddec9e2	-0.1087835
34	0x3e396181	0.18103601
35	0xbda64fdd	-0.081207015
36	0x3e13af17	0.1442226
37	0x3d452b2c	0.048136875
38	0x3dce2a9e	0.10066722
39	0x3e0c3d8f	0.13695358
40	0x3e03836c	0.12843102
41	0xbe159935	-0.14609225
42	0x3cc038c3	0.023464566
43	0xbd065e01	-0.032804493
44	0x3e0f1ae3	0.139751
45	0x3e3190b5	0.17340358
46	0x3e06acc6	0.13151845
47	0xbd7d3450	-0.061817467
48	0xbe13abb0	-0.14420962
49	0x3da10226	0.07861738
50	0xbde4734d	-0.111548044
51	0xbe274128	-0.16333449
52	0x3e04c3a9	0.12965263
53	0x3e0169d3	0.12638025
54	0xbc6b2800	-0.014352798
55	0x3d82ac86	0.063805625
56	0x3dc7d0e0	0.097566366
57	0x3cf4bf3b	0.029876342
58	0xbde460e5	-0.11151294
59	0xbc958dbe	-0.018256065
60	0x3df41cfc	0.11919591
61	0x3d62307b	0.055222016
62	0xbe2ba9da	-0.16764012
63	0x3bb25e39	0.005443361

q_policy.weight f4 [64, 64]
0	0xbcc23262	-0.023705665
1	0x3d77cf2c	0.06050031
2	0x3de2933e	0.110632405
3	0xbd93ab40	-0.07210398
4	0x3d2cda97	0.04220065
5	0xbde10834	-0.10987893
6	0x3e02cd0d	0.12773533
7	0xbdef6637	-0.11689418
8	0xbdea62f8	-0.11444658
9	0x3cdad2ca	0.02671184
10	0xbe098c71	-0.1343248
11	0x3df6923a	0.12039609
12	0xbdf94ceb	-0.12172874
13	0x3ce5b6c1	0.028041245
14	0x3cb39b19	0.021924542
15	0x3df6bc1b	0.12047597
16	0xbd084372	-0.033267446
17	0x3e037b6e	0.12840053
18	0xbca2c1d1	-0.01986781
19	0xbda046a8	-0.078259766
20	0xbd570f38	-0.052504748
21	0xbb70d6e0	-0.003674917
22	0x3cbac219	0.022797631
23	0xbddfcb63	-0.10927465
24	0xbd3b8205	-0.045778293
25	0xbd5b19f4	-0.053491548
26	0xbd49e067	-0.049286272
27	0xbd480370	-0.048831403
28	0xbd680732	-0.056647487
29	0x3d356776	0.04428812
30	0xbd86f9dc	-0.06590626
31	0x3c41443d	0.011796054
32	0xbe059f18	-0.1304897
33	0x3d5f262c	0.054479763
34	0xbdbc3481	-0.09189702
35	0x3c83bab2	0.016080234
36	0xbdf1951d	-0.11796019
37	0x3d4bc24a	0.049745835
38	0x3deb23a8	0.1148141
39	0x3c7ba219	0.015358471
40	0x3d278096	0.040894113
41	0xbcec0a74	-0.028813578
42	0x3db4258f	0.08796226
43	0x3d941c7e	0.07231997
44	0xbcfffe24	-0.031249113
45	0xbdb12d29	-0.08651192
46	0xbd57fcd9	-0.05273137
47	0xbdaa5f77	-0.0831899
48	0x3c4c5f8a	0.01247395
49	0x3d9d7879	0.07688994
50	0xbd9066d9	-0.07050867
51	0x3cfb3cb4	0.030668594
52	0x3d3716fd	0.044699658
53	0x3d6c0171	0.057618562
54	0x3de0422a	0.1095012
55	0xbd95cb1b	-0.0731413
56	0x3ddcdce8	0.10784322
57	0x3dbf706a	0.09347613
58	0x3da43325	0.080175675
59	0xbb65edd9	-0.0035084395
60	0x3d6122c6	0.054964803
61	0x3d90f4ec	0.07077965
62	0x3dd9381c	0.10606405
63	0xbdfcff32	-0.12353362
64	0x3e06840b	0.13136308
65	0x3cccabc4	0.024984248
66	0xbd8bd18d	-0.06827078
67	0x3c37ead7	0.011225424
68	0x3d31f450	0.043445885
69	0xbdc09e90	-0.094052434
70	0xbd3930ed	-0.045212675
71	0x3d822cda	0.06356211
72	0xbd8e3375	-0.069434084
73	0xbd6b709f	-0.05748045
74	0x3cb3f222	0.021966044
75	0x3d53e7f4	0.05173488
76	0x3ddb27f7	0.10700982
77	0x3dcb89bc	0.0993838
78	0xbba96234	-0.0051691774
79	0x3dc17d76	0.09447758
80	0xbcc02e58	-0.023459598
81	0x3df8364e	0.12119733
82	0xbcf26ea0	-0.029593766
83	0x3d762ac1	0.060099367
84	0xbcec612c	-0.028854929
85	0xbc3b48f3	-0.011430967
86	0x3d483707	0.048880603
87	0x3da98f96	0.0827934
88	0xbcc4f59b	-0.024042895
89	0x3cf77c07	0.030210508
90	0xbddcfd76	-0.10790531
91	0x3c9b381d	0.018947655
92	0xbd58079f	-0.052741643
93	0xbc6a9cb0	-0.014319584
94	0x3d8d3fd7	0.06896942
95	0xbdf7c50f	-0.12098133
96	0xbdad018b	-0.0844756
97	0x3ddb4fbe	0.10708569
98	0xbd5ff97b	-0.054681282
99	0x3db04b6c	0.086081356
100	0xbd328d78	-0.043591946
101	0xbda6f864	-0.081528455
102	0x3d9a5647	0.07535987
103	0x3cad73f0	0.021173447
104	0x3d09963a	0.033590533
105	0xbd7e6a86	-0.062113307
106	0xbd585f80	-0.05282545
107	0x3dc11e08	0.09429556
108	0x3d237237	0.039903846
109	0x3df157d5	0.11784331
110	0xbdcc0f0a	-0.09963806
111	0x3c9b40ba	0.018951762
112	0x3b8435f4	0.004034752
113	0xbd8918ed	-0.06694207
114	0x3dbc6dcd	0.0920063
115	0x3db10a85	0.086445846
116	0xbc0119a4	-0.007879648
117	0xbc5246c8	-0.012834258
118	0x3c0f8af7	0.008761159
119	0xbd9e9752	-0.07743706
120	0x3d957054	0.072968155
121	0x3dbfa725	0.09358052
122	0xbcb7f29e	-0.022454556
123	0xbd996d3e	-0.074915394
124	0x3de2c96e	0.11073576
125	0x3d914e40	0.07095003
126	0xbd4638f2	-0.04839415
127	0xba9d9073	-0.0012021199
128	0x3df761ae	0.12079178
129	0xbd39c769	-0.045356188
130	0xbc96bd30	-0.018400759
131	0xbcc1e0ad	-0.023666704
132	0xbdbefeff	-0.093259804
133	0xbcebc024	-0.028778143
134	0x3cba0578	0.022707686
135	0xbdb3ec09	-0.087852545
136	0x3e047465	0.12935026
137	0x3c92cc56	0.0179197
138	0x3db47972	0.08812226
139	0xbe01f304	-0.1269036
140	0xbdf0cc18	-0.11757678
141	0x3d90373c	0.07041785
142	0xbddf85cd	-0.10914192
143	0x3cfc8cc4	0.030828841
144	0xbd1fd37f	-0.039020058
145	0xbc0cd7ae	-0.008596344
146	0x3de03cda	0.109491065
147	0xbbf1f930	-0.007384442
148	0x3d958a83	0.0730181
149	0x3d6ae10a	0.05734352
150	0xbe06786d	-0.13131876
151	0xba114d5b	-0.0005542838
152	0xbdc0d916	-0.09416406
153	0x3d91f3ff	0.07126617
154	0xbd342cd4	-0.043988064
155	0x3deeb794	0.116561085
156	0x3dce699f	0.100787394
157	0x3db5d169	0.088778324
158	0x3dba5b71	0.09099472
159	0x3dbb87e2	0.09156777
160	0x3deb7e33	0.1149868
161	0xbb52a818	-0.0032143649
162	0xbcac1dea	-0.021010358
163	0xbe07a482	-0.13246349
164	0xbd933eb7	-0.07189696
165	0xbd92878e	-0.07154761
166	0xbd9508fb	-0.072771035
167	0x3dc1e7d4	0.09468046
168	0x3d830fc9	0.06399495
169	0x3d9e6c18	0.07735461
170	0xbd8dae12	-0.06917967
171	0xbd1bc5aa	-0.038030304
172	0x3dd9e693	0.10639682
173	0x3d991d31	0.07476271
174	0x3cb2c5e2	0.021822874
175	0x3c1ccec4	0.009570781
176	0xbdcf3113	-0.10116782
177	0xbdf678c1	-0.12034751
178	0xbdfb8c24	-0.12282589
179	0x3db1b886	0.08677773
180	0xbd9010b3	-0.07034435
181	0xbdacb539	-0.08433003
182	0x3ddeac1d	0.10872672
183	0xbd850443	-0.064949535
184	0x3e0044d3	0.12526254
185	0x3dc59ed4	0.09649435
186	0x3de169bb	0.110064946
187	0x3caeabb4	0.021322109
188	0xbd41996b	-0.04726545
189	0xbdb4993c	-0.0881829
190	0xbd863fd4	-0.06555143
191	0x3db269cd	0.08711586
192	0xbd5d806f	-0.054077562
193	0xbdb6e832	-0.089310065
194	0x3cd370c2	0.025810603
195	0xbdf11b76	-0.11772816
196	0x3ceaec58	0.02867715
197	0x3cba858a	0.022768755
198	0xbdb16d35	-0.08663408
199	0x3b209028	0.0024499986
200	0x3dca11cc	0.09866676
201	0xbb39c884	-0.0028348276
202	0xbdbb8a86	-0.091572806
203	0xbd59edba	-0.05320523
204	0x3ded7aff	0.11595725
205	0xbdeae715	-0.11469857
206	0x3c84af27	0.0161968
207	0xbd0cdc53	-0.034389805
208	0x3dbfaf44	0.09359601
209	0x3d541dc1	0.051786188
210	0x3d475a9d	0.0486704
211	0xbcc42f9d	-0.023948485
212	0xbd798c4e	-0.06092482
213	0xbdc69369	-0.09696085
214	0xbdbc9bd2	-0.09209408
215	0x3d3270dd	0.043564666
216	0x3d6f0744	0.05835654
217	0xbda2e524	-0.07953861
218	0xbd211222	-0.039323933
219	0x3d571ffd	0.05252074
220	0x3d997610	0.07493222
221	0xbd6916f9	-0.056906674
222	0x3dcb4a86	0.099263236
223	0xbc36dd84	-0.011161212
224	0xbd4917e5	-0.049095053
225	0xbc360633	-0.011109876
226	0x3d984f54	0.07437006
227	0xbc5f43c7	-0.013626999
228	0xbdcb0c4b	-0.09914454
229	0xbd70a303	-0.05874921
230	0x3da51ba8	0.08061916
231	0x3d4b7b65	0.049678225
232	0xbd0e45bb	-0.03473447
233	0xbb7a0062	-0.00381472
234	0xbc1df663	-0.009641263
235	0x3d85e712	0.06538214
236	0xbdf5d252	-0.12003006
237	0xbd84d6fb	-0.06486317
238	0x3df808fc	0.12111089
239	0xbcfb5094	-0.030678071
240	0x3cb19fb3	0.021682596
241	0xbdfd7163	-0.123751424
242	0xbd946328	-0.07245475
243	0xbd1e136f	-0.038592752
244	0x3d4eec88	0.050518543
245	0x3d9027ee	0.07038866
246	0xbcc7154d	-0.02430215
247	0xbd117371	-0.035510484
248	0x3daffdd0	0.08593333
249	0xbd3db34f	-0.04631358
250	0xbdb78e89	-0.08962733
251	0x3c080b82	0.008303525
252	0x3e10bf4d	0.14135475
253	0x3dc19b64	0.094534665
254	0x3d8ddca9	0.06926853
255	0xbb2c8ef5	-0.0026330326

q_policy.bias f4 [64]
0	0xbda4d535	-0.080484785
1	0xbe1114c7	-0.14168082
2	0x3ac5b765	0.0015084563
3	0xbc653aeb	-0.013991098
4	0xbe0d1e5c	-0.13781112
5	0x3d5c922a	0.05385033
6	0xbe0d2264	-0.1378265
7	0xbda06801	-0.07832337
8	0xbcf695ea	-0.030100781
9	0xbdafbd06	-0.08580975
10	0xbafd7e19	-0.0019339948
11	0x3c09180c	0.00836755
12	0x3d68e661	0.05686033
13	0xbcaa209e	-0.020767506
14	0x3d648a89	0.05579618
15	0xbe2668f9	-0.16250981
16	0x3e27f903	0.16403584
17	0xb8fbcfd4	-0.00012007324
18	0xbdb1a15d	-0.08673356
19	0x3c84da69	0.016217427
20	0xbd15cd29	-0.03657261
21	0x3d2781f0	0.040895402
22	0x3de8ab51	0.11360801
23	0xbb12c6b1	-0.0022396261
24	0xbe1a3421	-0.15058948
25	0xbdfba535	-0.1228737
26	0xbc3bf6c5	-0.011472409
27	0xbe1483f1	-0.14503457
28	0x3db5143f	0.08841752
29	0x3d8452dc	0.06461117
30	0xbcac9fa5	-0.021072218
31	0x3d68224c	0.056673333
32	0x3e1edcfb	0.15513985
33	0x3dbd14d3	0.092324875
34	0xbdbc64d8	-0.09198922
35	0x3dc3a157	0.095522575
36	0x3dad1cd9	0.08452768
37	0xbcf0be58	-0.029387638
38	0xbd9d2c5e	-0.07674478
39	0xbcb3ae04	-0.021933563
40	0xbe12fb4d	-0.14353676
41	0xbe19aa19	-0.15006293
42	0x3d9681ea	0.07348998
43	0xbde575a2	-0.11204077
44	0xbd4473a3	-0.047961842
45	0xbbf71fdb	-0.0075416393
46	0xbddb4d9f	-0.107081644
47	0x3d86b749	0.065779276
48	0xbb427866	-0.0029673814
49	0x3de2e4a2	0.110787645
50	0xbdc1b651	-0.09458602
51	0x3b10481a	0.0022015632
52	0xbe2f9634	-0.17147142
53	0x3d1713d7	0.036884155
54	0xbadc249a	-0.0016795576
55	0xbdb787fa	-0.08961482
56	0xbdc151f7	-0.09439462
57	0xbe03accf	-0.1285889
58	0x3acf0678	0.0015794775
59	0x3c8b8b39	0.01703416
60	0x3da5e25c	0.08099815
61	0xbe3422be	-0.17591378
62	0x3d1dff91	0.038573805
63	0xbda6183f	-0.08110093

embed.embedding_net.lin1_1.weight f4 [32, 4]
0	0x3e8dea26	0.27717704
1	0x3e0e19e7	0.13877068
2	0xbc35ef14	-0.011104364
3	0xbbe80a2d	-0.007081291
4	0x3e215404	0.15754706
5	0x3eb7bafc	0.35884845
6	0xbefaeb4e	-0.49007648
7	0x3e775a66	0.24155578
8	0x3ec28c37	0.379976
9	0x3dcca12b	0.09991678
10	0xbdfb26e4	-0.12263277
11	0xbebf1a96	-0.3732497
12	0xbe8a7608	-0.27043176
13	0xb9cb51d8	-0.00038780156
14	0xbe4cdfe2	-0.2000728
15	0x3e348f35	0.17632754
16	0x3eda7f85	0.42675415
17	0x3e8ef968	0.27924657
18	0x3e147246	0.14496717
19	0x3e84d4d7	0.25943634
20	0xbe9ab24a	-0.3021415
21	0xbc30e3fd	-0.010796544
22	0xbe0db407	-0.13838206
23	0x3e64c7c0	0.22341824
24	0xbe5be6f7	-0.21474825
25	0x3c14f53c	0.009091672
26	0xbe039584	-0.12850004
27	0x3d29d419	0.041462038
28	0x3d16b464	0.036793128
29	0xbdc6a075	-0.096985735
30	0x3c31708e	0.010830058
31	0xbe92cfc1	-0.2867413
32	0xbec94f05	-0.393181
33	0x3eb585e8	0.35453725
34	0x3e86939c	0.26284492
35	0x3e9b5ae8	0.30342793
36	0x3e8449d2	0.2583757
37	0x3e013c8e	0.12620756
38	0x39adc38c	0.00033142825
39	0xbedd775a	-0.4325512
40	0xbe97dfe1	-0.29662994
41	0xbe94632d	-0.28981915
42	0xbc009093	-0.007846969
43	0x3eb12944	0.34601796
44	0x3ed67038	0.4188249
45	0xbef1f075	-0.47253767
46	0x3eef628a	0.46754867
47	0x3e30dc9c	0.17271656
48	0xbe2d3a71	-0.16916825
49	0xbe230cc7	-0.15922843
50	0xbe03e9ed	-0.12882204
51	0x3eead097	0.45862266
52	0xbeef000e	-0.4667973
53	0xbd2141af	-0.03936928
54	0x3dddf194	0.10837093
55	0x3eab57ad	0.3346533
56	0x3e87fc67	0.26559755
57	0xbe8da2f6	-0.27663392
58	0x3dfc861c	0.12330267
59	0xbda75329	-0.081701584
60	0x3ebea5ef	0.37235972
61	0x3ef92ec1	0.48668483
62	0xbdadfda0	-0.08495641
63	0x3eddd5e2	0.43327242
64	0xbe0847a9	-0.13308586
65	0xbebcba65	-0.36860958
66	0xbd93ac33	-0.07210579
67	0x3eb53e73	0.35399207
68	0xbe515854	-0.20443851
69	0xbea6d719	-0.3258598
70	0xbe5fc546	-0.21852598
71	0x3e9d828d	0.30763665
72	0x3e34e9c9	0.17667307
73	0xbebf767f	-0.37395093
74	0x3ef78e1a	0.48350602
75	0x3ec67b38	0.38765883
76	0xbeeb19d3	-0.4591814
77	0x3ebdfa40	0.37104988
78	0x3e906847	0.28204557
79	0x3e64640c	0.2230379
80	0x3eb9e50a	0.36307555
81	0xbe463f3e	-0.19360062
82	0xbdfe8e8c	-0.124295324
83	0x3d948e6d	0.07253728
84	0xbec05a98	-0.37569118
85	0x3ce1330c	0.027490161
86	0x3eccf6cb	0.40032038
87	0x3eb0cd7c	0.34531772
88	0xbed652b1	-0.41859964
89	0xbec0b486	-0.37637728
90	0xbe340793	-0.17581014
91	0x3e84ff57	0.2597606
92	0x3d6bc9d3	0.05756552
93	0x3ec5a6ea	0.38603908
94	0x3e59d212	0.21271542
95	0x3ed9c881	0.42535785
96	0xbee65620	-0.44987583
97	0xbd913d08	-0.07091719
98	0xbdc437b6	-0.095809385
99	0x3ea6c0e0	0.32569027
100	0xbdb7c928	-0.089739144
101	0x3d0d55e1	0.03450573
102	0x3ebbddfc	0.36692798
103	0xbec1024d	-0.37697068
104	0xbe6ac030	-0.22924876
105	0x3ee298c7	0.44257185
106	0xbe1b859e	-0.1518769
107	0xbed91dc0	-0.4240551
108	0x3e9d1792	0.30682045
109	0x3dd339bb	0.103137456
110	0xbeb21c3b	-0.34787163
111	0xbea548a6	-0.3228199
112	0x3f00ff42	0.5038949
113	0xbca2ad92	-0.019858155
114	0x3ef1d81d	0.47235194
115	0xbdd6678d	-0.104689695
116	0xbe0dfd0b	-0.1386606
117	0x3ed74027	0.42041132
118	0xbeb643fe	-0.3559875
119	0x3d6c7eb2	0.057738014
120	0xbe5b9532	-0.21443632
121	0x3ec6de2f	0.38841388
122	0xbe5d048c	-0.21583766
123	0xbd98ebd9	-0.07466859
124	0xbef154d7	-0.4713504
125	0x3e9a9632	0.30192715
126	0x3e98cd2a	0.29844028
127	0xbe71ed2d	-0.23625632

embed.embedding_net.lin1_1.bias f4 [32]
0	0xbe5bf6ab	-0.21480815
1	0xba7a3d45	-0.0009545873
2	0xbd91265e	-0.07087396
3	0xbefe78e1	-0.49701598
4	0xbe73215a	-0.23743191
5	0xbe90b5a2	-0.28263575
6	0xbead25ae	-0.3381781
7	0x3dc2c77f	0.09510707
8	0x3dd74224	0.10510662
9	0xbeaed38c	-0.34145772
10	0xbeeba863	-0.46026906
11	0xbda11330	-0.07864988
12	0xbe90e002	-0.28295904
13	0x3ee20458	0.4414394
14	0xbeb223c6	-0.34792918
15	0xbcd21dc2	-0.025648955
16	0xbe186d12	-0.14885357
17	0x3e5c5b26	0.21519145
18	0x3e5deacb	0.21671598
19	0xbeca706f	-0.39538905
20	0xbede400a	-0.43408233
21	0x3eb2c01b	0.3491219
22	0xbe4f18f4	-0.20224363
23	0x3d07da1c	0.03316699
24	0x3e4636d2	0.1935685
25	0xbe9d90a9	-0.3077443
26	0xbdfc7637	-0.12327235
27	0x3ed7e3ff	0.42166135
28	0xbe735ef6	-0.23766693
29	0x3e92f887	0.28705236
30	0x3e79b17e	0.24384114
31	0xbec563cc	-0.385527

embed.embedding_net.bn1_1.weight f4 [32]
0	0x3f813bd1	1.009638
1	0x3f80c3ec	1.0059791
2	0x3f7d1813	0.9886486
3	0x3f80b81a	1.0056183
4	0x3f7ee1e1	0.99563414
5	0x3f801736	1.0007083
6	0x3f7f587e	0.99744403
7	0x3f809a5c	1.0047107
8	0x3f7ef74b	0.9959609
9	0x3f808a3a	1.0042183
10	0x3f7eb01e	0.99487484
11	0x3f8066ed	1.003141
12	0x3f7e3828	0.9930444
13	0x3f7f5cc1	0.99750906
14	0x3f819225	1.0122725
15	0x3f7f99f2	0.99844277
16	0x3f7f6b31	0.99772936
17	0x3f806a37	1.0032414
18	0x3f7fda82	0.9994279
19	0x3f7dc687	0.99131054
20	0x3f802c2a	1.0013478
21	0x3f7efc3a	0.9960362
22	0x3f815e89	1.0106975
23	0x3f801c8a	1.000871
24	0x3f7f8001	0.99804693
25	0x3f806067	1.002942
26	0x3f7bee3f	0.9841041
27	0x3f808218	1.0039701
28	0x3f7edbd2	0.9955417
29	0x3f7fb8d7	0.9989142
30	0x3f80af11	1.0053426
31	0x3f804c2b	1.0023245

embed.embedding_net.bn1_1.bias f4 [32]
0	0x3c34c83d	0.011034069
1	0x3be75588	0.0070597567
2	0xb9dce7c0	-0.00042134337
3	0x3cbfd4b6	0.023416858
4	0x3a865cf4	0.0010251091
5	0x3bb04051	0.005378761
6	0xbc9a285b	-0.018818071
7	0xbc122d8a	-0.00892199
8	0xb904f0d3	-0.00012678215
9	0x39bcab9b	0.0003598601
10	0x3bde9c45	0.006793531
11	0x3a6fb69d	0.0009144338
12	0xb9ad9741	-0.00033109824
13	0x3ab9aa0b	0.0014165057
14	0x3b6b1d9d	0.0035875805
15	0x3bf7db00	0.0075639486
16	0x3c0c773d	0.0085733505
17	0x3cd72ca0	0.026266396
18	0xbbc0f092	-0.005888053
19	0x3b044a38	0.002018584
20	0xbba6597f	-0.0050765867
21	0x399fa654	0.00030450767
22	0x3cc26803	0.023731237
23	0x3c1934bb	0.009350951
24	0x3b93493d	0.0044948147
25	0x3cc3ce82	0.023902182
26	0xbc0ed297	-0.008717201
27	0xbb6b0a85	-0.0035864424
28	0x3b9d4257	0.004799168
29	0xba1f64a4	-0.0006080365
30	0xbba8bba3	-0.005149321
31	0x3c2d84c4	0.010590736

embed.embedding_net.bn1_1.running_mean f4 [32]
0	0xbd616da2	-0.055036195
1	0x3f216400	0.6304321
2	0xbfdb4d1e	-1.7132909
3	0xbe00a4b3	-0.12562828
4	0x3fc19461	1.5123407
5	0x3ebed9d9	0.3727558
6	0xbee2802f	-0.4423842
7	0xbf9cf32d	-1.2261711
8	0x3fedc0de	1.8574483
9	0xc007ad78	-2.1199627
10	0x3f4f336d	0.80937845
11	0x3fb042fc	1.3770442
12	0x3fb9996e	1.4499948
13	0x3fefe34f	1.8741244
14	0xbf0add33	-0.54243773
15	0x40102711	2.2523844
16	0x3f8da895	1.1067072
17	0x3f83503d	1.0258862
18	0x402698cc	2.603076
19	0x3f7ed7be	0.99547946
20	0xbe4f6f62	-0.20257333
21	0x4015ee29	2.3426611
22	0x3ea48a11	0.32136586
23	0x40208912	2.508366
24	0x3fa31621	1.2741128
25	0xbfc0d1d9	-1.506404
26	0xc00b251c	-2.17414
27	0xbfae4c20	-1.3616982
28	0x3e6b4ee3	0.22979312
29	0x3e25d6d7	0.16195236
30	0xbea8ccce	-0.32968754
31	0xbf8d32b1	-1.1031095

embed.embedding_net.bn1_1.running_var f4 [32]
0	0x3c05916b	0.008152346
1	0x3dce8697	0.10084265
2	0x3e6c146b	0.23054664
3	0x3cb795c6	0.022410285
4	0x3e210aec	0.15726823
5	0x3d089bc9	0.033351693
6	0x3c36dd7a	0.011161203
7	0x3da9b083	0.0828562
8	0x3e8e534a	0.2779792
9	0x3e4f2256	0.20227942
10	0x3e0ac6af	0.13552354
11	0x3ead930b	0.33901247
12	0x3e223f23	0.15844397
13	0x3e44fb6f	0.1923654
14	0x3c8eac77	0.017416222
15	0x3e3c0916	0.18362841
16	0x3de93ac2	0.1138816
17	0x3d6f7df9	0.058469746
18	0x3f195ef1	0.59910494
19	0x3e668c5b	0.22514479
20	0x3c9e7c60	0.019346416
21	0x3ee2976d	0.44256154
22	0x3d7493af	0.059711155
23	0x3eb64936	0.3560273
24	0x3dbfacfe	0.093591675
25	0x3d8d35d0	0.068950295
26	0x3e9f7aa1	0.31148246
27	0x3eb81f3c	0.3596133
28	0x3e0d380b	0.1379091
29	0x3db79e83	0.089657806
30	0x3da23a45	0.0792127
31	0x3d717f19	0.0589591

embed.embedding_net.lin1_2.weight f4 [32, 32]
0	0xbe34283f	-0.17593478
1	0x3d8e43d8	0.06946534
2	0x3d83bacf	0.06432115
3	0xbc8b0cfe	-0.016973969
4	0xbd575cb7	-0.052578654
5	0x3e2b08b6	0.16702542
6	0xbe29f622	-0.16597798
7	0xbdefc3e9	-0.11707289
8	0x3d281f0c	0.041045234
9	0xbdf3a53e	-0.11896752
10	0xbd973d62	-0.07384755
11	0x3dd9ddda	0.10638018
12	0x3dabd375	0.083899416
13	0xbcce2a43	-0.025166636
14	0x3df0ba8c	0.11754331
15	0x3c0da5a8	0.008645453
16	0xbce8a7c6	-0.028400313
17	0xbd3ba5f9	-0.04581258
18	0xbda6ce7c	-0.081448525
19	0x3e170fd5	0.14752133
20	0x3dc0a401	0.09406281
21	0xbe0c8788	-0.13723576
22	0x3e3557d3	0.17709284
23	0xbc40b53e	-0.0117619615
24	0x3cf0a07b	0.029373398
25	0x3ce74622	0.028231684
26	0x3e26c200	0.16284943
27	0xbd75c8a6	-0.060005806
28	0xbcecc8d0	-0.028904349
29	0xbd3d104a	-0.046158113
30	0x3d3314e4	0.043721095
31	0xbe28f843	-0.16500954
32	0xbd0bb8b8	-0.03411171
33	0x3d9a5e09	0.07537467
34	0x3e16d94f	0.14731334
35	0xbe3af02c	-0.18255681
36	0xbe32dbd4	-0.1746667
37	0x3e207651	0.15670134
38	0x3cbfc8c0	0.023411155
39	0xbd690be8	-0.05689612
40	0x3d8b595e	0.06804155
41	0xbe10ba42	-0.14133552
42	0xbd8949e1	-0.067035444
43	0xbd58b467	-0.05290642
44	0x3d3fd247	0.046831395
45	0xbc88e0c6	-0.016708743
46	0xbd890f09	-0.06692321
47	0xbdb6e8f9	-0.08931155
48	0xbe0fc43e	-0.14039704
49	0xbd9a7f7d	-0.07543848
50	0xbde40b15	-0.11134926
51	0x3da1ec34	0.0790638
52	0x3e166ffb	0.14691155
53	0xbde1a063	-0.110169195
54	0x3d1a1519	0.037617777
55	0xbdafad05	-0.08577923
56	0xbc9dfd06	-0.01928569
57	0x3c87d7d6	0.01658241
58	0x3e125b8d	0.14292736
59	0x3e117c10	0.14207482
60	0xbda14248	-0.0787397
61	0x3e0f0ffb	0.1397094
62	0x3ce02fac	0.027366482
63	0xbdb0192e	-0.08598553
64	0x3d78e274	0.060762838
65	0xbd06d62b	-0.03291909
66	0xbe28c9b8	-0.164832
67	0xbd4b8ccf	-0.049694832
68	0x3dff0397	0.124518566
69	0xbd7f33b3	-0.062305164
70	0xbd4079df	-0.046991225
71	0xbc4ff128	-0.0126917735
72	0x3d0d78ec	0.03453915
73	0xbd140168	-0.036134154
74	0x3e2a64ea	0.16640058
75	0xbc1d729e	-0.009609846
76	0x3e231216	0.15924868
77	0x3e0b47c1	0.1360159
78	0xbde77fce	-0.11303674
79	0x3cbabbe9	0.02279468
80	0x3e0b7fb5	0.13622935
81	0x3c1ae56d	0.009454113
82	0x3c6e9189	0.0145610655
83	0x3dd67c64	0.104729444
84	0x3ce93db4	0.028471805
85	0x3da09db4	0.078425795
86	0x3da4f5ea	0.08054717
87	0xbddfa41c	-0.10919973
88	0x3e1b5615	0.15169556
89	0xbd0733f0	-0.033008516
90	0x3e1b2840	0.15152073
91	0xbda63d99	-0.081172176
92	0xbdb110b2	-0.086457625
93	0xbc81688f	-0.015796928
94	0x3ca0c50c	0.01962521
95	0x3c86d3c2	0.016458396
96	0xbd711520	-0.058858037
97	0xbdc1094f	-0.094256036
98	0x3df7196c	0.12065396
99	0xbdb25a52	-0.087086335
100	0xbd3e6dad	-0.046491314
101	0xbd2be072	-0.041962095
102	0x3dbfb0a6	0.09359865
103	0xbcec5c69	-0.028852658
104	0xbd66adbe	-0.056318037
105	0x3e19a3c2	0.15003875
106	0x3d3a2e2e	0.045454197
107	0xbdf7251b	-0.12067624
108	0x3bdb5667	0.0066936496
109	0xbdd4cec3	-0.10390999
110	0x3db98dd1	0.090602525
111	0xbd8521ba	-0.065005735
112	0xbc248485	-0.010041361
113	0xbe074e05	-0.13213356
114	0xbdb8f1b7	-0.090304784
115	0x3d9853b6	0.074378416
116	0x3d95ff58	0.073240936
117	0xbe0f22c3	-0.13978104
118	0x3e0f30f6	0.13983521
119	0xbde398c1	-0.1111312
120	0xbd274c47	-0.040844228
121	0x3e0ee30c	0.13953799
122	0x3b1b0e36	0.0023659593
123	0x3c3599c5	0.011084025
124	0x3de5c4e8	0.112191975
125	0xbdd2fd3c	-0.10302207
126	0x3d6c8226	0.057741307
127	0xbe2c5e30	-0.16832805
128	0xbe3094b2	-0.17244223
129	0xbe12fdb4	-0.14354593
130	0x3e121c48	0.14268601
131	0x3d99a5a7	0.07502299
132	0x3e0b0437	0.13575827
133	0x3d84f856	0.06492679
134	0x3e02a38c	0.127577
135	0x3e12adae	0.14324066
136	0xbd93186b	-0.07182392
137	0x3db58d39	0.08864827
138	0x3de48fc4	0.111602336
139	0x3daf6d40	0.0856576
140	0x3d90c6bf	0.07069158
141	0xbe0406c8	-0.12893212
142	0xbc92221d	-0.017838532
143	0xbd993f78	-0.07482809
144	0x3e2ac3a2	0.1667619
145	0x3dc4c00a	0.09606941
146	0xbbd1ed69	-0.0064064753
147	0xbd906a13	-0.07051482
148	0xbbc444e1	-0.0059896563
149	0x3e38f79d	0.18063207
150	0x3e2684a8	0.16261542
151	0xbe20e287	-0.15711413
152	0xbcd61f3e	-0.026137944
153	0xbe17dc35	-0.14830096
154	0xbd4b74ee	-0.04967206
155	0x3e1fe127	0.15613233
156	0x3ddf08dc	0.10890362
157	0xbe32c568	-0.17458117
158	0xbd92f98d	-0.07176504
159	0xbd982d13	-0.07430472
160	0xbe1553cc	-0.14582747
161	0x3cee5341	0.029092433
162	0xbd9b6ac7	-0.075887255
163	0xbe182c34	-0.14860612
164	0x3d187756	0.037223183
165	0xbc353f3e	-0.011062441
166	0x3df69359	0.12039823
167	0xbd4a3dd0	-0.049375355
168	0x3d786d15	0.060650904
169	0x3e088606	0.13332376
170	0x3c723ec0	0.014785469
171	0xbd9553d2	-0.07291378
172	0xbc4fc590	-0.01268138
173	0xbde844cf	-0.11341249
174	0x3bd0af83	0.006368579
175	0xbd88e2d3	-0.06683888
176	0x3e1a715b	0.15082304
177	0xbe27ff30	-0.1640594
178	0x3ad37e43	0.0016135651
179	0xbdccd540	-0.10001612
180	0x3dc5242a	0.09626038
181	0x3e087286	0.13324937
182	0x3d92860b	0.07154473
183	0x3d5963a8	0.053073555
184	0xbe271b5e	-0.16319034
185	0x3da8bb93	0.08238902
186	0x3a750a4e	0.0009347544
187	0x3d8a97ef	0.0676726
188	0xbc7d3df5	-0.015456666
189	0xbd491cfd	-0.04909991
190	0x3d804752	0.06263603
191	0xbe14beb5	-0.14525874
192	0x3c954867	0.018223
193	0x3d628bdf	0.055309173
194	0xbc8ea951	-0.01741472
195	0x3e131f80	0.14367485
196	0x3dc89dd0	0.09795725
197	0xbe1d80f3	-0.15381221
198	0x3d457aaf	0.048212703
199	0x3c8c8032	0.017150972
200	0xbc2f808f	-0.010711803
201	0xbe1f7738	-0.15572822
202	0xbdd2606b	-0.102722965
203	0x3de10230	0.10986745
204	0xbc869e5f	-0.01643294
205	0x3d985eb5	0.07439939
206	0xbe198c1c	-0.14994854
207	0x3dc2ee70	0.095181346
208	0xbd742ec3	-0.059614908
209	0x3d48c206	0.04901316
210	0xbe11190a	-0.14169708
211	0x3e038fd4	0.12847835
212	0xbb12df60	-0.0022410974
213	0x3e01a8b6	0.12662014
214	0xbe2659c0	-0.16245174
215	0xbe2d2061	-0.16906883
216	0xbbd9e78a	-0.006649916
217	0xbcf56840	-0.029956937
218	0x3e24d327	0.16096173
219	0x3d86189f	0.06547665
220	0x3d7e6554	0.062108353
221	0xbc512d84	-0.012767199
222	0x3be4aba4	0.006978469
223	0xbd0dcd93	-0.03461988
224	0xbdc5ccbe	-0.09658192
225	0x3caf7a3a	0.021420587
226	0x3da21ef1	0.07916058
227	0x3d22206b	0.039581697
228	0xbdf02459	-0.11725683
229	0xbe0da2f0	-0.13831687
230	0x3d9e8d8f	0.07741844
231	0xbd98db4d	-0.07463703
232	0x3da9245e	0.082588896
233	0xbd5d1e4d	-0.053983975
234	0xbd1d1e64	-0.03835906
235	0xbe0a903b	-0.13531582
236	0x3da71c9c	0.08159754
237	0x3de42997	0.11140745
238	0xbe2e54de	-0.17024562
239	0x3db01540	0.08597803
240	0xbcb4bcf8	-0.022062764
241	0xbdbe87bf	-0.09303235
242	0x3b89fafe	0.004210829
243	0xbdd0736b	-0.10178264
244	0x3d0bb32e	0.034106426
245	0x3c4316c2	0.011907281
246	0x3dae2220	0.085026026
247	0x3d347aab	0.044062298
248	0x3dc80555	0.09766642
249	0xbd43ee92	-0.04783494
250	0x3e01ac1f	0.12663315
251	0x3d0018c8	0.031273633
252	0x3de5d259	0.11221761
253	0xbe32488a	-0.17410484
254	0xbe2036a7	-0.15645848
255	0xbe065876	-0.13119683

embed.embedding_net.lin1_2.bias f4 [32]
0	0xbdda5233	-0.106602095
1	0xbd1567e2	-0.036476023
2	0x3d37a9d5	0.0448397
3	0x3dd8eb21	0.10591722
4	0x3d80bcd2	0.062860146
5	0xbbcfc119	-0.0063401577
6	0xbdbfaeac	-0.09359488
7	0xbdbb1808	-0.09135443
8	0xbe194b96	-0.1497024
9	0xbddec1bb	-0.10876795
10	0xbc27f1b5	-0.010250499
11	0x3e0ad8f0	0.13559318
12	0x3dd8cfe5	0.10586528
13	0xbd6bbbd4	-0.057552174
14	0x3df00918	0.117204845
15	0x3e284dfb	0.16435997
16	0x3d4eb93b	0.05046962
17	0x3d386482	0.045017727
18	0x3dca8def	0.09890353
19	0xbc948e2b	-0.018134197
20	0xbdc3c1fa	-0.095584825
21	0x3d9379c8	0.07200962
22	0x3da28d49	0.07937104
23	0x3de55853	0.11198487
24	0x3ca8edf0	0.02062127
25	0x3e3734a4	0.17891175
26	0x3e1c4e07	0.1526414
27	0xbd2746b3	-0.04083891
28	0xbcbf2308	-0.023332134
29	0x3cc87a35	0.024472335
30	0x3dd33fee	0.10314928
31	0xbcce2dc6	-0.02516831

embed.embedding_net.conv1.nn.0.weight f4 [32, 32]
0	0xbdd0cb3d	-0.101950146
1	0x3d895313	0.06705298
2	0xbe127e26	-0.14305934
3	0xbdcb5b41	-0.09929515
4	0x3db4c276	0.08826153
5	0xbde59a4e	-0.11211072
6	0x3e0a5af8	0.13511264
7	0x3ddc6dea	0.10763152
8	0x3d81d550	0.06339514
9	0x3d993315	0.07480446
10	0x3e14ecf0	0.1454351
11	0xbdfc0f29	-0.12307579
12	0xbddd9a12	-0.10820402
13	0xbe0f27be	-0.13980004
14	0xbdf55279	-0.11978621
15	0xbcdf4c31	-0.02725801
16	0x3d9e9daf	0.077449195
17	0xbe306e57	-0.17229591
18	0xbd5bce5d	-0.0536636
19	0x3dd27688	0.10276514
20	0xbe1feb8c	-0.15617198
21	0xbdf46edc	-0.11935207
22	0x3d888071	0.06665123
23	0x3c7f7821	0.015592606
24	0x3d348f0a	0.044081725
25	0xbcadb937	-0.021206481
26	0x3dc885b5	0.097911276
27	0xbcd3aa63	-0.025838083
28	0x3e1e58ca	0.15463558
29	0x3ca11442	0.01966298
30	0xbe0f644e	-0.14003107
31	0xbdefa9ff	-0.11702346
32	0x3e2ab4e0	0.16670561
33	0xbe1c6535	-0.15272982
34	0x3e25b37e	0.16181752
35	0xbdb3ab91	-0.08772958
36	0x3df7d2bb	0.121007405
37	0xbcb0d8db	-0.02158778
38	0xbd707b36	-0.058711253
39	0x3d4bd9b1	0.049768154
40	0xbdeda17b	-0.116030656
41	0x3e20e2c8	0.1571151
42	0xbd5d4ef5	-0.054030377
43	0x3b7ec7a1	0.0038876312
44	0x3dcb28e9	0.09919912
45	0xbcc9edd6	-0.024649542
46	0x3d87e36a	0.06635173
47	0x3d8f055c	0.06983444
48	0x3e1f7c41	0.15574743
49	0xbd6cbdce	-0.0577982
50	0xbe0c51f9	-0.13703145
51	0xbcc5af6f	-0.024131505
52	0xbd756f81	-0.05992079
53	0xbd261e97	-0.040556516
54	0xbe1b67cd	-0.15176316
55	0xbdc413ec	-0.09574112
56	0x3e028d53	0.12749223
57	0xbc2d424f	-0.010574891
58	0x3dbd32f3	0.092382334
59	0x3d1fb16f	0.038987573
60	0xbc433ece	-0.011916829
61	0x3d5dd9bb	0.054162722
62	0x3e0dcafc	0.13846964
63	0xbdbc37b8	-0.09190315
64	0x3e0132b6	0.12617001
65	0xbd0f9dcf	-0.035062607
66	0x3de3c117	0.11120813
67	0x3df63161	0.12021137
68	0xbe0d461d	-0.13796277
69	0xbe05c51c	-0.13063473
70	0xbbee01ca	-0.007263397
71	0xbbe58821	-0.007004753
72	0x3e0a0509	0.13478483
73	0x3e330378	0.17481792
74	0xbe13885b	-0.14407484
75	0xbcc2ec13	-0.02379421
76	0x3b38403f	0.0028114466
77	0x3d86a50e	0.065744504
78	0x3da6d3c4	0.0814586
79	0x3d84ec08	0.06490332
80	0x3e1101d5	0.14160855
81	0xbe1894f5	-0.14900573
82	0xbdd5a11e	-0.10431121
83	0xbd6b8b6a	-0.057506002
84	0xbdc13ac5	-0.094350375
85	0xbcbc947b	-0.02302002
86	0xbde3faf4	-0.1113185
87	0x3db22c65	0.08699874
88	0x3dae3584	0.08506301
89	0x3d91e7b9	0.07124276
90	0xbdafa2f6	-0.08576004
91	0x3e1e52ab	0.15461223
92	0xbe34e4e5	-0.17665441
93	0x3c9b77c6	0.01897801
94	0xbdec2b0e	-0.115316495
95	0xbd738bea	-0.059459604
96	0xbd377e36	-0.0447981
97	0x3d7dc3a4	0.061954156
98	0xbe10e878	-0.1415118
99	0x3d2aae14	0.04166992
100	0xbd8e542f	-0.069496505
101	0x3b41f403	0.0029594905
102	0xbd028f85	-0.031875152
103	0xbd261572	-0.040547796
104	0xbd641786	-0.055686496
105	0x3e364e26	0.17803249
106	0xbe2160c0	-0.15759563
107	0xbe1f67f7	-0.15567003
108	0x3e28e478	0.16493404
109	0xbde02838	-0.10945171
110	0xbcdfc120	-0.027313769
111	0x3e2c0f95	0.16802819
112	0xbd8eeb22	-0.06978442
113	0x3dc085ad	0.09400497
114	0x3e037dd3	0.12840967
115	0xbc99668c	-0.018725656
116	0xbe0e7a81	-0.13913919
117	0x3d4f577e	0.05062055
118	0x3ced9c1f	0.029005108
119	0x3d2ba296	0.0419031
120	0x3d677f83	0.05651809
121	0x3e14c3e4	0.14527851
122	0x3e31b127	0.17352735
123	0x3c7c4775	0.015397896
124	0x3e3d3a3d	0.18479247
125	0xbd14efa0	-0.036361337
126	0x3d42b059	0.04753146
127	0xbdcd37b2	-0.10020389
128	0xbdd3b649	-0.103375025
129	0xbda96837	-0.082718305
130	0x3e1836a7	0.14864598
131	0x3cf10206	0.02941991
132	0xbdf36e09	-0.11886222
133	0xbd867904	-0.06566051
134	0xbddda24a	-0.1082197
135	0x3e2be17d	0.16785236
136	0xbe32c1d8	-0.17456758
137	0x3d9e88ed	0.0774096
138	0xbe20ef51	-0.15716292
139	0x3d83ae0d	0.06429682
140	0x3df7a993	0.120928906
141	0xbe1c39cc	-0.15256423
142	0x3b33b353	0.0027420118
143	0x3ce380e1	0.027771415
144	0xbe2fec0b	-0.17179887
145	0xbdbacf31	-0.0912155
146	0x3d3716c2	0.044699438
147	0x3d580bd0	0.05274564
148	0xbde99b68	-0.114065945
149	0x3e1aa710	0.15102792
150	0x3dff335b	0.12460967
151	0x3e29d6cc	0.16585845
152	0xbda533ee	-0.080665454
153	0xbe0370e5	-0.12836035
154	0xbdb6ed02	-0.089319244
155	0xbe0269bb	-0.12735645
156	0x3d9baf84	0.07601836
157	0x3c825249	0.015908377
158	0x3e15c3f3	0.1462553
159	0xbd387658	-0.045034736
160	0xbd93167b	-0.07182022
161	0x3d89ce45	0.06728796
162	0x3db91c89	0.09038646
163	0xbbb01061	-0.0053730463
164	0xbbfab0ee	-0.007650486
165	0xbd4fac13	-0.050701212
166	0x3ce8fe6c	0.02844163
167	0x3d887fb7	0.06664985
168	0x3d591229	0.052995834
169	0xbe0df232	-0.13861921
170	0xbe069dfb	-0.13146202
171	0xbde127d7	-0.10993927
172	0xbc7d2e7d	-0.015452978
173	0xbdc866e9	-0.097852536
174	0xbe22c858	-0.15896738
175	0x3e2138e6	0.15744361
176	0x3e035b35	0.12827761
177	0x3d170ca6	0.036877297
178	0xbb3cd8fa	-0.0028815852
179	0xbdf1ebe0	-0.11812568
180	0xbe224fff	-0.15850829
181	0xbdae0df6	-0.084987566
182	0xbe1b684e	-0.15176508
183	0x3df34059	0.11877508
184	0x3e08e2db	0.13367788
185	0xbda10c6d	-0.07863698
186	0xbe312d99	-0.1730255
187	0xbe2a2b4d	-0.1661808
188	0x3e26d8cf	0.16293643
189	0xbe1fd349	-0.15607943
190	0xbe1ae740	-0.15127277
191	0x3e2dc3c5	0.16969211
192	0xbe2be6fb	-0.16787331
193	0x3d554b27	0.052073624
194	0xbdc8f81c	-0.09812948
195	0xbd5b4fe4	-0.053542987
196	0xbdf0abbf	-0.11751508
197	0x3d537749	0.05162743
198	0x3d5d0f6f	0.053969797
199	0x3d2a45d5	0.041570503
200	0xbdbb67f5	-0.091506876
201	0xbe1adbcd	-0.1512291
202	0x3e01ef83	0.12689023
203	0xbdb6e0c5	-0.0892959
204	0xbdffef07	-0.12496763
205	0x3e20dba6	0.15708789
206	0x3e0a8fe4	0.13531452
207	0xbd25755c	-0.040395126
208	0xbe2cf4f6	-0.1689032
209	0xbdee6f8b	-0.11642369
210	0x3e348131	0.17627408
211	0xbe284e7f	-0.16436194
212	0xbcfd9775	-0.03095601
213	0x3dfcb202	0.1233864
214	0x3dbda08f	0.0925914
215	0xbd748954	-0.05970128
216	0x3d5c337f	0.053760048
217	0x3dfca194	0.12335506
218	0x3ca7e307	0.020493997
219	0xbd1c9dad	-0.03823631
220	0x3c5cd093	0.013477462
221	0x3deb8d0d	0.11501513
222	0xbcb21f96	-0.021743577
223	0x3d8d0307	0.06885343
224	0xbdebbc0d	-0.11510477
225	0xbe0a4f73	-0.1350687
226	0x3d5c3085	0.05375721
227	0xbe25552a	-0.16145769
228	0x3d372f05	0.044722576
229	0xbe149d68	-0.1451317
230	0xbe22eac8	-0.15909874
231	0xbddcc30d	-0.107793905
232	0xbd2f8b25	-0.042857308
233	0x3d5fbce8	0.054623514
234	0x3c04f23b	0.008114393
235	0xba83bd50	-0.0010050926
236	0x3c923be7	0.01785083
237	0xbc088d3d	-0.008334455
238	0x3dc59fb1	0.09649599
239	0x3bd2876c	0.006424835
240	0x3d028583	0.031865608
241	0x3e22aa5b	0.15885298
242	0xbd000b0d	-0.03126054
243	0xbcad6b02	-0.02116919
244	0x3d683f51	0.05670101
245	0xbdb1ec29	-0.08687622
246	0xbda6c96e	-0.081438884
247	0xbba5e2ee	-0.0050624525
248	0x3d2374e3	0.039906394
249	0xbe0f66f7	-0.14004122
250	0x3c0378f1	0.00802444
251	0x3d3b1c0e	0.045681052
252	0x3da5a2d0	0.08087695
253	0x3da07657	0.078350715
254	0xbd2f8cec	-0.042859003
255	0xbcd0f982	-0.0255096

embed.embedding_net.conv1.nn.0.bias f4 [32]
0	0x3dd96fa8	0.10617
1	0xbe0ec4af	-0.13942216
2	0xbe0f3c54	-0.13987857
3	0xbd0d4dfa	-0.034498192
4	0x3d836a01	0.06416703
5	0xbd5fe25d	-0.054659236
6	0xbdaab302	-0.08334924
7	0x3dacd109	0.08438308
8	0x3dd3622b	0.103214584
9	0xbe218e6f	-0.1577699
10	0x3e0a7a09	0.13523115
11	0xbe2b7212	-0.16742733
12	0xbd7e1562	-0.06203211
13	0xbe272ab0	-0.16324878
14	0xbe2acb13	-0.16679029
15	0x3cf4d37e	0.029886004
16	0x3dc11f88	0.09429842
17	0xbda7c181	-0.08191205
18	0x3d916fa7	0.07101374
19	0xbdd717d1	-0.105025895
20	0xbdaf0e24	-0.08547619
21	0x3e045e51	0.12926604
22	0xbd3d2df0	-0.046186388
23	0x3da2e7d6	0.079543754
24	0x3e089ed1	0.13341834
25	0xbd91234a	-0.07086809
26	0x3d8691e8	0.06570798
27	0x3dbe5d0a	0.092950895
28	0x3d466092	0.04843194
29	0x3daa4db4	0.08315602
30	0x3db267d2	0.087112084
31	0x3e29db4f	0.16587566

embed.embedding_net.conv1.nn.2.weight f4 [32, 32]
0	0xbdd858e4	-0.105638295
1	0xbc847bb1	-0.016172262
2	0x3dc51434	0.09622994
3	0xbdc727db	-0.09724399
4	0x3dfc67df	0.12324499
5	0xbcb9d7c3	-0.022685891
6	0x3d93fb1e	0.07225631
7	0x3e3c2e4b	0.18377034
8	0xbdd4338e	-0.10361396
9	0x3ca1b8e9	0.019741492
10	0x3d04ef45	0.032454748
11	0xbdd108d9	-0.10206766
12	0xbd8e4a5f	-0.06947779
13	0xbdc70697	-0.09718054
14	0xbd4a5683	-0.04939891
15	0x3c93ec7f	0.018057106
16	0xbdbbdc6d	-0.09172902
17	0x3d83df81	0.06439114
18	0xbd9cf030	-0.07663
19	0x3e3c1f9b	0.18371432
20	0xbe18bbd1	-0.14915396
21	0x3e04186b	0.1289994
22	0xbd4d38bb	-0.05010293
23	0xbd8cf675	-0.068829454
24	0xbce7c00a	-0.028289814
25	0xbd78105a	-0.06056247
26	0x3df16bf1	0.11788166
27	0xbde12831	-0.10993994
28	0xbe3e5b66	-0.18589553
29	0x3e0e4898	0.1389488
30	0xbd685266	-0.056719206
31	0xbd18ce7e	-0.0373063
32	0xbb04a344	-0.0020238915
33	0xbda2dba0	-0.079520464
34	0x3e1cb3a4	0.15302902
35	0x3dbe92d5	0.0930535
36	0xbe019e90	-0.12658143
37	0x3df5e98b	0.120074354
38	0xbe1cdac3	-0.15317826
39	0xbdd7cde8	-0.105373204
40	0x3e2aafe3	0.16668658
41	0xbe248c53	-0.16069154
42	0x3d4d046e	0.050053053
43	0xbdcc8694	-0.09986606
44	0xbdfc7836	-0.12327616
45	0x3defc214	0.11706939
46	0xbd1e3853	-0.038627934
47	0xbcf90a2a	-0.030400354
48	0x3cd9103f	0.026497005
49	0x3d9ca810	0.07649243
50	0x3db0d2ab	0.08633932
51	0xbde79d84	-0.113093406
52	0xbd9e5af5	-0.077321924
53	0x3e186e04	0.14885718
54	0xbe093a3d	-0.13401122
55	0x3de6e17f	0.11273479
56	0xbdea31db	-0.114352904
57	0xbd6bb69a	-0.05754719
58	0xbd7fd3d0	-0.06245786
59	0x3e3506bf	0.17678355
60	0xbe3e6de1	-0.18596603
61	0xbe29a780	-0.16567802
62	0x3e1965e3	0.14980273
63	0xbde47039	-0.11154217
64	0xbe238895	-0.1597007
65	0x3e255e6e	0.16149303
66	0xbdcee2ef	-0.10101878
67	0xbcb2e3f4	-0.021837212
68	0xbcf57233	-0.029961681
69	0xbdb572f6	-0.08859818
70	0x3e2105b4	0.15724832
71	0xbd871492	-0.0659572
72	0xbd9b9406	-0.075965926
73	0x3cc29b9c	0.023755841
74	0x3d842b42	0.06453563
75	0xbab10aa6	-0.0013507202
76	0x3e09d176	0.1345881
77	0x3dd1770c	0.102277845
78	0x3daabdb7	0.083369665
79	0xbdcc7958	-0.09984082
80	0x3c566513	0.013085621
81	0x3d5249e4	0.05134
82	0xbe09ffe9	-0.13476528
83	0x3e04e6e3	0.12978701
84	0x3d6350e2	0.055497058
85	0x3d247ac7	0.040156152
86	0xbd6a3274	-0.057177022
87	0x3d2966af	0.041357692
88	0xbd5b84ac	-0.053593323
89	0xbc5a5bab	-0.013327519
90	0xbd297a8b	-0.04137663
91	0x3e00588a	0.12533775
92	0x3de3908b	0.11111554
93	0x3e2688b3	0.16263084
94	0xbe2a8f5c	-0.1665625
95	0x3da8b8d7	0.082383804
96	0x3ca15b69	0.019696908
97	0xbe1100a8	-0.14160407
98	0xbe287068	-0.1644913
99	0x3d711b07	0.058863666
100	0x3dda1c51	0.10649932
101	0x3e332e17	0.1749805
102	0x3d5b84f8	0.053593606
103	0xbd8b5881	-0.0680399
104	0x3e033b08	0.12815487
105	0x3d5f398b	0.054498237
106	0xbe2c3139	-0.16815652
107	0xbe1c67c6	-0.15273961
108	0xbda956f7	-0.0826854
109	0xbdcf15ab	-0.10111555
110	0x3da47d02	0.08031656
111	0xbe1c1ef3	-0.15246181
112	0x3e152bf5	0.1456755
113	0xbdf1f05b	-0.11813422
114	0xbd288bcc	-0.041148946
115	0x3d3a8b54	0.04554303
116	0xbe03a6e6	-0.12856635
117	0xbe046d56	-0.12932333
118	0x3e119316	0.14216265
119	0xbdf1ad59	-0.118006416
120	0x3b09cbc6	0.0021026
121	0x3dfb7f94	0.12280193
122	0xbd116f08	-0.03550628
123	0x3d5ee39d	0.054416288
124	0xbe044c35	-0.12919696
125	0x3d283e7c	0.041075215
126	0x3e0ac7d6	0.13552794
127	0x3e21d6c2	0.1580458
128	0x3e160b8f	0.14652847
129	0xbe26b271	-0.16279007
130	0xbe1bda05	-0.15219887
131	0xbe1ca369	-0.15296711
132	0x3dd7a83c	0.10530135
133	0x3c3c7d2d	0.011504454
134	0x3d29c60f	0.04144865
135	0xbdf67e82	-0.12035848
136	0x3e0d04a8	0.13771307
137	0xbe038623	-0.12844138
138	0x3e3625d7	0.17787872
139	0xbe456ca2	-0.19279721
140	0xbd168798	-0.036750406
141	0x3e1a0a8d	0.15043087
142	0x3e2bf8d2	0.16794136
143	0xbe1cad01	-0.15300371
144	0xbe383c34	-0.17991716
145	0x3d2c0d36	0.042004786
146	0x3de21213	0.11038604
147	0x3d565733	0.052329253
148	0xbe0ca748	-0.13735688
149	0x3e06dbb0	0.13169742
150	0xbbeda6bf	-0.0072525437
151	0xbd283b52	-0.041072197
152	0xbdb7e7c5	-0.089797534
153	0xbdf553bf	-0.11978864
154	0x3cbada16	0.02280907
155	0x3d35991d	0.044335473
156	0x3df4e4b3	0.119576834
157	0xbd809a67	-0.0627945
158	0x3db78fd2	0.089629784
159	0xbddd771c	-0.10813734
160	0xbd01bb26	-0.03167262
161	0x3d84882c	0.06471285
162	0x3e328df1	0.17436959
163	0x3e1678c2	0.14694503
164	0x3cf02f8e	0.02931955
165	0xbde28a18	-0.110614955
166	0xbc9989a0	-0.018742383
167	0x3dcbadc5	0.09945253
168	0xbdcb217d	-0.09918497
169	0x3d9d6c0c	0.07686624
170	0xbe1d4cea	-0.15361372
171	0x3dc74561	0.0973003
172	0x3e1099bc	0.14121145
173	0xbd5a03d7	-0.05322632
174	0xbcd2ea5e	-0.02574652
175	0xbe065184	-0.13117033
176	0xbd53bf23	-0.051695954
177	0xbd8332b0	-0.06406152
178	0xbda21b7f	-0.07915401
179	0xbce2ad2e	-0.02767047
180	0xbda8a5e6	-0.082347676
181	0xbce4e930	-0.027943224
182	0xbbf8980e	-0.0075864857
183	0x3d2daa0f	0.04239851
184	0x3e1e3381	0.15449335
185	0xbd9f254a	-0.07770784
186	0xba5d4713	-0.0008441072
187	0xbd9ef0e0	-0.07760787
188	0x3d670d60	0.05640924
189	0x3dbb0b38	0.09132999
190	0xbc0f2723	-0.008737358
191	0x3d9a07af	0.07520997
192	0xbd8fe254	-0.070255905
193	0x3d960990	0.07326043
194	0xbd41e353	-0.047335934
195	0xbe2b6ac4	-0.16739947
196	0x3dcf0eb5	0.10110227
197	0x3e1f772f	0.15572809
198	0xbd3f4e48	-0.046705514
199	0x3cf15bf5	0.029462794
200	0xbe16b888	-0.1471883
201	0x3db80b42	0.08986522
202	0xbd67a2e6	-0.056551836
203	0x3dd6f7a3	0.10496452
204	0xbe36d605	-0.1785508
205	0x3db95c08	0.09050757
206	0x3d54751e	0.051869504
207	0x3d273779	0.040824387
208	0xbd9d74c2	-0.076882854
209	0x3dba5eb1	0.09100092
210	0xbdb8bedb	-0.09020778
211	0x3de24d38	0.110498846
212	0xbd9fa91b	-0.07795926
213	0x3db452ce	0.08804856
214	0x3dee1a8f	0.116261594
215	0x3bc307fe	0.0059518805
216	0xbdea4338	-0.11438602
217	0xbd275257	-0.04085001
218	0x3ddfe331	0.10932005
219	0xbdcc4354	-0.09973779
220	0xbe0cc6a8	-0.13747656
221	0x3e1aca9c	0.15116352
222	0xbd972f05	-0.07382015
223	0x3ddc94df	0.107705824
224	0x3de592cb	0.11209639
225	0xbe4079e7	-0.18796502
226	0xbd805b71	-0.06267441
227	0xbe14b678	-0.14522731
228	0x3e2a3dc3	0.16625123
229	0xbe03bf00	-0.1286583
230	0x3dab675e	0.08369325
231	0xbe0fc15d	-0.14038606
232	0xbc104597	-0.008805654
233	0x3e2b83d4	0.16749507
234	0xbe1f4abb	-0.15555851
235	0xbe10d7ed	-0.14144869
236	0xbd5a75d1	-0.053335015
237	0xbd24347d	-0.04008912
238	0x3df9e4f8	0.122018754
239	0x3cd62448	0.026140347
240	0xbe2b2c3f	-0.16716097
241	0x3c1d3049	0.009594032
242	0x3dbefbee	0.093253955
243	0x3e1039fd	0.14084621
244	0xbdd0c8b2	-0.101945296
245	0xbe0e9f17	-0.13927875
246	0x3d4e521f	0.050371286
247	0xbcd01307	-0.025399698
248	0x3d8c7da9	0.06859905
249	0xbbae9b4d	-0.005328572
250	0xbb991657	-0.0046718526
251	0xbdb0715f	-0.08615374
252	0x3d13a0e8	0.036042124
253	0xbd3c0a97	-0.045908537
254	0x3e309a10	0.1724627
255	0xbdf76497	-0.12079733

embed.embedding_net.conv1.nn.2.bias f4 [32]
0	0xbda96532	-0.082712546
1	0x3d9bc770	0.07606399
2	0xbcf03314	-0.029321231
3	0x3e0b7544	0.13618952
4	0xbd0489ea	-0.032358088
5	0x3e02c0a8	0.12768805
6	0xbe1d4ff9	-0.15362538
7	0xbdb30ed4	-0.087430626
8	0xbdb680ff	-0.08911323
9	0xbdaa3703	-0.08311274
10	0xbd6485ec	-0.05579178
11	0x3ddd35c9	0.10801274
12	0xbe2afa33	-0.16697006
13	0x3e26fdbb	0.16307728
14	0x3dd95aab	0.10612997
15	0x3e00ef1f	0.12591217
16	0x3dbe65ed	0.092967845
17	0xbe111933	-0.14169769
18	0x3c4380a7	0.011932529
19	0x3d540be0	0.051769137
20	0x3d9ac3a5	0.075568475
21	0x3dfa2a61	0.122151144
22	0x3e2cc88e	0.1687338
23	0x3d3b1b7f	0.04568052
24	0x3e016d3b	0.12639324
25	0xbd90ea7a	-0.07075973
26	0xbdbb0999	-0.0913269
27	0x3dd45289	0.10367305
28	0xbd7321f5	-0.059358556
29	0xbe1e87d2	-0.15481499
30	0x3d8ccd88	0.068751395
31	0xbde4cd97	-0.11172026

embed.embedding_net.bn1.weight f4 [32]
0	0x3f810d40	1.0082169
1	0x3f81155b	1.0084642
2	0x3f81f5bc	1.0153117
3	0x3f7e5b7e	0.99358356
4	0x3f83b26e	1.0288827
5	0x3f7fa803	0.9986574
6	0x3f81e408	1.0147715
7	0x3f7f29ac	0.9967296
8	0x3f8081f4	1.0039659
9	0x3f7fef7c	0.999748
10	0x3f812cbe	1.0091779
11	0x3f80a1c2	1.0049365
12	0x3f802375	1.0010821
13	0x3f7e290d	0.9928139
14	0x3f80db03	1.0066837
15	0x3f80bee3	1.0058254
16	0x3f7bcbd2	0.9835788
17	0x3f80323e	1.0015333
18	0x3f7fcf46	0.9992565
19	0x3f7de224	0.9917319
20	0x3f813f2c	1.0097404
21	0x3f816246	1.0108116
22	0x3f8108bd	1.0080792
23	0x3f814521	1.0099221
24	0x3f81b0fe	1.0132139
25	0x3f840cdc	1.0316424
26	0x3f7e857f	0.9942245
27	0x3f822746	1.0168235
28	0x3f801890	1.0007496
29	0x3f830ce8	1.0238314
30	0x3f819db8	1.0126257
31	0x3f811169	1.0083438

embed.embedding_net.bn1.bias f4 [32]
0	0x3be50c4d	0.0069899918
1	0x3ab63fbd	0.0013904494
2	0x3c988f4e	0.01862302
3	0xbc017d9f	-0.007903486
4	0x3cace524	0.021105357
5	0xbb0ee186	-0.0021801903
6	0x3bf4fa5d	0.0074761347
7	0xbb923268	-0.0044615753
8	0x3b05d647	0.0020421909
9	0xbb8c1249	-0.0042746407
10	0x3b11670b	0.0022186663
11	0x3a41fc28	0.000739994
12	0x3a234b7a	0.00062292034
13	0xbc1d5d75	-0.009604801
14	0x3bf5c8b7	0.0075007337
15	0x3b4eaceb	0.0031536173
16	0xbba8535e	-0.0051368913
17	0xbb96a2b6	-0.0045970334
18	0x3b13b0db	0.0022535834
19	0xbc9821e6	-0.018570852
20	0xbb2904d2	-0.0025790227
21	0x3c517412	0.012784021
22	0xbc2678b9	-0.010160618
23	0x3ca27c8e	0.019834783
24	0x3c99a59c	0.018755727
25	0x3cb74469	0.022371488
26	0xbbb46087	-0.005504671
27	0x3c5764a7	0.013146556
28	0x3b07b8b4	0.0020709457
29	0x3c9a718e	0.018852975
30	0x3c0324e4	0.008004401
31	0x3bc9ecda	0.006162268

embed.embedding_net.bn1.running_mean f4 [32]
0	0xbd7d4739	-0.0618355
1	0x3de71dee	0.112850055
2	0xbc84bc57	-0.016203089
3	0x3d1fef9c	0.03904687
4	0x3c93182c	0.017955862
5	0x3df48f8f	0.11941444
6	0xbe5ff882	-0.21872142
7	0xbe32de74	-0.17467672
8	0xbd2b69ff	-0.041849133
9	0xbe32cb93	-0.1746047
10	0xbe988b89	-0.29793957
11	0x3e00b542	0.12569144
12	0xbe92ed2f	-0.28696582
13	0x3e7e0a48	0.2480861
14	0x3ca0e12c	0.01963862
15	0x3cc0df35	0.023543933
16	0x3e296212	0.16541317
17	0xbd87bcf7	-0.06627839
18	0x3e6ab1ce	0.2291939
19	0x3e05308e	0.13006803
20	0x3daad0d3	0.08340611
21	0x3e1a5182	0.15070155
22	0x3d5f9452	0.05458481
23	0x3c12d109	0.008960971
24	0x3e074af0	0.1321218
25	0xbddbba70	-0.107289195
26	0xbe096c98	-0.13420331
27	0x3d4ec5d5	0.050481636
28	0x3d1426d3	0.03616984
29	0xbdcc4cd7	-0.099755935
30	0x3e449ff2	0.1920164
31	0xbda8dd5e	-0.082453474
