trained_managers/100_150_5_MH_gin_32_minmax.pth (torch, 271880 bytes, 74 tensors)

key_policy.weight f4 [64, 32]
00000000: f8a3 713c bc1f a33b e2ea 293e cd07 153d
00000010: d0d2 bbbd 2be4 e8bc 6611 7a3d e552 a53d
00000020: 4fc0 c23b d527 05be d35a 75bd bb50 e7bc
00000030: 76fb fe3c 1814 b73d 051e e0bd 74eb a03d
00000040: 1f8f f43d 7310 013d d16a 37bd 8080 cebd
00000050: 38e8 fdbd 1a84 b7bd 9e34 32bd 1b8e d43d
00000060: 9d87 f53c ed34 32bd aa16 f4bd eda3 df3d
00000070: 3a8e d9bd 4959 aabc f4a9 99ba 19af 31be
00000080: 5860 053e 517a 0fbe 5311 bb3d eef2 843d
00000090: d4fa 78bd c652 d3bd 60fc 093e e1b8 b0bd
000000a0: ed7a 113e afd2 afba 3820 313e 3072 003e
000000b0: f31d 5ebd b178 f7bc 4ae2 eb3b 1cd5 ee3d
000000c0: 1085 8e3c 09ba bbbd e836 e038 e3b7 99bc
000000d0: 49a9 1b3e ac3e 933d fe77 eebd 77eb 03be
000000e0: b334 e7bd 02ec df3d 9b84 4c3c fa89 97bd
000000f0: 114b 3b3d 4bea 013e 9f06 9c3b 7bcc 603d
00000100: c6a8 e3bc 96e9 613d aa39 f33d 7122 2dbd
00000110: cc9c 81bd 200f 85bd e6c5 533d a204 cabd
00000120: 40b5 233e fe82 c53d e8b8 1cbe 260b 75bd
00000130: ebc0 1a3e ff88 94bd 31d5 2bbe 85b3 d93d
00000140: 635c 15be 523f 56bd 9f37 64bd f899 bdbd
00000150: 07a5 213e f1cf ad3d 612a 81bd 5102 a7bc
00000160: 47b1 45bd fec1 4abd ea68 823d 1b41 08bd
00000170: 7f4e 2b3d 45f9 52bd d25e 1abe 7570 2b3e
00000180: ca25 393e 38f3 bdbd e477 63bd bb84 cbbd
00000190: 8d97 d03d e4db ab3d ca6a 803d 12cb 32bd
000001a0: b7c0 403c ecf0 ef3d a049 463d b2b4 343e
000001b0: 689a b53d 91ed ffbd 364a 13be 3535 ec3d
000001c0: 4001 e2bc e31b 9ebd 098d b33d c75a 57bd
000001d0: 67ac 02be f831 94bd 4a89 adbc d1b1 56bd
000001e0: ca05 193d 98c5 4dbd f1a1 313e 5a89 853d
000001f0: 01c9 bdbd 9b17 cebd c909 9dbd c4e5 e83d
00000200: de6e 9abd ba98 bb3c 5e44 043e f268 6ebd
00000210: 2bcb 9ebc cb08 c3bd d8cb 1d3e 53d5 2f3d
00000220: 23d6 bebc a797 93bd 55c3 173e 35cf be3d
00000230: 6653 3f3d 9ff8 b43d add7 1c3e 91a9 7b3d
00000240: a126 23be bd74 95bd 1bcd 78bd bbea 403e
00000250: 1ce3 9f3d 0cbf dbbd d965 b13d 4abf c1bd
00000260: 3e60 353e 7427 33bd 6f3b 6d3d cef6 cc3d
00000270: 408d ec3d ee17 54bd 323f 173e 1697 a23c
00000280: 9214 f9bc f2fa 29be 116a ff3c a7e1 093c
00000290: 6f23 d2bc f224 69bd 4830 1c3e 5ae9 53bd
000002a0: 2e82 92bd 4347 62bd 3ad8 42bd ff15 c2bd
000002b0: 8874 333e 5fe6 283e 82e9 ddbd 8d8c ccbd
000002c0: c4d3 ee3c a634 613d 7404 93bd b5d2 2ebe
000002d0: d4ce 2c3e 3f96 0bbd a4e7 fb3d 7bf7 9ebd
000002e0: 976f 77bd 0534 a63d 88d8 5f3c 0df1 d1bc
000002f0: cc3a 36bd 75c8 db3d d0e2 ae3d 9e4f 9e3c
00000300: f62c 1c3e f5ee 993c b50b 303e 420b 7dbc
00000310: 7d52 293e cb26 273d 8806 00be 633f aabd
00000320: e6c9 2ebe b890 903d 5ee3 ad3d b221 2d3e
00000330: 9b9f ffbd 22df c0bc 4818 1bbe dbb7 eb3d
00000340: 1c95 8dbc bbe0 c2bd d9f7 c3bc b53d 863d
00000350: 0b04 173e ec55 74bd 1933 ed39 2bf9 edbd
00000360: 2b04 493d dc5d de3c cb6f 8e3d 529e e53d
00000370: ca67 9f3d 7730 353d e495 1bbe 0ac8 8cbc
00000380: 2528 d0bd c601 1f3c 3adb c5bd 683a 6d37
00000390: fa60 0fbe 0f12 f33d cb61 bebd 6c00 bebd
000003a0: a87b 243e 39e3 0a3d d2a1 13be d071 f3bd
000003b0: 00ec 6cbc 8b0a 35be 0a2f d23d 90ae ab3d
000003c0: 754a 1bbe 39bc fe3c 38aa 0d3e 67b5 bfbd
000003d0: 505c 1bbe 5f91 88bd 748d 08be 8c13 263d
000003e0: a265 5ebd 10d2 20be e2e5 f6bd cb68 153e
000003f0: d4b5 f0bd 5950 563d a242 a3bd 1f7d a3bd
0.014748566 0.0049781483 0.16593507 0.036384393 -0.09171069 -0.028429111 0.06105175 0.080724515
0.005943335 -0.13003476 -0.05990107 -0.028236737 0.031125765 0.089393795 -0.10943226 0.07857409
0.11941361 0.031509828 -0.044779602 -0.10083103 -0.12397808 -0.08960743 -0.04350721 0.10378667
0.029971892 -0.043507505 -0.11918385 0.10919938 -0.10622831 -0.020794528 -0.0011723624 -0.1735195
0.13025033 -0.14011504 0.09134164 0.06491648 -0.060786083 -0.10318522 0.1347518 -0.08629013
0.14207049 -0.0013414229 0.17297447 0.12543559 -0.05422778 -0.030208917 0.0071986066 0.11661741
0.017397434 -0.09166343 0.000106913794 -0.018764442 0.15201296 0.07189688 -0.116439804 -0.12882791
-0.112893485 0.10933687 0.0124827875 -0.07399364 0.045725886 0.12687032 0.0047615315 0.054882508
-0.027790438 0.055154406 0.11876233 -0.042269174 -0.06328735 -0.064970255 0.051702403 -0.09864165
0.1598711 0.096441254 -0.15304911 -0.059825085 0.15112655 -0.072526924 -0.16780545 0.10629944
-0.14586024 -0.05230648 -0.055717107 -0.09257883 0.15785609 0.08486927 -0.06306911 -0.020386847
-0.048264768 -0.04950141 0.06367667 -0.033265214 0.041822907 -0.051507253 -0.15075234 0.16742118
0.18080822 -0.09274906 -0.05553426 -0.09937426 0.10185156 0.0839155 0.062703684 -0.043650694
0.011764697 0.11715874 0.048410058 0.17647055 0.08867341 -0.12496484 -0.14383778 0.11533586
-0.027588487 -0.07720163 0.08767135 -0.052576806 -0.12761079 -0.07236093 -0.021183629 -0.052415673
0.037359037 -0.05023727 0.17346932 0.06520338 -0.09266854 -0.10063096 -0.07667882 0.11371949
-0.075406775 0.022899974 0.12916705 -0.058205552 -0.019383987 -0.095231615 0.15409791 0.04292805
-0.023295468 -0.0720666 0.14820607 0.09316865 0.046710394 0.08836483 0.15316649 0.061441008
-0.15932705 -0.07297657 -0.06074248 0.18839543 0.078069896 -0.10729799 0.08662004 -0.094603136
0.17712495 -0.043738797 0.05791801 0.10008012 0.11550379 -0.051780634 0.14770201 0.019847434
-0.030405317 -0.16599634 0.031178506 0.008415616 -0.025651662 -0.05692 0.15252793 -0.051736213
-0.07153736 -0.05524374 -0.04756949 -0.09476852 0.17524922 0.1649413 -0.10835554 -0.099877454
0.029153712 0.05498185 -0.07178584 -0.17072566 0.16875774 -0.034078833 0.12300041 -0.07762047
-0.060409155 0.08115391 0.013662465 -0.025627637 -0.044489667 0.107315935 0.08539355 0.019325074
0.15251526 0.018790701 0.17191966 -0.015444579 0.16535373 0.04080848 -0.12502491 -0.08312871
-0.17069206 0.07058853 0.084906325 0.16907385 -0.12481614 -0.023543898 -0.15145981 0.11509677
-0.017283015 -0.0951552 -0.023921894 0.065547384 0.14747636 -0.059652254 0.00045242233 -0.11619791
0.04907624 0.027144365 0.069549166 0.11211838 0.07783468 0.044235673 -0.15193897 -0.01718523
-0.10163907 0.009705013 -0.09660955 1.41399e-05 -0.14001837 0.11868679 -0.09295996 -0.09277424
0.16062796 0.033908103 -0.14417198 -0.118869424 -0.014460564 -0.17679803 0.10262878 0.083829045
-0.15165122 0.031095611 0.13834465 -0.093607716 -0.15171933 -0.06668352 -0.1333521 0.040545985
-0.054296143 -0.15705132 -0.120555654 0.14590757 -0.11753431 0.05232272 -0.079716936 -0.07982849

key_policy.bias f4 [64]
00000000: 50e1 6cbd 1b03 94bc 0f40 f2bd df86 3c3e
00000010: a3ac 09be fd87 e7bd 7cff 0dbc a001 793d
00000020: 0d64 9d3d c662 1e3e f729 c73d e576 26be
00000030: 0954 64bc ec1c 893d 57d7 9ebc 799e ea3d
00000040: ce94 ebbd 7e11 d23c 97aa 6cbd c060 2abd
00000050: 22d3 28be f906 d83d 34f6 1fbe ee70 81bc
00000060: 0421 3a3d 7797 44bb 98f8 043e 1f57 2b3d
00000070: 1067 f43d f386 dfbd fb06 7f3d 1011 34bd
00000080: 7ccc 273e 3273 cdbd 5a24 363e 19d7 9abd
00000090: cc14 143e e55e 613d fe1b ca3d 91fc 103e
000000a0: 73ab fa3d 7c6d 1dbe aeb8 d03c 1320 2ebd
000000b0: 74ae 113e fbaa 2a3e c5dc 003e e4c1 67bd
000000c0: 0ca5 0ebe aaf7 a33d e7f2 d8bd 54e2 26be
000000d0: 267c 023e 0fae fa3d 1d85 83bc 3de4 543d
000000e0: 73c0 b23d 364e e83c 2b37 d4bd 5cc0 a2bc
000000f0: 761e f33d 6fe0 613d 5b76 26be 222a a2bb
-0.057832062 -0.018067887 -0.118286245 0.18410824 -0.13444762 -0.113052346 -0.008666869 0.060792565
0.07685099 0.15467367 0.09724801 -0.16256292 -0.013936051 0.066949695 -0.019389791 0.114560075
-0.115029916 0.025643107 -0.057779875 -0.041596174 -0.16486791 0.10548205 -0.15621263 -0.01580092
0.045441642 -0.0029997507 0.12985456 0.041831132 0.1193372 -0.109144114 0.062262516 -0.043961585
0.16386598 -0.100317374 0.17787305 -0.07560558 0.14461058 0.05502214 0.0986862 0.14158846
0.122397326 -0.15373796 0.025478687 -0.042511057 0.14226705 0.16666786 0.12584217 -0.056581393
-0.13930148 0.080062225 -0.10593205 -0.16297275 0.12742671 0.1224023 -0.016054684 0.051975477
0.08728113 0.028357606 -0.10362085 -0.019867115 0.11871044 0.055145677 -0.16256087 -0.0049488703

q_policy.weight f4 [64, 64]
00000000: 0f77 92bc cf67 4e3d e2f2 d13d 0b58 98bd
00000010: f144 8a3d 4c1d e9bd 1e9a df3d c1f2 ebbd
00000020: de28 eebd 93d1 243d 9435 0bbe f5c2 033e
00000030: a085 cabd 99aa c13c 45af 193d 01a1 e53d
00000040: 8f69 06bd bb6e f23d 8425 8bbc 4d17 94bd
00000050: d862 66bd c507 5e3c 1a30 e23c 1311 01be
00000060: 8e1e 42bd f416 55bd 018b 39bd 31b8 42bd
00000070: 283b 22bd 2bb7 373d 4820 6bbd f137 163b
00000080: f2b2 00be 9532 e93c b3c8 babd a55b 833c
00000090: d318 03be f2da 923d 4e4a c63d 338c 103d
000000a0: ef2e 0c3d 8c47 23bd 7439 d43d 8a98 983d
000000b0: 20f0 52bd 46d7 cdbd 69d3 83bd 2688 8cbd
000000c0: 2030 923c 5d54 9b3d ec22 6abd 2f9e ab3c
000000d0: cf77 693d 28e9 8c3d f31d c33d f2c7 9fbd
000000e0: c14b d13d 8a92 a23d 9c69 763d 6f68 ba3b
000000f0: 4610 7e3d 389c 993d a6a2 e13d f7a8 eebd
00000100: 0924 ea3d 4be1 f73c bd18 8cbd 8419 303c
00000110: d7e1 113d 7ff3 bcbd 9fb4 50bd 7c14 5d3d
00000120: 780a 8fbd f4cc 82bd b945 733c fde7 433d
00000130: a3dd e03d db99 c83d 306b 0cbc 7f44 cf3d
00000140: 3a97 e4bc 7b7f 0e3e d20d f6bc 4dac 873d
00000150: 65b2 febc aec0 c4bc 2463 453d 0243 b43d
00000160: 9ae4 6bbc b9c7 9e3c 9e7a dabd 9fc3 b73c
00000170: 019e 5dbd 8682 02bd 3353 863d 3b60 f4bd
00000180: a1df acbd 3415 f33d 32b8 86bd 8514 ab3d
00000190: 9e4c 30bd e1fb 9dbd df18 a63d 1691 8a3c
000001a0: 6b4e 0b3d 9104 66bd cd5e 50bd 75aa c63d
000001b0: 4d0f 183d 3754 033e cf2a cfbd fae3 e63c
000001c0: 7b48 3e3a b7be 82bd fe02 ac3d 640c ab3d
000001d0: 3f47 d3bb 0945 85bc 2fd8 313b 9c39 83bd
000001e0: ec8e a23d 63e4 c13d a3af 4dbc 2da9 b1bd
000001f0: 140f e83d 9825 a03d a246 47bd d69b 42bc
00000200: a304 ef3d 9ffb 4ebd 249b b7bc 1539 74bc
00000210: 32fb a1bd 0a52 eebc 6f4f 403c d9e3 b8bd
00000220: 8d1b fd3d 6dd1 1a3d 60c2 b63d 6041 dcbd
00000230: 1ff1 cbbd c348 863d 709e c5bd 7b94 f63c
00000240: 99e1 c5bc eb5d 9dbc 9fa8 f63d 4229 8bbb
00000250: 31ff 7c3d e56f 823d 3929 04be aea2 c9bc
00000260: 219e b0bd d1cf 943d a215 6abd b266 e83d
00000270: fc2a df3d ff8d be3d 5481 d63d 22c5 ac3d
00000280: ab11 f13d 173d 34bc 0128 eabc 969b fabd
00000290: f8bc 90bd 9a1e 5bbd 2436 c2bd 0907 cb3d
000002a0: 0d36 923d 26be 903d 8597 4bbd c7cf 25bd
000002b0: aa20 bd3d 37fb 8e3d 9dbc 933c 9918 b33c
000002c0: c734 d3bd cf68 e1bd 384f e2bd 7a4a ad3d
000002d0: 1139 55bd ecc4 8ebd 1ce8 b03d ab5e 9dbd
000002e0: 6741 e93d 80eb a93d 6c47 c33d bd6f f23c
000002f0: a5dc 0bbd 3462 b3bd 6a58 7cbd 5596 c83d
00000300: de5c 7bbd 3cf3 a1bd 46e7 2c3d 47ab ccbd
00000310: 3f40 943b 2460 393d 2759 c8bd 6e07 283b
00000320: 66db be3d bfa6 3d3b 0f2e bbbd 8ac4 8ebd
00000330: 05c5 c93d 4652 ebbd 38c7 d63b 22ea ecbc
00000340: 4667 df3d e8f5 903d dbfc 533d 5787 94bc
00000350: 415a 96bd 93d0 e4bd e43b 01be 27cb 2c3d
00000360: 30fc 3d3d 6eb9 9bbd 1aef cdbc 1c5f 6d3d
00000370: be81 cc3d 83dd 97bd 76d7 be3d 2b1b a8bc
00000380: 12fd 8bbd dcbd a33b 8fb8 b83d e73d ddbc
00000390: b4b0 dcbd b261 52bd e739 b43d 1498 533d
000003a0: 192b a7bc 81e5 01bc 158f 5fbc c029 893d
000003b0: 2a14 e6bd b3ca 7fbd 739d eb3d 0285 1ebd
000003c0: 5cd7 8d3c 4a88 eebd dfca c9bd d202 07bd
000003d0: add3 3d3d 6e22 8b3d fb45 31bc 18ec 2bbd
000003e0: f7ae 9e3d 700c 86bd cddf 66bd 162d 1e3b
000003f0: 4111 033e 73f5 d63d 455a 8d3d a032 b3bc
-0.017879037 0.05039197 0.10251404 -0.07438668 0.06751431 -0.11382541 0.109180674 -0.11520911
-0.116288885 0.040238928 -0.13594657 0.12867339 -0.09888768 0.023640918 0.037520666 0.1121235
-0.032815512 0.118375264 -0.016985662 -0.07231007 -0.05624661 0.013551657 0.027610827 -0.1260417
-0.04739242 -0.052023843 -0.04529858 -0.04753894 -0.039607197 0.044852417 -0.057403833 0.0022921527
-0.12568262 0.028466502 -0.091203116 0.01603491 -0.12802438 0.07170667 0.09682141 0.035289954
0.034224447 -0.039863154 0.10362521 0.074509695 -0.051498532 -0.10050826 -0.06436808 -0.06861906
0.017845213 0.075844504 -0.05716221 0.020949451 0.056999024 0.068804085 0.09527197 -0.078018084
0.10219527 0.07938106 0.06015931 0.005688719 0.06202724 0.075004995 0.11017351 -0.11653321
0.114326544 0.030258795 -0.06840656 0.010748271 0.03561577 -0.09226131 -0.050953504 0.053974614
-0.06984419 -0.06386748 0.014848166 0.047828663 0.10979774 0.097949706 -0.008570477 0.101204865
-0.027904142 0.13915817 -0.030035887 0.06624661 -0.031090925 -0.024017658 0.04819025 0.08801843
-0.014397765 0.019382345 -0.106679186 0.022432147 -0.054105762 -0.031862758 0.06558838 -0.11932417
-0.08441091 0.118692786 -0.06578101 0.08353523 -0.043041818 -0.07714058 0.081102125 0.016914885
0.034010332 -0.0561567 -0.05087166 0.09700481 0.037123967 0.12825094 -0.10115587 0.02818488
0.0007258725 -0.06384032 0.08399008 0.08351973 -0.006447702 -0.01626827 0.0027136912 -0.064074725
0.079374164 0.094673894 -0.012554082 -0.08674846 0.11331001 0.078196704 -0.048651345 -0.0118779745
0.11670806 -0.050532933 -0.022412844 -0.014906188 -0.0790924 -0.029091854 0.011737688 -0.090278335
0.123587705 0.03779738 0.08923793 -0.10754657 -0.099580996 0.06556847 -0.0964936 0.030100098
-0.024155425 -0.019209823 0.12043881 -0.0042468617 0.061766807 0.063689984 -0.1290635 -0.024613705
-0.08623911 0.072662 -0.057149537 0.113477126 0.108968705 0.09304427 0.10473886 0.084360376
0.11770948 -0.011000893 -0.028583528 -0.12236707 -0.07067293 -0.05349598 -0.09482983 0.09913451
0.071392156 0.07067518 -0.049705047 -0.040481355 0.09234746 0.06981509 0.018034274 0.021862315
-0.10312801 -0.11006319 -0.11050266 0.08461471 -0.052056376 -0.069711536 0.08638021 -0.07684072
0.11389428 0.08296871 0.09535107 0.029594297 -0.03414597 -0.08758965 -0.061607756 0.097942986
-0.061367862 -0.079077214 0.042212747 -0.09993606 0.0045242603 0.045257702 -0.097826295 0.0025639194
0.09319191 0.00289385 -0.09139644 -0.069710806 0.098520316 -0.11490302 0.0065545104 -0.028920237
0.1090837 0.07078153 0.051754814 -0.018130941 -0.07341433 -0.11172595 -0.12620503 0.04218593
0.046383083 -0.07603727 -0.025138427 0.05795203 0.09985684 -0.07415297 0.0931844 -0.020520767
-0.06835379 0.0049969982 0.09019577 -0.027007056 -0.10775891 -0.0513627 0.088001065 0.051658705
-0.020406293 -0.007928253 -0.013644953 0.06697416 -0.11234315 -0.06244917 0.115046404 -0.038701065
0.017314605 -0.11647089 -0.09853148 -0.032961674 0.046344448 0.06793676 -0.010819907 -0.041973203
0.07748216 -0.06545341 -0.056365777 0.002413576 0.1279955 0.104960345 0.06901983 -0.021874726

q_policy.bias f4 [64]
00000000: 5283 f7bd d634 cebd b2cb a0bc 09f0 443c
00000010: c5ed c5bd 6b4c 1b3d 5e12 d5bd 7a4e ebbd
00000020: 0cb3 04bc 7641 54bd 75be d83a d583 96bc
00000030: d6d6 bb3c eb6f 833a 32b9 933d 126b 0bbe
00000040: 3c0a eb3d aeef 0cbd 6024 a0bd ee6d 84bc
00000050: 6aa0 8ebd 0a3b 5e3c 92b0 aa3d a7a2 e63c
00000060: 0129 dabd abc7 afbd 1470 073d c685 1abe
00000070: ea35 893d 18f4 c63c c0f3 07bd 37cb a03d
00000080: 733a 233e 009e b73d eff4 b6bd f43e 763d
00000090: ec32 2d3d 122b fbbc 3bcb 55bd 022d 3fbd
000000a0: 0043 dabd 7185 fabd af2a 703d bbbf 86bd
000000b0: 5cdd 8ebd b181 013d 7c25 c9bd 89b4 b63d
000000c0: 6def 63bc 7f99 d53d 0392 e2bd 9aee 12bd
000000d0: 821b 05be ebdb 973b 01c8 423c 324f 34bd
000000e0: 3493 67bd 3d8a d8bd 0764 353d 72d9 483d
000000f0: a40b 773d c0eb 0bbe fac2 493d 16b8 36bd
-0.12085594 -0.100686714 -0.01962838 0.0120201195 -0.096644916 0.037914675 -0.10403894 -0.114895776
-0.008099329 -0.05182024 0.0016536253 -0.01837341 0.02292959 0.0010027861 0.072130576 -0.13615063
0.114765614 -0.034408264 -0.07819438 -0.0161657 -0.0696419 0.013563881 0.08334459 0.02815373
-0.10652352 -0.085830055 0.03306587 -0.15090093 0.066997364 0.024286315 -0.033191442 0.0785126
0.15940265 0.08965683 -0.08933436 0.06011863 0.04228489 -0.030660186 -0.05219577 -0.046673782
-0.106573105 -0.12232483 0.058634456 -0.065795384 -0.06975815 0.031617824 -0.09821603 0.08921153
-0.013912064 0.10429668 -0.11063006 -0.03587208 -0.12998775 0.0046343706 0.011888505 -0.04402084
-0.05653687 -0.10573242 0.044284847 0.049035497 0.060313836 -0.1366415 0.04925821 -0.04460915

embed.embedding_net.lin1_1.weight f4 [32, 4]
00000000: 52f2 853e ad47 1f3e 255e 26bc 8ef1 a2bb
00000010: d4ec 323e fa84 ba3e b04a f6be 960c 7d3e
00000020: 978f c43e f1b7 b53d 2a38 fcbd 9d61 bdbe
00000030: 4515 89be 6642 123d 55e3 3fbe 8792 443e
00000040: b1b8 d93e 46cb 943e 4b16 133e d040 803e
00000050: a2e9 a2be bcda ebbb 3e01 15be 9d9c 573e
00000060: 74ca 5ebe 9f21 833b 23e7 febd dd20 373d
00000070: 77d9 053d c3a9 f4bd 4ecf 913c b46b 88be
00000080: 8bec cabe 4657 ae3e 76ab 8c3e 2a82 9c3e
00000090: 2170 743e 542f 123e 868f 11bc 84e3 e2be
000000a0: c457 92be 723b 98be b7b3 2fbc c2a5 b13e
000000b0: ae0d d63e 1395 f8be 1737 ee3e a6e7 193e
000000c0: 6b5d 33be e408 1bbe 98fc f3bd 471d ef3e
000000d0: 464d efbe 2b8e 79bc 76a9 be3d 5e6b ad3e
000000e0: f3b4 8d3e 9287 8ebe 6dd2 d93d 399b c9bd
000000f0: 037e b93e 8691 fd3e 8b1b b8bd ec2e dd3e
00000100: b964 e5bd a8ba c6be 2a3d afbd 4f41 ad3e
00000110: ae2f 38be 3ffc adbe cb85 69be 5f65 993e
00000120: 5270 363e 938f c4be 9b5c f33e ff11 c43e
00000130: faf3 efbe 3088 c73e fce3 883e aabe 523e
00000140: 55bf b23e d5db 5dbe 84e1 ffbd d489 923d
00000150: 9f95 c4be 1ba7 343d 4d24 c63e 7a3d b03e
00000160: c9f5 d3be b31d c3be fc0e 32be edea 873e
00000170: b22f 4c3d 718d c03e 3706 5d3e 37aa de3e
00000180: 9ef9 e1be df6f 84bd 24c9 d6bd 9532 a93e
00000190: 6840 cebd 0412 633c c5ca b63e 3ad2 c5be
000001a0: cdce 69be f6c7 db3e 8281 23be 1bb4 debe
000001b0: 59c4 923e 736a d63d 8a5e babe c148 aebe
000001c0: 0301 fe3e 0992 84bc 9ce8 f53e 5158 c7bd
000001d0: f075 07be 62b7 d43e 0a22 babe 9fea 653d
000001e0: 7208 61be 3bec c73e cb22 5bbe d983 9abd
000001f0: 8c36 edbe 37c6 a23e 6770 9a3e 732d 70be
0.26161438 0.15554686 -0.010154282 -0.004972643 0.17473155 0.36429578 -0.48103857 0.24711832
0.383908 0.08872975 -0.123154 -0.36988536 -0.2677404 0.035707854 -0.18739064 0.19196521
0.4252372 0.29061335 0.14363973 0.25049448 -0.31818873 -0.007197706 -0.14551255 0.21055837
-0.21756917 0.0040018107 -0.124464296 0.044709075 0.032678094 -0.11946442 0.017799046 -0.2664467
-0.39633593 0.3405096 0.27474564 0.30568057 0.23870899 0.14275867 -0.008884316 -0.44314206
-0.28582585 -0.29732853 -0.010724 0.34696776 0.41807312 -0.48551235 0.46526405 0.15029773
-0.17516105 -0.1514011 -0.11913413 0.46702024 -0.46738642 -0.015231649 0.09309666 0.33870977
0.27677116 -0.27837807 0.10635839 -0.098440595 0.36228952 0.49525088 -0.089896284 0.4319986
-0.11200852 -0.38814282 -0.08556588 0.3383889 -0.17986938 -0.3398151 -0.22804944 0.29960153
0.17816284 -0.38390788 0.4753159 0.3829498 -0.46865827 0.3897109 0.26736438 0.20580545
0.349116 -0.2166589 -0.124941856 0.07155195 -0.38395402 0.044104677 0.3869957 0.34421903
-0.41398457 -0.38108596 -0.17388529 0.26546422 0.049850173 0.3760791 0.21584402 0.4348924
-0.44135755 -0.0646665 -0.10487583 0.33046404 -0.10070878 0.013859276 0.35701576 -0.38636953
-0.22832794 0.42925996 -0.15967372 -0.43496785 0.28665426 0.10469522 -0.36400253 -0.34039882
0.49610147 -0.016182916 0.4802903 -0.09733642 -0.13228583 0.4154616 -0.36354095 0.056131955
-0.21975878 0.39047417 -0.21399991 -0.07544679 -0.46330678 0.3179185 0.3016388 -0.23454838

embed.embedding_net.lin1_1.bias f4 [32]
00000000: 7167 63be c217 a7bb ce8a 88bd 9de7 ffbe
00000010: 86cf 76be 0d2c 91be 9bb3 adbe 2c97 c63d
00000020: 1ee1 dc3d a64b aabe 6b81 e9be 4f78 8dbd
00000030: 1845 93be b8a4 e53e 2ccc b1be fc88 a8bc
00000040: b02f 18be 41a6 533e 35e6 583e b758 c8be
00000050: 780b e0be d743 b43e 0830 65be adc2 a43c
00000060: 5ab8 3b3e fc3c 9dbe 90d5 0ebe 5f35 d93e
00000070: d43d 80be 1d1f 953e d2d8 853e fe50 c0be
-0.22207429 -0.0050992677 -0.066671 -0.49981394 -0.24102601 -0.2835392 -0.3392609 0.096968025
0.10785125 -0.3326084 -0.4560655 -0.06907713 -0.28763652 0.44852233 -0.34726083 -0.020573132
-0.14861941 0.2066889 0.21181567 -0.39130184 -0.4375875 0.35208008 -0.22381604 0.02011236
0.18332043 -0.3071059 -0.13948655 0.4242353 -0.2504717 0.291253 0.26141983 -0.37561792

embed.embedding_net.bn1_1.weight f4 [32]
00000000: 5746 823f d02e 7f3f 1461 7d3f 1838 813f
00000010: 3e66 7e3f 3462 7f3f 9e51 803f 614c 813f
00000020: 1be9 7e3f 166f 803f b5c5 7f3f 2e65 803f
00000030: bba6 7c3f e4ea 7e3f b893 823f f7ec 803f
00000040: 45c4 803f 2fb8 7f3f c325 803f 59bc 7d3f
00000050: a9b3 813f 15c2 7e3f f2bf 813f 4acf 7f3f
00000060: 63fd 7f3f 9dba 7e3f b5cc 7a3f 520b 813f
00000070: 32ef 7d3f 5734 7e3f 06cd 7f3f 594e 813f
1.0177716 0.99680805 0.98976254 1.0095243 0.9937476 0.9975922 1.0024908 1.0101434
0.9957444 1.0033901 0.9991105 1.0030878 0.9869191 0.99577165 1.020133 1.0072316
1.0059897 0.99890417 1.0011524 0.9911552 1.0132953 0.99514896 1.0136702 0.99925673
0.9999601 0.995035 0.9796861 1.008158 0.9919311 0.99298614 0.99922216 1.0102035

embed.embedding_net.bn1_1.bias f4 [32]
00000000: 2857 ad3b 0097 d73a 7d86 1dbc 230c 2f3c
00000010: 22f9 92bb 78a3 f13b 4a0d 90b9 0b68 82ba
00000020: c7af 933b a7ba 5cbb aa28 e03b fedf eebb
00000030: d2b4 303b 6167 21bb 3eac 10bc 494d 243c
00000040: 3a17 cfb9 e947 2ebc cbab c6bb e2f6 edba
00000050: 6f7d c23b 303d fe39 1509 793c e923 9d3b
00000060: e460 3b3b 36a5 7a3a 35bb 7ebb dc47 7dba
00000070: 98ec 01bb 674a 86ba e6ee 233c 17f3 083c
0.005289931 0.00164482 -0.009614584 0.010684046 -0.0044852654 0.0073742233 -0.0002747572 -0.000994922
0.0045070383 -0.003368059 0.006840785 -0.0072898855 0.0026963246 -0.002462827 -0.008830128 0.010028192
-0.00039499422 -0.010637262 -0.00606296 -0.0018155242 0.005935363 0.00048492244 0.015199919 0.0047955406
0.0028591687 0.00095613615 -0.0038868908 -0.0009661892 -0.0019824859 -0.0010245562 0.010005688 0.008358738

embed.embedding_net.bn1_1.running_mean f4 [32]
00000000: 9abb 51bd 0040 2b3f 8871 d8bf 9b7a bcbc
00000010: 48d1 bb3f 3bbd 943e 205c dbbe f35f 90bf
00000020: 7f18 f03f 4190 0ac0 141e 4f3f 39bf a23f
00000030: 50d3 be3f b923 f13f 5c37 23bf eff2 0e40
00000040: 3000 813f 1b22 773f c674 2340 ea60 663f
00000050: 3f19 70be c87d 1440 47ac a53e 36a8 2140
00000060: de1c a33f 220a c9bf a800 10c0 fb88 bbbf
00000070: 7cf5 863e e3f7 143e caf3 a0be 0135 88bf
-0.0512043 0.6689453 -1.6909647 -0.023007682 1.4673243 0.2905062 -0.42843723 -1.1279281
1.8757476 -2.1650546 0.8090527 1.2714607 1.4908237 1.8839027 -0.63756347 2.2335775
1.0078182 0.96536416 2.5540023 0.8999163 -0.2344713 2.320177 0.32358 2.5258918
1.2743185 -1.5706217 -2.25004 -1.4651178 0.26359165 0.14547686 -0.31435996 -1.0641176

embed.embedding_net.bn1_1.running_var f4 [32]
00000000: 2f66 003c 707a a93d 775e 5d3e beb9 923c
00000010: 7612 163e 94e3 c43c f7c1 213c 0de0 7d3d
00000020: 2281 913e f8e5 493e dab6 fa3d 2481 a13e
00000030: bc03 143e dd10 353e c4b0 833c 3206 243e
00000040: 303a b23d bdd4 2c3d 7935 133f 0eae 4d3e
00000050: ce98 963c c5d6 d73e 1310 553d 67cb b53e
00000060: 9579 a43d 7301 463d 8a41 a03e baa7 c63e
00000070: c438 0f3e d2f6 b93d 919c a13d a73b 4b3d
0.0078368625 0.08275306 0.21618067 0.017910834 0.1465548 0.024034299 0.009872905 0.06198125
0.28418833 0.19716632 0.122419074 0.3154384 0.1445455 0.17682214 0.0160755 0.16017988
0.08702505 0.04219507 0.5750347 0.20085928 0.01838341 0.42156044 0.052017283 0.35506746
0.080310024 0.048341226 0.31300002 0.3879984 0.13986498 0.0908028 0.07891191 0.049617436

embed.embedding_net.lin1_2.weight f4 [32, 32]
00000000: b0d5 33be 32fa 943d 807a 8b3d e48d 62bb
00000010: 3b51 72bd e0b2 313e 3a67 20be 69bc eebd
00000020: 5777 303d bc43 eabd b5e9 8dbd 658f d43d
00000030: 2a34 ab3d 95e1 aabc 6d07 e63d eee8 a339
00000040: bf24 ddbc 8cbd 3fbd 9579 aabd 3d7d 1a3e
00000050: 1400 c23d 3f94 0abe 10ae 383e f459 7dbc
00000060: c117 133d 7452 283d cecf 2a3e 0d5c 68bd
00000070: 991c 03bd 407f 30bd c3a1 473d de52 19be
00000080: 0cf3 efbc 58c5 8a3d de38 153e c00d 2dbe
00000090: 733c 31be 8423 283e 1ff6 933c bc75 7cbd
000000a0: b937 9b3d 0bd0 13be 867d 90bd ac2b 74bd
000000b0: 0192 353d fe3e 53bc 874c 81bd 51c1 a8bd
000000c0: d494 19be 9d3f b9bd e29d ebbd e7c2 b63d
000000d0: f723 213e 864d dbbd 2bd9 f23c 0ffa a6bd
000000e0: b88e 7cbc f465 723c 990a 0a3e a3cd 0d3e
000000f0: 35c9 a8bd a650 053e 40f1 993c 4526 80bd
00000100: 6ae4 7a3d 638f ffbc 3600 2abe ee93 62bd
00000110: fd5f 023e 1a4c 85bd fe59 39bd af9d 5abc
00000120: a47c e83c 1f60 18bd 15ad 243e 753e 38bc
00000130: 3af8 213e e0a4 043e 8138 f4bd cdf0 d33c
00000140: e966 093e 366c e03b cf7f 513c a342 c73d
00000150: ad12 9e3c a382 943d 859a 913d 20e2 e2bd
00000160: 41ce 153e 1807 06bd 2063 1d3e b8ab a7bd
00000170: b0f7 afbd 2b38 45bc 54a5 b53c bffb 2fbb
00000180: 45ff 90bd 9336 c6bd 1f1b f83d ea18 babd
00000190: ab1b 68bd ea3d 5cbd 2dd5 c63d c9e8 cfbc
000001a0: 76f6 74bd eaa0 193e 953a 333d 2aad 00be
000001b0: ba24 6a3b f1de d9bd b8da bb3d bdc8 98bd
000001c0: 64e3 31bc 79a6 05be a9ef c2bd 4b79 913d
000001d0: 406c 973d e33e 12be b70c 133e 2969 efbd
000001e0: 820c 38bd 23e1 133e ba23 a43b cba9 4d3c
000001f0: 3a2c d13d 6514 cebd dcec 7a3d 9321 29be
00000200: e3d7 30be 349d 07be faeb 163e 61fe 9d3d
00000210: 75bb 063e 85c8 8f3d f384 063e 0ee7 153e
00000220: 23fd a5bd e8f3 c13d 5c02 f73d cc9b bd3d
00000230: 5a49 9d3d 5304 05be 8e80 2fbc 3b63 a8bd
00000240: df1b 3a3e 0dd4 e13d ac8a 12bb 42c5 a8bd
00000250: 6134 9bba 6efa 353e af71 303e 2b7e 27be
00000260: 25ce b1bc fda8 12be dd6f 34bd 1d0f 253e
00000270: 3297 e23d 7350 2abe 522e 87bd 054c b6bd
00000280: 4ad0 1abe 0b45 b73c 5b38 9dbd 5bcd 16be
00000290: a464 0d3d 3ccc e1bb cae6 fb3d 6b97 4abd
000002a0: ce3a 8f3d a55d 073e a127 d13c 75f0 8bbd
000002b0: fbe8 02bc 8532 cfbd 0d04 dfbb 8f0d 96bd
000002c0: 2528 1f3e b6dd 23be 8aa9 f93b 8c33 b8bd
000002d0: 174f ae3d f8ba 133e 946b ac3d 77f2 643d
000002e0: e75d 1cbe f140 ad3d 4006 b3b9 a2af 893d
000002f0: 1b80 69bc 0bcc 59bd b34d 7c3d 7cc2 0cbe
00000300: ae79 eb3c 2b3e 643d 136e 4cbc deab 163e
00000310: da66 c13d 3020 1fbe 446c 523d 8176 a73c
00000320: 2f84 f6bb 09f2 1abe c454 debd 0003 ce3d
00000330: 95a4 bbbc 0756 983d f806 1dbe 064f c03d
00000340: d84f 8ebd 88d8 303d 62d8 17be 8010 093e
00000350: 330a 95bb 44cd 013e 1760 26be c564 2ebe
00000360: 16ef febb 3ac1 d7bc fc01 293e 998c 8f3d
00000370: a535 623d 8ca5 29bc 0883 373c 4161 69bc
00000380: be94 cbbd 4b89 cc3c 26db ac3d e0c9 353d
00000390: 1579 efbd 6902 0bbe 2ae8 aa3d f828 8cbd
000003a0: e614 b43d e0eb 47bd 2beb 02bd ff1a 09be
000003b0: 8316 b43d 3c41 f03d e255 3ebe 237f b13d
000003c0: 377f 8fbc d3f1 b3bd 05ff f53b 69a1 c6bd
000003d0: 3d1d e73c d78f 8d3c 9fc9 bc3d 596c 453d
000003e0: 571c d53d fc08 1dbd 62f9 083e 9351 183d
000003f0: 501d e23d f9a4 2bbe fe65 18be 5f12 0bbe
-0.17561984 0.072742835 0.068104744 -0.0034569437 -0.0591595 0.17353392 -0.15664378 -0.1165703
0.04308256 -0.114387006 -0.06929342 0.10378913 0.08359559 -0.020859519 0.11231885 0.0003126333
-0.026995061 -0.046811625 -0.08323971 0.15086837 0.09472671 -0.13533114 0.1803515 -0.015463341
0.035911325 0.04109426 0.16680834 -0.05672841 -0.032009695 -0.043090105 0.048738252 -0.14973018
-0.029290698 0.067759216 0.14572474 -0.16899776 -0.17308216 0.16419798 0.018061696 -0.061635718
0.07578988 -0.14434831 -0.07055192 -0.05961196 0.044328693 -0.0128934365 -0.063134246 -0.08239997
-0.1499818 -0.090453364 -0.11504723 0.089238934 0.15736376 -0.10708146 0.02964457 -0.08153164
-0.015414886 0.014794815 0.13480605 0.13847975 -0.08241502 0.13019046 0.018791795 -0.06257299
0.06125299 -0.031196302 -0.16601643 -0.055316858 0.12731929 -0.06508656 -0.04525184 -0.013343259
0.028379746 -0.037201043 0.1608165 -0.01124536 0.15817347 0.1295352 -0.1192484 0.025871659
0.13418163 0.0068488372 0.01278682 0.09729507 0.019296015 0.072514795 0.071095504 -0.11078286
0.14629461 -0.03272161 0.15369844 -0.081870496 -0.085921645 -0.012037317 0.022173561 -0.0026852933
-0.07079939 -0.09678378 0.12114548 -0.09086783 -0.05666701 -0.053769983 0.09708629 -0.025379555
-0.059805356 0.1500279 0.04375704 -0.12566057 0.0035727457 -0.10638226 0.09172577 -0.07460163
-0.010857437 -0.13051786 -0.09518368 0.07103213 0.07393694 -0.14281802 0.14360319 -0.116899796
-0.044933803 0.14441352 0.0050091418 0.012552689 0.10213514 -0.10062484 0.061261043 -0.16516714
-0.17269854 -0.13243562 0.14738455 0.077145346 0.13157447 0.07020668 0.13136654 0.14638922
-0.081049226 0.094703496 0.12060997 0.092582315 0.07680006 -0.12989931 -0.010711802 -0.08222052
0.18174694 0.110267736 -0.0022360487 -0.08240749 -0.0011841172 0.17771313 0.17230867 -0.16356723
-0.021704743 -0.14322276 -0.044051994 0.16119047 0.110639945 -0.16632251 -0.06600632 -0.08901218
-0.15118518 0.02237179 -0.076767646 -0.14726774 0.034519807 -0.0068908017 0.12299879 -0.04946081
0.06993638 0.13219316 0.025531592 -0.06832973 -0.007990117 -0.10117058 -0.006805903 -0.07326805
0.15542658 -0.16002545 0.0076190876 -0.08994207 0.08511179 0.14426792 0.084189564 0.055895295
-0.15270196 0.08459652 -0.00034146197 0.067229524 -0.014251734 -0.053173106 0.061597537 -0.13746065
0.028744545 0.05572335 -0.012477416 0.14714 0.094434455 -0.15539622 0.05137278 0.02044225
-0.0075230817 -0.15131392 -0.108560115 0.10059166 -0.022905627 0.074382834 -0.1533469 0.093900725
-0.06948823 0.04317525 -0.14828637 0.133852 -0.004548335 0.12675959 -0.16247593 -0.17030628
-0.007779966 -0.026337255 0.16504663 0.07009239 0.05522694 -0.010354411 0.011200674 -0.014244379
-0.0994048 0.02496781 0.08440237 0.044381976 -0.116930164 -0.13575138 0.08345063 -0.06843752
0.087930486 -0.048808932 -0.031962555 -0.13389204 0.08793356 0.117311925 -0.18587449 0.086668275
-0.017516715 -0.08786359 0.0075072073 -0.09698755 0.028212184 0.017280502 0.09218144 0.04819903
0.10405796 -0.038338646 0.13376382 0.03718717 0.11040747 -0.16762151 -0.14882657 -0.13581227

embed.embedding_net.lin1_2.bias f4 [32]
00000000: 2a1c d4bd cbfb 1ebd c841 563d 93e8 d33d
00000010: ba26 883d 284a 27bc c450 bebd d2eb a9bd
00000020: 18c1 1abe 1c04 d6bd 940d 85bc 7e28 103e
00000030: 1f83 df3d bfab 4abd cd82 ec3d f868 2c3e
00000040: 3ade 703d c8b5 0c3d 231f b43d 5542 a8bc
00000050: 358d b5bd 9abf 8a3d e678 9f3d 38e5 ee3d
00000060: 4e96 de3c 6bf5 303e 7bc1 173e 5757 26bd
00000070: 709e 42bc 44ab e03c ccb4 c63d a04a 01bd
-0.10356934 -0.038814347 0.052308828 0.103470944 0.066480115 -0.010210551 -0.092927486 -0.08296932
-0.15112722 -0.104500026 -0.016241826 0.14077947 0.10913681 -0.049480196 0.11548386 0.16836917
0.05880568 0.034353048 0.08795001 -0.020539442 -0.08864824 0.06774826 0.077867314 0.11664814
0.02717128 0.1728112 0.148199 -0.040610638 -0.011878595 0.027425416 0.09702453 -0.03156531

embed.embedding_net.conv1.nn.0.weight f4 [32, 32]
00000000: 3dcb d0bd 1353 893d 267e 12be 415b cbbd
00000010: 76c2 b43d 4e9a e5bd f85a 0a3e ea6d dc3d
00000020: 50d5 813d 1533 993d f0ec 143e 290f fcbd
00000030: 129a ddbd be27 0fbe 7952 f5bd 314c dfbc
00000040: af9d 9e3d 576e 30be 5dce 5bbd 8876 d23d
00000050: 8ceb 1fbe dc6e f4bd 7180 883d 2178 7f3c
00000060: 0a8f 343d 37b9 adbc b585 c83d 63aa d3bc
00000070: ca58 1e3e 4214 a13c 4e64 0fbe ffa9 efbd
00000080: 3cb2 243e 95df 1abe 4360 2b3e 2d93 b3bd
00000090: 0586 093e e084 71bc 30fb 69bd cf40 4a3d
000000a0: 5f63 f1bd 2e86 173e a624 debc 3b97 b93b
000000b0: ed9e d13d 6751 febc 0f9e 953d f313 7a3d
000000c0: a1ee 303e 9739 8dbd 46d7 02be 4bf8 d6bc
000000d0: 0922 84bd 0a0f 17bd d7d7 14be 3120 adbd
000000e0: 41b1 0c3e 59db 85b9 2ed9 c93d b7b4 9e3c
000000f0: 76f1 bdbc 5571 863d 4bbb 183e 06ce b4bd
00000100: 2343 f63d 2a4c 27bd 271f eb3d 8598 f43d
00000110: 22c9 01be 99ca 03be 8ee0 9dbc 5fa7 a3bc
00000120: 4293 0f3e 2c4e 203e b95b 11be f1bd dabb
00000130: 8b05 3c3c 05fc 983d 5c29 b83d ccfc b03d
00000140: 7adc 1a3e 592f 0fbe 9fbb c5bd 51e3 8dbd
00000150: 0655 aebd 3bc3 23bc e8e0 e6bd 5a16 bd3d
00000160: a88e c33d ee3a a93d 94bf c2bd 816c 1c3e
00000170: 276b 3dbe 47f7 f63c 1395 dfbd 4684 8fbd
00000180: 3e41 33bd 2270 723d 1e78 04be f143 f23c
00000190: e951 97bd df24 5ebc 3692 01bd 0158 3dbd
000001a0: e406 62bd 5f1b 343e afe9 22be 7749 25be
000001b0: da8d 333e bc80 f8bd d412 bebc 2cc9 2d3e
000001c0: 4bb0 8cbd 3be1 d23d a661 033e 71fd bcbc
000001d0: 4d98 04be 2115 603d f951 503c 2fef 243d
000001e0: 3d0e 5e3d 69af 1a3e 8709 393e 14c1 5a3c
000001f0: df5d 313e f6cc 03bd 884c 4a3d 8ab0 bebd
00000200: 1b88 e6bd bb30 acbd 737d 193e e337 fa3c
00000210: 8340 f2bd d965 81bd dcac ccbd 2c87 2b3e
00000220: 5e11 31be 558a 603d a1b3 11be 5496 9b3d
00000230: 82e1 f33d 40ea 1cbe 83b4 b13b 5591 d13c
00000240: 52e0 22be 6def d0bd ba68 553d 93e6 3d3d
00000250: d8d4 e2bd 872d 213e 8567 203e 00de 2f3e
00000260: e596 84bd 1bd0 f3bd 9a03 bcbd 3a87 08be
00000270: f6bd 943d 8961 d33c ac07 1f3e d04f 47bd
00000280: adac 7dbd 8d66 803d 84bd bf3d 0e2d b6bb
00000290: fac7 5e3b cbaf 59bd a1e4 3f3c 6fc0 6f3d
000002a0: ed01 693d a0ba 0dbe 83b5 0abe 9367 e6bd
000002b0: f300 69bc 89e4 cdbd d865 29be ac89 193e
000002c0: 8731 033e 10d6 e93c bbc3 0b39 8f57 fdbd
000002d0: 4d51 21be 03fe a2bd 660d 22be 2e60 e53d
000002e0: 30d7 0a3e faa1 a8bd a6a9 34be 5868 2fbe
000002f0: 6cd5 153e 67d3 20be 196a 21be 1dcb 233e
00000300: 182d 36be 480a 353d a79d aabd a70a 8abd
00000310: 5b86 ecbd 3c6f 453d b02c 963d d162 333d
00000320: d6ab a4bd 8cf8 20be b96e 103e 1efe bcbd
00000330: 4fe0 f9bd 1649 163e 4bb8 083e 52ec 44bd
00000340: 8de2 24be f770 11be 93aa 323e bb97 2dbe
00000350: 54c3 9cbc 8b3c 053e e96f da3d 6208 65bd
00000360: e0e2 863d ddd0 033e a721 213c c664 29bd
00000370: 7010 803c 24f4 003e 86f7 89bc ff0b 9f3d
00000380: dcb7 f2bd bc3a 0abe 6a1a 4a3d 1d2b 1fbe
00000390: 8a0a 423d 4da5 04be 8c3a 1ebe affa e5bd
000003a0: 8373 33bd 27fd 3c3d 57af 803c e456 bd3b
000003b0: f289 6b3c 6408 73bb 0127 bb3d 7498 b93b
000003c0: 0279 283d f2a2 1d3e 7294 e9bc 7793 c4bc
000003d0: f48e 623d 792b babd 9f2a 85bd fba4 4c3b
000003e0: 60d7 4c3d 634b 0ebe 779a c23b d1c5 2d3d
000003f0: 2ff3 b23d 1b2a 9d3d 5164 26bd c259 fabc
-0.101950146 0.06705298 -0.14305934 -0.09929515 0.08826153 -0.11211072 0.13511264 0.10763152
0.06339514 0.07480446 0.1454351 -0.12307579 -0.10820402 -0.13980004 -0.11978621 -0.02725801
0.077449195 -0.17229591 -0.0536636 0.10276514 -0.15617198 -0.11935207 0.06665123 0.015592606
0.044081725 -0.021206481 0.097911276 -0.025838083 0.15463558 0.01966298 -0.14003107 -0.11702346
0.16083616 -0.15124352 0.1673594 -0.08768306 0.1343003 -0.0147411525 -0.057124317 0.049378213
-0.11786532 0.14797279 -0.027117085 0.00566378 0.10235391 -0.031044675 0.07305538 0.06105418
0.1727853 -0.0689575 -0.12777433 -0.026241442 -0.06451804 -0.036879577 -0.14535461 -0.08453406
0.13739492 -0.00025531164 0.09855877 0.01937328 -0.023186427 0.06564585 0.14915197 -0.08828358
0.12024524 -0.04084412 0.11480551 0.11943153 -0.12674382 -0.12870254 -0.019272115 -0.01997727
0.14021018 0.1565482 -0.14195146 -0.006675475 0.011475931 0.07469944 0.08992264 0.08641967
0.15123168 -0.13982905 -0.096549265 -0.06928123 -0.08512311 -0.009995277 -0.11273366 0.09232779
0.09548694 0.08263193 -0.09509197 0.15275766 -0.18497907 0.030147208 -0.109171055 -0.07007651
-0.04376339 0.05918897 -0.12936446 0.029573413 -0.0738867 -0.013558595 -0.03163358 -0.046226505
-0.055182353 0.17588566 -0.15909456 -0.16141306 0.17534581 -0.12133929 -0.023202337 0.16971272
-0.06869563 0.102968656 0.12830219 -0.023070069 -0.12948723 0.05470765 0.012714856 0.040267166
0.054212797 0.15105976 0.1807004 0.0133516975 0.17320965 -0.032177888 0.049389392 -0.09311016
-0.11256429 -0.08407732 0.14989261 0.030544227 -0.11828711 -0.06318254 -0.09993908 0.16750783
-0.17291781 0.054819424 -0.14228679 0.07597032 0.119082466 -0.15323734 0.00542313 0.025581995
-0.15905884 -0.10201917 0.05210183 0.04636247 -0.11075753 0.15740024 0.1566449 0.1717453
-0.06474093 -0.11904927 -0.091803744 -0.13332835 0.07262795 0.025803344 0.1553027 -0.0486601
-0.061932255 0.0626956 0.09362319 -0.00555957 0.0033993707 -0.053146165 0.011712224 0.05853313
0.056886602 -0.13840723 -0.13545804 -0.11250224 -0.014221418 -0.10053355 -0.16542757 0.14993924
0.12811862 0.028544456 0.00013328988 -0.12370216 -0.1575367 -0.07958605 -0.15825424 0.111999854
0.1355865 -0.082340196 -0.1764284 -0.17129648 0.14632195 -0.15705644 -0.1576313 0.1599545
-0.1779064 0.044199258 -0.08330851 -0.06740313 -0.11549064 0.048201784 0.07332742 0.04379541
-0.080405876 -0.15719813 0.14104737 -0.092281565 -0.122009866 0.14676318 0.13351552 -0.048076935
-0.16102047 -0.14203249 0.17447881 -0.16952412 -0.019136108 0.13011377 0.106658764 -0.055916198
0.06586242 0.12872644 0.0098346835 -0.04135587 0.015632838 0.12593132 -0.016841661 0.0776596
-0.11851475 -0.13498968 0.049341597 -0.1554379 0.047373332 -0.12953682 -0.15452021 -0.11229455
-0.043811332 0.046139862 0.015708609 0.0057781804 0.01437615 -0.0037083859 0.09138299 0.005663926
0.041131027 0.1539419 -0.028513167 -0.023996098 0.055312112 -0.09090323 -0.0650227 0.0031226266
0.050010085 -0.13895945 0.005938824 0.04242498 0.0873779 0.076740466 -0.040623013 -0.030560378

embed.embedding_net.conv1.nn.0.bias f4 [32]
00000000: a86f d93d 81bd 0cbe 8cad 02be 997b 0bbd
00000010: 4b3f c93d 9425 53bd c090 abbd 8dfd b93d
00000020: ee91 af3d 4416 1bbe b726 063e 2782 2abe
00000030: cb38 58bd 7265 24be fa40 35be 534d b93c
00000040: 021c bd3d ce2b aebd 36b1 7f3d 23d1 eabd
00000050: dfb9 aabd ee15 e73d 8674 4ebd 784a a53d
00000060: aba1 053e 82ae 72bd 30ad 773d 06fa a63d
00000070: b5d1 243d 7ebc da3d 7865 a93d 8d03 2c3e
0.10617 -0.13744165 -0.12761515 -0.03405342 0.09826525 -0.05154951 -0.08377218 0.09081564
0.08572756 -0.15145212 0.13100706 -0.16651212 -0.052788537 -0.16054323 -0.17700568 0.022619879
0.09233858 -0.08504449 0.06242486 -0.11465671 -0.08336233 0.1128348 -0.050404094 0.080708444
0.13049953 -0.059248455 0.0604679 0.08153157 0.040239055 0.10680483 0.08271307 0.1679823

embed.embedding_net.conv1.nn.2.weight f4 [32, 32]
00000000: e458 d8bd b468 f8bc a4aa 7b3d de75 c0bd
00000010: a236 ef3d ed1d e1bc 7f67 9e3d 6ae1 2b3e
00000020: bc27 f1bd 67a8 deba 6b95 d93c 6866 d2bd
00000030: 98c3 76bd 2ddd babd 36e3 50bd 6ff1 033d
00000040: 2b6f bdbd 7607 883d 0786 aebd 2913 303e
00000050: 00ee 1ebe 1eaa 153e 9eeb 45bd b3a8 99bd
00000060: 10db 3ebd 14c1 6fbd 4d4e dc3d 5f66 fabd
00000070: 8516 2abe 5780 103e b9f2 24bd 97a7 1abd
00000080: 44a3 04bb 9c2e 8fbd 1aa1 353e 5804 cc3d
00000090: 02db efbd d9bf 023e afd9 12be b4bf bbbd
000000a0: 2a32 323e d894 0abe 2368 373d 1ab8 bebd
000000b0: 8312 e9bd e7a3 eb3d 250d 33bd 6126 00bd
000000c0: acb4 363c 3159 a43d 5381 d13d 986e cbbd
000000d0: 3e47 9abd a8fa 2a3e 09e8 17be 3916 df3d
000000e0: 4d3b e6bd 37e5 36bd 8f54 33bd 06af 4b3e
000000f0: e820 35be 0531 19be 1249 293e c6d2 f6bd
00000100: 9588 23be 3837 383e be44 9fbd eb78 6cbc
00000110: 3ec1 96bc b022 98bd 0d0a 1f3e 7270 4dbd
00000120: 5484 75bd f99c f23c 437b 7b3d 9d07 223c
00000130: 21c2 fe3d f5c2 ce3d f011 a63d 51a4 d7bd
00000140: 9561 8a38 3af5 493d 9416 f3bd c7a7 103e
00000150: b23b 873d 9ff8 563d 52da 7abd 15e4 0d3d
00000160: fc72 39bd e8ff 93bb 58f1 ccbc c9af 0a3e
00000170: d804 d23d 5e8b 2f3e 6c40 32be d784 983d
00000180: 695b a13c 339c 1abe ad68 2fbe f81e 583d
00000190: 1cd0 cc3d 1bed 2a3e b9a0 873d 0d4f a2bd
000001a0: bf15 f23d f751 5b3d 7b86 20be ce1b 32be
000001b0: 2b10 b7bd 0d93 d7bd 0850 a33d e8ee 17be
000001c0: 91ed 293e c2fd 05be 7c49 4bbd 0cf3 183d
000001d0: c786 01be 3e4b 19be 4b03 183e 3402 d9bd
000001e0: d221 173c 6387 023e f68c 33bd 25ce 433d
000001f0: 2d00 f0bd 5bbc 163d c08b 043e 442a 373e
00000200: 8f0b 163e 9c1b 2fbe 1768 2abe efba 21be
00000210: 5104 dc3d 281c e73b cd54 6f3d 1d83 02be
00000220: 82c8 0b3e 0e0d 0dbe 9ba4 323e f1d9 3ebe
00000230: f021 45bd 0bdf 1c3e 7b07 353e 31e3 16be
00000240: 0e16 2dbe 291d 003d dc3a e83d c67c 2d3d
00000250: 1e96 13be 65e6 083e ff92 32bc b83d 11bd
00000260: 8166 bfbd 2fed d3bd 8779 cb3c 8d63 303d
00000270: f6a8 d43d c05d 88bd 9978 bc3d 80f0 ccbd
00000280: 26bb 01bd 0088 5a3d 4c76 2a3e d87c 2f3e
00000290: da63 163d 7253 ecbd 2047 d4bc cb13 b83d
000002a0: 4f00 cebd 776e 743d f262 28be 9736 df3d
000002b0: f65e fe3d c4b7 6fbd 3172 c1bc 7431 05be
000002c0: a66e 84bd 7082 89bd cd23 53bd a11d 8abc
000002d0: aa35 b8bd 508a 93bc 2b72 65bc 1edd 3f3d
000002e0: 0206 173e 862c a5bd 8a11 b1bb cd65 74bd
000002f0: 3fdc 633d 91fa c93d c4cb b33b 6f45 953d
00000300: 54e2 8fbd 0301 9b3d 6ffa 06bd fd38 25be
00000310: c712 cb3d ca8f 203e 1db6 23bd d664 b23c
00000320: fd70 18be cfa4 983d 00b7 8abd 03ca ce3d
00000330: 6e59 46be c951 ad3d a867 493d 53b7 2f3d
00000340: 6590 86bd 2dd6 913d 38f8 dcbd d71b af3d
00000350: a848 9dbd 5e22 a43d 19dc e13d d6d7 13bb
00000360: 5598 f1bd f305 0dbd 72e0 df3d 8607 03be
00000370: 4eb9 0bbe 246f 003e 6b0e b7bd b920 e23d
00000380: cb92 e53d d54f 3dbe c167 3dbd 0ee0 0fbe
00000390: 8682 2e3e 12e3 fabd cfdc b63d fe20 10be
000003a0: 725b 3ebb 4235 2e3e 3c31 21be aa1a fcbd
000003b0: 2f9a 52bd 47a9 29bd 9a27 003e 5056 d43c
000003c0: 75a4 22be 6fe9 863c 4882 ce3d 83f2 0e3e
000003d0: bcf9 cabd ee56 0dbe 8941 6c3d a3b4 08bd
000003e0: 2d26 8d3d 1cb5 b3bc 55c9 2fbc 0131 a6bd
000003f0: 6d91 3e3d 6a1a 36bd 26d3 323e 30a8 ecbd
-0.105638295 -0.030323364 0.061442032 -0.093974814 0.11680342 -0.02748009 0.07734584 0.16785207
-0.11775157 -0.0016987444 0.026560506 -0.10273439 -0.060245126 -0.09124217 -0.050997935 0.03221267
-0.09249719 0.06642048 -0.085216574 0.17194809 -0.15520477 0.14615676 -0.048320405 -0.0750288
-0.046595633 -0.058533743 0.10757122 -0.12226557 -0.16610153 0.14111458 -0.04027054 -0.037757482
-0.0020238915 -0.06991312 0.17737237 0.09961766 -0.11711694 0.12768497 -0.14340852 -0.09167424
0.17401949 -0.13533342 0.044777047 -0.09312458 -0.11380484 0.11505871 -0.043713707 -0.0312866
0.011151474 0.080248244 0.10229745 -0.099332035 -0.075331196 0.1669718 -0.14834608 0.108929105
-0.112417795 -0.04465219 -0.043781813 0.19890985 -0.17688334 -0.14960106 0.1653178 -0.120519206
-0.1597007 0.17989814 -0.077767834 -0.014433126 -0.018402692 -0.07428491 0.15531178 -0.050156064
-0.05994065 0.029615866 0.06139685 0.00988951 0.12439371 0.10095779 0.0810889 -0.10529388
6.598529e-05 0.049306132 -0.11869541 0.14126502 0.06603183 0.052483197 -0.061243363 0.034641344
-0.045275673 -0.0045165904 -0.025017425 0.13543619 0.1025483 0.17143008 -0.17407387 0.07447212
0.019696908 -0.15098648 -0.17129774 0.05276391 0.10000631 0.16692011 0.06622452 -0.07925234
0.11820554 0.053544965 -0.156763 -0.17393419 -0.08938631 -0.105260946 0.07974249 -0.14837229
0.1659453 -0.13085082 -0.049630627 0.037341163 -0.1264907 -0.14970109 0.14845006 -0.10596123
0.009224372 0.12746958 -0.043835603 0.047804017 -0.117187835 0.036800724 0.12943935 0.17887217
0.14652847 -0.17100376 -0.1664127 -0.15793966 0.10743011 0.007052917 0.05843048 -0.12745328
0.13650706 -0.13774511 0.17445605 -0.18637826 -0.04812807 0.15319459 0.17678635 -0.14735104
-0.16902944 0.03127781 0.113393515 0.04235532 -0.14412734 0.13369139 -0.010899304 -0.03545925
-0.09345723 -0.103479736 0.024838222 0.04306369 0.10383789 -0.066585064 0.0920269 -0.10006809
-0.03167262 0.053352356 0.16646689 0.17137468 0.03671632 -0.115393534 -0.025912821 0.0898815
-0.100586526 0.05967566 -0.16443995 0.10899084 0.12420456 -0.058524862 -0.023614021 -0.13007146
-0.06466417 -0.06714332 -0.051547814 -0.016859831 -0.089946106 -0.018010288 -0.014004271 0.046841733
0.14748386 -0.08065133 -0.005403702 -0.059667397 0.055629965 0.09862245 0.0054869372 0.07288634
-0.070255905 0.07568552 -0.032953676 -0.1613502 0.09915691 0.15679851 -0.0399686 0.021776598
-0.14886852 0.0745331 -0.06773186 0.100971244 -0.19370052 0.08462865 0.04917112 0.04289944
-0.0657051 0.07120929 -0.107895315 0.08550232 -0.07679874 0.080143675 0.110283084 -0.0022559068
-0.11796633 -0.0344295 0.109314814 -0.12795839 -0.13644907 0.12542397 -0.08938297 0.110413976
0.11209639 -0.18487485 -0.046241526 -0.14050314 0.17041978 -0.122503415 0.08928835 -0.14075086
-0.0029046205 0.17012504 -0.15741438 -0.12309773 -0.051416572 -0.0414212 0.12515107 0.025920063
-0.15883048 0.016468732 0.10083443 0.13959698 -0.09910914 -0.13802692 0.057679687 -0.033375394
0.06892047 -0.021936946 -0.010729154 -0.081148155 0.046525408 -0.044458784 0.17463359 -0.11555517

embed.embedding_net.conv1.nn.2.bias f4 [32]
00000000: 99b2 bdbd ebdb 6d3d a5d4 e9bc e64a 113e
00000010: 24eb e3bc 035d f43d 1168 12be ce9b b5bd
00000020: 813f 8cbd ac21 aabd b380 7cbd 94be ff3d
00000030: 37e2 3ebe d390 263e 6c9a c53d b760 053e
00000040: 436c d53d 56ed 1dbe 126d 403c 73e8 773d
00000050: 8ca0 8f3d 46fc ef3d 614d 273e 3a46 1e3d
00000060: 70dc 0c3e be95 83bd d9d0 a3bd 2d5e df3d
00000070: dae9 59bd 5a2f 0dbe eda5 6f3d 3bc4 e2bd
-0.092625804 0.05807106 -0.02854378 0.14188728 -0.027822085 0.11931803 -0.1429751 -0.08867608
-0.0684805 -0.08307204 -0.061646175 0.12487522 -0.18640982 0.16266184 0.09648594 0.13025175
0.1042104 -0.15422568 0.011744754 0.060524415 0.07013044 0.11718039 0.16338111 0.038641192
0.13755965 -0.064250454 -0.07998819 0.109066345 -0.053201534 -0.13787594 0.05850785 -0.11072584

embed.embedding_net.bn1.weight f4 [32]
00000000: 1ce4 7f3f 57a6 803f d742 7f3f f80e 803f
00000010: a597 823f 7cfb 7e3f 390f 823f c4f0 7f3f
00000020: 52bd 803f a69c 813f b30a 813f a51f 823f
00000030: 240e 803f 1995 7d3f 10cb 7b3f 12c3 803f
00000040: ce05 7e3f d9d7 823f ff3e 7e3f c404 813f
00000050: 518f 7e3f a9d0 803f f985 7f3f 9020 803f
00000060: 0cb3 823f 344f 833f bf75 7e3f 1e3a 823f
00000070: 17c3 7e3f 6129 843f 981c 803f 099a 7f3f
0.9995744 1.0050763 0.99711365 1.0004568 1.0202528 0.99602485 1.0160896 0.99976754
1.0057776 1.012593 1.008139 1.0165907 1.0004315 0.9905563 0.98356724 1.0059531
0.9922761 1.0222121 0.99314874 1.0079579 0.99437433 1.0063678 0.998138 1.0009937
1.0210891 1.0258546 0.99398416 1.0173986 0.99516433 1.0325128 1.0008726 0.99844414

embed.embedding_net.bn1.bias f4 [32]
00000000: 5fb0 1539 f532 96ba 0b95 b8ba 3661 943b
00000010: 711d d83c 1d02 863b 126e 783c 96e7 b5ba
00000020: 2c4e d43b b8d6 1a3c fde9 14ba 86ef 563b
00000030: f563 2d3c 2405 82bc de6b 63bc 13c7 c1ba
00000040: 038a 03bc d521 fa3b 5df6 03bc cee3 4d3c
00000050: abb8 44bc c3ba ca3b 28e1 bc3b 3a70 32bb
00000060: 2e0a 133c 159d 823a 62ef 57bb fe21 d43b
00000070: aa6b 54ba 36a0 973c 7f2d d93b 706c 77bb
0.0001427545 -0.0011459278 -0.0014082504 0.00452819 0.026381226 0.0040896074 0.015162962 -0.0013878222
0.0064790454 0.009450607 -0.0005680619 0.0032796576 0.010582914 -0.015871592 -0.013880698 -0.001478406
-0.00802851 0.0076334276 -0.008054343 0.01256652 -0.012006919 0.0061868145 0.0057641454 -0.0027227537
0.008974595 0.0009965027 -0.003294908 0.0064737787 -0.00081032014 0.018509012 0.006627738 -0.0037753843

embed.embedding_net.bn1.running_mean f4 [32]
00000000: 7858 89bd fdf0 d63d 9de5 7d3d dd9b 04bd
00000010: 0408 c7bc 3fd5 153e a759 5fbe be0c 6ebe
00000020: 2f45 ddbd ab6a 16be eab3 64be e283 003e
00000030: 856d babe a9ae 943e a017 d43d cf90 bd3d
00000040: ace3 143e 7d7e 27be 5258 953e ceda 1c3e
00000050: 66d3 e03d 9819 ff3d 5b23 b13d bb52 f5bc
00000060: bf20 173e f032 d2bd 2666 00be 95a6 a23d
00000070: ff4f 353c 40d5 1dbd 44ef 493e 9e86 83bd
-0.06706327 0.104951836 0.061986554 -0.032375205 -0.024295814 0.14632128 -0.21811543 -0.23247048
-0.10804211 -0.14689128 -0.22334257 0.1255031 -0.36411682 0.29039505 0.103560686 0.09256136
0.14539975 -0.16356845 0.29168946 0.15317842 0.10977821 0.124560535 0.08649322 -0.029946676
0.14758585 -0.10263622 -0.12538967 0.07941929 0.011066436 -0.03853345 0.19720179 -0.064221606

embed.embedding_net.bn1.running_var f4 [32]
00000000: 3a70 a83b 35e6 a63b a684 403b 9f21 093c
00000010: adca e53b 3dca 2e3b 7361 2e3b 9244 323c
00000020: 96bb bd3a cd90 1a3c 798e 043c 0c9f bc3a
00000030: a111 243b de83 583c cf3e 1a3b d9c0 203b
00000040: 60ea 3d3b 8815 793b 5f44 5f3c f2de c63b
00000050: c5f3 303b a29a 1f3c 35ad 963b 1c0f 4d3b
00000060: 9158 1e3b e3f9 063b f4a2 0c3b 60e0 ed3b
00000070: 54fb 423c fb0d e73a 26e4 0b3c c397 583b
0.0051403316 0.005093361 0.002937594 0.008369832 0.007012686 0.0026670836 0.0026608377 0.010880606
0.0014475461 0.009433937 0.008090609 0.0014390661 0.0025034922 0.013215033 0.0023535972 0.0024529009
0.002897881 0.0038007218 0.013627141 0.0060690576 0.0027000767 0.009741457 0.0045982846 0.0031289523
0.0024161676 0.0020595721 0.0021459432 0.0072594136 0.011900742 0.0017628068 0.008538282 0.0033049441
