trained_managers/100_100_5_MH_gin_32_overall.pth (torch, 271880 bytes, 74 tensors)

key_policy.weight f4 [64, 32]
000000 68 1c e0 3c d7 da 4a 3c 37 5c 3a 3e 5b 26 0b 3d
       0.027357295 0.012381277 0.1819924 0.033972126
000010 50 db c7 bd 3a 53 bd bc 10 95 44 3d f9 9b a5 3d
       -0.097586274 -0.023110975 0.04799372 0.0808639
000020 37 3e 57 3c 1f ea 00 be c0 20 9b bd 8c 3b 75 bc
       0.013137392 -0.1258931 -0.07574606 -0.01496781
000030 82 18 f3 3c 9e 12 9d 3d af 4f db bd 40 cf 99 3d
       0.029674772 0.076695666 -0.10708558 0.07510233
000040 88 43 fa 3d c8 13 3a 3d bc 72 56 bd bf bf a9 bd
       0.12219912 0.04542902 -0.052355513 -0.08288526
000050 df a3 f7 bd 3b ab 97 bd 32 2e 33 bd 26 51 fa 3d
       -0.12091803 -0.074057065 -0.043745227 0.12222509
000060 4d 77 4b 3d 64 9d 55 bd 03 90 e4 bd ab 23 ff 3d
       0.04967432 -0.052152053 -0.111602806 0.12457975
000070 2c a4 e0 bd fd 68 e1 bc e7 be 0f bb 4c 88 23 be
       -0.10968813 -0.027515883 -0.0021933855 -0.15969962
000080 4d 79 ff 3d cc 4d 18 be 87 26 d7 3d 14 b4 86 3d
       0.12474308 -0.14873427 0.105053954 0.06577316
000090 5a 91 85 bd ca bf bf bd 78 41 04 3e 4d 55 ac bd
       -0.06521864 -0.09362753 0.129156 -0.08414707
0000a0 c4 7d 1d 3e fe 40 b7 ba 47 3e 2b 3e e3 ca fe 3d
       0.15380007 -0.0013981161 0.16722976 0.12441041
0000b0 d3 4d 42 bd 60 6e fa bc 3d be 08 bb c1 fc fe 3d
       -0.0474375 -0.030570209 -0.0020865344 0.12450553
0000c0 70 52 6a 3c 56 4b a3 bd fb 2f 4e bb 9d 51 ad bc
       0.014301881 -0.079733536 -0.0031461704 -0.02115708
0000d0 1c e8 28 3e 1b f3 9c 3d 6b fd e1 bd 8a f1 e4 bd
       0.16494793 0.07663556 -0.11034664 -0.111788824
0000e0 8b 1c be bd 99 85 d3 3d bb 21 86 3c d5 e9 3f bd
       -0.09282788 0.10328216 0.016373506 -0.04685386
0000f0 40 71 2b 3d 63 14 e8 3d 1e 45 0c 3c 67 f9 92 3d
       0.04185605 0.113320135 0.008561401 0.07176476
000100 70 1f c1 bc 74 3d 5f 3d 72 2f da 3d af 03 db bc
       -0.02357456 0.054501966 0.10653581 -0.026735155
000110 bf 3a 7d bd 03 5c 72 bd 4f 8e 81 3d c9 6b bc bd
       -0.061823603 -0.05916978 0.06325971 -0.09200246
000120 78 dc 29 3e 78 28 bc 3d f4 c6 18 be 6b 5d 7f bd
       0.16588008 0.09187406 -0.14919645 -0.06234495
000130 ef 22 1c 3e 93 65 8a bd 2b 4a 2c be 53 c0 db 3d
       0.15247701 -0.06757655 -0.16825168 0.10730042
000140 13 9f 19 be e6 c1 28 bd bd dc 5a bd 54 9e ce bd
       -0.15002088 -0.04120054 -0.05343317 -0.100887924
000150 e8 5c 17 3e f0 0f bd 3d 44 51 aa bd 9d 55 b1 bc
       0.14781535 0.092315555 -0.083162814 -0.021647269
000160 e1 4d 77 bd 0a c0 19 bd dc 88 96 3d 18 4c 24 bd
       -0.060377005 -0.03753666 0.073503226 -0.04011163
000170 a8 4a 5f 3d fc 84 fa bc e0 80 0b be 87 f9 2d 3e
       0.054514557 -0.03058099 -0.1362338 0.16989718
000180 f6 7f 37 3e c3 bc b1 bd dc c8 64 bd 1f f6 d4 bd
       0.17919907 -0.086785816 -0.055855617 -0.103985064
000190 45 56 cb 3d 03 e4 ba 3d d5 ec 7c 3d df 5c 37 bd
       0.09928564 0.09125521 0.061749298 -0.044766303
0001a0 16 29 4c 3c 27 09 f3 3d cb f9 57 3d b4 73 1e 3e
       0.0124609675 0.1186698 0.052728456 0.15473825
0001b0 f1 67 a9 3d 5f d0 fe bd d0 fd 0b be 4c 31 ed 3d
       0.082717784 -0.124420874 -0.1367104 0.11581668
0001c0 29 3c e2 bc a1 36 96 bd 7c 9b ae 3d 5b d6 49 bd
       -0.027616577 -0.073346384 0.0852575 -0.04927669
0001d0 4e f6 05 be 26 9c a4 bd ff ae 11 bd b3 d2 73 bd
       -0.13082239 -0.080375955 -0.03556728 -0.05952711
0001e0 3f b2 2a 3d 22 82 4d bd 02 f7 26 3e c5 4e 82 3d
       0.041673895 -0.050172932 0.16305164 0.0636268
0001f0 3a aa ae bd ae fa d9 bd 1f a4 a3 bd 0e 41 d4 3d
       -0.08528562 -0.106435165 -0.07990288 0.10363971
000200 a7 82 a1 bd 90 0d e0 39 c7 33 06 3e 69 36 6a bd
       -0.07886248 0.00042734714 0.13105689 -0.057180796
000210 f9 3b e1 bb e7 53 bd bd 6f fd 16 3e 81 65 51 3d
       -0.0068736044 -0.09244519 0.14745115 0.051122192
000220 d5 3c f5 bc 1c 23 a3 bd d1 b0 18 3e 0e 3a ca 3d
       -0.029936234 -0.07965681 0.149112 0.09874354
000230 ec 25 61 3d 6f 62 d2 3d f9 4e 13 3e ea 3e 9c 3d
       0.054967806 0.10272681 0.14385594 0.076291874
000240 fc 3e 19 be 81 d0 a2 bd f2 48 5e bd 85 cb 34 3e
       -0.14965433 -0.07949925 -0.054268785 0.17655762
000250 cb 35 b7 3d 1e d6 d9 bd 02 e5 af 3d 8c 62 b4 bd
       0.08945807 -0.10636543 0.08588602 -0.08807859
000260 b4 b5 1f 3e 87 75 39 bd b1 b2 64 3d 19 33 e6 3d
       0.15596658 -0.0452781 0.055834476 0.11240215
000270 69 34 ec 3d 1b e1 1e bd 5a b2 17 3e 13 b4 8c 3c
       0.11533434 -0.038788896 0.1481413 0.01717571
000280 80 63 3d bd 5c 81 2f be fb 0f 1c 3d c6 4e 17 3c
       -0.04623747 -0.1713919 0.038101178 0.00923509
000290 62 79 79 bc 8f 82 6c bd 7f 55 21 3e 55 de 68 bd
       -0.015226694 -0.057741698 0.1575527 -0.056852657
0002a0 87 fb 9c bd 39 03 66 bd 16 1d 2f bd db 88 c6 bd
       -0.076651625 -0.056155417 -0.042752348 -0.09694072
0002b0 c8 fd 27 3e 72 dc 35 3e df 88 f4 bd 7f 28 ca bd
       0.16405404 0.17759874 -0.119401686 -0.09871005
0002c0 9d 50 21 3d 0a 71 25 3d 3e cb 56 bd a1 aa 23 be
       0.03938352 0.040391006 -0.05243992 -0.15983059
0002d0 d7 6a 30 3e c9 26 2d bd 0f 0f 17 3e dc bc 9a bd
       0.17228256 -0.042273317 0.14751838 -0.07555553
0002e0 bb 74 62 bd 77 7f ac 3d b9 39 53 3c 62 49 eb bc
       -0.055287104 0.084227495 0.01289218 -0.028721515
0002f0 cc 8b 4b bd 06 19 fa 3d b1 dd a8 3d b8 9f 51 3c
       -0.049693868 0.12211804 0.08245409 0.012794428
000300 4d fa 1a 3e 83 e2 46 3c e2 5f 3e 3e 52 d2 c9 bc
       0.15134545 0.012138966 0.18591264 -0.024636421
000310 b2 2b 28 3e 55 00 10 3d 8e 65 06 be f3 7b af bd
       0.16422918 0.035156567 -0.13124678 -0.08568563
000320 0c 93 36 be c0 53 8d 3d 75 b7 a6 3d ac 40 32 3e
       -0.17829531 0.0690074 0.081404604 0.17407483
000330 d4 8d fa bd f8 64 fa bc 4a 36 1e be 45 da e8 3d
       -0.12234083 -0.030565724 -0.15450397 0.113697566
000340 f9 da 66 bc 44 31 c8 bd 7f e8 c3 bc 09 bc 81 3d
       -0.014090293 -0.09775022 -0.023914574 0.06334693
000350 5b 1a 27 3e 2f 50 8e bd 6b 56 20 3c 0d a7 e2 bd
       0.16318648 -0.069488876 0.009786229 -0.11067019
000360 b3 7f 5e 3d 7c d4 8d 3c 82 8d 82 3d a1 9d f6 3d
       0.054321002 0.017313235 0.06374647 0.12041784
000370 4b 2e 8a 3d ac 6a ec 3c f0 74 1f be d4 ff 62 bc
       0.06747111 0.028859459 -0.15571952 -0.0138549395
000380 87 17 b9 bd f1 96 83 3b 40 b2 d7 bd 38 69 bb bb
       -0.090376906 0.0040157964 -0.10532045 -0.00571933
000390 ab b4 02 be 24 25 e8 3d f0 ec b3 bd 83 d4 b7 bd
       -0.12764232 0.11335209 -0.087854266 -0.0897608
0003a0 01 24 18 3e dc f1 0d 3d d6 28 07 be 6f a9 ec bd
       0.14857484 0.034654483 -0.13199171 -0.115557544
0003b0 a7 45 01 bc b1 03 2e be 23 b6 e1 3d 35 f3 ba 3d
       -0.007890142 -0.16993596 0.11021068 0.09128419
0003c0 bc 6a 0a be d5 70 62 3c 07 a1 12 3e 63 a6 d4 bd
       -0.13517278 0.013820847 0.1431924 -0.10383298
0003d0 07 36 18 be 92 37 8f bd 2c e7 10 be d6 25 d5 3c
       -0.1486436 -0.06993021 -0.14150685 0.026019018
0003e0 f4 31 98 bd 8b c0 1f be d1 a2 05 be 78 c1 05 3e
       -0.07431403 -0.15600793 -0.13050391 0.13062084
0003f0 96 55 f7 bd 0e 03 84 3d 64 e2 ae bd 1f 46 c1 bd
       -0.12076871 0.06445895 -0.08539274 -0.09437203

key_policy.bias f4 [64]
000000 d7 16 3a bd 4f 5b 5c bc 15 b8 ed bd ec bb 35 3e
       -0.045431938 -0.013449504 -0.116073765 0.17747468
000010 f8 ac 0b be fb a4 fd bd f2 80 12 bc 8d 96 6b 3d
       -0.13640201 -0.12384983 -0.008941876 0.057516623
000020 75 98 a8 3d ed df 1e 3e b4 38 b0 3d 90 89 24 be
       0.08232204 0.15515108 0.08604565 -0.16068101
000030 f9 57 8d 3b 5c 91 8b 3d 33 8d b5 bc a0 b8 de 3d
       0.0043134657 0.068148345 -0.022162056 0.10875058
000040 47 76 f5 bd b3 72 7f 3c 0f f7 48 bd cc 3f 42 bd
       -0.1198545 0.015591311 -0.04906374 -0.047424123
000050 65 be 2a be 7a 75 d1 3d d2 0d 1d be 4f f0 cd bc
       -0.16674192 0.10227485 -0.15337303 -0.025139002
000060 01 38 38 3d aa e6 ba bb 6e 3e 04 3e 3f 40 1b 3d
       0.044975284 -0.005703767 0.1291444 0.037903067
000070 11 cc fd 3d a2 ca ce bd 33 e4 7d 3d 2f 0b 35 bd
       0.12392438 -0.10097243 0.061985206 -0.04420012
000080 63 49 27 3e b5 46 dc bd 34 48 31 3e 91 ed bc bd
       0.16336589 -0.10755674 0.173127 -0.09225
000090 46 ec 15 3e 3e d2 54 3d 4b ef c1 3d fe 0b 13 3e
       0.14640912 0.051958315 0.0946947 0.14360043
0000a0 a6 5a ed 3d a0 30 1b be ab 64 fe 3c 03 65 12 bd
       0.115895554 -0.15155268 0.031053862 -0.035740864
0000b0 47 7e 18 3e bf c2 27 3e 2c 74 06 3e b3 83 65 bd
       0.14891921 0.16382883 0.13130254 -0.0560338
0000c0 54 1e 0d be 01 58 a7 3d b2 65 e3 bd bc 0d 2a be
       -0.137811 0.08171082 -0.11103381 -0.16606802
0000d0 9d ae f5 3d 20 15 fd 3d ee da ca bc 18 40 7d 3d
       0.119961955 0.12357545 -0.024762597 0.061828703
0000e0 22 fa ba 3d 4f b5 ab 3c ba e2 ea bd 55 45 3d bc
       0.0912974 0.020960478 -0.11469026 -0.011552175
0000f0 28 70 f0 3d 51 d9 75 3d 8b 02 28 be 4e b4 1b 3b
       0.11740142 0.060021702 -0.1640722 0.0023758593

q_policy.weight f4 [64, 64]
000000 45 60 13 bd ef 71 42 3d 60 47 e5 3d 15 b1 7c bd
       -0.03598048 0.047471937 0.11195254 -0.061692316
000010 8d e7 83 3d e2 cb f3 bd 66 16 f9 3d f3 61 f0 bd
       0.06440649 -0.11904122 0.12162475 -0.11737432
000020 35 ed f0 bd fb 29 fa 3c 26 c7 fe bd e9 62 00 3e
       -0.11763994 0.030537596 -0.12440328 0.12537731
000030 a8 24 d1 bd 16 5e 84 3c b8 b3 eb 3c e1 70 dc 3d
       -0.1021207 0.016158145 0.02877222 0.107637174
000040 07 d8 2c bd 56 ba 07 3e 74 14 8f bc d1 96 90 bd
       -0.042198207 0.13254675 -0.017465807 -0.07060016
000050 de b6 81 bd 86 ee 4b 3c b5 0b de 3c 74 28 e1 bd
       -0.06333707 0.012447005 0.027105192 -0.10994044
000060 2b ae 08 bd 52 c2 94 bd 71 c8 47 bd e9 b0 13 bd
       -0.033369225 -0.07263626 -0.04877514 -0.036057387
000070 57 01 62 bd b4 a8 c5 3c 0e 70 66 bd 00 fe e2 3b
       -0.05517706 0.024128295 -0.056259207 0.006927252
000080 8c 3e cc bd 33 8e 0b 3d 7e 57 d5 bd bb 42 11 3d
       -0.09972867 0.03407116 -0.104170784 0.03546403
000090 e3 b4 0a be 37 37 a9 3d c2 b4 da 3d 23 74 e9 3c
       -0.13545565 0.082624845 0.10679008 0.028497761
0000a0 76 d6 b5 3c 7f cf 34 bd 2c e8 c4 3d db 50 a0 3d
       0.02219699 -0.044143196 0.09614596 0.07827922
0000b0 3b 68 20 bd 6b 9c a8 bd 12 05 77 bd 55 b1 78 bd
       -0.039161902 -0.08232959 -0.06030757 -0.060715992
0000c0 2c 7b 84 3c 5e be a6 3d 92 99 97 bd a3 cf 1d 3d
       0.016172014 0.081417784 -0.07402338 0.038528096
0000d0 46 c1 44 3d 49 0c a4 3d 7e b2 b4 3d a8 b9 88 bd
       0.048035882 0.08010156 0.08823107 -0.06676036
0000e0 29 e6 dd 3d 4d 60 c0 3d b2 a0 4b 3d 29 30 04 3c
       0.10834915 0.09393368 0.049713798 0.008068123
0000f0 e4 a5 9c 3d 53 73 9f 3d 65 0f bf 3d 2d 7f 09 be
       0.076488286 0.07785668 0.09329108 -0.1342742
000100 f2 97 f7 3d 2e 47 eb 3c e3 0a 8a bd c3 4d af 3c
       0.12089528 0.028720465 -0.06740358 0.021399384
000110 8a 20 0a 3d ff df ba bd 4c e4 2a bd d8 12 81 3d
       0.033722438 -0.09124755 -0.041721627 0.06302422
000120 b6 5b 92 bd 76 10 5f bd 8e f1 d7 3c 07 af 4b 3d
       -0.07146399 -0.054459058 0.0263603 0.049727466
000130 18 ea e0 3d 51 08 ca 3d 56 d8 11 bc 2c 1b d0 3d
       0.1098215 0.098648675 -0.008901676 0.101614326
000140 ea 36 7d bc a7 58 fc 3d f9 58 fa bc 8c 48 9a 3d
       -0.015454987 0.123215966 -0.030560004 0.075333685
000150 82 43 1c bd 27 80 90 bc 6d a4 36 3d cb bd 99 3d
       -0.038150318 -0.017639233 0.044590402 0.07506903
000160 2d 90 f8 bc 75 9d 01 3d 81 82 de bd 1d c6 94 3c
       -0.030342186 0.031644303 -0.108647354 0.018160874
000170 28 da 28 bd 15 cb 82 bc a8 27 9b 3d 5c 6d fc bd
       -0.041223675 -0.015965978 0.07575923 -0.12325546
000180 2b 77 c6 bd 13 36 fc 3d 74 8f 55 bd 62 e0 a3 3d
       -0.09690698 0.12315001 -0.05213876 0.08001782
000190 79 4b 23 bd fa 4f 94 bd 9f 18 9b 3d 7b dd 09 3c
       -0.0398669 -0.07241817 0.075730555 0.008414621
0001a0 fb c6 4e 3d 15 91 7b bd e3 7c 45 bd a5 a8 be 3d
       0.05048273 -0.061417658 -0.048214804 0.0930951
0001b0 09 db 21 3d a5 62 fd 3d 6b 25 d5 bd d0 48 b0 3c
       0.03951553 0.123723306 -0.104075275 0.021519095
0001c0 72 2e b0 b9 72 a8 75 bd a9 61 b5 3d b4 33 aa 3d
       -0.0003360394 -0.059975095 0.08856518 0.08310643
0001d0 1c 37 94 3a 4d 5a 77 bc fc 4b 1b 3c b0 e4 a3 bd
       0.0011307928 -0.015097213 0.009478565 -0.08002603
0001e0 ee 66 8b 3d de 3b b1 3d b0 ab 90 bc d0 36 a6 bd
       0.06806742 0.08653997 -0.017659992 -0.081159234
0001f0 3b c7 e5 3d 51 94 87 3d be d7 30 bd 57 d6 34 3c
       0.11219641 0.06620086 -0.043174498 0.011037431
000200 8d 6e fe 3d 2a 32 0d bd d7 c7 0e bd 02 9b d7 bc
       0.1242343 -0.03447167 -0.03485855 -0.02631903
000210 36 c1 a3 bd d1 1b ee bc f4 e3 ab 3b 08 e9 a9 bd
       -0.079958364 -0.029065998 0.00524568 -0.082964
000220 db d6 f0 3d 90 a0 20 3d ca ee a0 3d 1c 08 f7 bd
       0.117597304 0.039215624 0.078580454 -0.120620936
000230 6d 4c d1 bd de e5 9c 3d b4 88 b9 bd c3 9f 2e 3d
       -0.10219655 0.07661031 -0.09059277 0.04263283
000240 15 41 32 bd 04 89 94 bc 08 79 d8 3d ea 15 7b 39
       -0.0435191 -0.01813174 0.1056996 0.00023945389
000250 67 0f 82 3d 82 aa 7d 3d b0 41 e5 bd eb 50 89 bc
       0.06350594 0.061930187 -0.111941695 -0.016762218
000260 8c 66 8f bd a7 3a 9b 3d f4 bd 75 bd ca 59 e4 3d
       -0.07001981 0.075795464 -0.059995607 0.111499384
000270 f8 42 c5 3d 71 26 b5 3d e0 aa cb 3d 8f 28 94 3d
       0.09631914 0.08845223 0.09944701 0.072342984
000280 bb 32 f8 3d 96 8e 0a bc 73 a9 29 bd ed d2 02 be
       0.12119051 -0.008456847 -0.041421365 -0.12775774
000290 0c dd 79 bd 85 1a 7a bd 65 5b b6 bd c9 fe cd 3d
       -0.061001822 -0.061060447 -0.08904151 0.10058362
0002a0 b3 9f 73 3d 06 6e b2 3d 43 4c 3d bd fe 00 3b bd
       0.059478473 0.087123916 -0.046215307 -0.045655243
0002b0 4f a0 c6 3d 73 e6 82 3d 48 3a b0 3c 06 8f a6 3c
       0.09698545 0.06391611 0.021512166 0.02033187
0002c0 a0 4c d5 bd fb 30 e2 bd 76 bb ec bd 7c 91 a7 3d
       -0.10415006 -0.110444985 -0.11559193 0.08182046
0002d0 88 f0 98 bd 2c d5 b0 bd 37 60 af 3d b4 15 8c bd
       -0.07467753 -0.08634409 0.085632734 -0.06840077
0002e0 44 b7 f2 3d 69 c2 d2 3d cb 3b c9 3d cf 3f 33 3c
       0.118513614 0.10290987 0.09825858 0.010940506
0002f0 d1 0f 3e bd ee 06 bd bd e7 33 82 bd ac 48 a7 3d
       -0.046401802 -0.09229837 -0.06357556 0.08168158
000300 80 64 50 bd ff cc 8c bd 16 09 f0 3c 38 34 cc bd
       -0.050877094 -0.068750374 0.029301208 -0.099708974
000310 96 5f f5 3b 1a 85 40 3d 06 28 b0 bd b1 64 22 3c
       0.0074882014 0.047001936 -0.08601384 0.009911702
000320 c5 a9 a3 3d bc 12 7c 3c 59 a2 d3 bd be d8 98 bd
       0.07991365 0.015385326 -0.103337 -0.07463215
000330 f5 d7 cc 3d cd 0f d1 bd 68 dc 97 3c 8d bd 8b bc
       0.10002128 -0.10208092 0.018537715 -0.017058158
000340 18 6a ce 3d 3a 7e 6b 3d 2f 02 26 3d d5 91 92 bb
       0.100788295 0.057493426 0.040529426 -0.004472951
000350 96 04 b0 bd fc bc c9 bd b9 da ea bd 75 a4 06 3d
       -0.08594625 -0.09850499 -0.11467499 0.032871682
000360 b7 19 43 3d 4a 39 6e bd 23 2b d9 bc 0a 55 2a 3d
       0.047631945 -0.058160104 -0.026509827 0.041585006
000370 2a 9a c6 3d f9 c2 81 bd 4f 85 c6 3d 60 81 e0 bc
       0.09697373 -0.06336016 0.09693395 -0.02740544
000380 04 74 ad bd 66 0c 7d 3c fb 84 bc 3d 3c 2c dc bc
       -0.08469394 0.015444851 0.092050515 -0.026876561
000390 ae 3f c0 bd 84 73 51 bd 7c ea bb 3d d6 a5 29 3d
       -0.09387146 -0.051135555 0.09175584 0.04141792
0003a0 92 f8 46 bc ab 91 a5 3b 68 68 67 b9 b7 7e 64 3d
       -0.012144225 0.0050527654 -0.00022068771 0.055784907
0003b0 c9 41 ce bd b2 f1 99 bd 5a 59 e7 3d f2 26 28 bd
       -0.10071141 -0.07516803 0.11296339 -0.041052766
0003c0 b7 df 84 3b 87 5a d5 bd 52 f0 aa bd cc 9b 3d bd
       0.004054989 -0.10417657 -0.08346619 -0.046291158
0003d0 f6 cf 41 3d 6d ad 81 3d ee 2c 5e bc 5f af 2e bd
       0.047317468 0.063319065 -0.013560517 -0.042647716
0003e0 21 4e 97 3d d5 26 75 bd c6 f4 77 bd ff 2f 39 bc
       0.07387949 -0.059851486 -0.06053617 -0.011302947
0003f0 05 c6 ee 3d 2e 6e cb 3d 8f 16 91 3d 1e fa cb bb
       0.11658863 0.099331245 0.07084381 -0.0062248847

q_policy.bias f4 [64]
000000 50 5a f9 bd a1 72 ec bd 9f 65 6f bc 98 42 4a 3c
       -0.12175429 -0.11545301 -0.014611631 0.012344979
000010 e9 7c 02 be fb 1a 8c 3d 8e 41 07 be 80 4e b1 bd
       -0.12742962 0.068410836 -0.13208601 -0.08657551
000020 af de e3 bc 76 7e 92 bd 27 31 8f bc 51 63 82 3c
       -0.027816145 -0.07153027 -0.017479492 0.015916498
000030 eb 95 3e 3d b5 e7 ee bc 23 83 43 3d 6b 6d 1c be
       0.04652969 -0.02916322 0.047732484 -0.15276115
000040 7b 32 13 3e 03 55 9d bc af 49 bc bd 32 a0 16 3c
       0.14374726 -0.019205576 -0.091937415 0.009193467
000050 59 b7 40 bd 11 58 4b 3c 8a ae 9d 3d 0c e3 8b 3c
       -0.047049854 0.012411133 0.07699306 0.017076038
000060 4c 55 06 be 86 3c 98 bd 32 4d 81 3c 6e a4 1e be
       -0.13118476 -0.07433419 0.01578388 -0.15492412
000070 9f e4 a4 3d 42 c1 37 3d 9c 84 3e bd 61 7d 40 3d
       0.080514185 0.04486204 -0.046513185 0.04699457
000080 15 2d 36 3e 5e 08 f5 3d 09 f2 cc bd 11 20 b4 3d
       0.17790635 0.119644865 -0.10007102 0.08795179
000090 e9 98 3b 3d 8c 20 a2 3c 5f 5b 5d bd 73 09 01 bd
       0.045800123 0.01979091 -0.054042216 -0.031503152
0000a0 7c fc 01 be 66 d6 0d be 76 f4 90 3d 3b 81 e1 bd
       -0.12693971 -0.13851318 0.07077877 -0.11010977
0000b0 b2 98 2e bd 3f 0c ca 3c 00 86 d3 bd 2d 0f 8d 3d
       -0.04262609 0.024664043 -0.10328293 0.0688766
0000c0 5c 73 8b bc 0e c0 bb 3d 56 e8 cf bd e0 c3 bd bb
       -0.017022781 0.09167491 -0.101517364 -0.0057911724
0000d0 06 30 05 be 08 b9 00 3d b9 da 9f 3b c6 2a 83 bd
       -0.130066 0.03142646 0.0048783687 -0.06404643
0000e0 75 ee 9e bd f5 55 bb bd 6b 54 8f 3c 68 8b a1 3c
       -0.07760326 -0.091472544 0.017496308 0.019719794
0000f0 2d c0 ae 3d 16 78 26 be df 97 41 3d d3 73 8a bd
       0.08532748 -0.16256747 0.047263976 -0.06760373

embed.embedding_net.lin1_1.weight f4 [32, 4]
000000 13 e5 87 3e aa 99 1c 3e 13 a7 1e bb a1 3c 9c ba
       0.26541957 0.15292993 -0.002420847 -0.0011919924
000010 3f 73 1f 3e c0 d7 c3 3e dc 19 f4 be 4c d2 80 3e
       0.15571307 0.38250542 -0.4767598 0.25160444
000020 1a ab cb 3e fa 92 a9 3d 89 b1 f2 bd 95 68 b7 be
       0.39778978 0.08279987 -0.118502684 -0.35821977
000030 74 f4 84 be 29 12 de bb 9d 11 53 be d1 19 34 3e
       -0.25967753 -0.006777067 -0.20612188 0.17587973
000040 cd ac df 3e 03 0a 96 3e a5 3b 06 3e e7 96 7c 3e
       0.43686524 0.29304513 0.1310869 0.2466694
000050 03 55 96 be ac 82 97 bc 13 d6 0d be 6c 02 68 3e
       -0.29361734 -0.018494926 -0.13851194 0.22657174
000060 40 fd 63 be aa 81 9c 3c a6 19 f7 bd c0 38 3d 3d
       -0.22264576 0.019104797 -0.12065439 0.0461967
000070 e9 0a b1 3c b2 25 d8 bd f9 dd 92 3c 15 ed 8f be
       0.021611648 -0.10554065 0.01792811 -0.28110567
000080 a2 0a d3 be 7c 43 a9 3e 3c d3 8b 3e 07 a1 99 3e
       -0.4121905 0.330593 0.27309597 0.30005667
000090 77 30 7c 3e 4e 65 0f 3e 44 bd b9 bb 8b 71 df be
       0.24627863 0.14003488 -0.005668314 -0.43641314
0000a0 a6 f6 95 be ae 64 9a be dc ff 3f bb 39 b1 ac 3e
       -0.2928974 -0.30154938 -0.0029296791 0.3372896
0000b0 69 fa d8 3e 1e c0 e9 be cf f6 f4 3e cf bb 31 3e
       0.42378548 -0.45654386 0.4784455 0.173568
0000c0 23 07 1f be c2 fc 23 be 3a 9f 00 be 9a 7a ee 3e
       -0.15530066 -0.16014388 -0.1256074 0.46577913
0000d0 b6 87 f0 be 3f 88 00 bd 9a 1d c7 3d 56 7a ac 3e
       -0.4697854 -0.031379934 0.09722443 0.33687085
0000e0 7f 7f 88 3e 61 d5 89 be f5 5d 03 3e f0 97 a1 bd
       0.26659772 -0.26920608 0.1282881 -0.07890308
0000f0 f4 d6 b6 3e c2 74 f7 3e 99 0a 9e bd 8d df e4 3e
       0.3571087 0.48331267 -0.07716865 0.44701806
000100 cd 43 08 be e6 f2 b8 be 9f 0a 7c bd 7c 3a ba 3e
       -0.13307114 -0.36122817 -0.061533567 0.36372745
000110 0f a8 4b be 6e 05 a5 be 03 1c 65 be f2 3f 9c 3e
       -0.19888328 -0.32230705 -0.22373967 0.30517536
000120 4f 24 27 3e 9b cb b9 be 57 87 fd 3e 97 b3 c9 3e
       0.16322444 -0.3628815 0.4951732 0.3939483
000130 6d 09 e8 be 12 b2 cc 3e 82 70 88 3e 74 6e 5d 3e
       -0.4531969 0.39979607 0.26648337 0.21624166
000140 a9 00 b9 3e 68 d5 43 be 7e dd 09 be 68 55 80 3d
       0.36133316 -0.19124377 -0.13463399 0.0626629
000150 8b ef c2 be 0a 2c 16 3d ed b7 c5 3e 87 c4 b4 3e
       -0.38073382 0.036663093 0.38616887 0.35306188
000160 bb 68 d6 be d2 62 b2 be 80 e4 18 be 16 40 95 3e
       -0.41876778 -0.3484102 -0.14930916 0.29150456
000170 51 f5 1b 3d 31 5c bc 3e 60 e5 6c 3e 48 7c de 3e
       0.03807575 0.36789086 0.23134375 0.43454194
000180 88 e8 e8 be d1 45 a0 bd 4c 50 bb bd d0 4d a5 3e
       -0.45489907 -0.078258164 -0.09146175 0.3228593
000190 e6 4a a6 bd 5d 2e 02 3c e0 d0 b5 3e 2e a4 c7 be
       -0.081197545 0.007945624 0.3551092 -0.38992447
0001a0 0f 9c 54 be 83 44 d8 3e 72 2e 31 be 45 f8 e6 be
       -0.20762657 0.4223977 -0.17302874 -0.4511129
0001b0 09 9e 91 3e b7 88 e4 3d 94 ff b7 be 28 42 b0 be
       0.28440884 0.11158889 -0.35937178 -0.34425473
0001c0 e6 06 03 3f f5 53 8d bc 5c db ed 3e c9 d7 e3 bd
       0.511824 -0.017251948 0.4645642 -0.11125142
0001d0 0b 2a 11 be ee 1e da 3e c6 21 b4 be 42 06 6f 3d
       -0.14176194 0.42601722 -0.35182017 0.058355577
0001e0 f4 65 57 be 65 07 c4 3e 8d 8e 67 be ed d9 b4 bd
       -0.21034986 0.38286892 -0.22612973 -0.088306285
0001f0 2a b4 e3 be b0 51 ab 3e 68 70 9a 3e bc 6b 6c be
       -0.44473392 0.3346076 0.30163884 -0.23087972

embed.embedding_net.lin1_1.bias f4 [32]
000000 fd a0 5c be 1c 81 92 bc 03 54 60 bd 18 c9 f9 be
       -0.21545787 -0.01788383 -0.05476762 -0.48786235
000010 f0 98 6f be 46 dc 91 be c1 7b a9 be 4e ec d0 3d
       -0.23398185 -0.28488368 -0.3310223 0.102013215
000020 65 1e d6 3d 9c e7 ad be fa b1 de be 12 c7 89 bd
       0.10455016 -0.33965766 -0.4349516 -0.06727423
000030 ce c9 91 be 39 3d e8 3e 25 1b b6 be 62 8d 42 bc
       -0.28474277 0.4535921 -0.35567585 -0.011874529
000040 73 f3 21 be 11 8d 55 3e a9 13 5d 3e f8 b4 c9 be
       -0.15815525 0.20854594 0.21589531 -0.3939588
000050 20 0d d9 be 92 d3 b9 3e 0c f9 54 be db c5 ce 3c
       -0.42392826 0.36294228 -0.20798129 0.02524083
000060 1a 69 44 3e 49 9d a0 be 6e 7a 02 be ba fc d4 3e
       0.19180718 -0.3137 -0.12742016 0.41599065
000070 3c e2 7a be 75 ac 8f 3e 4e 70 80 3e de dd be be
       -0.24500364 0.28061262 0.25085682 -0.37278646

embed.embedding_net.bn1_1.weight f4 [32]
000000 81 d8 82 3f c0 a4 81 3f 47 3f 7e 3f 38 ba 81 3f
       1.0222322 1.0128403 0.99315304 1.0134954
000010 72 27 7f 3f 36 02 7e 3f 58 ed 80 3f 92 5b 80 3f
       0.99669564 0.99222124 1.0072432 1.0027945
000020 dd 2b 7f 3f 49 8d 80 3f a6 18 80 3f 0c 96 7e 3f
       0.99676305 1.0043117 1.0007522 0.99447703
000030 04 a3 7f 3f 1d 9b 7f 3f 01 5b 80 3f 43 07 7e 3f
       0.9985812 0.9984606 1.0027772 0.9922983
000040 4e 84 7e 3f 3f 5c 7e 3f 78 8b 7e 3f c3 df 7f 3f
       0.9942063 0.99359506 0.9943156 0.9995081
000050 27 2f 81 3f 19 7e 7e 3f cd c4 7f 3f e1 e9 7e 3f
       1.0092515 0.9941116 0.9990967 0.9957562
000060 e5 e1 7f 3f db 9e 7c 3f 17 dd 7b 3f a3 e5 7d 3f
       0.9995406 0.98679894 0.9838423 0.9917852
000070 6d 13 7f 3f a8 e4 7e 3f 15 a2 7f 3f 01 60 82 3f
       0.99639016 0.9956765 0.9985669 1.0185548

embed.embedding_net.bn1_1.bias f4 [32]
000000 51 3e 5b 3c 5d 02 f0 3c d2 8b 5b bc 2d da 82 3c
       0.013381557 0.029298002 -0.013400035 0.015973175
000010 a6 75 26 3c 65 64 02 3c e1 06 d7 3a 71 d7 3b 3b
       0.0101598855 0.007958506 0.0016405248 0.0028662349
000020 9e 1f c2 ba f5 fe a3 bb 85 53 29 3c f8 01 d7 3a
       -0.0014810448 -0.0050047585 0.010334854 0.0016403785
000030 24 6d 98 3a 5b 8c 27 bc 70 0f 17 3b d4 84 58 bb
       0.0011629206 -0.010226334 0.0023049973 -0.0033038156
000040 ee 31 1e 3b 81 e6 ab 3b 3f 4e f0 ba 5e 4b 33 3c
       0.0024138647 0.005245984 -0.0018333866 0.010943262
000050 3b b6 3f 3c 5e bc ff bb 7c d1 48 3c d4 4a 7c 3b
       0.011701162 -0.0078044375 0.012256976 0.003849675
000060 f8 54 c0 bb b4 bf 96 b9 08 e0 a5 bb 98 f9 05 bc
       -0.005869504 -0.0002875306 -0.005062107 -0.008177184
000070 ba e9 05 3c 4e 18 49 ba 91 96 3d 3c 04 61 07 3d
       0.008173401 -0.0007671163 0.011571542 0.033051506

embed.embedding_net.bn1_1.running_mean f4 [32]
000000 18 ce 88 bc 23 df 30 3f a9 62 cf bf c6 48 01 be
       -0.016699836 0.6909048 -1.6201984 -0.12625417
000010 44 7d b9 3f 6c 56 c5 3e b3 3a cd be 1d eb 98 bf
       1.4491353 0.38542497 -0.40083846 -1.1946751
000020 c7 f3 ea 3f dd 02 09 c0 d6 17 4c 3f f1 1c b5 3f
       1.8355645 -2.1407998 0.7972387 1.4149457
000030 83 fd be 3f 4e 2c f1 3f ee d8 06 bf 58 fa 14 40
       1.4921116 1.8841646 -0.5267476 2.3277798
000040 80 62 94 3f 5c c3 80 3f 46 26 29 40 bd 6a 75 3f
       1.159256 1.0059619 2.642961 0.95865995
000050 fd 0b 82 be 1a cf 17 40 eb 64 03 3f 88 3f 23 40
       -0.2539977 2.3720155 0.51325864 2.5507526
000060 06 0e a1 3f de 80 cc bf 0a 3c 15 c0 e2 26 be bf
       1.2582405 -1.5976827 -2.3317895 -1.4855616
000070 94 5a 3d 3e cf 12 2a 3e c9 6e cd be 20 00 84 bf
       0.18491584 0.16608737 -0.40123585 -1.0312538

embed.embedding_net.bn1_1.running_var f4 [32]
000000 2c 6a fe 3b 1a 2a c3 3d 5b 6b 5b 3e d0 48 b7 3c
       0.0077641215 0.095295146 0.21427672 0.022373587
000010 4b ff 11 3e 83 a2 0a 3d 35 8e 25 3c a9 32 9e 3d
       0.14257543 0.03384639 0.010104706 0.077245064
000020 ad d3 90 3e a6 61 55 3e 19 d2 06 3e 4e 68 b2 3e
       0.28286496 0.20838031 0.13166083 0.34845203
000030 0e 16 29 3e 81 4b 40 3e cd 82 8f 3c 84 d8 49 3e
       0.1651232 0.18778802 0.017518425 0.197115
000040 7b ea fc 3d 30 4e 69 3d a5 e7 1e 3f 7d 91 56 3e
       0.12349411 0.05695933 0.6207221 0.20953937
000050 21 b6 a8 3c 1f d3 df 3e 48 7c 94 3d e8 17 c4 3e
       0.020594658 0.4371576 0.07250267 0.3829949
000060 cd 45 bf 3d 62 34 94 3d d7 eb b6 3e 33 ac c9 3e
       0.09339485 0.07236554 0.35726807 0.3938919
000070 a2 a2 06 3e 24 fe b3 3d ed 7c b7 3d 01 36 70 3d
       0.13147977 0.08788708 0.089593746 0.058645252

embed.embedding_net.lin1_2.weight f4 [32, 32]
000000 4b 4f 39 be 63 81 96 3d 3c 1b 94 3d a5 9f 6b bc
       -0.18096654 0.07348897 0.07231757 -0.014381324
000010 24 f9 86 bd 35 15 2c 3e 68 bb 29 be fd 3e e6 bd
       -0.065904886 0.16804965 -0.16575396 -0.11242483
000020 2e b8 07 3d 6d 2a e6 bd 1c d9 93 bd 4e a5 d8 3d
       0.03313463 -0.11238561 -0.07219145 0.10578404
000030 fc cb a8 3d e0 92 de bc 4f d7 00 3e 50 c2 e8 bb
       0.08242032 -0.027169645 0.12582134 -0.007103242
000040 e0 51 e2 bc 00 60 43 bd 5b 1a ac bd f0 0d 0e 3e
       -0.027626932 -0.047698975 -0.084034644 0.13872504
000050 6f bf d6 3d 16 54 11 be 05 ca 36 3e 3f b2 b8 bc
       0.10485732 -0.14192232 0.17850502 -0.022545932
000060 de 01 f4 3c 8c be 05 3d 60 e8 27 3e 30 68 5b bd
       0.029786047 0.032652423 0.16397238 -0.053566158
000070 a3 41 09 bd 7e 87 47 bd 8a 3a 29 3d 8c d1 38 be
       -0.03350986 -0.0487132 0.041315593 -0.18048686
000080 f5 9b ab bc 6e 0b a4 3d e9 3e 13 3e 64 83 38 be
       -0.02094839 0.080099925 0.14379467 -0.18018872
000090 24 28 32 be d9 1c 22 3e 90 1e 8d 3c 69 3a 85 bd
       -0.17398125 0.15831317 0.017226487 -0.065052815
0000a0 16 ed 8a 3d 6f c8 14 be ea 75 8b bd 03 27 5c bd
       0.06783502 -0.14529584 -0.068096 -0.053748142
0000b0 22 dc 45 3d 6d 17 8e bc fe 6f 7e bd 51 d9 b0 bd
       0.048305638 -0.017345155 -0.062118523 -0.086352
0000c0 07 dc 0f be 82 a2 96 bd c8 b0 e5 bd ca 8f a0 3d
       -0.14048778 -0.07355215 -0.11215359 0.078399256
0000d0 e0 d3 1a 3e e7 92 e3 bd 93 2d 13 3d 5b 76 ae bd
       0.15119886 -0.11112004 0.035932135 -0.08518668
0000e0 03 51 9e bc f6 76 31 3b 1f 5b 0b 3e d2 27 0c 3e
       -0.019325739 0.0027078963 0.13608979 0.13687065
0000f0 b9 e5 a1 bd e3 d4 0c 3e df 6f b6 3c fa ac b6 bd
       -0.07905144 0.13753085 0.022270141 -0.089197114
000100 eb e2 81 3d 0c 0e 0b bd 3f 20 23 be e5 53 4d bd
       0.06342109 -0.033948943 -0.1593027 -0.050128836
000110 43 82 03 3e 75 25 63 bd b4 85 50 bd 53 f2 15 bc
       0.1284266 -0.055455644 -0.05090876 -0.009152013
000120 58 5b 2c 3d e0 a1 fc bc a7 e4 2c 3e ea 28 16 bc
       0.0420793 -0.030838907 0.16884099 -0.009165028
000130 65 0b 27 3e 0a 18 12 3e 37 62 fe bd a6 22 e7 3c
       0.1631294 0.14266983 -0.12421077 0.028214764
000140 43 33 0c 3e 84 91 ab ba 2b dd 93 3c 00 01 e9 3d
       0.1369143 -0.0013089632 0.018049797 0.11377144
000150 c7 0c d1 3c b0 c5 ac 3d bd 85 9e 3d ee 18 d3 bd
       0.025518788 0.084361434 0.07740352 -0.10307489
000160 be 14 22 3e e0 25 00 bd 88 d8 1f 3e 93 96 9c bd
       0.15828225 -0.03128612 0.15609944 -0.07645907
000170 fc b6 b1 bd b7 56 67 bc c2 44 b8 3c 1f 4b a5 3c
       -0.086774796 -0.0141197955 0.022493724 0.020177422
000180 e8 44 39 bd 47 ad cb bd 7d d4 e8 3d 1b 12 b3 bd
       -0.04523173 -0.099451594 0.11368654 -0.08743688
000190 d3 02 1d bd 8d a5 55 bd 2c 2d ca 3d 22 20 09 bd
       -0.03833277 -0.052159835 0.09871897 -0.03347791
0001a0 12 d4 44 bd ae e2 12 3e 30 de 32 3d 30 87 f2 bd
       -0.04805381 0.14344284 0.043668926 -0.11842191
0001b0 32 79 9d 3b e7 fc cf bd a8 fd 9e 3d 1d 3e 63 bd
       0.0048057074 -0.10155659 0.07763225 -0.055479158
0001c0 7c 4d 52 bc a4 4d 0a be 99 d6 b3 bd ac 12 aa 3d
       -0.0128358565 -0.1350618 -0.08781166 0.08304343
0001d0 08 f6 74 3d 58 49 09 be 1b dc 0f 3e 77 6f d2 bd
       0.059804946 -0.13406885 0.14048807 -0.102751665
0001e0 67 a8 3b bd e5 14 11 3e 44 b9 22 3b 26 5b b2 3b
       -0.045814898 0.14168127 0.0024829665 0.0054429946
0001f0 9f be ef 3d 34 61 cd bd 65 e6 7f 3d 2d 64 21 be
       0.1170628 -0.10028306 0.06247558 -0.1576087
000200 8a 47 3d be 25 bd 19 be 06 85 12 3e 63 20 9a 3d
       -0.18484321 -0.15013559 0.14308557 0.075257085
000210 96 6b f6 3d bd f4 8b 3d 94 c2 ff 3d a7 c3 10 3e
       0.12032239 0.068337895 0.12488285 0.14137135
000220 5b 50 a5 bd 55 96 b5 3d 9f 1e f2 3d 76 53 b6 3d
       -0.08071967 0.08866564 0.11822247 0.08902638
000230 f5 c8 92 3d 18 2f 04 be 47 fa f2 bb d9 19 c1 bd
       0.07167236 -0.1290859 -0.0074150893 -0.09428758
000240 11 5a 31 3e 26 bb c3 3d 80 52 c1 bb 18 d7 a4 bd
       0.17319514 0.0955718 -0.0058997273 -0.080488384
000250 96 ae 1c 3b 70 ef 35 3e 38 5c 2a 3e 8d 68 2d be
       0.0023907772 0.1776712 0.16636741 -0.16934414
000260 7e 3f b6 bc bb 15 0e be 9c d1 56 bd 19 5c 1f 3e
       -0.022247072 -0.13875477 -0.052445993 0.15562476
000270 5a 62 d2 3d 5b f2 37 be c1 bd 9a bd 2d 6a aa bd
       0.10272665 -0.17963545 -0.07555724 -0.08321033
000280 4b f0 1f be e1 7b 03 3d 01 50 86 bd 56 bc 18 be
       -0.15619008 0.032100562 -0.06558228 -0.14915594
000290 52 62 a1 3c c6 ac 46 bc 2c 86 f1 3d 27 56 28 bd
       0.019700203 -0.012126153 0.117931694 -0.041097786
0002a0 ae 44 57 3d 18 ca 10 3e 68 96 af 3c 2f 8f 8d bd
       0.052555732 0.14139593 0.021434024 -0.06912076
0002b0 86 fd 3a bc d7 78 e7 bd f5 52 04 3d ce e8 b6 bd
       -0.011412984 -0.11302345 0.032305676 -0.08931123
0002c0 f6 83 20 3e 4d 75 24 be a0 4f 22 3b 6e a2 e0 bd
       0.15675339 -0.16060372 0.0024766698 -0.10968481
0002d0 43 d9 ee 3d e1 d5 05 3e e1 fd 9b 3d 9c ae 26 3d
       0.11662533 0.1306987 0.07616783 0.040693864
0002e0 b6 a5 24 be f0 78 a6 3d 9e ad 31 3b ff 20 9d 3d
       -0.16078839 0.08128536 0.002711154 0.07672309
0002f0 ce 5d ab bc 76 b3 4c bd 40 ca 7d 3d 7d 83 25 be
       -0.020918753 -0.049975835 0.06196046 -0.1616344
000300 37 c5 16 3d 11 71 6b 3d 24 ae 8c bc 7d 5b 24 3e
       0.036809172 0.057480875 -0.01717288 0.16050525
000310 93 da d4 3d ec d8 18 be 63 23 73 3d 97 0c a0 3c
       0.10393252 -0.14926499 0.05935992 0.019537253
000320 02 31 80 bb 4d 28 20 be d6 e3 de bd 5f bc cc 3d
       -0.003912092 -0.15640374 -0.108833 0.099968664
000330 04 d7 9e bc 1f a1 98 3d 1c 43 24 be 97 e6 da 3d
       -0.019389637 0.074526064 -0.16041225 0.10688513
000340 0e 77 8a bd bf eb 5a 3d b4 f7 17 be c9 e6 0c 3e
       -0.06760989 0.05344748 -0.14840585 0.13759913
000350 51 12 56 3a b8 19 02 3e f3 71 22 be a5 21 28 be
       0.00081661815 0.12705123 -0.1586378 -0.16419084
000360 e5 88 c8 bb 35 69 05 bd 20 da 24 3e b7 c7 86 3d
       -0.0061198347 -0.032571036 0.16098833 0.06581061
000370 20 08 73 3d 29 3c 4d bc e1 59 ef 3b 8b db 81 bc
       0.05933392 -0.01252655 0.0073044156 -0.015851757
000380 bf 96 ea bd fa 68 8a 3c ee cb a1 3d d6 de 38 3d
       -0.11454534 0.01689576 0.079002246 0.045134388
000390 82 a0 07 be 3c d8 0f be fe 4f a0 3d 38 0d 96 bd
       -0.13244823 -0.1404733 0.07827757 -0.0732674
0003a0 e9 fa 9e 3d 5c eb 62 bd 2f 09 05 bd 14 4c 05 be
       0.07762701 -0.055400237 -0.03247946 -0.13017303
0003b0 8f 3e ac 3d 37 28 e5 3d ef 65 25 be ad ae 85 3d
       0.084103696 0.11189311 -0.16152166 0.065274574
0003c0 fd dc 77 bc 73 a1 bb bd bd 33 e7 3b 55 2c dd bd
       -0.015128371 -0.09161653 0.007055728 -0.10799471
0003d0 d4 12 1c 3d ca db 3f 3c 85 31 bc 3d c5 7f 13 3d
       0.038103893 0.011710117 0.091891326 0.036010522
0003e0 c1 71 c8 3d c3 99 3c bd 45 aa 01 3e b9 31 02 3d
       0.09787322 -0.046045076 0.12662609 0.0317857
0003f0 b3 ef d8 3d d6 76 34 be f4 5b 20 be 11 51 17 be
       0.10592594 -0.17623457 -0.15660077 -0.14777018

embed.embedding_net.lin1_2.bias f4 [32]
000000 43 43 d8 bd a3 06 2a bd 60 80 58 3d 02 c3 d7 3d
       -0.10559704 -0.041510236 0.052856803 0.10535242
000010 ba 3a 89 3d b5 ee 2b bc b2 b6 cb bd e7 2a d2 bd
       0.06700654 -0.010493924 -0.09946956 -0.10262089
000020 0e 2b 15 be 79 4c cc bd 44 88 36 bc 01 36 0a 3e
       -0.14567205 -0.099755235 -0.011140887 0.13497163
000030 23 e7 e6 3d bb 5b 6d bd 57 9f f3 3d 03 af 2b 3e
       0.112745546 -0.05794881 0.11895626 0.1676598
000040 01 14 78 3d 60 bb 2d 3d 66 b5 ba 3d d4 92 1e bc
       0.060565952 0.042415023 0.0911663 -0.009678561
000050 f8 4f c2 bd a9 a5 6c 3d ea a2 9b 3d 9c 99 f7 3d
       -0.09487909 0.057775173 0.07599433 0.120898455
000060 9d ed 9a 3c 11 a4 2b 3e e8 e0 24 3e 75 ed 2d bd
       0.018912131 0.16761805 0.1610142 -0.042462785
000070 6c 37 76 bc 60 e4 cc 3c ef 89 d1 3d ab a1 09 bd
       -0.015027862 0.025011241 0.10231387 -0.033601444

embed.embedding_net.conv1.nn.0.weight f4 [32, 32]
000000 3d cb d0 bd 13 53 89 3d 26 7e 12 be 41 5b cb bd
       -0.101950146 0.06705298 -0.14305934 -0.09929515
000010 76 c2 b4 3d 4e 9a e5 bd f8 5a 0a 3e ea 6d dc 3d
       0.08826153 -0.11211072 0.13511264 0.10763152
000020 50 d5 81 3d 15 33 99 3d f0 ec 14 3e 29 0f fc bd
       0.06339514 0.07480446 0.1454351 -0.12307579
000030 12 9a dd bd be 27 0f be 79 52 f5 bd 31 4c df bc
       -0.10820402 -0.13980004 -0.11978621 -0.02725801
000040 af 9d 9e 3d 57 6e 30 be 5d ce 5b bd 88 76 d2 3d
       0.077449195 -0.17229591 -0.0536636 0.10276514
000050 8c eb 1f be dc 6e f4 bd 71 80 88 3d 21 78 7f 3c
       -0.15617198 -0.11935207 0.06665123 0.015592606
000060 0a 8f 34 3d 37 b9 ad bc b5 85 c8 3d 63 aa d3 bc
       0.044081725 -0.021206481 0.097911276 -0.025838083
000070 ca 58 1e 3e 42 14 a1 3c 4e 64 0f be ff a9 ef bd
       0.15463558 0.01966298 -0.14003107 -0.11702346
000080 26 23 24 3e fd 9a 18 be 92 df 27 3e a1 09 ae bd
       0.16029033 -0.14902873 0.16393879 -0.0849793
000090 90 0a fe 3d c0 0f a3 bc 10 ba 7d bd 7c f6 38 3d
       0.124043584 -0.019904971 -0.06194502 0.04515694
0000a0 16 f9 f9 bd f1 15 13 3e 78 22 3a bd 54 c6 fc 3b
       -0.122057125 0.14363839 -0.04544303 0.0077140722
0000b0 8c 6a d9 3d 28 4d cf bc 7d 08 95 3d b8 37 8e 3d
       0.10616025 -0.025305346 0.0727701 0.06944221
0000c0 0f 16 2a 3e d6 db 7e bd c9 97 0a be 6c 2f c7 bc
       0.16609977 -0.06222137 -0.13534464 -0.024314605
0000d0 8a 90 7b bd f9 de 32 bd 94 54 18 be 1f c7 bf bd
       -0.06141714 -0.043669675 -0.14876014 -0.09364151
0000e0 98 e3 05 3e 0c 68 30 bb 8f 4b b9 3d 3d 66 fd 3c
       0.13075101 -0.0026917486 0.09047615 0.03093254
0000f0 ff 9d c5 bb 6f a3 61 3d 15 0a 13 3e 64 b4 b6 bd
       -0.0060307975 0.055087503 0.14359315 -0.089211255
000100 91 72 f3 3d eb 91 f6 bc 6f 2d dc 3d 77 b5 f8 3d
       0.11887086 -0.030098876 0.10750853 0.12143987
000110 87 84 14 be 23 4b 0a be d8 c2 54 37 f7 c6 d0 bb
       -0.1450368 -0.13505225 1.268155e-05 -0.0063713747
000120 8c fd 03 3e 95 33 2f 3e 6a 7b 13 be 56 8a 99 bc
       0.12889689 0.1710952 -0.14402547 -0.018742722
000130 7c 28 32 3b ea 13 8e 3d fe 4d c2 3d ed 88 9e 3d
       0.0027184775 0.06937392 0.09487532 0.0774096
000140 af 1e 0f 3e d8 04 0d be 94 45 d9 bd 00 e0 68 bd
       0.13976549 -0.13771379 -0.10608974 -0.056854248
000150 9d f8 c2 bd d6 58 d1 bc c5 0c de bd be ab b5 3d
       -0.095200755 -0.025555056 -0.10842279 0.08870648
000160 a0 13 ae 3d 7c bd 98 3d 84 4e a9 bd 2f 15 2a 3e
       0.08499837 0.07458016 -0.08266929 0.16609643
000170 bc da 2d be 9c 8a a8 3c ad 44 e4 bd a6 ae 74 bd
       -0.16977972 0.020573907 -0.11145911 -0.05973687
000180 d4 d8 21 bd 63 33 7c 3d f1 33 10 be ea e0 37 3d
       -0.039513424 0.061572444 -0.14082314 0.04489223
000190 ff e7 75 bd ce 82 51 ba 62 10 44 bd e9 fe 28 bd
       -0.0600357 -0.00079922087 -0.047867186 -0.041258726
0001a0 16 ca 87 bd fe 8b 32 3e 5c 19 27 be ee e5 18 be
       -0.06630342 0.17436215 -0.16318268 -0.14931461
0001b0 b3 5a 29 3e b2 b9 cf bd 84 a5 c0 bc 53 88 28 3e
       0.16538505 -0.101428404 -0.023516424 0.16458254
0001c0 c4 0b 95 bd 78 ee a0 3d 6e 57 06 3e a2 f6 a2 bc
       -0.07277635 0.07857984 0.1311929 -0.019892994
0001d0 c2 ac 13 be f3 c3 58 3d ea e5 f6 3c e2 f4 02 3d
       -0.1442137 0.052921247 0.030138928 0.03197182
0001e0 d1 d8 74 3d e7 12 0e 3e 53 7a 25 3e 97 a3 18 3c
       0.059777085 0.13874398 0.16159944 0.009316347
0001f0 ec c5 2a 3e c3 f4 27 bd 54 ba 27 3d f0 4a e7 bd
       0.16677064 -0.041004907 0.04094918 -0.1129359
000200 e1 14 c7 bd f5 ef ab bd b6 27 19 3e 1e bd 08 3d
       -0.09720779 -0.083953775 0.14956555 0.03338348
000210 54 f0 de bd aa 8c 61 bd de 03 f2 bd 41 4c 20 3e
       -0.10885683 -0.05506579 -0.11817144 0.15654089
000220 5b 4c 2f be 97 df 8b 3d 6f 06 23 be 62 28 8d 3d
       -0.17118971 0.06829756 -0.15920423 0.06892468
000230 b7 36 fb 3d c5 15 17 be e6 bd 15 bc 48 f5 e8 3c
       0.122662954 -0.14754398 -0.009139514 0.028437272
000240 1d 34 1f be cd 25 cd bd ed e0 32 3d 8e 5a 2c 3d
       -0.15547223 -0.100169756 0.043671537 0.042078547
000250 d0 2d dd bd 60 e3 17 3e bc fa 02 3e b1 dd 29 3e
       -0.10799754 0.1483283 0.1279096 0.16588475
000260 5c f9 9d bd 16 9b 01 be 6c e7 d4 bd fd 00 00 be
       -0.07713577 -0.12656817 -0.10395703 -0.12500377
000270 17 ac aa 3d b8 91 85 3c ed 0e 13 3e 24 1a 3d bd
       0.08333605 0.016304836 0.14361162 -0.046167508
000280 c6 29 87 bd 29 9a 90 3d 1d 3d c0 3d 12 97 fe bb
       -0.065997645 0.07060654 0.093866564 -0.007769474
000290 e8 92 5f bb 69 47 65 bd 5b be d1 3c c9 49 96 3d
       -0.0034114663 -0.055976305 0.025603464 0.07338292
0002a0 fe 2e 56 3d 95 05 0a be b2 74 12 be 8c 66 e9 bd
       0.05229091 -0.13478692 -0.14302328 -0.113965124
0002b0 63 4c 3d bc 06 f0 c0 bd 00 69 21 be c5 8c 26 3e
       -0.011553857 -0.09420781 -0.1576271 0.16264637
0002c0 18 aa 00 3e 45 48 33 3d 5f dc 68 3b 99 33 ed bd
       0.12564886 0.043770093 0.0035531742 -0.11582107
0002d0 62 66 22 be bc 6a bb bd 5d 28 38 be 91 a7 f8 3d
       -0.15859368 -0.09151217 -0.17984147 0.12141336
0002e0 7a 72 e9 3d 3e f6 9f bd 6b 7e 32 be 6b 11 23 be
       0.11398788 -0.07810639 -0.17431037 -0.15924613
0002f0 2c 3f 24 3e e8 3f 1b be 4c 94 16 be b2 d5 39 3e
       0.16039723 -0.15161097 -0.14705008 0.18147925
000300 14 18 1d be 36 93 79 3d 02 c3 de bd a9 2a 69 bd
       -0.15341216 0.060931407 -0.108770385 -0.05692545
000310 ab 5d 03 be 53 68 67 3d 10 cd 44 3d 51 46 4e 3d
       -0.128287 0.056495976 0.048047125 0.050360028
000320 4c 6a bd bd 50 5c 12 be a0 cf f0 3d d5 bc c6 bd
       -0.0924879 -0.14293027 0.11758351 -0.097039856
000330 77 ea 08 be 05 e9 25 3e 18 c9 f7 3d 8f 78 4a bd
       -0.13370691 0.16202171 0.120989025 -0.04943138
000340 63 b9 34 be 25 c0 f2 bd c2 f7 2e 3e 97 47 1d be
       -0.17648844 -0.11853055 0.170867 -0.1535934
000350 15 3a 03 bd 74 f7 d1 3d f9 3b 9f 3d 7b b7 92 bd
       -0.032037813 0.10252276 0.07775111 -0.07163902
000360 1f 05 38 3d fa ea e2 3d ce 8e b7 3c 13 af 0c bd
       0.04492676 0.110799745 0.022406962 -0.03434665
000370 80 b4 df 3c 1f 6e c5 3d 23 16 00 bd 7c 97 95 3d
       0.027307749 0.096401446 -0.03127111 0.07304284
000380 27 60 eb bd 58 79 09 be 0d 73 5e 3d 83 ba 23 be
       -0.11492949 -0.13425195 0.05430894 -0.15989117
000390 7e 43 36 3d 60 b7 0d be 84 ad 23 be df 28 cf bd
       0.04449796 -0.13839483 -0.1598416 -0.101152174
0003a0 3a d8 2e bd 6d 20 4f 3d 3f 3f 90 3c 96 cc be ba
       -0.04268668 0.050568033 0.017608283 -0.0014556821
0003b0 d2 c9 85 3c dc 5e 4d bc 6f 1f ad 3d 48 31 48 bb
       0.016331587 -0.012534823 0.08453261 -0.0030546952
0003c0 35 d0 1e 3d fa 39 1e 3e b5 d3 cc bc 29 99 7f bc
       0.03877278 0.15451804 -0.025003294 -0.015600481
0003d0 ff 7b 58 3d da 21 c8 bd 0a a5 8f bd c0 17 7b 3b
       0.052852627 -0.09772082 -0.070139006 0.0038313717
0003e0 5d b2 1d 3d 8d d2 0e be a2 d8 5b 3c 0b 68 27 3d
       0.03850018 -0.13947506 0.0134183485 0.040870707
0003f0 77 e4 9e 3d 9a 39 9a 3d be 32 20 bd 72 f9 b4 bc
       0.0775842 0.07530518 -0.03911089 -0.022091601

embed.embedding_net.conv1.nn.0.bias f4 [32]
000000 a8 6f d9 3d f4 0a 08 be bf 38 0f be 59 7a 0f bd
       0.10617 -0.13285428 -0.1398649 -0.03502879
000010 1e cb 96 3d 12 01 6b bd 80 5a ca bd fa 7c b8 3d
       0.0736296 -0.057374068 -0.09880543 0.090082124
000020 1d 94 cb 3d 58 e3 1f be d0 62 0c 3e 5f a7 1f be
       0.0994036 -0.15614069 0.13709569 -0.15591191
000030 af 51 82 bd 2c d9 23 be 42 5c 33 be c3 0b 05 3d
       -0.06363236 -0.16000813 -0.17515662 0.03248192
000040 03 f0 cb 3d ae c4 9f bd 4c 52 80 3d 3b c7 f4 bd
       0.09957888 -0.078011855 0.06265697 -0.11952063
000050 0d 45 ba bd 3e da fd 3d 97 8a 01 bd 54 cf d5 3d
       -0.09095202 0.12395142 -0.03162631 0.10439935
000060 2e 48 1a 3e 41 40 8a bd ac 9a 7e 3d ba 5f b1 3d
       0.15066597 -0.06750537 0.062159225 0.086608365
000070 cc d1 36 3d 16 51 cb 3d 06 bf 86 3d 1b d4 2a 3e
       0.04463367 0.09927575 0.065794036 0.16682474

embed.embedding_net.conv1.nn.2.weight f4 [32, 32]
000000 e4 58 d8 bd 3a c7 e4 bc e3 c7 8d 3d 82 0c c5 bd
       -0.105638295 -0.02792703 0.06922891 -0.09621526
000010 44 34 e3 3d 2e 9b f3 bc 93 f0 8c 3d dc 80 32 3e
       0.11093953 -0.029737081 0.068818234 0.17431968
000020 71 cb ec bd 29 4f d8 3b 42 0d c2 3c 8d 2b e1 bd
       -0.11562241 0.0066012335 0.023687962 -0.10994635
000030 44 1e 77 bd ff bd dc bd 28 0e 4b bd dc 11 a7 3c
       -0.060331598 -0.107784264 -0.049574047 0.020394258
000040 e7 c4 b9 bd 77 00 a7 3d df e9 b7 bd f4 6a 2e 3e
       -0.09070759 0.081543855 -0.08980154 0.17032987
000050 58 3d 22 be 39 dd 06 3e a8 f0 4e bd 8d d8 a0 bd
       -0.15843713 0.13170327 -0.050522476 -0.07853804
000060 35 0c 3e bd 3d 33 59 bd 48 ab e3 3d be bf 05 be
       -0.04639836 -0.05302738 0.11116654 -0.13061425
000070 05 a2 34 be 68 f1 00 3e 07 a4 6a bd a3 d6 2a bd
       -0.1763993 0.12592089 -0.057285335 -0.0417086
000080 44 a3 04 bb ca e8 92 bd 83 db 24 3e 27 8a bf 3d
       -0.0020238915 -0.07173307 0.16099362 0.09352522
000090 40 8b f3 bd f9 76 03 3e fd 27 11 be aa 62 b9 bd
       -0.11891794 0.12838353 -0.1417541 -0.09052022
0000a0 54 21 36 3e e6 7d 15 be 9a 3e 22 3d 02 e4 d1 bd
       0.17786151 -0.14598808 0.039610483 -0.10248567
0000b0 d3 b1 e7 bd 45 7d e3 3d 96 af 3d bd 51 e4 31 bd
       -0.11313214 0.11107878 -0.04631003 -0.04343063
0000c0 05 3b 0b 3d f9 da 94 3d 7d 4c bb 3d f5 23 e9 bd
       0.033991832 0.07268328 0.09145448 -0.113838114
0000d0 59 e6 8d bd dd d9 12 3e a7 3b 12 be 89 4b ec 3d
       -0.06928701 0.14340921 -0.14280568 0.11537845
0000e0 aa f0 d9 bd d7 88 99 bd 8c d0 26 bd bd a0 46 3e
       -0.10641606 -0.07496803 -0.04072623 0.19397254
0000f0 fc e4 30 be fd a3 2d be ef 3b 1d 3e 6e ae ec bd
       -0.1727485 -0.16957088 0.15354894 -0.11556707
000100 95 88 23 be 6d 9c 23 3e 8d 0d ba bd 70 be 89 bc
       -0.1597007 0.1597764 -0.09084616 -0.01681444
000110 eb fa 19 bd a9 24 b7 bd b7 86 26 3e 2b ea 8e bd
       -0.03759281 -0.08942539 0.16262327 -0.06978258
000120 54 38 9e bd 52 06 85 3c 23 22 99 3d 85 e1 de ba
       -0.077255875 0.016238365 0.07477214 -0.0017004466
000130 cd 97 0e 3e 83 eb e9 3d fa 5e a6 3d 21 af bd bd
       0.13925095 0.114218734 0.08123584 -0.09261919
000140 f1 21 cf 3b 0d 5f 2c 3d 16 9e e6 bd 62 2a 07 3e
       0.006321185 0.042082835 -0.11260621 0.13199762
000150 67 fb 61 3d 8c a8 5f 3d 3a 89 96 bd b7 d9 68 3d
       0.055171397 0.0546041 -0.07350393 0.056848254
000160 9d e2 64 bd f0 dc 35 bc 1b 2b 39 bd 15 7a 08 3e
       -0.055880178 -0.011100039 -0.045207124 0.1332782
000170 4e 4b d6 3d 45 a8 2c 3e 61 0c 22 be 9f 02 a3 3d
       0.10463582 0.16861065 -0.15825035 0.07959484
000180 69 5b a1 3c 05 65 0c be 93 26 19 be 13 f1 4d 3d
       0.019696908 -0.13710411 -0.14956121 0.050278734
000190 f1 6d df 3d 51 97 36 3e f2 33 92 3d b0 e5 72 bd
       0.109096415 0.1783116 0.07138814 -0.05930108
0001a0 16 ff 08 3e f1 bc 9c 3d 2f 09 25 be 1f 62 24 be
       0.13378558 0.07653225 -0.16116785 -0.16053055
0001b0 cd c6 ac bd 15 b3 fd bd 4b 88 a5 3d e8 95 12 be
       -0.08436356 -0.12387673 0.080826364 -0.14314997
0001c0 ce b6 1b 3e d7 d4 fa bd 82 c1 33 bd d7 dc 37 3d
       0.15206453 -0.12247627 -0.043885715 0.044888344
0001d0 92 54 ed bd 21 97 0f be 43 86 21 3e a6 24 d3 bd
       -0.11588396 -0.14022495 0.15773873 -0.103097245
0001e0 ef 57 d1 3c e1 c0 fb 3d 13 31 f9 bc f8 a3 8b 3d
       0.025554625 0.12292648 -0.030418908 0.06818384
0001f0 14 a7 f8 bd 21 35 54 3d b7 87 10 3e 4a 5e 32 3e
       -0.121412426 0.05180848 0.14114271 0.17418781
000200 8f 0b 16 3e 8e 21 2b be 9b 85 24 be 72 99 10 be
       0.14652847 -0.16712019 -0.16066591 -0.14121035
000210 2d 83 bc 3d de 82 6b 3c 9e f3 1c 3d 2e b0 00 be
       0.09204707 0.014374463 0.03831827 -0.12567207
000220 57 d1 07 3e b6 a5 11 be 32 3b 27 3e e3 38 31 be
       0.1326345 -0.1422337 0.16331175 -0.17306857
000230 3b 4f ea bc ba d1 1f 3e da f3 2c 3e 4a 55 1a be
       -0.028602233 0.15607348 0.16889897 -0.15071598
000240 99 cd 3b be 64 92 52 3d 3c 85 e1 3d 90 3a 43 3d
       -0.18340148 0.05140914 0.110117406 0.04766327
000250 b2 f8 11 be 94 cc 16 3e 20 7c 3a bc a4 2e 15 bd
       -0.14255026 0.14726478 -0.011382133 -0.036421433
000260 82 6d e6 bd 68 04 04 be 57 dd b2 3c 6b 37 0d 3d
       -0.11251356 -0.12892306 0.021834059 0.03447668
000270 e9 1f e4 3d 5f f2 9c bd ca 16 bf 3d a9 4b ca bd
       0.11138899 -0.07663416 0.093305185 -0.09877712
000280 26 bb 01 bd d7 ec 9e 3d 3f f8 1c 3e e2 4b 13 3e
       -0.03167262 0.07760017 0.15329073 0.14384416
000290 03 cb 75 3d 1e 85 c8 bd 76 5b a4 bc 68 64 f4 3d
       0.06000806 -0.09791015 -0.020063143 0.119332135
0002a0 ad 24 98 bd c2 a1 7a 3d ce a1 2f be 57 6f f8 3d
       -0.0742887 0.06118942 -0.17151567 0.121306114
0002b0 fb dc fb 3d f7 09 83 bd 93 66 d6 bc 4a 13 09 be
       0.12298008 -0.06398385 -0.026171958 -0.13386264
0002c0 c7 7f 5e bd e0 b5 95 bd 2d 37 62 bd ad a9 53 bc
       -0.054321077 -0.073100805 -0.0552284 -0.012918872
0002d0 45 99 8b bd af 11 73 bc bb 01 5e 3c 77 10 0b 3d
       -0.06816343 -0.014835759 0.013550217 0.03395125
0002e0 bd 5b 21 3e 44 5f 9e bd 84 0f e2 3b 07 a3 80 bd
       0.15757652 -0.07733014 0.0068988223 -0.06281095
0002f0 b5 6c 58 3d 4c a0 bc 3d ae eb d6 3b 38 4a bc 3d
       0.052838046 0.09210262 0.006558857 0.091938436
000300 54 e2 8f bd 43 3a a6 3d 27 35 f2 bc 2c ff 22 be
       -0.070255905 0.08116581 -0.02956636 -0.15917653
000310 dd 77 d2 3d bc bb 2d 3e 75 66 25 bd 7e 41 f7 3c
       0.10276768 0.16966146 -0.040380914 0.030182596
000320 e1 14 12 be 49 15 a5 3d 24 fc 86 bd ad 92 e3 3d
       -0.14265777 0.080607004 -0.06591061 0.111119606
000330 e8 56 36 be 35 fb af 3d 94 fc 4a 3d 1d 94 11 3d
       -0.1780659 0.08592836 0.049557284 0.035541642
000340 8c f2 95 bd 17 c0 ba 3d 6d e1 c9 bd 64 e9 ce 3d
       -0.07321653 0.091186695 -0.0985745 0.101031095
000350 b6 35 95 bd 7d 54 b4 3d a1 b6 d4 3d 9d 3c c3 39
       -0.07285635 0.08805177 0.10386396 0.0003723846
000360 4f 09 e8 bd f4 a1 1f bd 0f 21 f4 3d 4b 84 e4 bd
       -0.113299005 -0.03897281 0.11920368 -0.111580454
000370 e1 15 14 be 14 d1 0a 3e dd b9 a7 bd 2f fc f1 3d
       -0.14461471 0.1355632 -0.081897475 0.11815678
000380 cb 92 e5 3d d5 98 2f be 65 a2 6b bd ae dc 1e be
       0.11209639 -0.17148145 -0.05752792 -0.1551387
000390 1e 47 25 3e b6 a0 f6 bd 73 ee c0 3d 38 aa 11 be
       0.1614041 -0.12042372 0.094204806 -0.1422509
0003a0 c8 94 3d bc 27 55 37 3e b0 d6 12 be 76 d8 15 be
       -0.011571117 0.17903577 -0.1433971 -0.14633355
0003b0 04 d3 44 bd 95 cd 25 bd 70 cd fd 3d 78 24 05 3d
       -0.048052803 -0.04047926 0.123927 0.032505482
0003c0 e1 5e 24 be 93 63 45 3c e7 41 9d 3d 8a 84 10 3e
       -0.16051818 0.012047666 0.076785855 0.1411306
0003d0 27 d3 cc bd 63 27 02 be 49 5d 90 3d 99 7d 0b bd
       -0.100012116 -0.12710337 0.07049043 -0.034055326
0003e0 b5 95 81 3d 47 44 54 bb 50 be 51 bc 2e 7b c0 bd
       0.063273825 -0.003238933 -0.012801722 -0.09398495
0003f0 ad 7f 3c 3d c6 3c 25 bd e9 51 39 3e 03 be f3 bd
       0.0460202 -0.04034116 0.18097652 -0.11901476

embed.embedding_net.conv1.nn.2.bias f4 [32]
000000 39 16 e1 bd 75 ee 93 3d 19 7d fc bc 30 6f 0e 3e
       -0.10990567 0.072232164 -0.03082137 0.13909602
000010 91 56 84 bc 5b 2a 08 3e cb 58 10 be ee 44 af bd
       -0.01615456 0.13297407 -0.14096372 -0.08558069
000020 94 89 c3 bd 86 b5 cb bd 7e 79 4e bd db 44 e8 3d
       -0.09547725 -0.09946732 -0.050408833 0.11341258
000030 bf a3 4a be 3f 10 1e 3e 9b 98 ed 3d 97 97 fd 3d
       -0.19789027 0.15435885 0.11601373 0.12382429
000040 13 00 be 3d 31 49 20 be d6 5e cd 3b b6 a3 68 3d
       0.09277358 -0.1565292 0.006267409 0.056796752
000050 b6 27 8e 3d da 43 01 3e 25 f0 27 3e 7a 85 45 3d
       0.06941168 0.1262354 0.16400202 0.048222996
000060 86 4b 0e 3e 37 88 9e bd 1e 62 bb bd 5e 30 ca 3d
       0.13895997 -0.07740825 -0.09149574 0.098725066
000070 3e 81 72 bd 0b 7a 11 be 02 f6 8f 3d 79 38 d4 bd
       -0.059205286 -0.14206712 0.07029344 -0.10362334

embed.embedding_net.bn1.weight f4 [32]
000000 9b 79 80 3f 96 bb 7f 3f 75 ca 7f 3f 54 f1 80 3f
       1.0037111 0.9989561 0.999183 1.0073647
000010 44 3f 82 3f 84 01 7a 3f 2d 40 80 3f 28 eb 7f 3f
       1.0175557 0.9765856 1.0019585 0.99968195
000020 70 ae 81 3f ff 82 80 3f 73 1c 80 3f 29 f9 7f 3f
       1.0131359 1.0039977 1.0008682 0.99989563
000030 2c f9 81 3f c1 a4 80 3f 0a 0c 7c 3f 46 ab 7f 3f
       1.0154166 1.0050279 0.9845587 0.9987072
000040 f0 85 7d 3f c9 7b 80 3f b2 07 82 3f 8d 43 81 3f
       0.990325 1.0037776 1.0158598 1.009874
000050 9d d5 82 3f 7e eb 7e 3f 56 cf 81 3f 2e 21 84 3f
       1.022144 0.9957808 1.0141399 1.0322626
000060 01 b9 80 3f 0a 7b 82 3f 9a 56 82 3f 70 cd 81 3f
       1.0056459 1.0193799 1.0182679 1.014082
000070 be 5f 7d 3f b4 5a 81 3f 01 ed 80 3f 13 ff 81 3f
       0.98974216 1.0105805 1.0072328 1.0155967
