trained_managers/100_100_10_MH_gin_32_minmax.pth (torch, 450582 bytes, 104 tensors)

key_policy.weight f4 [64, 32]
00000000: 3d40 af3c 0cc7 5a3c b392 3a3e 5e99 df3c
00000010: 49b2 cdbd d24c 93bc a310 5f3d c3cf a53d
00000020: 9d9e 883b da30 08be 177d 6abd 4f94 a3bc
00000030: a867 1c3d 2b90 a63d be8a e2bd db5e c03d
00000040: cb47 fa3d 4fb3 2f3d 7d84 60bd 8044 d2bd
00000050: 2aaa efbd 7820 a5bd 1e1a 63bd 8b8b e23d
00000060: 1c2e 1a3d 2f6c 2bbd 9df6 f9bd a345 013e
00000070: b2fc c7bd 44d5 04bd 2998 93ba dad7 2abe
00000080: f2cf 0a3e 9ce4 1dbe 7c0a c23d 18cb 7a3d
00000090: 3c32 5dbd 4d55 adbd 6252 063e a9d6 98bd
000000a0: 84d6 153e 27c8 493b 2bbb 2e3e ab2d 003e
000000b0: c723 40bd a307 dbbc 0613 513c df44 f73d
000000c0: 4834 ad3c 0a9a abbd b9f5 acbb 8ead b7bc
000000d0: 2e11 2b3e 194b 7c3d 2024 f7bd e886 fbbd
000000e0: 9b63 e4bd a636 d53d 9446 f33b b83b 3cbd
000000f0: d2f8 393d 3dd6 d93d 203c 0eba 40dd 863d
00000100: 1bc6 62bc 6a22 3e3d 89f0 fe3d 6690 ddbc
00000110: 10dd 88bd bb18 5dbd 4c0e 6c3d 51a6 b7bd
00000120: cf48 3d3e 5321 c53d d575 20be b788 8bbd
00000130: 991b 1e3e 4cdc 92bd 14e8 28be 0a69 db3d
00000140: aa04 1abe ba1a 13bd 00bb 68bd ae74 babd
00000150: cc66 283e 0cb9 d53d 98f5 b2bd ad11 4cba
00000160: 4c18 62bd b655 65bd 2e22 823d c184 dbbc
00000170: 0d78 6e3d f35c d7bc 6aac 0abe 3354 3b3e
00000180: a2c8 343e 5999 a5bd 8cd8 51bd d37a d8bd
00000190: 73d5 af3d 2ef5 ba3d 9548 7e3d c73b 79bd
000001a0: e24b 153c cd75 e13d ac0f 693d 326f 273e
000001b0: 5480 873d b07b 06be 3f2f 14be 6486 ce3d
000001c0: d779 0ebd 92e6 85bd a626 ba3d 227f 2cbd
000001d0: 4b5c 0fbe bf03 85bd 353d a6bc 6848 63bd
000001e0: 7e9e 7b3d 8caa 33bd 156d 303e a7b1 803d
000001f0: f72b c1bd 1367 e5bd 57ef a1bd faed dd3d
00000200: 3d19 8abd d807 293c ba1d 083e fc85 55bd
00000210: b521 22bc aac7 ccbd 6483 173e cd68 673d
00000220: a0f1 edbc 91b2 a4bd a826 103e b6d2 bc3d
00000230: 5153 553d 2413 bb3d 4495 143e 2373 993d
00000240: a79b 21be 45ab 85bd 381a 77bd fdc4 383e
00000250: 1bcc b23d 75b6 e0bd 33f4 a53d 3ccb c2bd
00000260: a888 253e bcb1 3abd 6c80 563d add0 ef3d
00000270: f657 f83d 0bca 3dbd 7bf2 193e c280 d33c
00000280: 323d cebc d0a8 20be 6750 2c3d 8c1b 533c
00000290: 436b 00bd 3938 73bd 9b9e 253e 7ad7 59bd
000002a0: d805 81bd e492 89bd a626 5fbd 6486 cdbd
000002b0: 24cc 253e 58db 1b3e 5295 01be f62b e9bd
000002c0: 8d01 e23c 18d0 843d 49b3 7ebd 4fb6 26be
000002d0: 5306 253e 26a4 f6bc 73e1 ff3d f009 a4bd
000002e0: 605f 1abd a753 893d 8e68 933c e2d2 e9bc
000002f0: ef31 33bd a860 e23d fce1 a93d 111d b13c
00000300: 9002 1e3e eac7 d43c ff50 3f3e 6dac 93bc
00000310: 262a 343e 8c55 113d 6bc5 05be 0aef a4bd
00000320: 5a57 39be 6861 853d 99f1 b13d b588 3a3e
00000330: dde8 f9bd 3a08 e2bc 20d3 21be e495 f63d
00000340: f115 26bc 39dc b9bd ca60 9ebc 6c73 7b3d
00000350: ad27 203e 33e3 79bd c8b8 423c 1fcc f5bd
00000360: 444e 803d 929d ba3c 855b a43d 4281 f13d
00000370: 225e 983d 2dc2 193d 6127 13be 9d3f 8cbc
00000380: 1a8a bcbd 05e2 2a3c 51c1 d7bd 9995 0f3c
00000390: 6a26 06be 87fa f73d d99b a7bd d52b b9bd
000003a0: 9cd7 2a3e 102e 433d 1dcc 06be 9387 cbbd
000003b0: 4c89 b63a 32a0 23be 9c60 f03d 3c5e e33d
000003c0: f735 11be 3d33 583c 8827 133e d0ad a6bd
000003d0: 045e 18be 27ba 5fbd 6bdd f7bd de62 583d
000003e0: ce98 96bd 2cdc 14be 6159 f2bd 371f 1a3e
000003f0: 2a25 e8bd e983 a93d fbb8 9dbd db99 a1bd
0.021392936 0.013353121 0.18220024 0.02729481 -0.10043771 -0.017980967 0.054459225 0.08096268
0.004169299 -0.13299885 -0.0572482 -0.01996818 0.03818479 0.081329666 -0.11061619 0.09393092
0.12220725 0.04289561 -0.05481385 -0.102669716 -0.11702378 -0.080628335 -0.05544483 0.11061772
0.03764163 -0.04185122 -0.12205241 0.1262422 -0.09764995 -0.03242995 -0.0011260557 -0.16683903
0.13555887 -0.15419239 0.09474656 0.06122884 -0.054002985 -0.084635355 0.13117364 -0.07462818
0.14632612 0.0030789466 0.17063586 0.12517421 -0.04690912 -0.02673704 0.012760883 0.12073683
0.021143094 -0.0837899 -0.005278316 -0.022421625 0.16705772 0.061595056 -0.12067437 -0.12281591
-0.11151811 0.10410814 0.007424185 -0.04595539 0.04540331 0.10636566 -0.00054258294 0.06585169
-0.013841177 0.04641954 0.12448222 -0.027046394 -0.06682789 -0.053978663 0.057630822 -0.08967269
0.18484806 0.09625497 -0.1566995 -0.06813186 0.15440215 -0.071709245 -0.16494781 0.10713394
-0.15040842 -0.03591416 -0.056818962 -0.09104286 0.16445464 0.104356855 -0.087382495 -0.00077846163
-0.055198953 -0.055989943 0.063541755 -0.0267967 0.058219958 -0.026289439 -0.13542333 0.18293838
0.1765466 -0.08085889 -0.051231906 -0.10570302 0.08585634 0.091287956 0.06208094 -0.060848024
0.00911233 0.11008797 0.05689971 0.16351011 0.066162735 -0.1313312 -0.14471148 0.10084227
-0.034784164 -0.065381184 0.09089403 -0.04211343 -0.1400005 -0.06494855 -0.020292858 -0.055488974
0.061430447 -0.043863818 0.17229111 0.062838845 -0.09432214 -0.112013005 -0.079069786 0.10836406
-0.06743095 0.0103168115 0.1329259 -0.05212973 -0.009895732 -0.099990204 0.14796215 0.05649643
-0.02904588 -0.08041871 0.14077246 0.092198774 0.05208141 0.0913451 0.14510065 0.07492664
-0.15782033 -0.06526808 -0.06032774 0.18043895 0.08730336 -0.10972301 0.08103218 -0.0951142
0.16165411 -0.045579657 0.052368566 0.117097236 0.12126152 -0.04633526 0.15033905 0.025818232
-0.025175665 -0.15689397 0.042068865 0.012884986 -0.031352293 -0.05937979 0.16173784 -0.05318401
-0.06299943 -0.0671747 -0.054480217 -0.100353986 0.16191155 0.15220392 -0.12654617 -0.11385338
0.02758863 0.06485003 -0.0621827 -0.16280483 0.16115694 -0.030107569 0.12494173 -0.08009708
-0.037688613 0.067054085 0.017994191 -0.02854294 -0.043748792 0.11053592 0.08295056 0.021620305
0.15430665 0.025974233 0.18683241 -0.018026555 0.17594203 0.035481974 -0.1306359 -0.080534056
-0.18099728 0.065127194 0.08688659 0.18216212 -0.12202618 -0.027591813 -0.15803194 0.12040308
-0.010137067 -0.09075207 -0.019333262 0.06138937 0.15640135 -0.06100769 0.011884876 -0.12001824
0.06264928 0.022780214 0.080252685 0.11792232 0.074398294 0.037538696 -0.1437049 -0.017120177
-0.09206028 0.010429864 -0.10534919 0.008763694 -0.13100591 0.12108331 -0.081840225 -0.090415634
0.16683811 0.04765135 -0.131638 -0.09937968 0.0013926416 -0.15979078 0.11737177 0.11101958
-0.14180742 0.01319581 0.14370549 -0.08138621 -0.14879614 -0.054620888 -0.12102779 0.052828662
-0.07353364 -0.14537114 -0.11833454 0.1505097 -0.113352135 0.08277113 -0.07701298 -0.07890674

key_policy.bias f4 [64]
00000000: 3250 42bd dcf4 f3bb aeea e0bd 1e1a 353e
00000010: 937d 07be 7a10 fcbd fd81 24bc b5b0 9c3d
00000020: 494a 9c3d 5988 1e3e f12a ab3d c3f9 26be
00000030: dbea 223b e965 893d 2859 89bc 0815 e23d
00000040: 6d5c d1bd 97f1 d03c 7866 66bd 50ee 41bd
00000050: 06a9 2cbe 2004 d63d d36a 22be abbc 81bc
00000060: 26f1 1e3d bc04 27bb 5263 013e e452 283d
00000070: a563 053e c68c d9bd 1aa2 683d 0c02 42bd
00000080: 5017 2e3e cfae dbbd 35c8 323e 4fc4 a4bd
00000090: fbc9 163e 277f 683d 935f d23d ebe7 113e
000000a0: 5ca6 f33d ac2b 15be 59eb e73c f594 3bbd
000000b0: 39a8 193e 523a 343e 0c3f 063e bd3f 87bd
000000c0: 8317 0dbe a4eb a13d 7c8d e5bd cb19 26be
000000d0: c06f 083e 9834 083e 8ad4 9bbc 9f3a 583d
000000e0: 41a7 b83d b494 e93c e0e2 dcbd 593b aebc
000000f0: aecc f73d f33d 5a3d bf72 24be ab3f c73b
-0.04743976 -0.007444961 -0.109822616 0.17685744 -0.13231497 -0.1230783 -0.010040757 0.07650892
0.07631356 0.154817 0.083578 -0.16306214 0.0024859223 0.06708891 -0.016766146 0.11039168
-0.10222707 0.025505824 -0.056250066 -0.047346413 -0.16861352 0.104500055 -0.15861063 -0.015837034
0.038804196 -0.0025485 0.12635544 0.041094676 0.13026293 -0.106225535 0.056795217 -0.047365233
0.1700108 -0.107267015 0.17459185 -0.080452554 0.14725487 0.056761887 0.102721356 0.14248626
0.11896965 -0.14567441 0.028310465 -0.045796353 0.15005578 0.17600372 0.13109988 -0.06603954
-0.137785 0.07906273 -0.11208627 -0.16220777 0.13323879 0.13301313 -0.019022245 0.05279028
0.09016276 0.02851329 -0.107854605 -0.021268534 0.120995864 0.053281736 -0.16059397 0.006080588

q_policy.weight f4 [64, 64]
00000000: 3e38 17bd 61d8 823d d8e0 d63d d5d6 98bd
00000010: 3844 303d 2d5f d9bd fbdb fa3d 277a e7bd
00000020: 4cbf ffbd c4f4 0f3d 8e04 10be 9638 ef3d
00000030: 4388 edbd 6cea c73c 923c fe3c 8785 f43d
00000040: 2d87 2dbd edb3 fe3d 8339 8fbc 5ba7 a5bd
00000050: 58cc 61bd abcb 603b c7ee c93c 291d e2bd
00000060: 6408 f8bc d354 72bd 13a3 2abd 68c8 41bd
00000070: 6209 55bd 9ec6 0b3d 5f7b 71bd d637 933b
00000080: 82e4 03be d40b 4d3d 5369 cebd 3e24 a23c
00000090: 57ac f9bd 92db 8b3d 0bbe e43d 223f e53c
000000a0: 489b 403d 1db8 0dbd e257 d03d 063b 8a3d
000000b0: bdb9 e4bc a810 bcbd fae1 65bd f768 9ebd
000000c0: 5759 fd3b 8423 ac3d d3a2 9ebd d3a7 0b3d
000000d0: 5491 1d3d a2f0 8c3d 716b b53d 73e0 93bd
000000e0: c012 d43d 952a c83d 157a 9c3d a38d b0bb
000000f0: 5aa3 7f3d d30e 9c3d 2951 d03d f40c 0abe
00000100: b7e5 013e 739a f23c 4c66 81bd 3e36 033d
00000110: 00f9 1a3d 15e8 b2bd dd78 2fbd 4c05 513d
00000120: 0c16 95bd 4eeb 58bd 6614 913c ec81 7a3d
00000130: 52b8 cd3d 1944 d33d a05e 10bc aca5 cf3d
00000140: cae1 b7bc 261e 003e ec1a 13bd 07a0 9f3d
00000150: 8cc6 1cbd b5d0 7dbc a47d 413d a54d 903d
00000160: 211c ddbc 9d89 0d3d 8185 e5bd 4731 b23c
00000170: 4324 69bd 5c4c 57bc 2f17 a13d d76d efbd
00000180: 2652 bdbd b546 f63d 4bd8 58bd e755 9c3d
00000190: c76f 1cbd 6b9a bcbd c17d 983d 72f9 9e3b
000001a0: ee5a 293d 778d 51bd 2e64 3fbd 1fc3 c73d
000001b0: d495 273d 98a9 fc3d c49e d1bd 3f9d 513c
000001c0: acc9 343b 3a8e 6ebd 930c b93d e732 ac3d
000001d0: 46c3 873b 2f6a 98bc 1eb4 0b3c 6e0a acbd
000001e0: 3018 883d 68b8 c03d 82a4 3fbc c4d2 aebd
000001f0: 7881 d43d f185 703d 2f6f 49bd e53b f93a
00000200: c49a ff3d 22ec 0fbd 5b47 c5bc a023 d2bc
00000210: def8 bbbd cddc eabc dd69 8a3c 7a58 b6bd
00000220: e167 ff3d eff5 3b3d 6188 983d 2ad0 f7bd
00000230: 15cd f4bd 8a15 983d 6ae2 c3bd de91 253d
00000240: 9d1f 45bd 12e4 a9bc 429f de3d b6ed c5bb
00000250: 3a35 813d 65b5 863d 7678 f0bd a73e a4bc
00000260: 5d7c 95bd 02ba 943d de0b 6abd ae7f cc3d
00000270: 3c55 a53d 74d1 b23d 8e68 e23d 0d66 b53d
00000280: 385a f63d 6e89 213c 3292 c2bc 45df 04be
00000290: 527e 46bd 91f5 8cbd 0996 a5bd 0a62 af3d
000002a0: 845f 853d 8b9f b33d 66ec 42bd aa53 65bd
000002b0: b30c e33d 73dc a93d 8f69 dd3c 120b 233c
000002c0: 8369 f0bd 0c41 dabd bf94 f1bd 0d82 9c3d
000002d0: 3093 97bd 6475 b9bd ca3b dc3d 9559 94bd
000002e0: 9647 f23d 7879 da3d 6301 de3d f2ec a23c
000002f0: dd34 2ebd 9342 c7bd becb 65bd 2cdb c03d
00000300: 83f1 77bd 201e 95bd 2df3 003d 3165 bbbd
00000310: ad52 0f3c 5002 383d 9ad3 c3bd bf41 f33b
00000320: c25c a83d 148e 9f3c beaa c7bd b173 77bd
00000330: 2ae4 bd3d 7877 e1bd 40e6 d33b bcfb 91bc
00000340: dca8 ce3d 88fd 723d 19d3 1f3d 26c6 d13b
00000350: aacd bdbd f41b d6bd d24b dfbd 48f1 f13c
00000360: 2646 653d d3b1 6fbd 48e4 fbbc 10aa 523d
00000370: d73b c03d 4008 73bd ae77 d63d a2e2 c8bc
00000380: 7aae a2bd 6297 873c 68a2 b93d 1092 98bc
00000390: caea d7bd 06cc 78bd 4c0c b93d 707d 073d
000003a0: 56b8 abbc 3222 c43b 7d5f 83ba 25f0 623d
000003b0: f886 dbbd 3aca 99bd 24e4 e23d 237a 45bd
000003c0: 6c0c 403c bf7a f1bd dc7c 8ebd 704c 1abd
000003d0: 347e 643d 708b 713d a0de 85bc 3af5 3dbd
000003e0: 26d4 6f3d 5e4e 77bd 3abb 7ebd f3fd 94bc
000003f0: cc3f fa3d c75f bd3d 678e 653d d527 b2bc
-0.03691887 0.06388927 0.10492104 -0.07462851 0.04303381 -0.106138565 0.12248989 -0.113025956
-0.12487659 0.035145536 -0.14064237 0.11680715 -0.115982555 0.024403773 0.031034742 0.11939531
-0.04236524 0.12436662 -0.017483478 -0.08088561 -0.055126518 0.0034301083 0.02464999 -0.11040718
-0.030277438 -0.059162926 -0.041659426 -0.047310263 -0.0520109 0.034124963 -0.058955546 0.00449274
-0.12880138 0.05006011 -0.10078683 0.019792672 -0.12191074 0.06828989 0.1116906 0.027984206
0.047023088 -0.034599412 0.10173012 0.06749539 -0.027920598 -0.091828644 -0.05612371 -0.07734864
0.0077315974 0.084052116 -0.077459 0.034095597 0.038468674 0.068818346 0.088583834 -0.07220545
0.10355139 0.09773747 0.07640473 -0.005387978 0.062411644 0.07620015 0.1017173 -0.13481504
0.12685286 0.029614663 -0.0631834 0.03203415 0.03783512 -0.087356724 -0.042839874 0.051030442
-0.07279596 -0.05295878 0.017709922 0.06115906 0.10044922 0.10315723 -0.008811623 0.10139021
-0.022446532 0.125115 -0.035914347 0.07794195 -0.038275287 -0.015491654 0.04723896 0.070460595
-0.026990952 0.034555066 -0.112071045 0.021752013 -0.056919347 -0.013140764 0.0786575 -0.11690872
-0.09244184 0.12025205 -0.052940648 0.07633572 -0.038192537 -0.092091404 0.07445861 0.0048515135
0.041346483 -0.051160302 -0.0467264 0.09754013 0.04091437 0.12337035 -0.1023536 0.012793838
0.0027586026 -0.058241107 0.090356015 0.08408146 0.0041431515 -0.01860532 0.00852683 -0.08400427
0.066452384 0.09410173 -0.011696937 -0.08536294 0.10376257 0.058721486 -0.0491783 0.0019015042
0.12480691 -0.035137303 -0.024081877 -0.025651753 -0.09178327 -0.02866974 0.016896183 -0.08903594
0.12470985 0.045888837 0.07447887 -0.12100251 -0.11953179 0.07425983 -0.095646694 0.040422313
-0.048125852 -0.020738635 0.1087022 -0.0060403002 0.0630898 0.06577567 -0.11741726 -0.020049406
-0.07299111 0.07262041 -0.057140224 0.099852905 0.08072898 0.08731356 0.110550985 0.08857355
0.120289266 0.009859426 -0.023751352 -0.12975796 -0.048460312 -0.068827756 -0.080852576 0.08563621
0.06512359 0.08770665 -0.04758873 -0.05598799 0.110864066 0.082940005 0.027027873 0.00995137
-0.11738875 -0.10656938 -0.11795949 0.07641993 -0.07401121 -0.090555936 0.10753591 -0.07243649
0.1183006 0.106676996 0.10840108 0.019888375 -0.042530883 -0.09729495 -0.056102507 0.09416804
-0.060533058 -0.072811365 0.03148191 -0.0915016 0.008747739 0.04492408 -0.09561844 0.007423609
0.08220817 0.019476928 -0.09749363 -0.060413066 0.092720345 -0.11009115 0.006466657 -0.017820232
0.10090801 0.059323817 0.039019678 0.006401795 -0.09267743 -0.104545504 -0.109031335 0.029533997
0.055975102 -0.058519196 -0.030748501 0.051431715 0.093864135 -0.05933404 0.10472046 -0.02452213
-0.07943435 0.016551677 0.0906418 -0.018624336 -0.10542829 -0.060741447 0.090355486 0.03307861
-0.020961922 0.0059855217 -0.0010022965 0.0554048 -0.107191026 -0.07509275 0.110786706 -0.04821218
0.011721712 -0.1179099 -0.06957409 -0.037670553 0.05578442 0.05897087 -0.016341507 -0.046376444
0.05855193 -0.06037747 -0.062190272 -0.018187499 0.122191995 0.09246784 0.05604401 -0.021747509

q_policy.bias f4 [64]
00000000: 9db6 c5bd c5ac fbbd 184e 933b d567 cb3b
00000010: ae66 fdbd e89b 1e3d 9d9b 07be 81fd b9bd
00000020: c16f b0bb 52d2 40bd baa8 dfba 9e3b 9fbb
00000030: 9605 be3c 0931 e4bb 1916 793d 72df 0cbe
00000040: 9312 083e 43cf 6fbc c856 9cbd 31ba ef3b
00000050: 877c 6fbd 8761 293d 7396 c53d 11af 903c
00000060: f313 05be 7a65 d0bd afee 383c 0352 10be
00000070: e78c 963d df25 3f3d cba2 f2bc 778a 6c3d
00000080: 1df8 063e 70f0 cb3d 7595 95bd 1316 5d3d
00000090: 836f a63d ca75 3abc 5bc7 a4bd 1299 fbbc
000000a0: 6323 fbbd a9a7 0dbe 44aa 5f3d 99c2 aabd
000000b0: 038c 93bd 50e6 3a3c 43a3 ddbd b7b3 953d
000000c0: bbd1 ddbc 29fc 093e 4859 c6bd f9af 66bc
000000d0: 39f2 18be 9f59 ad3c 6803 7b3c a4dc 82bd
000000e0: a3c7 a4bd a619 ecbd 264d d43c 013c 043d
000000f0: 9f88 883d e000 17be a211 f33c 7f4c 87bd
-0.09653971 -0.122888125 0.0044953935 0.006207446 -0.123731 0.038722903 -0.13242956 -0.09081555
-0.005384416 -0.047075577 -0.0017063834 -0.004859402 0.023196023 -0.0069638533 0.06081209 -0.13757113
0.13288336 -0.014636817 -0.0763374 0.007315897 -0.058468368 0.041352775 0.096478365 0.017661603
-0.12995891 -0.10175605 0.011287375 -0.14093785 0.07351094 0.046666976 -0.029618641 0.057749238
0.13180585 0.09957969 -0.07303897 0.05397613 0.08126738 -0.011380622 -0.080458365 -0.030712638
-0.12262609 -0.13833489 0.054605737 -0.08337898 -0.072044395 0.01140745 -0.10822155 0.073096685
-0.027077546 0.13475098 -0.09684998 -0.014080041 -0.1493615 0.021160899 0.015320636 -0.0638974
-0.0804589 -0.115283296 0.025915693 0.032283787 0.066666834 -0.14746428 0.029671494 -0.06606387

embed.embedding_net.lin1_1.weight f4 [32, 4]
00000000: ec74 843e be66 223e 3e56 79bb aa60 62ba
00000010: bda6 343e 8ee9 b73e 5d94 f7be 732c 7d3e
00000020: c84b c83e 68d7 bc3d ecdf f5bd 1451 b9be
00000030: c34c 87be ff79 06bb 2f7b 49be ddbf 3b3e
00000040: 1692 da3e 2fcd 933e 84a9 113e 7413 813e
00000050: 3e8f 99be 21d6 83bc b62b 17be bf26 5e3e
00000060: 3bfe 5ebe ea76 f33c 2944 fcbd abbb 363d
00000070: 7446 c43c a9e7 c7bd 9aae 933c 8e7b 93be
00000080: 5ddc d6be 83bc b23e c7c0 843e 224a 913e
00000090: 20ed 853e 1c2c 0c3e 66d6 a93b 7890 dabe
000000a0: 1550 94be e441 98be 5979 cfbb c4c5 b03e
000000b0: 47b3 d53e adcf f2be 20c8 f13e dce6 2b3e
000000c0: bd06 38be 7ce1 14be 09bd f3bd 770e ef3e
000000d0: 2001 e6be 4645 01bd ed9b da3d e08f b43e
000000e0: eaf3 863e 7001 8bbe ee00 063e 2176 99bd
000000f0: 170d ba3e b817 f63e d2e4 a3bd 8988 e33e
00000100: 38fb e5bd 6ed9 c2be 9592 a4bd 089e b13e
00000110: d7b4 3cbe 5e00 aebe 24fe 6dbe d2bd 963e
00000120: 161d 3f3e c449 c2be 7e78 f43e 0f3d c43e
00000130: 0748 f1be 0eda c53e d848 873e 5edb 573e
00000140: c620 b83e 0ebc 43be b80f 0abe 2eeb 823d
00000150: 340f c1be 3211 243d c335 c93e 1a7f b23e
00000160: 9718 d8be fb45 b5be b3ea 27be 18f1 8e3e
00000170: fc6e 553d 7734 bd3e 8d07 6c3e a512 dd3e
00000180: a598 e6be 7adc a0bd 0e36 d1bd 18b8 a43e
00000190: 0aa0 d9bd 6089 8d3c f645 b93e be1c c3be
000001a0: b5d8 70be 095e d73e 67ff 30be f0a3 dfbe
000001b0: 79f5 983e 7c5a e53d d9c8 b2be 0cde a9be
000001c0: c51a fe3e abb8 44bc ffe6 f53e 0b21 c6bd
000001d0: 0bbd 09be e036 ce3e 2150 c0be 988b 4c3d
000001e0: 6042 60be e1e9 c33e af7c 62be dc87 a8bd
000001f0: 1453 e0be 1806 a83e 824b a13e 7a7c 64be
0.25870454 0.15859506 -0.003804579 -0.000863562 0.1764173 0.35920376 -0.4835538 0.24723987
0.39120317 0.09220773 -0.120056 -0.3619467 -0.26425752 -0.0020519493 -0.19675897 0.18334909
0.4268958 0.2886748 0.14224821 0.25210154 -0.29992098 -0.016093316 -0.14762768 0.21694468
-0.21776669 0.029719789 -0.12317688 0.044612568 0.023959376 -0.097609825 0.018027592 -0.28805202
-0.41965 0.34909448 0.25928327 0.2837687 0.26157475 0.13688701 0.005183029 -0.42688346
-0.28967348 -0.2973777 -0.0063316044 0.34525883 0.4173834 -0.4742407 0.47222996 0.16787285
-0.1797132 -0.1453914 -0.1190129 0.46690723 -0.44922733 -0.031560205 0.10674272 0.35266018
0.26357967 -0.27149534 0.13086292 -0.074932344 0.36338112 0.4806497 -0.080026284 0.44440106
-0.11229557 -0.3805651 -0.08035771 0.3469088 -0.1842836 -0.33984655 -0.23241478 0.29441696
0.18663439 -0.37946904 0.47748178 0.38327834 -0.47125265 0.38642925 0.26422763 0.21079776
0.35962504 -0.19114706 -0.13482559 0.06392513 -0.37706912 0.04005546 0.3929883 0.34862596
-0.4220626 -0.35404953 -0.16398124 0.27918315 0.052107796 0.3695409 0.23049755 0.43178287
-0.45038334 -0.078545526 -0.10215388 0.32171702 -0.10626228 0.01727742 0.36186188 -0.38107866
-0.23520167 0.4206393 -0.17284928 -0.43679762 0.2987478 0.11198899 -0.3491886 -0.3317722
0.496298 -0.012006919 0.480278 -0.09674271 -0.1345102 0.4027624 -0.37561134 0.049937814
-0.2190032 0.38264373 -0.22117876 -0.08229038 -0.43813384 0.3281715 0.3150292 -0.22313109

embed.embedding_net.lin1_1.bias f4 [32]
00000000: 5976 6ebe 2234 19ba 56c4 7cbd 99d0 f5be
00000010: 2b38 74be 5d82 8ebe c099 afbe 1af9 dc3d
00000020: bcad a53d b038 b0be 4227 e6be 9fbe 94bd
00000030: cb82 98be 4261 e93e 04ce b3be 0999 68bc
00000040: abd5 1bbe 6b7f 523e 9912 623e d046 c6be
00000050: 8ff2 ddbe b571 b53e bbef 61be 27dd e53c
00000060: 62f0 3f3e 80a8 9fbe 0705 f9bd ac84 d63e
00000070: debd 7fbe 843d 943e f512 7e3e d729 c2be
-0.23287334 -0.0005844255 -0.061710678 -0.4801071 -0.23849551 -0.27833834 -0.3429699 0.107897
0.08089778 -0.3441825 -0.44951826 -0.072629206 -0.29787287 0.45582014 -0.35118115 -0.014196643
-0.15218227 0.20556419 0.22077407 -0.387259 -0.4334912 0.35438314 -0.22064106 0.028059555
0.18744043 -0.31183243 -0.12159162 0.41898096 -0.24974772 0.28953183 0.24811919 -0.37922546

embed.embedding_net.bn1_1.weight f4 [32]
00000000: d1c5 813f 3bcf 803f afc8 7e3f bfcd 803f
00000010: cfc6 7f3f 22dc 7c3f 0dfc 7f3f 37db 7f3f
00000020: 1a00 813f edeb 7f3f 2099 7e3f 2240 7f3f
00000030: 7043 7f3f 6c35 7f3f 11f0 803f 90fa 7e3f
00000040: e00a 803f 9a08 813f ad41 7f3f 9244 803f
00000050: 441e 803f 4937 7f3f 0f29 7f3f bebd 7f3f
00000060: 9ac0 7f3f 7d3c 803f 53ef 7e3f f99d 7e3f
00000070: 0b56 7e3f 21dc 7e3f a298 803f b60f 803f
1.0138494 1.0063242 0.9952497 1.0062789 0.9991273 0.98773396 0.99993974 0.9994387
1.0078156 0.9996937 0.994524 0.99707234 0.99712276 0.9969089 1.0073262 0.9960108
1.0003319 1.008075 0.9970959 1.0020926 1.0009236 0.99693733 0.99672025 0.998989
0.9990326 1.001846 0.9958393 0.994598 0.9935004 0.9955464 1.004658 1.0004795

embed.embedding_net.bn1_1.bias f4 [32]
00000000: f16c b539 dbe0 233c 0eed 0cbc ded1 393c
00000010: 9cef b1ba 11b8 8fbb 7b3a a03b 89e2 67bb
00000020: 3701 50bb 3fa1 4e3b eb73 2b3c 1e22 b239
00000030: 9543 37ba cdc7 00bc efed 4cbc 9132 8f3b
00000040: b7b1 9b3b 92a3 5a3a be55 a5bb cfcc 1ebc
00000050: 98be f5bb fbe2 52bb 7868 533b 8652 a33b
00000060: c164 fc3b 4e96 373c 270f 50bb 9c07 c1ba
00000070: 72cf 233a aad3 ceba f0c5 2f3c a0e8 753b
0.00034604178 0.01000234 -0.00860144 0.01134154 -0.0013575437 -0.004385956 0.004889784 -0.0035382828
-0.0031739005 0.0031529216 0.010464649 0.00033976225 -0.00069909665 -0.007860136 -0.0125079 0.0043700417
0.00475141 0.0008340414 -0.0050456217 -0.009692385 -0.007499527 -0.0032178748 0.0032258313 0.004984203
0.0077024405 0.011205269 -0.0031747313 -0.0014726999 0.00062488683 -0.0015779634 0.010728344 0.0037522689

embed.embedding_net.bn1_1.running_mean f4 [32]
00000000: a590 0bbd f33b 2b3f 33ee d1bf 8997 94bd
00000010: d8b8 bc3f 699b a73e 55cf d5be d8b9 9abf
00000020: 4f05 dc3f 16c7 04c0 eb43 503f fb68 ae3f
00000030: 595a bd3f d06b fc3f b322 00bf 578a 1340
00000040: e60d 873f 4086 6e3f 4ba3 2440 7059 6b3f
00000050: 4925 85be 5276 1640 e8d9 d33e a492 2240
00000060: 068e 9d3f c4e7 c5bf 1306 11c0 1726 b3bf
00000070: deba 893e e953 ba3d ecaf bebe 1570 7abf
-0.03407349 0.6688835 -1.6400818 -0.072554655 1.474391 0.32735756 -0.41759744 -1.2087965
1.718912 -2.0746512 0.81353635 1.3625787 1.4793197 1.9720402 -0.50052947 2.3053186
1.0551116 0.931736 2.5724666 0.91933346 -0.2600501 2.3509717 0.41377187 2.5402002
1.2308967 -1.5461354 -2.2659957 -1.3995999 0.2690038 0.09098036 -0.37243593 -0.97827274

embed.embedding_net.bn1_1.running_var f4 [32]
00000000: cc23 fa3b 6b1f ab3d dfb7 543e d9b0 8c3c
00000010: 5067 163e dab1 c63c ddd2 203c 9529 943d
00000020: ed9b 813e 72ad 343e de84 fd3d 632c ad3e
00000030: 09d2 133e 2c1d 473e 4073 883c 80db 303e
00000040: 32c6 be3d ad3c 273d 0429 143f 6021 4f3e
00000050: 29c3 9f3c bb61 dd3e 2a50 653d 7b05 bb3e
00000060: 6612 9f3d 9eff 413d b9fc a63e 319d ba3e
00000070: 72d3 0f3e dff5 c93d bca3 ad3d a7ab 4d3d
0.007633662 0.08355602 0.20773266 0.017174171 0.14687848 0.024254728 0.009815899 0.07234494
0.25314274 0.17644289 0.12378858 0.33822927 0.14435591 0.19444722 0.016656518 0.17271233
0.093151465 0.04082935 0.57875085 0.20227575 0.01950224 0.43238625 0.055984654 0.3652762
0.07767181 0.047362916 0.32614687 0.36448053 0.14045504 0.09861349 0.084784955 0.05021253

embed.embedding_net.lin1_2.weight f4 [32, 32]
00000000: b60f 3fbe 7fa8 803d 7705 863d 1592 13bc
00000010: b8d9 7abd 8038 2f3e 89a5 1cbe 7bea eabd
00000020: 21e9 183d 1c49 f2bd f041 9cbd bba7 d23d
00000030: cb70 9f3d 44b8 d8bc 5db4 f73d 99a5 69bb
00000040: a061 0bbd 080e 56bd 7574 b0bd cc4c 143e
00000050: 805f c23d 9070 0fbe e012 353e 46b7 a0bc
00000060: 907e f73c 124b 1d3d 518c 283e a11c 70bd
00000070: 77b8 00bd 1def 46bd 03c8 393d d8bf 24be
00000080: 2c72 edbc e5bf a53d 3e9f 1f3e 3043 3bbe
00000090: 8528 33be b3fa 203e d693 9e3c 0bb9 57bd
000000a0: 2734 943d 6446 09be 5036 89bd 1240 67bd
000000b0: 41d5 453d f631 54bc 47b2 90bd 3600 b4bd
000000c0: 927d 12be 689e acbd 6f36 e7bd 3380 ab3d
000000d0: edbd 1b3e 6fa2 dcbd b93a ff3c af1d abbd
000000e0: a701 8cbc bc03 533c aab2 123e e7ed 173e
000000f0: 1bd7 a6bd 230c 0f3e 521a de3c 45ee afbd
00000100: 27e0 553d 1da5 ebbc 33d3 28be e64f 45bd
00000110: 267f 033e b41e 81bd 6646 2dbd de70 25bc
00000120: a54f 083d 66ad 0dbd 764d 293e 97c9 17bc
00000130: 7141 263e 53d6 083e f5db febd 692b ec3c
00000140: ef94 0d3e c86e 2f3c efe0 853c 34be d23d
00000150: 3618 913c 47c4 9c3d 76c5 973d 3f76 dabd
00000160: 26ca 193e 9088 dbbc 6cd2 233e f7b7 a1bd
00000170: 955d b1bd 6c61 b9bb 16ba eb3c 8360 363c
00000180: 263a 4dbd 2929 b9bd 5820 f53d 5417 a0bd
00000190: eb79 24bd d8cd 2ebd 2473 da3d 5071 e7bc
000001a0: 8d60 46bd 6f9a 193e b0c1 503d f2a8 f4bd
000001b0: 3c9a 443c d925 c6bd 5aca 9e3d 3723 66bd
000001c0: 77bb e4bb 10d2 03be 29e0 b1bd 414d a83d
000001d0: e4d1 7a3d d223 08be 2069 183e 9475 d3bd
000001e0: e978 16bd 3860 1a3e edd6 fe3b ce76 3b3c
000001f0: 4beb e93d dcfe c1bd 72db 873d 3373 20be
00000200: 8041 3abe 9456 14be da82 0e3e c710 913d
00000210: 9124 fe3d 7dd9 813d ae98 f53d 7e01 0f3e
00000220: fecf b4bd deb1 ad3d 757d dd3d c0eb ac3d
00000230: e531 873d 7fee 0ebe 1d6b 483b dce6 b2bd
00000240: bdb7 2d3e b7b7 d73d 86da 43bc c099 b3bd
00000250: dc76 ee3b 4877 2c3e 65c3 253e ffe5 2ebe
00000260: 625f 01bd e44b 1cbe f628 5dbd dbaa 1b3e
00000270: a42a d23d 3f43 36be 7035 9dbd 52a1 a7bd
00000280: 20f0 18be 8f4d c93c b351 89bd 034c 17be
00000290: 4281 0a3d 70a3 05bc 6d59 023e b26e 29bd
000002a0: cfd0 893d 8519 103e b0c0 8e3c ecba 95bd
000002b0: 20f6 7bbc 97f4 d7bd 55fe 7d3c 7ea8 98bd
000002c0: b106 153e 1d2a 35be 7437 093b a0c5 bcbd
000002d0: e886 d23d c755 103e 63b3 913d 3f5b 593d
000002e0: 0cf2 21be b0b1 b63d 09bf 803b 103b 9b3d
000002f0: 3d5d 6fbc a139 50bd 7660 853d 891c 09be
00000300: 5de6 d53c a8e0 773d 1e1d 36bc 3111 203e
00000310: d0b3 c93d 7812 18be fb26 763d 546a d33c
00000320: bc52 85bb 2e0f 19be b1f0 d1bd cb1d ce3d
00000330: 4434 84bc e545 a03d e72e 26be 6774 cd3d
00000340: ea12 82bd f5cf 603d bf03 16be cec2 0b3e
00000350: 723a fdbb 1365 043e 2635 1cbe 1c99 29be
00000360: 98f3 17bb 0583 b0bc 6fcd 2b3e 05d1 943d
00000370: 4956 653d 1656 f9bb 509d 593c bb1c 9cbc
00000380: 8856 e0bd 7317 a83c fff1 a83d a762 3c3d
00000390: bacf f6bd 30df 0bbe 6358 b13d ba12 8fbd
000003a0: 1a9b af3d 363f 4dbd 669f 07bd 0dbc 08be
000003b0: 0934 ac3d 7a64 ef3d 00c7 2cbe d286 a13d
000003c0: f77b a5bc 73d0 c8bd 99a3 ea3b 7840 cabd
000003d0: 35a0 f03c da46 8d3c 4bc1 b13d a741 393d
000003e0: e5fa ce3d 96ed 15bd 6001 073e e18f 123d
000003f0: b966 e13d 6c97 2dbe cc39 19be 3a52 01be
-0.18658337 0.06282138 0.06544011 -0.009006997 -0.06124279 0.17111397 -0.15297522 -0.11470505
0.037331704 -0.11830351 -0.07629764 0.10285898 0.077851854 -0.026455052 0.120949484 -0.0035651682
-0.03402865 -0.052259475 -0.086159624 0.1448242 0.094908714 -0.14007783 0.17682981 -0.019618642
0.030211717 0.03840167 0.16459776 -0.058621053 -0.03142592 -0.04856788 0.04535676 -0.16088808
-0.028985105 0.080932416 0.1558809 -0.18287349 -0.17495926 0.15720634 0.019357603 -0.052666705
0.0723651 -0.13405758 -0.066998124 -0.056457587 0.048299078 -0.012951365 -0.07065254 -0.08789103
-0.14305714 -0.08428651 -0.11289679 0.083740614 0.1520917 -0.10773169 0.03115593 -0.08355271
-0.017090632 0.012879308 0.14325967 0.14836846 -0.08146497 0.13969474 0.02711216 -0.08590368
0.05221572 -0.028765256 -0.16486816 -0.0481719 0.12841472 -0.06304684 -0.042303465 -0.01009771
0.03327908 -0.034589194 0.16533455 -0.009264371 0.16235901 0.13363008 -0.12444297 0.028829293
0.13826345 0.010707565 0.016342608 0.102901846 0.01771174 0.076546244 0.074107096 -0.10667085
0.1501852 -0.026798517 0.15998238 -0.07896417 -0.086604275 -0.0056573655 0.028775256 0.011131409
-0.050104283 -0.09041054 0.1196906 -0.078169495 -0.040155333 -0.042676777 0.106664926 -0.028252274
-0.04843192 0.15000318 0.050965965 -0.11946286 0.011999663 -0.096751876 0.07753439 -0.056185927
-0.0069803554 -0.12873101 -0.08685333 0.0821786 0.061235324 -0.13294914 0.14883852 -0.103251606
-0.036736403 0.15075767 0.007777086 0.011441899 0.11421832 -0.09472439 0.06633653 -0.15668945
-0.18189049 -0.14486152 0.13917103 0.07083278 0.12409318 0.06340311 0.11992012 0.13965413
-0.08828734 0.08481191 0.10814945 0.08443403 0.066013135 -0.13958167 0.0030581423 -0.08735439
0.16964622 0.10533088 -0.0119539555 -0.0876956 0.0072773527 0.16842377 0.16187818 -0.17079924
-0.031585105 -0.15263325 -0.05399414 0.15201895 0.10262039 -0.1779909 -0.07676208 -0.08185066
-0.1493535 0.024573116 -0.06705036 -0.1477509 0.033814676 -0.008156642 0.12729426 -0.041365333
0.0672928 0.14072235 0.017425865 -0.07311043 -0.015378505 -0.10544699 0.015502532 -0.07454012
0.14553334 -0.17691846 0.0020937594 -0.092173815 0.102796376 0.14095221 0.071142934 0.053065535
-0.1581499 0.0892061 0.003929023 0.07579625 -0.014609632 -0.05083621 0.06512539 -0.13389792
0.026110822 0.060516983 -0.0111153405 0.15631558 0.0984875 -0.14850795 0.06009577 0.025807537
-0.0040687006 -0.14947197 -0.10250986 0.10064276 -0.016138203 0.07825831 -0.1622883 0.100319676
-0.06351264 0.054885823 -0.14649867 0.13648531 -0.0077279145 0.12929182 -0.1525465 -0.16562313
-0.0023185965 -0.02154685 0.16777585 0.0726643 0.05599049 -0.007609139 0.013282135 -0.019056669
-0.109540045 0.020518994 0.08249282 0.04599252 -0.120513394 -0.13659358 0.086594366 -0.06985994
0.08574505 -0.05010911 -0.033111 -0.13352986 0.084083624 0.11689086 -0.16872787 0.07887043
-0.020200713 -0.098053835 0.0071606156 -0.09875578 0.029373268 0.017245699 0.08679446 0.045228627
0.10106448 -0.036603533 0.13184118 0.035781745 0.11005921 -0.16952294 -0.14963454 -0.12629023

embed.embedding_net.lin1_2.bias f4 [32]
00000000: fafb e2bd 27bf 14bd 452f 433d a535 e23d
00000010: caa2 733d baaa 15bb 3d47 c1bd 997c bcbd
00000020: c553 10be 1ebe d4bd eaba 05bc 07f6 0e3e
00000030: c16a ec3d 93c8 69bd c4ff fd3d b62e 323e
00000040: ef1c 603d 03f2 0c3d 8cc4 c03d 3b83 4bbc
00000050: 4dbb cfbd 926b 893d 0196 9a3d 7b65 f73d
00000060: c1aa 903c 1f6b 3b3e f553 1f3e 497e 0fbd
00000070: f618 6cbc 1df9 013d 98d4 c53d ce8c 0abd
-0.11083217 -0.03631511 0.0476525 0.11045388 0.05948142 -0.0022837357 -0.09437416 -0.092034526
-0.14094456 -0.103878245 -0.00816224 0.1396104 0.11543799 -0.057076048 0.12402299 0.17400631
0.054715093 0.034410488 0.09412488 -0.0124214245 -0.10143147 0.067099705 0.07548142 0.12079903
0.017659547 0.18302582 0.15559371 -0.035032544 -0.014410248 0.031731714 0.0965969 -0.033825688

embed.embedding_net.conv1.nn.0.weight f4 [32, 32]
00000000: 3dcb d0bd 1353 893d 267e 12be 415b cbbd
00000010: 76c2 b43d 4e9a e5bd f85a 0a3e ea6d dc3d
00000020: 50d5 813d 1533 993d f0ec 143e 290f fcbd
00000030: 129a ddbd be27 0fbe 7952 f5bd 314c dfbc
00000040: af9d 9e3d 576e 30be 5dce 5bbd 8876 d23d
00000050: 8ceb 1fbe dc6e f4bd 7180 883d 2178 7f3c
00000060: 0a8f 343d 37b9 adbc b585 c83d 63aa d3bc
00000070: ca58 1e3e 4214 a13c 4e64 0fbe ffa9 efbd
00000080: 2fa0 273e 61f9 1abe cfe2 213e 12f3 abbd
00000090: 854d 023e 9734 aabc 766f 6ebd c632 363d
000000a0: f14f f5bd b4c4 1f3e 957e 41bd b62c 123c
000000b0: 6649 c53d ff36 b6bc 8e1e 983d 295b 8b3d
000000c0: d9fb 1f3e e76b 7ebd 6cae 0dbe ae6e 06bd
000000d0: e32d 83bd c22d 0cbd 3729 1abe c27c cbbd
000000e0: 2dbe 0d3e affc 1abc 869e ca3d 8315 073d
000000f0: a1c3 8ebc 20ee 613d aa06 0d3e 98b2 cebd
00000100: 23a7 f93d 0af3 14bd 30d4 e13d fb78 f93d
00000110: 8381 09be e8e9 03be 027f aabb c529 1abc
00000120: 3bb0 0d3e 462d 2c3e c51d 0abe a659 0cbc
00000130: 747f 923b dbc0 8e3d b7d3 bc3d 2548 a23d
00000140: 287b 133e 4b3a 0cbe e79c cebd 2c35 82bd
00000150: f521 b8bd 2463 87bc fcf3 d5bd 29af be3d
00000160: 6580 bb3d 7676 9c3d ff48 b3bd 1e9e 233e
00000170: c018 35be f74a d73c 7dad e2bd 8a47 8bbd
00000180: 28a0 27bd ff95 883d d758 10be 9f9f 343d
00000190: 172f 87bd 64e5 eebb 51c1 21bd 1c50 2ebd
000001a0: 6378 86bd a22e 383e a164 25be 96f4 1cbe
000001b0: afcf 293e 3bcc d5bd a21b a1bc a5f0 2c3e
000001c0: bf61 95bd 5c3c bd3d 88c7 033e 457c b7bc
000001d0: 2382 10be bc1f 5c3d 5bf3 573c 0eba 0a3d
000001e0: 7430 6f3d b0d1 113e 5248 303e 47cf 413c
000001f0: 2155 333e 1af0 1fbd 4a97 333d 3186 e1bd
00000200: 9e4a e2bd 9590 acbd 965a 1b3e 9691 ef3c
00000210: 076e e0bd 0e74 73bd 2633 dbbd a684 273e
00000220: a587 2fbe 2f5c 833d 37f9 15be 84db 8c3d
00000230: 09ec fe3d 1778 1bbe d6c1 173b ebe4 dc3c
00000240: f49f 1cbe 4a34 cabd 816e 583d b4b2 343d
00000250: e5b7 e7bd 7bab 1d3e 90c2 0b3e c842 353e
00000260: ebe8 99bd d751 f7bd 9916 bcbd 5029 0abe
00000270: 7db1 983d f699 b13c 388e 1d3e 08df 2fbd
00000280: 4253 92bd aa23 923d 0e01 bb3d d02f 44bc
00000290: 5669 82bc 8715 6abd 8e34 233d 1197 903d
000002a0: e00b 513d 0182 0dbe 7c0c 09be 4296 ecbd
000002b0: 3bd3 69bc 0437 cbbd fa1e 23be 7d39 263e
000002c0: b5be 033e 1ce5 333d 80ed 7aba 956f e5bd
000002d0: 6f0b 20be 6f95 bfbd 3677 26be 6800 003e
000002e0: 7ae2 003e c281 9abd 8827 31be 1953 24be
000002f0: 999e 2e3e ac3b 1ebe 2b3b 11be dfea 3c3e
00000300: 5075 25be 3db8 613d 8ad0 ccbd 2d2f 69bd
00000310: 69d8 ffbd bb0b 403d bad7 313d c82b 2d3d
00000320: 5fa5 bcbd 5fb9 1bbe 9cd9 f93d 1924 b8bd
00000330: bdd6 01be 9b09 1e3e bfaa 043e 5b35 3cbd
00000340: a4cc 31be e50a fcbd 7e1d 2f3e 082f 25be
00000350: 668f d5bc 16a5 eb3d d52c b23d b233 90bd
00000360: fed0 573d d47c f23d 1755 893c 72ca 1bbd
00000370: 6815 c73b f787 dc3d 23f3 f4bc 7dfb 633d
00000380: 1918 ddbd 1616 0bbe 0ca1 5b3d 4c6c 24be
00000390: 2d2a 433d 3d8b 0bbe 363f 1fbe 8a26 d3bd
000003a0: 86b3 25bd e6bb 793d 07a6 553c ac5c 16bc
000003b0: a6e9 4c3c 9549 4ebc 5982 a93d c861 c2bb
000003c0: 603e 1b3d 5be7 193e 7111 dcbc f87c 90bc
000003d0: b539 513d 5d54 bfbd 49c5 9bbd bdf2 253a
000003e0: 4e45 1f3d fea9 14be 4571 633c fa8d 263d
000003f0: 9b64 9c3d 83bd 963d 24a5 30bd 5a69 95bc
-0.101950146 0.06705298 -0.14305934 -0.09929515 0.08826153 -0.11211072 0.13511264 0.10763152
0.06339514 0.07480446 0.1454351 -0.12307579 -0.10820402 -0.13980004 -0.11978621 -0.02725801
0.077449195 -0.17229591 -0.0536636 0.10276514 -0.15617198 -0.11935207 0.06665123 0.015592606
0.044081725 -0.021206481 0.097911276 -0.025838083 0.15463558 0.01966298 -0.14003107 -0.11702346
0.16369699 -0.15134193 0.15809177 -0.08395971 0.12724884 -0.02077703 -0.058211766 0.044482015
-0.11978138 0.1560238 -0.04723986 0.008921793 0.0963314 -0.022243021 0.07427703 0.06804497
0.15623416 -0.062114622 -0.13836068 -0.032820396 -0.064052366 -0.034223326 -0.15054785 -0.09935905
0.13842078 -0.0094596585 0.09893517 0.0329795 -0.017427268 0.055158734 0.13772073 -0.10092658
0.12190082 -0.036364593 0.110268 0.12181278 -0.13428311 -0.12882197 -0.005203129 -0.009409373
0.13836758 0.16814145 -0.13487919 -0.008566296 0.00447076 0.06970378 0.09220069 0.07923917
0.14402449 -0.13694112 -0.100885205 -0.06357798 -0.08990852 -0.016526766 -0.10446927 0.09310753
0.09155349 0.07639782 -0.08754157 0.15978286 -0.17685223 0.026280863 -0.110682465 -0.06800754
-0.04092422 0.066692345 -0.1409639 0.04409754 -0.066007785 -0.007290529 -0.039491 -0.042556867
-0.06565931 0.17986539 -0.16151668 -0.15327677 0.16583131 -0.104393445 -0.019666497 0.16888674
-0.07294034 0.09240028 0.12869084 -0.022398124 -0.14112143 0.0537412 0.013180579 0.03386884
0.058395818 0.14240146 0.17215088 0.011829204 0.17512943 -0.039047338 0.043845452 -0.11011923
-0.11049388 -0.08426014 0.15171275 0.029244225 -0.10958486 -0.05943685 -0.10703115 0.16359195
-0.17141588 0.06414067 -0.14645849 0.06877807 0.12447364 -0.1518253 0.0023156307 0.026964625
-0.15295392 -0.098732546 0.05283976 0.044115737 -0.11314372 0.15397446 0.13648438 0.17701256
-0.07515129 -0.120761566 -0.09183998 -0.13492322 0.07455728 0.02167986 0.15386283 -0.04293731
-0.071447864 0.07135709 0.091310605 -0.01197429 -0.015919369 -0.057149436 0.039845042 0.07060064
0.051036716 -0.13819124 -0.13383669 -0.11552097 -0.014271553 -0.09922603 -0.15929785 0.16232868
0.12865718 0.043919668 -0.00095721334 -0.11202923 -0.15629362 -0.09354674 -0.16256413 0.12500155
0.12586394 -0.075442806 -0.17300236 -0.16047324 0.17052688 -0.1545245 -0.14182727 0.18448971
-0.16158032 0.055107344 -0.10000713 -0.056929756 -0.12492449 0.046886187 0.043418624 0.04227808
-0.092112295 -0.15207432 0.12199709 -0.0899126 -0.12679572 0.15433352 0.1295576 -0.04594932
-0.1736322 -0.123067655 0.17101094 -0.16131222 -0.026069354 0.11506097 0.08699957 -0.0704111
0.052689545 0.11840215 0.016764207 -0.038034864 0.00607555 0.10768121 -0.029901093 0.05565976
-0.10795612 -0.13582644 0.053620383 -0.16056937 0.047647644 -0.13627334 -0.15551457 -0.10310085
-0.04045441 0.06097021 0.013040072 -0.009177368 0.012506878 -0.0125907855 0.08276815 -0.0059320666
0.037901282 0.15029661 -0.026863785 -0.017637715 0.051080424 -0.09342263 -0.076059885 0.00063304213
0.038884453 -0.14517972 0.013881986 0.040662743 0.076363765 0.07360365 -0.04312624 -0.018238712

embed.embedding_net.conv1.nn.0.bias f4 [32]
00000000: a86f d93d 0b64 0ebe 38bd 0bbe 84cf 14bd
00000010: 93c7 b33d 59c2 6abd e2a5 b5bd dbe0 a53d
00000020: f8c9 cc3d e95c 1cbe 9ad8 193e 6439 1bbe
00000030: a220 65bd 4b9e 1abe 1d88 30be abae fb3c
00000040: 6a13 ce3d 7ef4 b1bd 5d9f 8b3d d9d2 ebbd
00000050: ada2 b5bd cdac 053e d07a 23bd d761 823d
00000060: 925a 0f3e e308 76bd 2d59 663d 604e b13d
00000070: 03cf 483d 2ed2 d93d 39fb 833d ee65 2a3e
0.10617 -0.13905351 -0.136464 -0.036330715 0.087783 -0.05731425 -0.0886953 0.080995284
0.0999946 -0.15269817 0.15024033 -0.15158612 -0.055939324 -0.15099446 -0.17239423 0.030722937
0.10062297 -0.08689211 0.068175055 -0.115148254 -0.088689186 0.130542 -0.039912045 0.06366318
0.13999394 -0.06006707 0.05623739 0.08657527 0.049025547 0.10635792 0.06444401 0.16640446

embed.embedding_net.conv1.nn.2.weight f4 [32, 32]
00000000: e458 d8bd 8a8f ddbc f4ae aa3d 63af bfbd
00000010: 3f39 f13d 3d66 debc d59b 8e3d fd6e 303e
00000020: 4157 ebbd 7cb8 903b 268e af3c 7cbb ddbd
00000030: 15a2 82bd 69c3 c8bd e56f 47bd a586 b73c
00000040: a6d3 c6bd 50b0 8e3d a9b9 bbbd 3b2f 313e
00000050: 8de5 28be 7f06 083e ecbf 30bd 5168 9abd
00000060: 645c 3fbd ed91 a0bd 7e32 e23d b7a6 ffbd
00000070: 2a83 2ebe a15a 033e 0d99 46bd 358c b0bc
00000080: 44a3 04bb 38b3 95bd 7f43 283e 7976 963d
00000090: 62af e8bd a33e ff3d 1d16 07be 0ee6 cbbd
000000a0: 971b 2e3e 3a21 1bbe 3098 4e3d 3516 e3bd
000000b0: 296e eabd 0a20 0f3e 372d 38bd 23cb e5bc
000000c0: 7df8 ec3c 9440 953d 622f 9c3d b7f0 fdbd
000000d0: 2479 88bd 7a36 233e c5f3 17be 9c33 dd3d
000000e0: ca23 e7bd b080 87bd d193 68bd 02fd 3a3e
000000f0: 7563 31be 6aae 2abe 0ce5 2c3e 5460 febd
00000100: 9588 23be 0c8d 243e c65e c4bd 1c9d bebc
00000110: 2367 0cbd d085 bcbd 1fc1 263e 6375 8fbd
00000120: cb05 a4bd cfc3 f43c cc9a 9f3d ef3f 35bc
00000130: 4b77 053e cc43 cf3d adc1 a73d 38a0 cdbd
00000140: 5d6a e13c 2327 3d3d 9253 09be ddc3 fd3d
00000150: e2be 4f3d 273b 1d3d b46a 74bd ba1a 263d
00000160: 2da9 58bd 4fcd 2dbc 928f 38bd 9def f93d
00000170: db38 ea3d 5bde 263e 77fa 27be 1b54 a33d
00000180: 695b a13c 63ed 0ebe effb 19be 0178 663d
00000190: b6ab e93d bd8c 403e db72 8f3d c6ae 92bd
000001a0: d473 023e 3b66 7a3d 94c8 31be 8296 1dbe
000001b0: 21c2 bdbd f546 abbd 9a81 a13d 4278 12be
000001c0: b5d5 203e e292 edbd 5237 1cbd 1fc9 2c3d
000001d0: cafc edbd 942d f5bd bc76 183e fa0a dabd
000001e0: 8523 8a3b b05f ec3d 2af2 1cbd 01ec 7e3d
000001f0: a55f f2bd 3f46 243d d1d4 1a3e 8254 293e
00000200: 8f0b 163e ac4e 33be 55ea 20be b232 16be
00000210: 0ca1 c63d d25b 9c3c d38d 473d 0587 04be
00000220: fbc2 053e e6c5 0cbe a401 2e3e cbcb 38be
00000230: 1571 09bd 6680 2d3e 5441 2f3e 5d7e 16be
00000240: 9974 2dbe 5152 213d 9ff4 ea3d 212d 3f3d
00000250: fa12 16be 12fe 0e3e 5fe8 c13b 3c10 f3bc
00000260: 1a49 c5bd 4a3c 03be 990d 3b3c 18cf 513d
00000270: f380 e13d 60bd 85bd ed40 ce3d 6e03 e4bd
00000280: 26bb 01bd 54fd 763d 7adb 243e c074 263e
00000290: 62d6 b23c f1db d6bd 4381 14bc 544a ae3d
000002a0: 49fa d6bd dd66 7b3d aaa6 1ebe fb36 cc3d
000002b0: 10c8 1a3e 1d04 2cbd 7316 cabc bd26 03be
000002c0: 279b 04bd abc6 51bd 6053 90bd a2b6 fcbc
000002d0: 4981 aebd b6ba 39bc 5ae1 99bb 9c72 6a3d
000002e0: f375 183e 58c5 afbd 7720 69bc 8531 8cbd
000002f0: 9cca 563d b472 be3d 7162 6b3c 29a7 c73d
00000300: 54e2 8fbd de50 a03d 9600 28bd 3f64 1bbe
00000310: b7f3 de3d 8a73 353e 4476 e1bc 2c55 df3c
00000320: f71f 0fbe b39e b93d 288c 76bd 0f75 ef3d
00000330: ec13 40be 5791 d03d 3796 553d 0351 1c3d
00000340: 4bc6 24bd 3ea0 973d 80d5 b1bd 2e91 d23d
00000350: babf a2bd ffee c03d 8618 ef3d 97bf 8e3c
00000360: bee3 dcbd 0c01 12bd 4bb5 fc3d aae8 babd
00000370: 71a3 14be f076 173e 2010 8fbd 1c04 fd3d
00000380: cb92 e53d 605b 32be dc75 68bd 8397 1cbe
00000390: c8f4 303e 9dba fcbd 5866 bb3d c4d8 0dbe
000003a0: 2a83 10ba e478 313e 7d72 1bbe e2fa 06be
000003b0: 7d20 4abd 7a29 36bd 84b9 fc3d bcf2 be3c
000003c0: 7412 31be 93e5 043c 3aa3 c13d 8873 0e3e
000003d0: 2551 cfbd 496d 0dbe 802e 653d 3c5a 1abd
000003e0: c25e 8a3d 22a6 23bc f267 13bc 9517 b7bd
000003f0: 93fb 5b3d 55f1 31bd f2a4 323e f835 d9bd
-0.105638295 -0.027045984 0.08334151 -0.09359624 0.11778497 -0.02714836 0.06963316 0.17229839
-0.11491252 0.0044165235 0.021430086 -0.108267754 -0.06378571 -0.098028965 -0.048690695 0.02240307
-0.097083375 0.06967223 -0.09166271 0.17303173 -0.16493817 0.13283728 -0.04315178 -0.07539428
-0.04671897 -0.07840333 0.11044787 -0.1248297 -0.17042223 0.12827541 -0.048485804 -0.02155123
-0.0020238915 -0.07309574 0.16431998 0.073468156 -0.113615766 0.12463119 -0.1319203 -0.09955989
0.17002712 -0.15149394 0.050438106 -0.1108822 -0.11446793 0.13977066 -0.044964995 -0.028050965
0.028927082 0.07287708 0.07626225 -0.12399428 -0.06663731 0.1593875 -0.14839084 0.10800859
-0.11286123 -0.06616342 -0.056781594 0.18260577 -0.17323096 -0.16668096 0.1688425 -0.12420717
-0.1597007 0.1606943 -0.09588389 -0.023268275 -0.034278046 -0.0920521 0.16284607 -0.070048116
-0.080089174 0.029878525 0.07793197 -0.011062606 0.13033788 0.10120353 0.081912376 -0.10040325
0.027516538 0.0461799 -0.13410786 0.123908736 0.05071915 0.03838649 -0.059672073 0.040552832
-0.052895714 -0.010608031 -0.045058794 0.12203906 0.114366256 0.1629576 -0.16404139 0.07975026
0.019696908 -0.13957743 -0.15037511 0.05626679 0.114097044 0.18803687 0.07004329 -0.07162242
0.12739497 0.06113265 -0.1736167 -0.15389445 -0.09265543 -0.08363143 0.07886048 -0.14303687
0.15706523 -0.11600281 -0.038138695 0.04218399 -0.11620481 -0.11971584 0.14889044 -0.10646625
0.00421566 0.115416884 -0.038316883 0.06223679 -0.11834649 0.040106054 0.15120246 0.16536143
0.14652847 -0.1751048 -0.1571439 -0.14667776 0.09698686 0.019086752 0.04871924 -0.12942131
0.1306266 -0.13747367 0.16992813 -0.18046491 -0.03355511 0.16943511 0.17114764 -0.14696641
-0.1693901 0.039385144 0.11472439 0.046673898 -0.14655676 0.13964108 0.0059175934 -0.029670827
-0.09633084 -0.12815967 0.011416816 0.05122289 0.11010923 -0.06530261 0.10070977 -0.11133467
-0.03167262 0.060300186 0.16099349 0.16255474 0.021830741 -0.10491169 -0.0090640215 0.08510271
-0.10496957 0.061377395 -0.15493265 0.09971424 0.1511538 -0.04199611 -0.024668908 -0.12807746
-0.032374527 -0.051214855 -0.070471525 -0.030848805 -0.08520753 -0.011336019 -0.0046960535 0.057238206
0.14888744 -0.08582562 -0.014228932 -0.068453826 0.052439317 0.09299222 0.014366732 0.0974868
-0.070255905 0.07827924 -0.041016184 -0.1517496 0.10886329 0.17719856 -0.027522214 0.027262293
-0.13977037 0.090634726 -0.060192257 0.11692249 -0.187576 0.101839714 0.05214521 0.038163196
-0.04022817 0.07403611 -0.086833 0.10281597 -0.07946725 0.09420585 0.11674599 0.017425342
-0.10785626 -0.03564553 0.123392664 -0.091264084 -0.14515473 0.14791465 -0.069854975 0.123542994
0.11209639 -0.1741767 -0.056753024 -0.15292172 0.17280877 -0.12340281 0.0915038 -0.13852221
-0.0005512709 0.17331272 -0.15180393 -0.13181642 -0.04934739 -0.04447315 0.12340072 0.023309104
-0.17292196 0.008111375 0.09454961 0.13911259 -0.10122899 -0.1381122 0.05595255 -0.03768371
0.06756355 -0.00998834 -0.00899695 -0.08940045 0.053706717 -0.043443043 0.17445734 -0.10605997

embed.embedding_net.conv1.nn.2.bias f4 [32]
00000000: c2a6 a6bd e0df 923d 182e c9bc 27e5 073e
00000010: 56dd 98bc 81ee 063e 4465 18be ee6e a4bd
00000020: 4fc2 bcbd 9c8d 99bd fea2 73bd c005 de3d
00000030: 279e 38be 9a3a 323e 99d9 f33d 83f6 f03d
00000040: 2ebb cd3d 16c8 1abe 4adc 2b3c 1888 5a3d
00000050: 001c 923d 1e52 ef3d fc00 283e a35f 503d
00000060: 6328 083e 4ac5 70bd 87db a6bd e6d9 dc3d
00000070: c4e9 58bd 3232 0fbe 2969 8e3d 8cd9 e7bd
-0.08137275 0.07171607 -0.024558112 0.13271008 -0.018660229 0.1317692 -0.1488238 -0.08028971
-0.09216749 -0.07497713 -0.059481613 0.108409405 -0.1802908 0.17405167 0.11906738 0.117657684
0.10045467 -0.15115389 0.010489533 0.053352445 0.07134247 0.116855845 0.16406626 0.050872456
0.13296656 -0.0587819 -0.0814734 0.10783748 -0.05295731 -0.13983992 0.069536515 -0.11320791

embed.embedding_net.bn1.weight f4 [32]
00000000: 92b9 7e3f 2322 803f 5b98 803f 72f1 7d3f
00000010: 3612 813f 8470 803f b30f 7f3f 4d5b 7f3f
00000020: 024a 813f 1f1e 813f 6ce5 7d3f 7e18 813f
00000030: 2459 813f a8fc 7e3f 07c3 7f3f 0629 813f
00000040: 4a3e 803f c9c7 7e3f f1f8 7e3f 33b0 7f3f
00000050: 5c91 803f 425a 813f 8f2a 803f 69cb 803f
00000060: 3628 833f 4a9e 803f 9be6 803f 2f90 813f
00000070: 0fcd 7b3f c2d8 823f 8aae 813f 268f 803f
0.9950191 1.0010418 1.0046495 0.9919654 1.0083683 1.0034337 0.9963333 0.9974869
1.010071 1.0087317 0.99178195 1.00856 1.0105329 0.9960427 0.99906963 1.0090644
1.0019009 0.995236 0.99598604 0.99878234 1.004436 1.010567 1.0012988 1.0062076
1.0246646 1.0048306 1.0070375 1.0122126 0.9835977 1.0222399 1.013139 1.0043685

embed.embedding_net.bn1.bias f4 [32]
00000000: 64cb 36bb f127 16bb 00c8 ed3b 0c0a 80bc
00000010: a7a0 f63b bde8 f7ba 16d9 45bc 3aa3 cebb
00000020: a3d5 853c 8edd a1ba f9bc dabb c478 44bb
00000030: eb32 ae3b cdc2 1a3c 8e11 d2ba 6144 483b
00000040: b219 18bc 02a0 b5bb 8935 59bb 5758 25bb
00000050: 3a4d 17bb ee86 713c fb67 22bc aa13 843c
00000060: 079f bd3c dccb 78bb b0de 743b 9e38 1f3b
00000070: 2ca7 90bb 8ae3 163c 28d6 003c c7eb bd3b
-0.0027892226 -0.002291199 0.007256508 -0.01562979 0.0075264755 -0.0018913966 -0.012075683 -0.006306079
0.016337221 -0.0012349354 -0.0066753593 -0.0029979208 0.0053161285 0.009445858 -0.001602696 0.0030558335
-0.00928347 -0.005542756 -0.0033143482 -0.0025229657 -0.0023086802 0.014741642 -0.009912486 0.016122658
0.02314712 -0.0037963307 0.0037364177 0.002429522 -0.0044144597 0.009209523 0.007863559 0.005795929

embed.embedding_net.bn1.running_mean f4 [32]
00000000: aad6 b7bd 7c7a 0e3e 966b 603c 34e6 0e3d
00000010: b934 f73c a997 0f3e c048 37be 8d89 39be
00000020: ca71 cc3c cab1 39be 30a5 94be f6bd e23d
00000030: 4f22 a4be 38de 703e 714a c63b 0aa6 053c
00000040: c6a4 dc3d 52b0 cebd c5e7 963e 283e 223e
00000050: e2e9 e43d fdb2 523e 1c60 5f3d 051c 723d
00000060: cd85 093e 8bfb 3ebe 9d85 02be da23 873d
00000070: 781d a43d d3e3 25bd a026 b23e 3cf2 9bbc
-0.08976491 0.13913912 0.0136975255 0.034887508 0.030176507 0.14022698 -0.17898846 -0.18118878
0.024956603 -0.18134227 -0.29032278 0.110713884 -0.32057425 0.2352227 0.0060513546 0.008157263
0.107736155 -0.10092224 0.294737 0.15844023 0.11177422 0.20576091 0.054535016 0.059108753
0.13429947 -0.18650644 -0.12746282 0.06598635 0.08013433 -0.040500473 0.34795094 -0.019036405

embed.embedding_net.bn1.running_var f4 [32]
00000000: 1a78 db3b 75df 203c c589 3b3b f3c1 693b
00000010: 5e68 123b 0ff8 ff3a 1149 433b 0d6e 613b
00000020: da85 9a3b 1814 223c 2818 ad3b affd 993a
00000030: e9c1 583b 92d3 ec3b 0915 523b ad61 513b
00000040: 4058 d33b 38ba 493b dd6c 5f3c a205 ae3b
00000050: 2d01 753b 1743 d33b 8005 8a3b 2dfd 273b
00000060: e671 013b 532a 1a3b 5efb 853a 5088 a73b
00000070: 37af 623c 6032 003b 05d5 313c 8786 d83b
0.006697667 0.009818901 0.0028616053 0.0035668581 0.002234004 0.0019528883 0.002979819 0.003439787
0.0047156634 0.009892486 0.0052824207 0.0011748577 0.0033074564 0.0072273696 0.0032055995 0.0031949088
0.006449729 0.003078116 0.013636795 0.00531073 0.0037384734 0.0064472067 0.0042120814 0.0025633082
0.0019751727 0.0023523762 0.0010222008 0.0051126853 0.01383572 0.0019561276 0.0108540105 0.006607834
