trained_managers/10_150_5_MH_gin_32.pth (torch, 271880 bytes, 74 tensors)

key_policy.weight f4 [64, 32]
0	0x3cc8dd33	0.024519539
1	0x3b391ce8	0.002824599
2	0x3e23c4c8	0.15993035
3	0x3cfbd4eb	0.030741176
4	0xbdba0b01	-0.0908413
5	0xbcf3d033	-0.029762363
6	0x3d60190f	0.054711398
7	0x3dab8da0	0.08376622
8	0x3c3483dd	0.011017767
9	0xbe01f63c	-0.12691587
10	0xbd7ba990	-0.061441004
11	0xbaf0ff60	-0.0018386655
12	0x3d322a17	0.04349717
13	0x3dc36fe9	0.095428295
14	0xbde4d52c	-0.11173472
15	0x3db9261a	0.090404704
16	0x3df75c05	0.12078098
17	0x3d16d6e9	0.036826048
18	0xbd20c612	-0.039251395
19	0xbdb3a151	-0.08771003
20	0xbe0f1c73	-0.13975696
21	0xbdac779d	-0.08421252
22	0xbd2fd620	-0.042928815
23	0x3dec17e4	0.11527994
24	0x3cb0fbbb	0.02160441
25	0xbcf55179	-0.029946076
26	0xbdf04779	-0.11732382
27	0x3dda709b	0.10666009
28	0xbded7472	-0.11594476
29	0xbce1c5b9	-0.027560102
30	0x3ac924a5	0.0015346004
31	0xbe38ad38	-0.18034828
32	0x3e0c68ca	0.13711849
33	0xbe217e4c	-0.15770835
34	0x3dc4878a	0.095961645
35	0x3d786b61	0.06064928
36	0xbd81b7b7	-0.06333869
37	0xbdc341ee	-0.095340595
38	0x3e0c0382	0.13673213
39	0xbd999a69	-0.075001545
40	0x3e173d71	0.14769532
41	0xba84e13b	-0.0010137925
42	0x3e2ec789	0.17068304
43	0x3e046b6e	0.12931606
44	0xbd22f3a9	-0.039783154
45	0xbca35253	-0.019936716
46	0x3b7b4ffc	0.0038347235
47	0x3df2075a	0.118178084
48	0x3c501b8e	0.012701882
49	0xbdb6bb45	-0.089224376
50	0xba82cec0	-0.0009979829
51	0xbca08eef	-0.019599406
52	0x3e0d2c97	0.13786541
53	0x3d7b1488	0.061298877
54	0xbdf79e7c	-0.12090775
55	0xbe00d0b9	-0.12579621
56	0xbde5c98d	-0.112200834
57	0x3ded7d1b	0.115961276
58	0x3c1fd4aa	0.009755293
59	0xbd88aa04	-0.06673053
60	0x3d276158	0.04086432
61	0x3dec5a72	0.115406886
62	0x3b5b52c6	0.0033466085
63	0x3d6c0d20	0.057629704
64	0xbcc1e958	-0.023670837
65	0x3d35864f	0.04431754
66	0x3e05cb54	0.13065845
67	0xbcf4a2ec	-0.029862843
68	0xbd80b9fa	-0.06285472
69	0xbd3bf2d6	-0.045885883
70	0x3d7c3cac	0.0615813
71	0xbdc6b400	-0.09702301
72	0x3e29919e	0.16559455
73	0x3dc29e8a	0.09502895
74	0xbe10421e	-0.14087722
75	0xbd950a4c	-0.072773546
76	0x3e1f75c0	0.15572262
77	0xbd7fd719	-0.062460992
78	0xbe23de0f	-0.16002677
79	0x3dec4100	0.11535835
80	0xbe06a763	-0.1314979
81	0xbd4d5ee1	-0.05013931
82	0xbd588a9d	-0.052866567
83	0xbdd2140c	-0.1025773
84	0x3e2b1976	0.16708931
85	0x3dbc010d	0.09179888
86	0xbd9c3813	-0.07627883
87	0xbc6769cd	-0.014124346
88	0xbd52c69d	-0.051458944
89	0xbd4e20a3	-0.050324094
90	0x3d833202	0.064060226
91	0xbcc0c9f4	-0.023533799
92	0x3d777e3e	0.06042313
93	0xbcfbfc39	-0.030759918
94	0xbe0b3b6f	-0.13596891
95	0x3e389361	0.1802497
96	0x3e2f3255	0.17109044
97	0xbdcaddb6	-0.09905569
98	0xbd40fbca	-0.047115125
99	0xbde2c576	-0.11072819
100	0x3db8c121	0.090212114
101	0x3dc4d15d	0.096102454
102	0x3d76bfac	0.060241386
103	0xbd441c1e	-0.047878377
104	0x3b879d7c	0.0041386466
105	0x3de0c4bc	0.10975024
106	0x3d51562a	0.051107563
107	0x3e1df104	0.15423971
108	0x3db52e79	0.088467546
109	0xbe031bf8	-0.12803638
110	0xbe0da387	-0.13831912
111	0x3df835d9	0.121196456
112	0xbcd18f5c	-0.025581054
113	0xbd8fb2a9	-0.070164986
114	0x3db6790a	0.08909805
115	0xbd520b00	-0.05128002
116	0xbdf14ca9	-0.117822
117	0xbdb296d1	-0.08720172
118	0xbd1050c6	-0.03523328
119	0xbd6b9dc4	-0.057523504
120	0x3d279b45	0.04091956
121	0xbd49d2e7	-0.049273398
122	0x3e2a2f5a	0.16619626
123	0x3d8b2106	0.06793408
124	0xbd9a36b8	-0.07529968
125	0xbdc4d157	-0.09610241
126	0xbd97d313	-0.07413306
127	0x3df1707a	0.11789031
128	0xbda4649f	-0.080270045
129	0x3c943896	0.018093389
130	0x3e019557	0.12654625
131	0xbd63ef4a	-0.055648126
132	0xbc801ac8	-0.01563777
133	0xbdb86f24	-0.090055734
134	0x3e1c7e5f	0.15282582
135	0x3d4149de	0.047189586
136	0xbcebdef8	-0.028792843
137	0xbd8f8b98	-0.07009047
138	0x3e1f40f3	0.1555212
139	0x3dc3e217	0.095646076
140	0x3d5cb034	0.053878978
141	0x3dd1237b	0.102118455
142	0x3e1b6628	0.15175688
143	0x3d79cfc8	0.06098917
144	0xbe210c8d	-0.15727444
145	0xbda91527	-0.082559876
146	0xbd87378e	-0.06602393
147	0x3e39c762	0.18142465
148	0x3da1346f	0.07871329
149	0xbdd5567b	-0.104168855
150	0x3dbe2ebe	0.09286259
151	0xbdb3f51f	-0.087869875
152	0x3e278ddf	0.16362713
153	0xbd209cdb	-0.03921209
154	0x3d7addb0	0.061246574
155	0x3ddf3f8d	0.10900793
156	0x3defb9ac	0.11705336
157	0xbd3b2ad1	-0.04569513
158	0x3e0f7129	0.14008011
159	0x3c8d9037	0.017280681
160	0xbd161126	-0.036637448
161	0xbe1ad840	-0.15121555
162	0x3d1e2251	0.038606945
163	0x3c842dbb	0.016135087
164	0xbccf81b6	-0.025330406
165	0xbd761fb5	-0.060088832
166	0x3e275ce7	0.16344033
167	0xbd803f94	-0.062621266
168	0xbd832008	-0.06402594
169	0xbd62518d	-0.055253554
170	0xbd3d6aaa	-0.0462443
171	0xbdce931f	-0.10086655
172	0x3e275e45	0.16344555
173	0x3e286b5d	0.16447206
174	0xbdef8b48	-0.11696488
175	0xbde7b9d5	-0.113147415
176	0x3cfc16e1	0.030772628
177	0x3d546656	0.051855408
178	0xbd82b9a3	-0.06383064
179	0xbe23556a	-0.15950552
180	0x3e231c2c	0.15928715
181	0xbce643fe	-0.028108593
182	0x3e0ff46d	0.14058085
183	0xbd9c223f	-0.076237194
184	0xbd230c5c	-0.03980671
185	0x3d9af345	0.07565931
186	0x3c800343	0.015626555
187	0xbd24b708	-0.040213615
188	0xbd5439c4	-0.051812902
189	0x3deb5717	0.114912204
190	0x3dba6a63	0.09102323
191	0x3caa46b1	0.020785661
192	0x3e1deb93	0.15421896
193	0x3ca9709e	0.020683583
194	0x3e277fc5	0.16357334
195	0xbc869c6b	-0.016432008
196	0x3e2bb1a6	0.16766986
197	0x3cfb09f4	0.030644394
198	0xbdffe5ac	-0.12494978
199	0xbd9c7d10	-0.07641041
200	0xbe2d4d49	-0.16924013
201	0x3d953e27	0.07287245
202	0x3da88d4f	0.082300775
203	0x3e3434ea	0.1759831
204	0xbe00aa0c	-0.12564868
205	0xbd081838	-0.03322622
206	0xbe199012	-0.14996365
207	0x3dd8dd95	0.105891384
208	0xbcac2526	-0.021013808
209	0xbdc32cb0	-0.09530008
210	0xbd003794	-0.031303003
211	0x3d7b8aa5	0.06141152
212	0x3e22b5a1	0.15889598
213	0xbd88ef37	-0.066862516
214	0x3b94e667	0.0045440677
215	0xbdfa040a	-0.12207802
216	0x3d6d6a5a	0.057962753
217	0x3c819abf	0.015820859
218	0x3d93126f	0.0718125
219	0x3ddc3c2d	0.10753665
220	0x3d89167a	0.0669374
221	0x3cd9179c	0.026500516
222	0xbe266d86	-0.16252717
223	0xbc9ee235	-0.019394973
224	0xbdd97445	-0.1061788
225	0x3c55f4dd	0.013058868
226	0xbdc7637a	-0.097357705
227	0xbb270a9d	-0.0025488504
228	0xbe0b6463	-0.13612513
229	0x3e000966	0.12503585
230	0xbdaf4826	-0.08558683
231	0xbdc16c57	-0.09444492
232	0x3e1e13a7	0.15437184
233	0x3d20ff28	0.039305836
234	0xbe047273	-0.12934284
235	0xbde20b9a	-0.11037369
236	0xbba888d2	-0.0051432634
237	0xbe314b98	-0.17313993
238	0x3dee9259	0.11649007
239	0x3dcf15e1	0.10111595
240	0xbe0b1372	-0.13581637
241	0x3ca9ea7e	0.020741697
242	0x3e15f458	0.14643991
243	0xbdcd8388	-0.10034853
244	0xbe064d82	-0.13115504
245	0xbd844815	-0.06459061
246	0xbe044fe3	-0.129211
247	0x3d331b25	0.04372706
248	0xbd809d81	-0.062800415
249	0xbe21a865	-0.15786894
250	0xbdf16a9e	-0.11787914
251	0x3e140a7f	0.14457129
252	0xbde3ffc3	-0.11132767
253	0x3d8e5e1f	0.06951546
254	0xbda8a212	-0.082340375
255	0xbd9c31a7	-0.07626658

key_policy.bias f4 [64]
0	0xbd4ed766	-0.05049839
1	0xbc6611b9	-0.014042311
2	0xbde90f65	-0.113798894
3	0x3e346169	0.17615284
4	0xbe08cacb	-0.1335861
5	0xbdf5d803	-0.120040916
6	0xbc0ba58c	-0.008523356
7	0x3d855f33	0.065122984
8	0x3da5a98c	0.08088979
9	0x3e1ca21f	0.1529622
10	0x3dad94be	0.08475636
11	0xbe2332e7	-0.15937386
12	0xba0fcaa4	-0.0005485213
13	0x3d8312f7	0.06400102
14	0xbca17ea7	-0.019713713
15	0x3ddeee2d	0.10885272
16	0xbdec1657	-0.115276985
17	0x3c9436e7	0.018092586
18	0xbd5a1dc8	-0.053251058
19	0xbd3bbe54	-0.045835808
20	0xbe24920c	-0.16071337
21	0x3dcd0694	0.1001102
22	0xbe1656d5	-0.14681561
23	0xbcbdb26a	-0.023156364
24	0x3d322834	0.043495372
25	0xbb92f88b	-0.004485195
26	0x3e017672	0.1264284
27	0x3d06f9b8	0.032952994
28	0x3df960a9	0.121766396
29	0xbdc862b2	-0.0978445
30	0x3d6f11d6	0.05836662
31	0xbd3d0398	-0.046146005
32	0x3e2861a4	0.16443497
33	0xbdd8e4af	-0.10590493
34	0x3e257341	0.16157247
35	0xbdb2b09f	-0.08725094
36	0x3e193ea8	0.14965308
37	0x3d61832f	0.055056747
38	0x3dcc66f0	0.09980571
39	0x3e0b57cb	0.13607709
40	0x3de12cbf	0.10994863
41	0xbe197d58	-0.14989221
42	0x3d03833f	0.032107588
43	0xbd27a3d3	-0.04092772
44	0x3e1411f5	0.14459975
45	0x3e26e268	0.16297305
46	0x3e048319	0.12940635
47	0xbd720013	-0.059082102
48	0xbe085594	-0.13313895
49	0x3da14b7c	0.078757256
50	0xbde0c0ed	-0.10974298
51	0xbe271222	-0.16315511
52	0x3dfef96b	0.124499165
53	0x3dfcef7f	0.12350368
54	0xbcd27104	-0.025688656
55	0x3d6147b5	0.055000026
56	0x3dae3d11	0.08507741
57	0x3cbf33fd	0.02334022
58	0xbde8d01b	-0.11367818
59	0xbc881d37	-0.016615493
60	0x3df3d477	0.11905759
61	0x3d5d74ea	0.054066576
62	0xbe264002	-0.16235355
63	0x3b7a85b5	0.0038226668

q_policy.weight f4 [64, 64]
0	0xbc34b99f	-0.011030584
1	0x3d914dab	0.07094892
2	0x3dc8e178	0.0980863
3	0xbdaaca3f	-0.08339357
4	0x3d859762	0.065230146
5	0xbde5600c	-0.1119996
6	0x3dd5f73e	0.10447548
7	0xbdc8ac5e	-0.097985014
8	0xbdf89e42	-0.1213956
9	0x3d04a4ae	0.032383613
10	0xbe0a807e	-0.13525578
11	0x3de066bf	0.10957097
12	0xbdc5d98c	-0.096606344
13	0x3cd1e678	0.025622591
14	0x3d01520c	0.031572387
15	0x3df7096a	0.120623425
16	0xbd2d4b40	-0.042308092
17	0x3df15967	0.1178463
18	0xbd1472ed	-0.036242414
19	0xbd92c2b2	-0.071660414
20	0xbd9e559d	-0.07731173
21	0x3b844910	0.00403703
22	0x3cc48592	0.023989473
23	0xbdef6045	-0.11688284
24	0xbd358c5c	-0.04432331
25	0xbd4c3723	-0.04985727
26	0xbd5badec	-0.05363266
27	0xbd46f441	-0.048572782
28	0xbd288c4f	-0.041149434
29	0x3d4bfb69	0.04980031
30	0xbd89dafe	-0.067312226
31	0xbc9ba018	-0.018997237
32	0xbe00580e	-0.1253359
33	0x3d2f6035	0.04281636
34	0xbdd940b3	-0.106080435
35	0x3c208463	0.009797188
36	0xbe0a3531	-0.13496853
37	0x3d9f8fe1	0.077911146
38	0x3de750af	0.11294686
39	0x3d0626a1	0.032751683
40	0x3ca81038	0.020515546
41	0xbd05e73a	-0.032691218
42	0x3dc891d2	0.09793438
43	0x3d83745f	0.064186804
44	0xbd272c67	-0.04081383
45	0xbdbdc342	-0.09265758
46	0xbd63fc81	-0.05566073
47	0xbd93a339	-0.072088666
48	0x3c6ffbbb	0.01464742
49	0x3d93f4c7	0.07224422
50	0xbd7cb604	-0.06169702
51	0x3cc110dd	0.023567611
52	0x3d164344	0.036685243
53	0x3d53b508	0.051686317
54	0x3de37918	0.11107081
55	0xbd9c39b5	-0.07628194
56	0x3dd36f73	0.103239916
57	0x3da6e36c	0.08148846
58	0x3d94bcb1	0.072625525
59	0xbc21edf3	-0.009883392
60	0x3d3b8183	0.04577781
61	0x3d93eb74	0.072226435
62	0x3dd5a0d4	0.10431066
63	0xbe09a774	-0.13442785
64	0x3e011e52	0.12609223
65	0x3d0712ea	0.032977022
66	0xbd8f9299	-0.07010383
67	0x3c60cab3	0.013720202
68	0x3d1e35d7	0.038625564
69	0xbdb6b0d4	-0.08920446
70	0xbd571357	-0.05250868
71	0x3d87f381	0.066382416
72	0xbd832482	-0.06403448
73	0xbd7702b4	-0.060305312
74	0x3ca719b1	0.020397993
75	0x3d2541a4	0.040345803
76	0x3dd4ee4c	0.10397014
77	0x3dd06ebd	0.10177372
78	0xbc1d2ed4	-0.009593684
79	0x3ddc1966	0.10747032
80	0xbcc868e2	-0.024464075
81	0x3e0606cd	0.13088532
82	0xbd332372	-0.043734975
83	0x3d967b20	0.07347703
84	0xbd10bb85	-0.035335083
85	0xbcbca594	-0.023028173
86	0x3d4f6476	0.050632916
87	0x3da3467b	0.079724275
88	0xbcc72fd0	-0.024314791
89	0x3cd584ff	0.026064394
90	0xbde032b3	-0.1094717
91	0x3ca8c844	0.020603307
92	0xbd450b54	-0.048106506
93	0xbc890966	-0.016728114
94	0x3d8b927b	0.06815048
95	0xbe026f95	-0.12737878
96	0xbdbb1735	-0.09135286
97	0x3df7e99a	0.12105103
98	0xbd6a3187	-0.05717614
99	0x3d954419	0.07288379
100	0xbd305010	-0.043045104
101	0xbd96a7da	-0.07356234
102	0x3da4a895	0.08039967
103	0x3cad31d0	0.021141917
104	0x3d2ef7cc	0.042716786
105	0xbd529bb0	-0.051418006
106	0xbd64f84f	-0.055900868
107	0x3dc7606d	0.09735189
108	0x3d0d3564	0.034474745
109	0x3dfee64e	0.12446271
110	0xbdd193e9	-0.1023329
111	0x3c397bc1	0.011321009
112	0x3c2bf79a	0.0104960445
113	0xbd8df2c6	-0.06931071
114	0x3dac6298	0.08417243
115	0x3dac5e8e	0.084164724
116	0xbbce955b	-0.0063044257
117	0xbccf89a1	-0.025334181
118	0x3c1d6d31	0.009608553
119	0xbd995a5d	-0.074879386
120	0x3d9507bf	0.07276868
121	0x3db9d987	0.09074693
122	0xbc44bce4	-0.012007926
123	0xbdb6bc79	-0.08922667
124	0x3dda232b	0.10651239
125	0x3d68bd50	0.056821167
126	0xbd4e5958	-0.050378174
127	0xb9b6371e	-0.0003475481
128	0x3e000eaf	0.12505601
129	0xbd478dc1	-0.04871917
130	0xbc81d179	-0.015846955
131	0xbc8e7238	-0.017388448
132	0xbd8f244e	-0.069893464
133	0xbca79750	-0.020457894
134	0x3c4fea21	0.012690098
135	0xbda81329	-0.082067795
136	0x3e107d91	0.141104
137	0x3cf70f89	0.030158775
138	0x3dbaa6c0	0.09113836
139	0xbdeee69e	-0.116650805
140	0xbdb863ad	-0.09003387
141	0x3d936e9d	0.07198832
142	0xbdcce3b5	-0.10004369
143	0x3ca77659	0.020442175
144	0xbd1e9b3d	-0.038722266
145	0xbcae7d82	-0.021300081
146	0x3dde98ef	0.108690135
147	0xbc3b07a5	-0.011415397
148	0x3d935763	0.07194402
149	0x3d64dfbb	0.05587743
150	0xbe00837c	-0.12550157
151	0xbc85a530	-0.01631412
152	0xbdb6ff8a	-0.08935459
153	0x3d8edd6f	0.06975829
154	0xbd7ea150	-0.06216556
155	0x3dfc5f70	0.12322891
156	0x3de0cb3a	0.109762624
157	0x3da8d517	0.08243769
158	0x3dbc2f47	0.09188705
159	0x3d8cc3b5	0.06873266
160	0x3de2d88e	0.11076461
161	0xbcae1962	-0.021252338
162	0xbcd022d8	-0.02540724
163	0xbe0f77ad	-0.14010496
164	0xbda39015	-0.07986466
165	0xbd55bc14	-0.05218132
166	0xbdbcd9fb	-0.09221264
167	0x3dd40014	0.103515774
168	0x3d852651	0.06501449
169	0x3d85af27	0.06527548
170	0xbd760161	-0.06005991
171	0xbd1e4d61	-0.038648013
172	0x3d9f6982	0.07783796
173	0x3d8b6f14	0.06808296
174	0x3c321406	0.010869032
175	0x3ba0c92a	0.004906793
176	0xbdc22ba6	-0.094809815
177	0xbdfbc0c2	-0.12292625
178	0xbdf67075	-0.12033168
179	0x3d986536	0.074411795
180	0xbd70a08b	-0.058746856
181	0xbd98deec	-0.07464394
182	0x3db5ea8a	0.088826254
183	0xbd6bf2d3	-0.057604622
184	0x3dde9050	0.10867369
185	0x3db6983e	0.08915757
186	0x3dbb41b1	0.09143389
187	0x3cd4868f	0.025943069
188	0xbd192665	-0.03739013
189	0xbdca24f6	-0.09870331
190	0xbd97ac4a	-0.074059084
191	0x3db38cab	0.08767065
192	0xbd50e4a5	-0.050999302
193	0xbd85e171	-0.0653714
194	0x3cb2b9aa	0.021817047
195	0xbdc55eda	-0.09637232
196	0xbb713bfb	-0.0036809433
197	0x3d48bf14	0.04901035
198	0xbdce362a	-0.10068925
199	0x3c03a196	0.008034131
200	0x3d98def9	0.07464404
201	0x3cb17610	0.021662742
202	0xbdd346f0	-0.10316265
203	0xbda39fcd	-0.07989464
204	0x3db47089	0.08810527
205	0xbdce3af8	-0.10069841
206	0x3cac674f	0.021045355
207	0xbbd8f62f	-0.0066211442
208	0x3dbe80c1	0.093019016
209	0x3d750f1b	0.05982886
210	0x3d02c5a2	0.03192676
211	0x3c08fda4	0.008361254
212	0xbdb2b318	-0.08725566
213	0xbdc02ba4	-0.09383324
214	0xbdd99ac9	-0.10625226
215	0x3cf382d0	0.029725462
216	0x3d7e1255	0.0620292
217	0xbd69d994	-0.057092264
218	0xbca1145f	-0.019663034
219	0x3d1f50c4	0.038895383
220	0x3da4963b	0.08036467
221	0xbd81dac6	-0.06340556
222	0x3dd60f20	0.104521036
223	0xbca2d389	-0.019876258
224	0xbd973523	-0.07383182
225	0x3cbfffda	0.02343743
226	0x3dab6a06	0.08369832
227	0xbc4b05a7	-0.012391484
228	0xbdb040d1	-0.08606113
229	0xbd41e38c	-0.047336146
230	0x3dc633d1	0.09677852
231	0x3d2b0a24	0.041757718
232	0xbc98a234	-0.018632032
233	0x3c8cca9a	0.017186452
234	0x3b6be823	0.0035996519
235	0x3d545758	0.05184111
236	0xbdbd9991	-0.09257806
237	0xbd96b0f9	-0.073579736
238	0x3df43645	0.119244136
239	0xbd0f26c7	-0.03494909
240	0xba882f10	-0.0010390002
241	0xbdcc6fd2	-0.099822655
242	0xbdb0e8d3	-0.08638158
243	0xbd1ff08a	-0.039047755
244	0x3d329421	0.043598298
245	0x3d8dd238	0.06924862
246	0xbc7fb1d3	-0.015606361
247	0xbd43c2ac	-0.047793075
248	0x3da149c9	0.078754015
249	0xbd4e76e1	-0.05040634
250	0xbd95a94a	-0.0730768
251	0xbc9c7636	-0.019099336
252	0x3df23eda	0.11828394
253	0x3dc9a362	0.09845616
254	0x3d815752	0.06315483
255	0xbc8efc60	-0.017454326

q_policy.bias f4 [64]
0	0xbdbeaf61	-0.093107946
1	0xbdef06b5	-0.11671201
2	0xbbce0e34	-0.0062883142
3	0xbb7e0100	-0.003875792
4	0xbdeea513	-0.11652579
5	0x3d54f2ae	0.05198925
6	0xbdf37229	-0.11887009
7	0xbdc50bf5	-0.09621421
8	0x3b363255	0.0027800996
9	0xbd86a9f5	-0.065753855
10	0x3baaba98	0.005210232
11	0xbba1b19d	-0.004934503
12	0x3d2e85d4	0.042608097
13	0xbafb9e08	-0.0019196877
14	0x3d7edf22	0.062224515
15	0xbe1f668b	-0.15566461
16	0x3e0b2b9e	0.13590857
17	0xbce49210	-0.02790168
18	0xbda34436	-0.079719946
19	0xbc3a0655	-0.011354049
20	0xbd5c0965	-0.053719897
21	0x3cabd6c8	0.02097644
22	0x3dc96d8a	0.09835346
23	0x3c967287	0.018365158
24	0xbe032e80	-0.12810707
25	0xbe048e4c	-0.12944907
26	0x3c8714f4	0.016489483
27	0xbe059958	-0.13046777
28	0x3d728cf3	0.05921645
29	0x3d138777	0.03601786
30	0xbcd0bfc5	-0.025482068
31	0x3d840310	0.064458966
32	0x3e14a684	0.14516646
33	0x3dd9d425	0.106361665
34	0xbdadabbc	-0.08480021
35	0x3d92cceb	0.07167991
36	0x3d43a55f	0.047765132
37	0xbb07f19d	-0.0020743378
38	0xbd9b693a	-0.0758843
39	0xbd26ef8c	-0.040755793
40	0xbdfa7ee4	-0.12231234
41	0xbe029b11	-0.12754466
42	0x3d96effe	0.073699936
43	0xbdb8492a	-0.0899833
44	0xbd98362b	-0.07432207
45	0x3b5ce083	0.0033703155
46	0xbdb17373	-0.08664598
47	0x3db31f65	0.087462224
48	0xbc10ab22	-0.008829864
49	0x3dc4bcd8	0.096063316
50	0xbdc69b06	-0.09697537
51	0xbc971d8b	-0.018446704
52	0xbe1d2cd7	-0.15349136
53	0x3c80099b	0.01562958
54	0x3c0000d7	0.0078127
55	0xbd86a028	-0.06573516
56	0xbd8acfd0	-0.06777918
57	0xbdd98ea5	-0.106229104
58	0x3d3f0f1b	0.046645265
59	0x3d130d9a	0.035901643
60	0x3d5c08b3	0.053719234
61	0xbe2700d7	-0.16308914
62	0x3d3ac27b	0.045595627
63	0xbd676449	-0.056492124

embed.embedding_net.lin1_1.weight f4 [32, 4]
0	0x3e8109d8	0.25202823
1	0x3e267918	0.16257131
2	0xbc7c662d	-0.01540522
3	0xbc316412	-0.010827081
4	0x3e2d50c1	0.16925336
5	0x3ebc50bc	0.36780345
6	0xbef4e72a	-0.47832614
7	0x3e800ef8	0.2501142
8	0x3eca23b6	0.3948037
9	0x3d995623	0.074871324
10	0xbded9756	-0.11601131
11	0xbeb94b3f	-0.3619022
12	0xbe8cba3d	-0.2748584
13	0xbbc25b81	-0.0059313183
14	0xbe48165d	-0.19539781
15	0x3e3bbf21	0.18334629
16	0x3eda010b	0.4257892
17	0x3e8f25e5	0.279586
18	0x3e162967	0.14664231
19	0x3e855f01	0.26049045
20	0xbe9e6b08	-0.30941033
21	0xbd0b9b37	-0.03408357
22	0xbe11f627	-0.14254056
23	0x3e5db3d7	0.21650635
24	0xbe67592c	-0.2259261
25	0x3c3da0f8	0.0115740225
26	0xbdf35b91	-0.11882699
27	0x3d3e51aa	0.0464646
28	0x3d13687a	0.03598831
29	0xbdc1ee1d	-0.09469245
30	0x3c8bf296	0.017083447
31	0xbe93e5c7	-0.28886244
32	0xbec81e6e	-0.39085716
33	0x3eb2b18b	0.3490108
34	0x3e8950fd	0.26819602
35	0x3e9d4099	0.30713347
36	0x3e86c945	0.2632543
37	0x3e110a13	0.14164
38	0x3bf2ddb1	0.0074116816
39	0xbed88ab1	-0.42293313
40	0xbe98fb09	-0.29879025
41	0xbe93aca7	-0.2884266
42	0xbc6911e5	-0.014225458
43	0x3eb046db	0.34429058
44	0x3ed5a41f	0.41726777
45	0xbeeddf1e	-0.46459287
46	0x3ef6bd11	0.4819112
47	0x3e285ba3	0.16441207
48	0xbe3059c8	-0.17221749
49	0xbe13de2d	-0.14440222
50	0xbdfb6641	-0.12275363
51	0x3ef0da3f	0.4704151
52	0xbeeb83bc	-0.45998943
53	0xbd070b2b	-0.032969635
54	0x3dd8ecfd	0.10592077
55	0x3eaf8fba	0.34289342
56	0x3e8b2aaf	0.27181002
57	0xbe8dc6bc	-0.27690685
58	0x3df38c3a	0.118919805
59	0xbdaa6889	-0.0832072
60	0x3eb31af1	0.34981492
61	0x3f0102ad	0.5039471
62	0xbdb3002b	-0.087402664
63	0x3ede9051	0.4346948
64	0xbdebd4be	-0.11515187
65	0xbebfc8de	-0.37457937
66	0xbd8fa8d8	-0.07014626
67	0x3eb524b5	0.35379568
68	0xbe43fe90	-0.19140077
69	0xbea5c52c	-0.32376993
70	0xbe63dc5a	-0.22252026
71	0x3e9d97a3	0.30779752
72	0x3e3fd8ea	0.1873509
73	0xbecb5596	-0.39713734
74	0x3eef244e	0.46707386
75	0x3ec039ae	0.37544006
76	0xbee66b5c	-0.45003784
77	0x3ed21358	0.41030383
78	0x3e88a52c	0.26688516
79	0x3e536ae2	0.20646241
80	0x3eb3239d	0.34988108
81	0xbe58b0ed	-0.21161242
82	0xbdfff9da	-0.12498827
83	0x3d9b71fc	0.075901
84	0xbec41ba9	-0.38302353
85	0x3d3049d6	0.043039165
86	0x3ec810f0	0.39075422
87	0x3eb11370	0.34585142
88	0xbed0ba59	-0.40767172
89	0xbebc5e53	-0.36790714
90	0xbe21ab00	-0.15787888
91	0x3e91c071	0.28467134
92	0x3d65595d	0.055993427
93	0x3ec08bd9	0.37606695
94	0x3e5b725b	0.21430342
95	0x3edefb5a	0.4355114
96	0xbee5ee2f	-0.44908282
97	0xbd84bbaf	-0.0648111
98	0xbdcc47b8	-0.09974617
99	0x3ea7542a	0.326814
100	0xbdbddb7c	-0.09270379
101	0x3cee62f7	0.029099924
102	0x3eb906b3	0.36137924
103	0xbec3e519	-0.38260725
104	0xbe69c605	-0.22829445
105	0x3edf727a	0.43642026
106	0xbe26dbfe	-0.16294858
107	0xbedbeb87	-0.4295313
108	0x3e936c24	0.28793442
109	0x3de1e021	0.11029077
110	0xbeb8e993	-0.36115703
111	0xbeae35bb	-0.34025368
112	0x3efff1aa	0.49989063
113	0xbc3a7745	-0.011380975
114	0x3ef3c625	0.4761211
115	0xbdd207aa	-0.10255368
116	0xbe0607a0	-0.13088846
117	0x3ed16c83	0.409031
118	0xbebdb475	-0.3705174
119	0x3d56bd24	0.052426472
120	0xbe626e18	-0.2211231
121	0x3ec07b5b	0.37594113
122	0xbe694ca3	-0.22783141
123	0xbdb5b126	-0.08871679
124	0xbeee0a54	-0.46492255
125	0x3e9d0e31	0.3067489
126	0x3e9e7673	0.30949745
127	0xbe686db7	-0.22698103

embed.embedding_net.lin1_1.bias f4 [32]
0	0xbe6349d6	-0.22196135
1	0x3b67ffa2	0.0035400172
2	0xbd96f811	-0.07371534
3	0xbef0e9d4	-0.47053397
4	0xbe6dfd3c	-0.23241132
5	0xbe8bead9	-0.27327612
6	0xbeaf8f43	-0.34288988
7	0x3dc37522	0.09543826
8	0x3dd3749f	0.10324978
9	0xbeaa909e	-0.3331346
10	0xbeded422	-0.4352122
11	0xbdacb6f0	-0.0843333
12	0xbe98ffb8	-0.29882598
13	0x3ee40a26	0.44538993
14	0xbeb0c28e	-0.34523433
15	0xbc549733	-0.012975502
16	0xbe126f45	-0.14300258
17	0x3e52f13d	0.20599838
18	0x3e705a3b	0.2347192
19	0xbec8c23f	-0.39210698
20	0xbed727ce	-0.42022556
21	0x3eb86067	0.3601105
22	0xbe544b46	-0.2073184
23	0x3d01eac7	0.03171804
24	0x3e3ff2eb	0.1874501
25	0xbe9e912c	-0.30970132
26	0xbe12e4f8	-0.14345157
27	0x3ee20dd8	0.44151187
28	0xbe76a65d	-0.240869
29	0x3e8f5b4d	0.27999344
30	0x3e8208b2	0.2539726
31	0xbebee8e9	-0.3728707

embed.embedding_net.bn1_1.weight f4 [32]
0	0x3f82bedd	1.0214497
1	0x3f7f2c7b	0.99677247
2	0x3f7cd54c	0.98762965
3	0x3f81b7e9	1.013425
4	0x3f7c8311	0.9863749
5	0x3f7e23fa	0.99273646
6	0x3f80a9df	1.005184
7	0x3f8001b7	1.0000523
8	0x3f80886b	1.0041631
9	0x3f8037ca	1.0017025
10	0x3f7e9243	0.9944193
11	0x3f7d4c50	0.9894457
12	0x3f7eb519	0.99495083
13	0x3f7f1c48	0.9965253
14	0x3f834b44	1.0257344
15	0x3f815edc	1.0107074
16	0x3f8033c4	1.0015798
17	0x3f7e74d5	0.9939702
18	0x3f80302e	1.0014703
19	0x3f7ed3f3	0.9954216
20	0x3f7f3e9e	0.9970492
21	0x3f7d2267	0.9888062
22	0x3f8123e2	1.0089076
23	0x3f802874	1.0012345
24	0x3f81704c	1.0112395
25	0x3f7c3c3d	0.98529416
26	0x3f7d6a62	0.9899045
27	0x3f80429d	1.0020329
28	0x3f7cdcd0	0.98774433
29	0x3f7fb7c1	0.9988976
30	0x3f7f628f	0.99759763
31	0x3f80eb39	1.0071784

embed.embedding_net.bn1_1.bias f4 [32]
0	0x3cc8a1e9	0.024491267
1	0x3b861483	0.0040918007
2	0xbc3cb95f	-0.011518805
3	0x3ca6f1e8	0.020379022
4	0xbc408eee	-0.011752827
5	0x3b59a1be	0.0033207978
6	0x3a9f1538	0.0012137061
7	0xbb4b70ba	-0.0031042532
8	0xbb530e30	-0.0032204501
9	0x3bacc6d0	0.0052727237
10	0xbc2b0e0e	-0.010440363
11	0xbc1fa53c	-0.009743985
12	0xbc2a947b	-0.010411377
13	0x3bb0e7e1	0.005398736
14	0x3b83d20b	0.004022842
15	0x3bcc5c0e	0.0062365597
16	0x3b5bd152	0.0033541513
17	0xbad82187	-0.0016489484
18	0x3ba770ad	0.0051098675
19	0x3c02a294	0.007973332
20	0x3b43c93d	0.0029874586
21	0xbb1d80e2	-0.002403312
22	0x3c495106	0.012287384
23	0xbac1752c	-0.0014759651
24	0x3a862401	0.0010234119
25	0xbc408f7c	-0.011752959
26	0xbbc3d311	-0.005976089
27	0xbb422d94	-0.0029629217
28	0xbbd616e5	-0.006533491
29	0x3ac8780c	0.0015294566
30	0x3b8bbcec	0.0042644646
31	0x3cb93456	0.022607964

embed.embedding_net.bn1_1.running_mean f4 [32]
0	0xbdb0202f	-0.085998885
1	0x3f3173de	0.69317424
2	0xbfd36157	-1.6514081
3	0xbd91dbab	-0.071219765
4	0x3fc28617	1.5197171
5	0x3ea6800a	0.3251956
6	0xbed4f10e	-0.4159016
7	0xbf9bdc13	-1.2176536
8	0x3feffc62	1.8748896
9	0xc0025210	-2.0362587
10	0x3f4fa484	0.81110406
11	0x3fad7205	1.3550421
12	0x3fbf1d91	1.4930898
13	0x3ff4e93b	1.9133676
14	0xbf0cb33f	-0.5496101
15	0x40105082	2.2549138
16	0x3f8e5f03	1.1122745
17	0x3f81eb28	1.0149889
18	0x4021c705	2.5277722
19	0x3f6bc156	0.9209188
20	0xbe46a4cf	-0.19398807
21	0x4015e513	2.3421066
22	0x3eed2d0d	0.46323434
23	0x4022b229	2.542124
24	0x3fa1fd5e	1.2655447
25	0xbfc4e63b	-1.5382761
26	0xc00eaea3	-2.229409
27	0xbfb83b59	-1.4393111
28	0x3e7bc3db	0.24586432
29	0x3dd88ecb	0.105741106
30	0xbed1b62a	-0.40959293
31	0xbf82837b	-1.0196375

embed.embedding_net.bn1_1.running_var f4 [32]
0	0x3c020ca3	0.007937583
1	0x3da663ae	0.08124481
2	0x3e51ad61	0.20476295
3	0x3c8fed7b	0.017569294
4	0x3e1e93d4	0.1548608
5	0x3ccdfdd1	0.025145443
6	0x3c19a7ca	0.009378383
7	0x3d9588f1	0.0730151
8	0x3e8f8bac	0.2803625
9	0x3e2fbabc	0.17161077
10	0x3df49837	0.11943095
11	0x3eafb781	0.3431969
12	0x3e144c01	0.14482118
13	0x3e3fe67a	0.18740264
14	0x3c838a96	0.016057294
15	0x3e275dcc	0.16344374
16	0x3dcd796e	0.100329265
17	0x3d35d088	0.044388324
18	0x3f0e6d21	0.5563527
19	0x3e4de859	0.20108165
20	0x3c94036f	0.018068044
21	0x3edb2c03	0.42807016
22	0x3d6f6fb0	0.058456123
23	0x3eb5ed3d	0.3553256
24	0x3da50a98	0.08058661
25	0x3d4277d6	0.047477566
26	0x3e9f0bbc	0.3106364
27	0x3ec53a7d	0.38521186
28	0x3e0a9590	0.13533616
29	0x3dc29ead	0.09502921
30	0x3db8cfbe	0.09023999
31	0x3d4d8c07	0.05018237

embed.embedding_net.lin1_2.weight f4 [32, 32]
0	0xbe2f67c0	-0.17129421
1	0x3d8b5f84	0.068053275
2	0x3d81a42d	0.06330142
3	0xbbd24830	-0.006417297
4	0xbd7cc396	-0.061709963
5	0x3e2c8505	0.16847618
6	0xbe232a56	-0.15934119
7	0xbdf69896	-0.12040822
8	0x3d00cc70	0.031444967
9	0xbdf7cbea	-0.120994404
10	0xbd9acab6	-0.07558195
11	0x3dd448eb	0.103654705
12	0x3da04533	0.07825699
13	0xbcf9759b	-0.030451586
14	0x3e03d5ba	0.12874499
15	0xbb7645f5	-0.0037578319
16	0xbcf53827	-0.029934002
17	0xbd2a127a	-0.041521527
18	0xbdb31c61	-0.08745647
19	0x3e0dfd02	0.13866046
20	0x3dd199fb	0.102344476
21	0xbe144393	-0.14478903
22	0x3e3ba25f	0.18323658
23	0xbcc3735b	-0.023858717
24	0x3cea4d1a	0.028601218
25	0x3d07a013	0.033111643
26	0x3e2092d4	0.1568101
27	0xbd8053ed	-0.062660076
28	0xbcefd92a	-0.029278357
29	0xbd5e05f8	-0.05420491
30	0x3d18058c	0.037114665
31	0xbe2fe7f8	-0.17178333
32	0xbcf64c69	-0.030065732
33	0x3d96bdb4	0.07360402
34	0x3e17b3fc	0.14814752
35	0xbe3d1c32	-0.18467787
36	0xbe2e5a83	-0.17026715
37	0x3e1a58a1	0.15072872
38	0x3c968c98	0.018377587
39	0xbd698621	-0.05701268
40	0x3d9615b7	0.073283605
41	0xbe11141e	-0.1416783
42	0xbd962b19	-0.07332439
43	0xbd706652	-0.05869133
44	0x3d2cc972	0.0421843
45	0xbc8c749f	-0.017145453
46	0xbd823342	-0.06357433
47	0xbda5b864	-0.0809181
48	0xbe199612	-0.14998654
49	0xbdb25c4e	-0.08709012
50	0xbdec8110	-0.11548054
51	0x3dae63c8	0.085151255
52	0x3e177916	0.14792284
53	0xbde04e1a	-0.10952397
54	0x3ce9eb99	0.028554725
55	0xbda69d95	-0.08135525
56	0xbcbd5b88	-0.023114935
57	0x3c490272	0.012268649
58	0x3e0d06b4	0.13772088
59	0x3e10b513	0.14131574
60	0xbda3c566	-0.07996635
61	0x3e084c42	0.1331034
62	0x3caef787	0.021358265
63	0xbda3ab98	-0.07991713
64	0x3d8bbc97	0.0682308
65	0xbca7ebe4	-0.020498224
66	0xbe1f5ea5	-0.15563448
67	0xbd33b733	-0.043875884
68	0x3e061247	0.1309291
69	0xbd51ce5e	-0.051222198
70	0xbd4323ba	-0.047641493
71	0xbc0e32e2	-0.008679124
72	0x3d2a6f80	0.04161024
73	0xbcd8165a	-0.026377846
74	0x3e2c623b	0.16834347
75	0xbc10e800	-0.008844376
76	0x3e29f18d	0.1659605
77	0x3e119571	0.14217164
78	0xbddfcc09	-0.109275885
79	0x3d06c39e	0.0329014
80	0x3e0d6ce2	0.13811067
81	0x3ad3d0cd	0.001616025
82	0x3c93333a	0.017968763
83	0x3de60153	0.11230721
84	0x3d1d0fc1	0.038345102
85	0x3daa6e7b	0.08321854
86	0x3d90367a	0.070416406
87	0xbdcf40e2	-0.10119797
88	0x3e239f39	0.15978707
89	0xbcdf7e71	-0.027281972
90	0x3e254f12	0.16143444
91	0xbd96070b	-0.07325562
92	0xbdb013d3	-0.08597531
93	0xbb001467	-0.001954341
94	0x3d00f903	0.031487476
95	0x3ce4c5ab	0.027926287
96	0xbd753b21	-0.059870843
97	0xbdcd4c71	-0.10024346
98	0x3df743f0	0.12073505
99	0xbdbb22d9	-0.09137506
100	0xbd3726db	-0.04471479
101	0xbd5c2486	-0.05374577
102	0x3dbd855c	0.09253952
103	0xbcc62b72	-0.024190638
104	0xbd4a681f	-0.049415704
105	0x3e193021	0.14959766
106	0x3d329dfe	0.043607704
107	0xbdffc091	-0.12487901
108	0x3bc9930a	0.0061515616
109	0xbdd04172	-0.10168733
110	0x3d9d93f6	0.07694237
111	0xbd73aad5	-0.05948909
112	0xbc6d8732	-0.014497565
113	0xbe0a1b37	-0.13486944
114	0xbdbb8fff	-0.091583245
115	0x3da62d22	0.08114077
116	0x3d83226d	0.064030506
117	0xbe0ad85a	-0.13559094
118	0x3e12b837	0.14328085
119	0xbdd62bca	-0.10457571
120	0xbd340f30	-0.043959796
121	0x3e0fcc27	0.14042722
122	0x3b18c43c	0.0023310324
123	0x3c4ab0de	0.01237127
124	0x3ddcacc1	0.10775138
125	0xbdd5fd98	-0.1044876
126	0x3d6a69e0	0.057229877
127	0xbe24c181	-0.16089441
128	0xbe306ab2	-0.17228201
129	0xbe13f03b	-0.1444711
130	0x3e0fd629	0.1404654
131	0x3d9584b3	0.07300701
132	0x3dff5978	0.12468237
133	0x3d8f8655	0.07008044
134	0x3e03fa7a	0.12888518
135	0x3e0d2ffd	0.13787837
136	0xbdb0ca57	-0.08632343
137	0x3db2bf94	0.08727947
138	0x3deca892	0.1155559
139	0x3db34241	0.08752871
140	0x3d900251	0.07031692
141	0xbe08f7e5	-0.13375814
142	0xbc28ff39	-0.010314756
143	0xbdb75e7a	-0.08953567
144	0x3e31e292	0.17371586
145	0x3dd8fcd9	0.10595102
146	0xbc0c1853	-0.008550721
147	0xbdb05e9c	-0.08611795
148	0xbbccc789	-0.0062493724
149	0x3e313131	0.17303921
150	0x3e2ee603	0.1707993
151	0xbe2ed4f0	-0.17073417
152	0xbcc0c830	-0.023532957
153	0xbe13687c	-0.14395326
154	0xbd5037a7	-0.050834324
155	0x3e1cdf84	0.1531964
156	0x3dda4e47	0.106594615
157	0xbe324bf9	-0.17411794
158	0xbd9279f5	-0.07152168
159	0xbdb90e62	-0.090359464
160	0xbe1e3728	-0.15450728
161	0x3ccf0a5a	0.02527349
162	0xbd9f30bd	-0.07772968
163	0xbe0f6cd1	-0.14006354
164	0x3cd27d2c	0.025694452
165	0xbb96e747	-0.004605207
166	0x3df992d7	0.121862106
167	0xbd52fc4a	-0.051510133
168	0x3d69679e	0.056983583
169	0x3e050f98	0.1299423
170	0x3ccc120b	0.024910947
171	0xbd98ecda	-0.07467051
172	0xbc106536	-0.008813193
173	0xbddd59ad	-0.1080812
174	0x3c6273f3	0.01382159
175	0xbda3c5b5	-0.07996694
176	0x3e218dbf	0.15776728
177	0xbe1e1352	-0.15437058
178	0x3a13ff9d	0.00056456943
179	0xbdd493d9	-0.10379762
180	0x3dc302c7	0.09522014
181	0x3e097acf	0.13425754
182	0x3db1c50d	0.086801626
183	0x3d35dda5	0.04440083
184	0xbe1e812e	-0.15478966
185	0x3da236d7	0.07920616
186	0xbbd8ef97	-0.006620358
187	0x3d852da5	0.06502847
188	0xbcb255ab	-0.021769365
189	0xbd75bc64	-0.059994116
190	0x3d58a1ec	0.052888796
191	0xbe1ad45e	-0.15120074
192	0x3ca770ca	0.020439524
193	0x3d56ae2b	0.052412193
194	0xbc890f56	-0.016730946
195	0x3e1443e6	0.14479026
196	0x3dc3dc90	0.09563553
197	0xbe2417cd	-0.16024704
198	0x3d5da44b	0.05411176
199	0x3cab7c0b	0.020933172
200	0xbbcef6eb	-0.006316056
201	0xbe1e882d	-0.15481634
202	0xbdedde01	-0.116146095
203	0x3db9053f	0.09034204
204	0xbce16405	-0.027513513
205	0x3d907690	0.07053864
206	0xbe388a5f	-0.18021534
207	0x3dcc49c2	0.09975006
208	0xbda180f3	-0.07885923
209	0x3d1594ea	0.03651897
210	0xbe1f4343	-0.15553002
211	0x3e0a794e	0.13522837
212	0xbcb9550f	-0.022623567
213	0x3dfd3e61	0.123654135
214	0xbe2d36e0	-0.16915464
215	0xbe2c8b54	-0.16850024
216	0xbc50d733	-0.01274662
217	0xbcd49563	-0.02595014
218	0x3e279abc	0.1636762
219	0x3d8a56da	0.06754847
220	0x3d4590fc	0.04823397
221	0xbc4e8501	-0.012604953
222	0x3c161e9e	0.009162573
223	0xbc8889f3	-0.016667342
224	0xbdcd3405	-0.100196876
225	0x3ce12a43	0.027485972
226	0x3dae0faf	0.08499085
227	0x3d4c86be	0.049933188
228	0xbdf27dbf	-0.118403904
229	0xbe09c352	-0.13453415
230	0x3db069b8	0.08613914
231	0xbd898796	-0.06715314
232	0x3daa6d3c	0.08321616
233	0xbd470e42	-0.04859758
234	0xbd084dfc	-0.033277497
235	0xbe0b7c5c	-0.13621658
236	0x3db27b69	0.08714945
237	0x3de91dab	0.11382612
238	0xbe28834b	-0.16456334
239	0x3dae915b	0.08523818
240	0xbc8769a1	-0.01652986
241	0xbdb73e56	-0.089474365
242	0x3bb8d0f7	0.005640145
243	0xbdd13a93	-0.1021625
244	0x3d10b533	0.035329055
245	0x3c639089	0.01388944
246	0x3dbacc0c	0.0912095
247	0x3d399481	0.04530764
248	0x3dceedf5	0.101039805
249	0xbd267096	-0.040634714
250	0x3e088ec1	0.13335706
251	0x3d1ad652	0.037802048
252	0x3dddd822	0.1083224
253	0xbe2c1c5b	-0.16807692
254	0xbe19c742	-0.15017417
255	0xbe0ad371	-0.13557221

embed.embedding_net.lin1_2.bias f4 [32]
0	0xbde1e7ef	-0.11030566
1	0xbd2de499	-0.042454336
2	0x3d7caeba	0.06169007
3	0x3dd6f0ff	0.10495185
4	0x3d8a2e13	0.06747069
5	0xbcbc008f	-0.022949485
6	0xbdd4456f	-0.10364806
7	0xbdc69497	-0.0969631
8	0xbe21366d	-0.15743418
9	0xbdc0d9ae	-0.09416519
10	0xbcea98e3	-0.028637355
11	0x3e13ab4a	0.1442081
12	0x3dd4b367	0.10385781
13	0xbd80882e	-0.06275974
14	0x3de658aa	0.1124738
15	0x3e241a3b	0.16025631
16	0x3d74cc3b	0.05976508
17	0x3d489dc5	0.048978586
18	0x3db01791	0.08598245
19	0xbc9b9033	-0.018989658
20	0xbdc946e4	-0.098279744
21	0x3d80f623	0.06296947
22	0x3d9692e6	0.073522374
23	0x3df79ef4	0.12090865
24	0x3cdcf84e	0.02697387
25	0x3e28135d	0.16413637
26	0x3e214e21	0.1575246
27	0xbd19db48	-0.03756264
28	0xbc8a201b	-0.016861012
29	0x3ca854cd	0.020548249
30	0x3dd460e2	0.103700414
31	0xbd1ce01f	-0.038299676

embed.embedding_net.conv1.nn.0.weight f4 [32, 32]
0	0xbdd0cb3d	-0.101950146
1	0x3d895313	0.06705298
2	0xbe127e26	-0.14305934
3	0xbdcb5b41	-0.09929515
4	0x3db4c276	0.08826153
5	0xbde59a4e	-0.11211072
6	0x3e0a5af8	0.13511264
7	0x3ddc6dea	0.10763152
8	0x3d81d550	0.06339514
9	0x3d993315	0.07480446
10	0x3e14ecf0	0.1454351
11	0xbdfc0f29	-0.12307579
12	0xbddd9a12	-0.10820402
13	0xbe0f27be	-0.13980004
14	0xbdf55279	-0.11978621
15	0xbcdf4c31	-0.02725801
16	0x3d9e9daf	0.077449195
17	0xbe306e57	-0.17229591
18	0xbd5bce5d	-0.0536636
19	0x3dd27688	0.10276514
20	0xbe1feb8c	-0.15617198
21	0xbdf46edc	-0.11935207
22	0x3d888071	0.06665123
23	0x3c7f7821	0.015592606
24	0x3d348f0a	0.044081725
25	0xbcadb937	-0.021206481
26	0x3dc885b5	0.097911276
27	0xbcd3aa63	-0.025838083
28	0x3e1e58ca	0.15463558
29	0x3ca11442	0.01966298
30	0xbe0f644e	-0.14003107
31	0xbdefa9ff	-0.11702346
32	0x3e256105	0.16150291
33	0xbe131d71	-0.143667
34	0x3e28e1b3	0.16492347
35	0xbda93ff2	-0.0826415
36	0x3e026887	0.12735187
37	0xbc9bbbd1	-0.019010456
38	0xbd804c6c	-0.06264576
39	0x3d409895	0.047020514
40	0xbe00ee0e	-0.1259081
41	0x3e107724	0.14107949
42	0xbd15a15b	-0.036530834
43	0x3c5500a2	0.013000639
44	0x3dd8db7b	0.105887376
45	0xbcbc26bb	-0.022967687
46	0x3d9b92e8	0.075963795
47	0x3d8b762f	0.06809651
48	0x3e2d56f7	0.16927706
49	0xbd89dab2	-0.06731166
50	0xbe05fa7b	-0.13083832
51	0xbcca474c	-0.0246922
52	0xbd87800c	-0.0661622
53	0xbd3caf31	-0.046065513
54	0xbe180110	-0.14844155
55	0xbdbf190d	-0.0933095
56	0x3e0e27ba	0.13882342
57	0x397f58d6	0.00024351789
58	0x3dc17316	0.09445779
59	0x3c9bda74	0.019025065
60	0xbc61b203	-0.013775351
61	0x3d6f85ec	0.058477327
62	0x3e163c9f	0.14671563
63	0xbdc72c64	-0.09725264
64	0x3e0bf8f6	0.1366919
65	0xbd09a00c	-0.0335999
66	0x3dd9f032	0.10641517
67	0x3e0416e0	0.12899351
68	0xbe01cc27	-0.12675534
69	0xbe011743	-0.1260653
70	0xbcee799d	-0.029110724
71	0xbc93330d	-0.017968679
72	0x3e0be1b1	0.13660313
73	0x3e309c81	0.17247202
74	0xbe2a7acd	-0.16648407
75	0xbb74f480	-0.0037377179
76	0x3b4c19b3	0.0031143248
77	0x3da4a071	0.08038414
78	0x3db75696	0.08952062
79	0x3dae57ab	0.08512815
80	0x3e0c8c4e	0.13725397
81	0xbdef7393	-0.11691966
82	0xbdd1d2be	-0.10245274
83	0xbd867152	-0.06564583
84	0xbdb880a8	-0.09008914
85	0xbc4c05e8	-0.01245258
86	0xbdeb14e0	-0.11478591
87	0x3da1a0b9	0.078919835
88	0x3db34c1c	0.08754751
89	0x3d8a6c7a	0.067589715
90	0xbdb09021	-0.086212404
91	0x3e1a3f8a	0.150633
92	0xbe426d3b	-0.1898698
93	0x3ca92cd0	0.020651251
94	0xbe01ebf2	-0.12687662
95	0xbda17987	-0.078845076
96	0xbd2e9360	-0.042621017
97	0x3d77b5dc	0.06047617
98	0xbe07abd0	-0.13249135
99	0x3d33949f	0.043842908
100	0xbd66b859	-0.05632815
101	0xbb6b3447	-0.0035889314
102	0xbd3a21f4	-0.045442536
103	0xbd37d167	-0.044877436
104	0xbd7cbec8	-0.06170538
105	0x3e33b386	0.17548952
106	0xbe204db6	-0.15654644
107	0xbe1c2172	-0.15247133
108	0x3e2eee51	0.17083098
109	0xbddca9ca	-0.10774572
110	0xbca111eb	-0.019661864
111	0x3e287482	0.16450694
112	0xbd8ca381	-0.068671234
113	0x3dab9ee6	0.08379917
114	0x3e075222	0.13214925
115	0xbcd55b34	-0.026044466
116	0xbe1385c5	-0.14406498
117	0x3d821963	0.063524984
118	0x3ca14b7b	0.019689312
119	0x3d1554de	0.03645789
120	0x3d7dcaa3	0.061960828
121	0x3e15f434	0.14643937
122	0x3e342e86	0.17595872
123	0x3bc11d64	0.005893396
124	0x3e2afb27	0.1669737
125	0xbcf7c673	-0.030245995
126	0x3d37bdfb	0.044858914
127	0xbde56ac9	-0.11202008
128	0xbdd0a0e8	-0.101869404
129	0xbda957f4	-0.08268729
130	0x3e1d6a48	0.15372574
131	0x3cb2d656	0.021830719
132	0xbe00059b	-0.12502138
133	0xbd8bb3c4	-0.06821397
134	0xbddfe7ec	-0.109329075
135	0x3e1a3e4e	0.1506283
136	0xbe2c8775	-0.16848548
137	0x3d6ec379	0.058291886
138	0xbe21aeac	-0.15789288
139	0x3d8fdc10	0.070243955
140	0x3e0b66a2	0.1361337
141	0xbe1cd6be	-0.15316293
142	0xbbb70b82	-0.0055860886
143	0x3d172d77	0.036908593
144	0xbe1ec838	-0.15506065
145	0xbdae5ad8	-0.08513421
146	0x3d550003	0.052001964
147	0x3d2f7867	0.042839434
148	0xbdcce18a	-0.10003956
149	0x3e132009	0.14367689
150	0x3e07d314	0.13264114
151	0x3e31e41e	0.17372176
152	0xbda10d52	-0.07863869
153	0xbde4f7b4	-0.11180058
154	0xbdd455fe	-0.10367964
155	0xbe025630	-0.1272819
156	0x3d9a6f08	0.07540709
157	0x3c957749	0.018245356
158	0x3e238c06	0.15971383
159	0xbd34f661	-0.044180278
160	0xbd88727f	-0.066624634
161	0x3d8a140b	0.06742104
162	0x3dbf042d	0.09326968
163	0xbb9c393f	-0.0047675665
164	0x3bbd8b35	0.005784417
165	0xbd4a5f9b	-0.049407583
166	0x3cac4c8e	0.021032598
167	0x3d714815	0.058906633
168	0x3d6b4e05	0.057447452
169	0xbe09a022	-0.13439992
170	0xbe095587	-0.13411532
171	0xbde081ee	-0.10962282
172	0xbc37379d	-0.011182693
173	0xbdc081ed	-0.093997814
174	0xbe221694	-0.15828925
175	0x3e29f17a	0.16596022
176	0x3e0a0565	0.1347862
177	0x3d4677e2	0.048454173
178	0x3bf2230d	0.0073894323
179	0xbe01c634	-0.12673265
180	0xbe2222c0	-0.15833569
181	0xbda3ff0c	-0.08007631
182	0xbe2a6b5a	-0.16642514
183	0x3e03ee7f	0.12883948
184	0x3e041157	0.1289724
185	0xbd98c196	-0.074587986
186	0xbe2fd65c	-0.17171615
187	0xbe299b84	-0.16563231
188	0x3e1d31f5	0.15351088
189	0xbe1850c0	-0.14874554
190	0xbe13945c	-0.14412063
191	0x3e2eb7fd	0.17062373
192	0xbe205937	-0.15659033
193	0x3d69c5d1	0.057073418
194	0xbddd3ab6	-0.10802214
195	0xbd6a8f8b	-0.0572658
196	0xbe01d451	-0.12678649
197	0x3d760cbd	0.060070742
198	0x3d83f49a	0.064431384
199	0x3d53ee26	0.051740788
200	0xbdb39d14	-0.08770195
201	0xbe110e53	-0.1416562
202	0x3e0147d3	0.12625055
203	0xbdc37a26	-0.09544782
204	0xbe0a546e	-0.1350877
205	0x3e21d361	0.15803291
206	0x3dfcedf6	0.12350075
207	0xbd45ddd4	-0.048307255
208	0xbe3217f1	-0.17391945
209	0xbdfcef52	-0.12350334
210	0x3e2f67f6	0.17129502
211	0xbe1e5f47	-0.15466033
212	0xbce27c7a	-0.027647246
213	0x3de478b6	0.11155836
214	0x3db057ec	0.0861052
215	0xbd8720d6	-0.0659806
216	0x3d3fc16b	0.046815317
217	0x3de8e93d	0.11372612
218	0x3ca1d62b	0.019755444
219	0xbd12ec4f	-0.035869893
220	0x3cc1b2ea	0.023644883
221	0x3dd379f9	0.10325999
222	0xbcd8bc2e	-0.026456919
223	0x3d9ac6f3	0.07557478
224	0xbde2ceee	-0.11074625
225	0xbe0e881c	-0.13919109
226	0x3d5c062e	0.05371683
227	0xbe2372db	-0.15961783
228	0x3d4bfc0b	0.049800914
229	0xbe0d7e9a	-0.13817826
230	0xbe26134f	-0.16218303
231	0xbdee631c	-0.11639997
232	0xbd1a6c32	-0.03770084
233	0x3d4cab93	0.049968313
234	0x3c72960b	0.014806281
235	0x3ad7ebac	0.0016473434
236	0x3c91fb8f	0.017820148
237	0xbc38be43	-0.011275831
238	0x3db21fc6	0.086974666
239	0xbae49a7e	-0.0017441062
240	0x3d1bca5b	0.038034778
241	0x3e21b8e6	0.1579319
242	0xbcecf941	-0.028927447
243	0xbcade2aa	-0.021226246
244	0x3d6846da	0.056708194
245	0xbdace032	-0.08441199
246	0xbd8c4bda	-0.06850405
247	0xba8fd241	-0.0010972695
248	0x3d35a4ac	0.044346496
249	0xbe10d68d	-0.14144345
250	0x3c2d16e4	0.01056454
251	0x3d22ab7e	0.03971433
252	0x3d98e66a	0.07465823
253	0x3d9a7275	0.07541362
254	0xbd40e5c6	-0.04709413
255	0xbcefd71d	-0.029277379

embed.embedding_net.conv1.nn.0.bias f4 [32]
0	0x3dd96fa8	0.10617
1	0xbe07dc0f	-0.1326754
2	0xbe0b6911	-0.13614298
3	0xbd07b79e	-0.033134095
4	0x3dbf123b	0.09329649
5	0xbd52d709	-0.051474605
6	0xbdc776f9	-0.09739489
7	0x3dbcd86c	0.09220967
8	0x3db8f62d	0.09031329
9	0xbe290bcc	-0.16508406
10	0x3e08b38a	0.13349739
11	0xbe2ace08	-0.16680157
12	0xbd822df0	-0.06356418
13	0xbe272442	-0.16322425
14	0xbe212911	-0.15738322
15	0x3c85b140	0.016319871
16	0x3dc102a3	0.09424331
17	0xbdb5dd73	-0.08880129
18	0x3d7f7c49	0.062374387
19	0xbddf589b	-0.10905572
20	0xbdb7e890	-0.08979905
21	0x3def43ec	0.11682877
22	0xbd35aee4	-0.04435624
23	0x3daa7ae5	0.083242215
24	0x3e1288d4	0.14310008
25	0xbd689892	-0.056786127
26	0x3d8ce067	0.06878739
27	0x3dcaeeb4	0.0990881
28	0x3d60a724	0.054846898
29	0x3dbfe0de	0.09369062
30	0x3d88942a	0.06668885
31	0x3e29bc32	0.16575697

embed.embedding_net.conv1.nn.2.weight f4 [32, 32]
0	0xbdd858e4	-0.105638295
1	0xbd0a6d79	-0.033795808
2	0x3d920aac	0.07130942
3	0xbdb7d1b1	-0.08975542
4	0x3df183c9	0.11792714
5	0xbcd6e476	-0.026231986
6	0x3da0b1c0	0.07846403
7	0x3e2e2f69	0.17010273
8	0xbdedb86b	-0.116074406
9	0x3c4a9b4d	0.012366128
10	0x3d03365e	0.03203427
11	0xbdd827c2	-0.10554458
12	0xbd81e753	-0.0634295
13	0xbdaa930e	-0.0832883
14	0xbd792487	-0.06082585
15	0x3d0aba02	0.033868797
16	0xbdc2ade5	-0.09505824
17	0x3d8180e9	0.06323416
18	0xbdb407c2	-0.08790542
19	0x3e398b28	0.1811949
20	0xbe1bd8cc	-0.1521942
21	0x3e0c07cf	0.13674854
22	0xbd267699	-0.040640447
23	0xbd8d16ba	-0.068891004
24	0xbd34b08a	-0.044113673
25	0xbd53ed04	-0.051739708
26	0x3dd803d2	0.10547604
27	0xbddcda8a	-0.107838705
28	0xbe2a8b91	-0.16654803
29	0x3e1bad66	0.15202865
30	0xbd1a1ca9	-0.03762499
31	0xbcdd6fd2	-0.02703086
32	0xbb04a344	-0.0020238915
33	0xbd9636a4	-0.073346406
34	0x3e2476dd	0.16060968
35	0x3dc63854	0.096787125
36	0xbdf015c5	-0.11722902
37	0x3e04363f	0.12911318
38	0xbe0f0b0d	-0.1396906
39	0xbdc73ee7	-0.097287945
40	0x3e2f7bbc	0.17137045
41	0xbe1a3e52	-0.15062836
42	0x3d2686e6	0.040655993
43	0xbdc85e0b	-0.09783562
44	0xbded429f	-0.115849726
45	0x3dfddd69	0.12395746
46	0xbd192eba	-0.037398078
47	0xbd024398	-0.031802744
48	0x3c807d25	0.015684674
49	0x3d9663a6	0.07343225
50	0x3dc373fa	0.09543605
51	0xbddf5680	-0.109051704
52	0xbd91bb48	-0.07115799
53	0x3e1e5562	0.15462258
54	0xbe2161f0	-0.15760016
55	0x3deea70a	0.11652954
56	0xbde96afd	-0.113973595
57	0xbd2ba5b2	-0.041906066
58	0xbd5e364f	-0.05425101
59	0x3e4638cd	0.19357605
60	0xbe312e94	-0.17302924
61	0xbe2a0a59	-0.1660551
62	0x3e278894	0.16360694
63	0xbdf2953f	-0.11844873
64	0xbe238895	-0.1597007
65	0x3e1daacd	0.15397187
66	0xbdc6526d	-0.0968369
67	0xbbe975d6	-0.007124643
68	0xbca7b534	-0.020472147
69	0xbdbe8d9b	-0.09304353
70	0x3e31c45b	0.1736006
71	0xbd99f2fd	-0.075170495
72	0xbd9ba8c1	-0.07600547
73	0x3cfe5b80	0.03104949
74	0x3dbc68b5	0.09199659
75	0xbc20521e	-0.009785203
76	0x3df526f0	0.11970317
77	0x3dfacefe	0.12246512
78	0x3dc24f90	0.094878316
79	0xbda6a9d7	-0.08137863
80	0x3c975162	0.018471424
81	0x3d506328	0.050875813
82	0xbde9237c	-0.11383721
83	0x3e0260f8	0.12732303
84	0x3d3460f5	0.044037778
85	0x3d66e50f	0.05637079
86	0xbd7065e1	-0.05869091
87	0x3d62457b	0.055242043
88	0xbd3475da	-0.044057705
89	0x3b29debe	0.0025920118
90	0xbd24583c	-0.04012321
91	0x3e115982	0.14194301
92	0x3de35268	0.11099702
93	0x3e47c59f	0.1950898
94	0xbe146434	-0.1449135
95	0x3da7c286	0.08191399
96	0x3ca15b69	0.019696908
97	0xbe18b604	-0.14913183
98	0xbe1f4340	-0.15552998
99	0x3d828c72	0.06374444
100	0x3ddf8196	0.109133884
101	0x3e309c11	0.17247035
102	0x3d6c9c85	0.057766456
103	0xbd995512	-0.07486929
104	0x3dfc9edd	0.12334988
105	0x3d6f2703	0.058386814
106	0xbe2839c5	-0.16428287
107	0xbe2071e7	-0.1566845
108	0xbdbe41ea	-0.09289916
109	0xbddcf901	-0.10789681
110	0x3dd2cd89	0.10293109
111	0xbe06b222	-0.1315389
112	0x3e0d42be	0.13794991
113	0xbdd37e19	-0.103267856
114	0xbcfa7678	-0.030574068
115	0x3d3303e5	0.043704886
116	0xbddfd5a8	-0.109294236
117	0xbdfbb2fe	-0.122899994
118	0x3e1a17f3	0.15048198
119	0xbdcae803	-0.09907534
120	0x3c580a17	0.013185999
121	0x3e0e6771	0.13906647
122	0xbd53a77a	-0.05167339
123	0x3d997535	0.074930586
124	0xbdff8bba	-0.124778226
125	0x3d5a6264	0.05331649
126	0x3e19a93c	0.15005964
127	0x3e2a87d0	0.16653371
128	0x3e160b8f	0.14652847
129	0xbe31b56d	-0.17354365
130	0xbe24443a	-0.16041651
131	0xbe15c8cc	-0.14627379
132	0x3dccd4fc	0.10001561
133	0x3c0d7c7d	0.008635637
134	0x3d168d35	0.03675576
135	0xbdfe1fd7	-0.12408417
136	0x3e05c133	0.13061981
137	0xbe0db15c	-0.13837188
138	0x3e278eb0	0.16363025
139	0xbe3f5015	-0.18682893
140	0xbd21bbeb	-0.039485853
141	0x3e17eba6	0.14835986
142	0x3e2bf39d	0.1679215
143	0xbe16ff33	-0.14745788
144	0xbe2d8229	-0.16944183
145	0x3d5a7930	0.05333823
146	0x3df7ee59	0.12106008
147	0x3d199deb	0.037504118
148	0xbe0f0878	-0.13968074
149	0x3e0e80b0	0.13916278
150	0xbb392292	-0.0028249365
151	0xbd0faef4	-0.035078958
152	0xbdd6235c	-0.10455963
153	0xbe05b1ea	-0.1305615
154	0x3ccd9499	0.025095271
155	0x3d31d18b	0.043412726
156	0x3df4197b	0.119189225
157	0xbd903a44	-0.07042363
158	0x3dc9db48	0.09856278
159	0xbddbe786	-0.10737519
160	0xbd01bb26	-0.03167262
161	0x3d87b412	0.066261426
162	0x3e28ff7b	0.16503708
163	0x3e241a79	0.16025724
164	0x3cef9e9e	0.02925044
165	0xbdf6524b	-0.12027415
166	0xbced3785	-0.028957138
167	0x3dc0b9d2	0.094104424
168	0xbdda4c40	-0.10659075
169	0x3d780141	0.06054807
170	0xbe2576d8	-0.16158617
171	0x3dd2017c	0.10254189
172	0x3e10513f	0.14093493
173	0xbd673ff7	-0.056457486
174	0xbd55b357	-0.052172985
175	0xbe08da82	-0.13364604
176	0xbd442894	-0.04789026
177	0xbd8391e3	-0.0642431
178	0xbd7ada9a	-0.06124363
179	0xbd110a3a	-0.035410143
180	0xbd9ddadd	-0.077077605
181	0xbc7963d1	-0.015221552
182	0xbaefe41a	-0.0018302232
183	0x3d47d660	0.04878843
184	0x3e058bf7	0.13041674
185	0xbdc26e15	-0.09493653
186	0xbbdc065b	-0.006714625
187	0xbda0a04c	-0.07843074
188	0x3d8f1d23	0.06987979
189	0x3d9dd918	0.07707423
190	0x3affd460	0.0019518249
191	0x3db46402	0.088081375
192	0xbd8fe254	-0.070255905
193	0x3dc3488c	0.095353216
194	0xbc9774a7	-0.018488241
195	0xbe17bafa	-0.1481742
196	0x3de53dc5	0.11193422
197	0x3e2e976f	0.17049955
198	0xbd209584	-0.03920509
199	0x3d0eebfd	0.034893025
200	0xbe0b2313	-0.13587599
201	0x3db53175	0.08847324
202	0xbd9a6f9d	-0.0754082
203	0x3e021c46	0.12706098
204	0xbe3bdde4	-0.18346363
205	0x3db8b427	0.09018736
206	0x3d540905	0.051766414
207	0x3cec5a9e	0.028851803
208	0xbd7bb94c	-0.06145601
209	0x3d95890f	0.073015325
210	0xbda41981	-0.08012677
211	0x3dd0170f	0.10160648
212	0xbd8c4e7e	-0.06850909
213	0x3db6adde	0.08919881
214	0x3de2000d	0.11035166
215	0xbaa276b5	-0.0012394997
216	0xbdeabdfb	-0.11462017
217	0xbd6ac5d6	-0.057317577
218	0x3df1bce0	0.11803603
219	0xbdd62d72	-0.10457887
220	0xbe11a1bc	-0.14221853
221	0x3e0594d6	0.13045058
222	0xbdabf32d	-0.083959915
223	0x3de353f4	0.11099997
224	0x3de592cb	0.11209639
225	0xbe3acd26	-0.1824232
226	0xbd21bb2d	-0.039485145
227	0xbe20e40d	-0.15711994
228	0x3e217f79	0.15771283
229	0xbde8f8f6	-0.113756105
230	0x3dc51df2	0.09624852
231	0xbe0a84a0	-0.13527155
232	0xbbdfe241	-0.0068323915
233	0x3e3be306	0.18348321
234	0xbe158298	-0.14600599
235	0xbe0e99d0	-0.13925862
236	0xbd222834	-0.039589122
237	0xbcf6ba14	-0.030118026
238	0x3dedc74f	0.11610281
239	0x3cc20706	0.02368499
240	0xbe321950	-0.17392468
241	0x3bfa6484	0.007641377
242	0x3db75425	0.08951596
243	0x3e18ceb9	0.14922608
244	0xbdce93d9	-0.100867935
245	0xbe0e4f91	-0.1389754
246	0x3d81373f	0.063093655
247	0xbce8e06d	-0.028427327
248	0x3d88d693	0.06681552
249	0xbcd60890	-0.02612713
250	0xbbd0a89d	-0.0063677565
251	0xbdb0f084	-0.08639625
252	0x3d2bf8de	0.041985385
253	0xbd246ddf	-0.040143844
254	0x3e351ee0	0.17687559
255	0xbdef25f4	-0.11677161

embed.embedding_net.conv1.nn.2.bias f4 [32]
0	0xbda3ad2e	-0.07992016
1	0x3d9ce100	0.07660103
2	0xbd07e2bb	-0.03317521
3	0x3e0fc0cc	0.1403839
4	0xbcd73e19	-0.026274728
5	0x3e14e9a2	0.14542249
6	0xbe0f0670	-0.139673
7	0xbdb55b38	-0.08855289
8	0xbda23612	-0.07920469
9	0xbdada24d	-0.08478222
10	0xbd68d132	-0.05684013
11	0x3ddf2a17	0.108967
12	0xbe2da764	-0.16958386
13	0x3e2ae5e7	0.16689263
14	0x3dd77e96	0.10522191
15	0x3e0d566b	0.13802497
16	0x3dadd4af	0.08487832
17	0xbe1d6709	-0.15371336
18	0x3cbdc15e	0.023163494
19	0x3d7e14d6	0.06203159
20	0x3d946a76	0.07246868
21	0x3df22489	0.11823375
22	0x3e285833	0.16439895
23	0x3d4fe6e3	0.0507573
24	0x3deb3503	0.114847206
25	0xbda8d9a9	-0.082446404
26	0xbdbdbdda	-0.09264727
27	0x3defd3c3	0.11710312
28	0xbd707703	-0.05870725
29	0xbe0f3e8b	-0.13988702
30	0x3db31db8	0.08745903
31	0xbde5e687	-0.1122561

embed.embedding_net.bn1.weight f4 [32]
0	0x3f8097f7	1.0046376
1	0x3f7fff92	0.99999344
2	0x3f7ea0a3	0.9946386
3	0x3f82fafe	1.0232847
4	0x3f80d3de	1.0064657
5	0x3f800be4	1.0003629
6	0x3f80377b	1.0016931
7	0x3f7ecf88	0.9953542
8	0x3f80e0eb	1.006864
9	0x3f812a5b	1.0091051
10	0x3f815d8d	1.0106674
11	0x3f8066e8	1.0031404
12	0x3f8021cd	1.0010315
13	0x3f7e7749	0.99400765
14	0x3f7da6b0	0.9908247
15	0x3f824d5b	1.0179857
16	0x3f7e171a	0.99254
17	0x3f7ef024	0.99585176
18	0x3f812d05	1.0091864
19	0x3f80d9a1	1.0066415
20	0x3f7ff52a	0.99983466
21	0x3f804887	1.0022134
22	0x3f80a8f8	1.0051565
23	0x3f80e408	1.006959
24	0x3f7a4f03	0.9777681
25	0x3f81eaae	1.0149744
26	0x3f7fe16f	0.9995336
27	0x3f7e86b5	0.99424297
28	0x3f7eec64	0.99579453
29	0x3f7fde3f	0.99948496
30	0x3f80945c	1.0045276
31	0x3f8064ba	1.0030739

embed.embedding_net.bn1.bias f4 [32]
0	0x3b4c86a5	0.0031208184
1	0xbc14bfb4	-0.009078909
2	0xb9a8175b	-0.00032060858
3	0x3c407d6f	0.011748656
4	0x3b61d913	0.0034461662
5	0xb92a8132	-0.00016260592
6	0xbbc69e06	-0.0060613183
7	0xbbf67895	-0.0075216987
8	0x3c336f78	0.010951869
9	0x3cacb929	0.021084385
10	0x3c806f11	0.01567796
11	0x3c6754ec	0.014119368
12	0xbbaf24f4	-0.0053449813
13	0x3c718608	0.014741428
14	0xbb74a249	-0.0037328175
15	0x3c19dfdf	0.009391754
16	0x3ba55434	0.005045438
17	0x3adc75d8	0.0016819788
18	0x3c223063	0.009899232
19	0x3b6a20fe	0.0035725231
20	0xbb9ae936	-0.004727508
21	0x3c2d32dd	0.010571209
22	0xbb113aa1	-0.002216019
23	0x3c84a4b7	0.016191823
24	0xbc0b36ff	-0.008496999
25	0x3b179597	0.0023129934
26	0x3b5cb27c	0.003367572
27	0xbc8e220f	-0.017350225
28	0xbae7d570	-0.0017687511
29	0x3bc40ce9	0.0059829843
30	0xbaa8e1f4	-0.0012884722
31	0x3c2176a1	0.0098549435

embed.embedding_net.bn1.running_mean f4 [32]
0	0xbd26cc39	-0.040722106
1	0x3dbc16fa	0.0918407
2	0x3d7ed7ec	0.062217638
3	0x3e0172ab	0.12641399
4	0xbcad6d3d	-0.021170253
5	0x3e2c75ca	0.16841808
6	0xbde29b59	-0.110647865
7	0xbe40a34d	-0.18812294
8	0x3c953ea4	0.018218346
9	0xbdf2ee42	-0.1186185
10	0xbe9cf778	-0.30657554
11	0x3e6a778a	0.22897163
12	0xbed050cc	-0.40686643
13	0x3e819768	0.25310826
14	0x3d863b46	0.06554274
15	0x3d79cc52	0.06098587
16	0x3e5fa0f5	0.21838744
17	0xbe467e9c	-0.19384235
18	0x3eab5207	0.3346102
19	0x3e031a85	0.12803085
20	0x3c695576	0.014241567
21	0x3de1a4a5	0.110177316
22	0x3df52ab9	0.11971039
23	0xbd487119	-0.048935983
24	0x3db9a668	0.090649426
25	0xbe0bfca8	-0.136706
26	0xbe2161e6	-0.15760002
27	0x3d2e5872	0.042564817
28	0xbd377b0b	-0.044795077
29	0xbcdc3f40	-0.026885629
30	0x3e601d59	0.21886195
31	0xbe1eb813	-0.15499906
