trained_managers/10_150_10_MH_gin_32.pth (torch, 450582 bytes, 104 tensors)

key_policy.weight f4 [64, 32]
0	0x3d026f27	0.031844284
1	0x3c417681	0.011808039
2	0x3e31e3af	0.1737201
3	0x3d1a7389	0.03770784
4	0xbdbc87ee	-0.09205614
5	0xbca4974f	-0.02009168
6	0x3d8b006e	0.06787191
7	0x3db02820	0.08601403
8	0x3cacba7e	0.02108502
9	0xbdf046d6	-0.11732261
10	0xbd7ef248	-0.062242776
11	0xbc9ee3de	-0.019395765
12	0x3d24fd42	0.040280588
13	0x3da1ece2	0.0790651
14	0xbdba3c77	-0.09093564
15	0x3dd67657	0.1047179
16	0x3df36bb2	0.118857756
17	0x3d3e0b91	0.04639775
18	0xbd67e07f	-0.05661058
19	0xbdc2204e	-0.09478818
20	0xbdf99a03	-0.121875785
21	0xbdaaae55	-0.083340324
22	0xbd3758c5	-0.04476239
23	0x3df34053	0.11877503
24	0x3d032bde	0.032024257
25	0xbd2e012b	-0.042481583
26	0xbdee5c59	-0.11638708
27	0x3df52fa6	0.11971979
28	0xbdc8570e	-0.09782229
29	0xbd29fee8	-0.041502863
30	0x3be1fd1c	0.006896628
31	0xbe22e0f7	-0.1590613
32	0x3e123107	0.14276515
33	0xbe1b4f67	-0.15167008
34	0x3dd7ddbf	0.105403416
35	0x3d9895a0	0.07450414
36	0xbd6dc3aa	-0.058047928
37	0xbdc148b7	-0.094376974
38	0x3e122af7	0.14274202
39	0xbd952cb9	-0.07283921
40	0x3e2eb6cf	0.17061923
41	0x3b7c4678	0.003849415
42	0x3e2b61e5	0.16736563
43	0x3e06928a	0.13141838
44	0xbd2f912c	-0.042863056
45	0xbcc20114	-0.023682155
46	0x3c8c91c8	0.017159358
47	0x3df64a1c	0.12025854
48	0x3ccb8e28	0.024848059
49	0xbdafbf4d	-0.085814096
50	0x3b15a394	0.0022833096
51	0xbcb8b75d	-0.022548372
52	0x3e277e73	0.1635683
53	0x3d9d316a	0.076754406
54	0xbdec60e9	-0.11541922
55	0xbdfedf50	-0.12444937
56	0xbdb558ad	-0.08854804
57	0x3ddf49fc	0.10902783
58	0x3c387bba	0.011259967
59	0xbd4c424c	-0.049867913
60	0x3d2ca54e	0.042149834
61	0x3de50647	0.11182838
62	0x3b9e5573	0.0048319637
63	0x3d9385d8	0.07203263
64	0xbcc5dad3	-0.024152195
65	0x3d3fd8a1	0.046837453
66	0x3e0db352	0.13837937
67	0xbccdc948	-0.025120392
68	0xbd817031	-0.06320227
69	0xbd49d8c7	-0.049279
70	0x3d512387	0.051059272
71	0xbda93779	-0.08262534
72	0x3e3b6772	0.1830118
73	0x3dc09bb8	0.09404701
74	0xbe1bbf62	-0.15209725
75	0xbd885af3	-0.06657972
76	0x3e1c8f10	0.15288949
77	0xbd9266aa	-0.07148488
78	0xbe298727	-0.16555463
79	0x3dfc7b92	0.12328257
80	0xbe0fec72	-0.1405504
81	0xbcda6ed2	-0.026664171
82	0xbd628ddd	-0.055311073
83	0xbdd122b0	-0.10211694
84	0x3e2b259c	0.16713566
85	0x3de2e298	0.110783756
86	0xbd9c1e66	-0.076229855
87	0xba212c97	-0.0006148307
88	0xbd44fd5d	-0.04809319
89	0xbd38b178	-0.045091122
90	0x3d9f0e39	0.07766385
91	0xbb71d466	-0.003690028
92	0x3d8042ca	0.06262739
93	0xbcce3649	-0.02517237
94	0xbe047a37	-0.12937246
95	0x3e3fea86	0.18741807
96	0x3e2edd9c	0.17076725
97	0xbda42143	-0.08014157
98	0xbd6726d6	-0.05643352
99	0xbdbdb9f7	-0.092639856
100	0x3dbe6b27	0.092977814
101	0x3dd39bad	0.10332427
102	0x3d83fcdf	0.06444716
103	0xbd4e88f0	-0.050423563
104	0x3b99c46d	0.004692605
105	0x3debd614	0.115154415
106	0x3d5ea2cc	0.054354474
107	0x3e26b3c0	0.16279507
108	0x3d8f34e5	0.06992511
109	0xbe0303f9	-0.12794484
110	0xbe091c80	-0.13389778
111	0x3dbceb0d	0.0922452
112	0xbd011045	-0.031509656
113	0xbda987c5	-0.08277849
114	0x3dabf85f	0.083969824
115	0xbd30c918	-0.043160528
116	0xbe0beb28	-0.13663924
117	0xbd8b2163	-0.067934774
118	0xbcf9e6d3	-0.030505573
119	0xbd6aa408	-0.05728534
120	0x3d2dc2c3	0.042422067
121	0xbd821932	-0.06352462
122	0x3e2bebae	0.16789123
123	0x3d972030	0.07379186
124	0xbdb42877	-0.087967806
125	0xbdcec82a	-0.10096772
126	0xbda820ce	-0.08209382
127	0x3ddc4e61	0.10757137
128	0xbd8f8ec2	-0.07009651
129	0x3b150adf	0.0022742075
130	0x3e075b87	0.13218509
131	0xbd547b42	-0.05187536
132	0xbc2f806b	-0.01071177
133	0xbdd20658	-0.10255116
134	0x3e12fd65	0.14354475
135	0x3d6828d1	0.05667955
136	0xbcab5022	-0.020912234
137	0xbda7ae91	-0.08187593
138	0x3e0ef72b	0.13961475
139	0x3dc622cb	0.09674605
140	0x3d615444	0.055012003
141	0x3dc1b8cf	0.094590776
142	0x3e1659ef	0.14682744
143	0x3d80f09d	0.06295893
144	0xbe1b3e2a	-0.15160432
145	0xbda05d06	-0.07830243
146	0xbd700227	-0.058595803
147	0x3e2f5056	0.1712049
148	0x3da93370	0.08261764
149	0xbdce9f0e	-0.10088931
150	0x3d918749	0.07105882
151	0xbdbea86b	-0.09309467
152	0x3e24ebee	0.16105625
153	0xbd404364	-0.04693927
154	0x3d3586e7	0.044318106
155	0x3ddd1233	0.10794487
156	0x3df79039	0.12088055
157	0xbd2ff708	-0.042960197
158	0x3e1a359d	0.15059514
159	0x3ca119a9	0.019665556
160	0xbceffd45	-0.029295573
161	0xbe3869b4	-0.18009073
162	0x3d0cb045	0.03434779
163	0x3c3bc65e	0.011460869
164	0xbca878e3	-0.020565456
165	0xbd5854ad	-0.052815128
166	0x3e1daa79	0.15397061
167	0xbd198cb3	-0.037487697
168	0xbd8a0fe0	-0.06741309
169	0xbd8370a0	-0.06417966
170	0xbd8157c6	-0.063155696
171	0xbddec376	-0.10877125
172	0x3e354cd2	0.17705086
173	0x3e2ef6fd	0.17086406
174	0xbdfd3334	-0.12363282
175	0xbde8a050	-0.11358702
176	0x3d0bfc61	0.034176234
177	0x3d55bd90	0.052182734
178	0xbd8f944a	-0.07010706
179	0xbe27bbc6	-0.16380224
180	0x3e27d9b6	0.16391644
181	0xbd103a12	-0.03521163
182	0x3de880bb	0.113526784
183	0xbdb67c0f	-0.08910381
184	0xbd61ed50	-0.05515796
185	0x3d8834da	0.06650706
186	0x3c9405e1	0.01806921
187	0xbd043485	-0.03227665
188	0xbd232294	-0.0398279
189	0x3df7cf35	0.121000685
190	0x3da33416	0.07968919
191	0x3cd43315	0.025903264
192	0x3e21b854	0.15792972
193	0x3d08de90	0.033415377
194	0x3e30a182	0.1724911
195	0xbc93cdd8	-0.01804249
196	0x3e2a8b28	0.16654646
197	0x3d255bb9	0.040370677
198	0xbdeb2a63	-0.11482694
199	0xbdc1dae6	-0.0946558
200	0xbe3e86f4	-0.18606168
201	0x3d9404fd	0.07227514
202	0x3dc1f575	0.09470645
203	0x3e3897b2	0.18026617
204	0xbdfae96d	-0.12251554
205	0xbcd51d1a	-0.026014853
206	0xbe1fbd5a	-0.15599576
207	0x3df0c7f7	0.1175689
208	0xbc80e31b	-0.015733292
209	0xbdd22d48	-0.10262543
210	0xbcae9da8	-0.02131541
211	0x3d9d3c3f	0.07677507
212	0x3e149dc4	0.14513308
213	0xbd8c2d83	-0.06844618
214	0x3b93f2b4	0.0045150165
215	0xbdee2b58	-0.11629361
216	0x3d83713b	0.064180814
217	0x3cad4932	0.021153066
218	0x3d94a5c0	0.07258177
219	0x3dd39488	0.103310645
220	0x3d810e55	0.06301562
221	0x3d2436e7	0.04009142
222	0xbe135dbe	-0.14391229
223	0xbcd33ed4	-0.025786795
224	0xbddca7da	-0.10774203
225	0x3ce308e7	0.027714206
226	0xbdd6422f	-0.10461842
227	0xba9e8872	-0.0012095107
228	0xbe11fd31	-0.14256741
229	0x3dd844bf	0.10559987
230	0xbdc2ca53	-0.095112465
231	0xbdc29985	-0.09501938
232	0x3e27ded3	0.16393594
233	0x3d31a04b	0.043365758
234	0xbe024810	-0.12722802
235	0xbddfa4fb	-0.109201394
236	0xbbbe1364	-0.0058006514
237	0xbe37cfff	-0.17950438
238	0x3dd69b9b	0.10478898
239	0x3ddcc95a	0.10780592
240	0xbe1be3f1	-0.15223671
241	0x3d02fab8	0.031977385
242	0x3e153630	0.14571452
243	0xbdc162cd	-0.09442673
244	0xbe174f50	-0.14776349
245	0xbd51a4ab	-0.05118243
246	0xbdf6457c	-0.12024972
247	0x3d51401f	0.05108654
248	0xbd8b3fdc	-0.067992896
249	0xbe0e1117	-0.13873707
250	0xbde5c5cd	-0.11219368
251	0x3e168e10	0.1470263
252	0xbded1ba8	-0.11577541
253	0x3d8286b6	0.0637335
254	0xbd9bc1f4	-0.07605353
255	0xbdbca8fd	-0.092119195

key_policy.bias f4 [64]
0	0xbd179445	-0.037006635
1	0xba5c89e4	-0.0008412881
2	0xbddef4ac	-0.10886511
3	0x3e3496ba	0.17635623
4	0xbe063dba	-0.13109484
5	0xbdf892be	-0.12137364
6	0xbc28cae9	-0.010302284
7	0x3d84444e	0.064583406
8	0x3d9bcf88	0.07607943
9	0x3e1b8f4d	0.15191384
10	0x3db32ff5	0.087493815
11	0xbe26549e	-0.16243216
12	0x3bb483a6	0.005508858
13	0x3d819e3a	0.063290074
14	0xbc41f1d3	-0.011837441
15	0x3ddb2571	0.10700501
16	0xbde2a117	-0.11065882
17	0x3cb47569	0.022028642
18	0xbd4b4e25	-0.04963507
19	0xbd29cb43	-0.04145361
20	0xbe1ccca3	-0.15312438
21	0x3dcb0f17	0.099149875
22	0xbe20c750	-0.15701032
23	0xbcc509c0	-0.0240525
24	0x3d0d3280	0.03447199
25	0xbc2db0b5	-0.010601212
26	0x3df97258	0.121800125
27	0x3d2dd9ea	0.042444147
28	0x3df74d3f	0.120752804
29	0xbdd290f6	-0.10281555
30	0x3d6cdfb1	0.057830516
31	0xbd27f700	-0.041007042
32	0x3e2db2eb	0.16962783
33	0xbdc914cc	-0.0981842
34	0x3e2ef0a9	0.17083992
35	0xbda8675b	-0.082228385
36	0x3e11aa97	0.14225231
37	0x3d6d75bc	0.05797361
38	0x3dc901e3	0.09814813
39	0x3e12ee13	0.1434863
40	0x3de3ebf0	0.11128986
41	0xbe1bcb3a	-0.15214244
42	0x3d172284	0.03689815
43	0xbd3e2930	-0.046426
44	0x3e16935c	0.1470465
45	0x3e2cd601	0.16878511
46	0x3e069488	0.13142598
47	0xbd8460ec	-0.06463799
48	0xbe0b9217	-0.13629948
49	0x3da15a86	0.07878594
50	0xbdea01a0	-0.11426091
51	0xbe22d842	-0.15902808
52	0x3e00d87b	0.12582581
53	0x3e072650	0.13198209
54	0xbcb50eda	-0.022101808
55	0x3d70896d	0.05872481
56	0x3db21eff	0.08697318
57	0x3cc8f533	0.024530983
58	0xbdd00557	-0.101572685
59	0xbcb291b5	-0.021797994
60	0x3df82c8a	0.1211787
61	0x3d551bc0	0.052028418
62	0xbe2938d5	-0.16525586
63	0xbb69a816	-0.0035653166

q_policy.weight f4 [64, 64]
0	0xbc945fd6	-0.018112104
1	0x3d9633e5	0.07334117
2	0x3ddcbfa7	0.10778742
3	0xbda64c06	-0.08119969
4	0x3d43be5d	0.047788966
5	0xbdd836b1	-0.105573066
6	0x3de7fe8a	0.11327846
7	0xbdd2d634	-0.10294762
8	0xbe01c75a	-0.12673703
9	0x3d24b939	0.040215705
10	0xbe05dad9	-0.13071765
11	0x3dda0f9d	0.10647509
12	0xbde23926	-0.110460564
13	0x3d0365a3	0.03207935
14	0x3ccb4dd1	0.02481738
15	0x3e01707f	0.1264057
16	0xbca67f6e	-0.020324435
17	0x3dd69f7b	0.10479637
18	0xbcfd8c33	-0.030950641
19	0xbda6ae9f	-0.08138775
20	0xbd84902d	-0.06472812
21	0x3c214860	0.009843916
22	0x3cb9da26	0.02268703
23	0xbddba143	-0.107241176
24	0xbd5646d1	-0.05231363
25	0xbd544735	-0.05182572
26	0xbd29bfb5	-0.04144259
27	0xbd43c709	-0.047797237
28	0xbd0a49ab	-0.03376166
29	0x3d135279	0.035967324
30	0xbda5eeaf	-0.08102166
31	0xbc135b12	-0.008993881
32	0xbdf678a7	-0.12034731
33	0x3d5c824d	0.053835202
34	0xbdad97f6	-0.0847625
35	0x3c5365ed	0.012902719
36	0xbde58366	-0.11206703
37	0x3d8bf645	0.068340816
38	0x3e02638b	0.12733285
39	0x3cb6f410	0.022333175
40	0x3d243be3	0.040096175
41	0xbd1249d0	-0.035714924
42	0x3dc10352	0.094244614
43	0x3d5e10ca	0.05421523
44	0xbd0e6269	-0.03476182
45	0xbd97defe	-0.07415579
46	0xbd42973e	-0.047507517
47	0xbdac55e3	-0.08414819
48	0x3c596045	0.013267581
49	0x3d9ecd75	0.077540316
50	0xbd8a2fae	-0.067473754
51	0x3d0f8885	0.035042305
52	0x3d034cc1	0.03205562
53	0x3d70d92b	0.058800858
54	0x3df3c28c	0.11902341
55	0xbdaa8aba	-0.08327241
56	0x3dbce91b	0.09224149
57	0x3da2e0cd	0.079530336
58	0x3d8f166e	0.069867
59	0xbc482de1	-0.01221797
60	0x3d3ed2b9	0.04658768
61	0x3d868c5a	0.06569739
62	0x3dc6db17	0.09709757
63	0xbdffe473	-0.12494745
64	0x3e04b53f	0.12959765
65	0x3ce7b05f	0.028282342
66	0xbd93998a	-0.072070196
67	0x3cccc3a7	0.024995638
68	0x3d1cec2c	0.03831117
69	0xbdac8439	-0.08423657
70	0xbd724688	-0.059149295
71	0x3d71ddd1	0.05904943
72	0xbd965fd6	-0.07342498
73	0xbd64c453	-0.055851292
74	0x3ca80d49	0.020514147
75	0x3d6aeef2	0.057356782
76	0x3dd0929c	0.101842135
77	0x3dedfadc	0.11620113
78	0xbb948732	-0.004532718
79	0x3ddb6a75	0.107136644
80	0xbcc9e71a	-0.02464633
81	0x3e007b33	0.12546997
82	0xbd326aeb	-0.043558996
83	0x3da1ce9d	0.079007365
84	0xbd448867	-0.047981646
85	0xbc91fa6d	-0.017819608
86	0x3d583763	0.052787196
87	0x3d9aa81c	0.075515956
88	0xbccb41df	-0.024811683
89	0x3ce3580d	0.027751947
90	0xbde9dc0d	-0.114189245
91	0x3cb5e657	0.022204561
92	0xbd488cd6	-0.048962437
93	0xbc266cdb	-0.010157789
94	0x3d8ffdcb	0.07030829
95	0xbe0358a1	-0.12826778
96	0xbdb1180f	-0.08647167
97	0x3e00bc99	0.12571944
98	0xbd702d3b	-0.058636885
99	0x3da94678	0.08265394
100	0xbcbe06ba	-0.023196567
101	0xbdbde14b	-0.09271487
102	0x3db10bcf	0.086448304
103	0x3bb0a2eb	0.005390515
104	0x3d2ac6ff	0.041693684
105	0xbd4162f8	-0.047213525
106	0xbd2bce06	-0.041944526
107	0x3db5e1cd	0.08880959
108	0x3d17913d	0.037003744
109	0x3ded8468	0.1159752
110	0xbdc8b876	-0.09800808
111	0x3c465321	0.01210478
112	0xbaa3cd64	-0.0012497124
113	0xbd87cde7	-0.0663107
114	0x3dc22476	0.094796106
115	0x3db06f25	0.08614949
116	0xbb87e6b6	-0.004147376
117	0xbd0604e9	-0.032719526
118	0x3c881035	0.01660929
119	0xbdb3b184	-0.08774093
120	0x3d8d2b87	0.06893068
121	0x3dc8ca11	0.09804166
122	0xbc29b0f8	-0.010357134
123	0xbda76335	-0.08173219
124	0x3ddb3569	0.107035466
125	0x3d4eaeb2	0.05045957
126	0xbd453146	-0.048142694
127	0xbb26fbf3	-0.0025479763
128	0x3dfc3b99	0.12316055
129	0xbcba5264	-0.022744365
130	0xbca79565	-0.020456979
131	0xbcb3eeeb	-0.02196451
132	0xbdaed08c	-0.08535871
133	0xbcbf2597	-0.023333354
134	0x3c623ccf	0.013808443
135	0xbdbceeb5	-0.09225217
136	0x3dfa0068	0.12207109
137	0x3d0ce5dd	0.034398902
138	0x3d9d402b	0.07678255
139	0xbdd9b27d	-0.10629747
140	0xbdf425bd	-0.119212605
141	0x3d974ad9	0.07387323
142	0xbddaedfc	-0.10689923
143	0x3d32efc0	0.043685675
144	0xbd1f8d8e	-0.038953356
145	0xbd0b476b	-0.034003656
146	0x3dd07e66	0.101803586
147	0xbba622b2	-0.005070054
148	0x3d8b89d3	0.06813397
149	0x3d6b99e1	0.057519797
150	0xbdf6eed5	-0.12057272
151	0xbc80a0cb	-0.015701672
152	0xbda6fdd7	-0.08153885
153	0x3daa6915	0.08320824
154	0xbd7c0d84	-0.061536327
155	0x3de250dc	0.11050579
156	0x3db7ab2c	0.08968195
157	0x3dabc690	0.08387482
158	0x3dd06ea4	0.10177353
159	0x3da1de53	0.07903733
160	0x3df8fe24	0.121578485
161	0x3c1b6a87	0.009485847
162	0xbcb4b682	-0.022059683
163	0xbe17753f	-0.1479082
164	0xbd51caf7	-0.051218953
165	0xbd89fbaf	-0.06737458
166	0xbda16ed0	-0.07882464
167	0x3d9f5ec0	0.07781744
168	0x3d972a57	0.073811226
169	0x3daa2647	0.08308082
170	0xbd3d939d	-0.046283353
171	0xbd69d930	-0.05709189
172	0x3dcebfa6	0.10095148
173	0x3dababe9	0.08382399
174	0x3cc9d693	0.02463845
175	0x3b4ad8c9	0.0030951968
176	0xbdd76da8	-0.10518962
177	0xbde5535f	-0.111975424
178	0xbde4e6d9	-0.11176843
179	0x3daaccdb	0.08339854
180	0xbd872d45	-0.06600431
181	0xbdc4cbbb	-0.09609171
182	0x3de9b584	0.114115745
183	0xbdabbb6c	-0.08385357
184	0x3dd8e9da	0.10591479
185	0x3db84660	0.08997798
186	0x3ded5e65	0.1159027
187	0x3c817868	0.015804484
188	0xbd5281a6	-0.051393174
189	0xbdd18b29	-0.10231621
190	0xbd962eb1	-0.073331244
191	0x3dd1e19c	0.1024811
192	0xbd46e861	-0.048561458
193	0xbd666486	-0.05624821
194	0x3c9aa504	0.018877514
195	0xbdd5f7f5	-0.10447685
196	0x3c7df66e	0.015500648
197	0x3d3df174	0.046372846
198	0xbdd6e909	-0.10493667
199	0x3c71e3fa	0.0147638265
200	0x3d9c9a73	0.07646646
201	0x3c4a0b1a	0.012331748
202	0xbde398b9	-0.11113114
203	0xbd99b53d	-0.075052716
204	0x3dc490b2	0.09597911
205	0xbd9d589f	-0.07682919
206	0x3cb2f90d	0.021847272
207	0xbbeb19f7	-0.007174726
208	0x3dc3902f	0.09548985
209	0x3d8a20c9	0.067445345
210	0x3ca8777c	0.020564787
211	0x3c1ab3d4	0.009442288
212	0xbdc45945	-0.09587339
213	0xbdaeb9a9	-0.085315056
214	0xbdd97505	-0.10618023
215	0x3d1c7f8f	0.038207587
216	0x3d51a9d4	0.05118735
217	0xbd7c64ad	-0.06161945
218	0xbcb57108	-0.022148624
219	0x3d39c0c9	0.04534987
220	0x3dae7c83	0.085198425
221	0xbd702107	-0.058625247
222	0x3dc30924	0.09523228
223	0xbcb706a2	-0.02234203
224	0xbda3c216	-0.07996003
225	0x3c737a79	0.014860743
226	0x3da34bc1	0.07973433
227	0xbcaa9c63	-0.020826524
228	0xbda53c0a	-0.08068092
229	0xbd8243e3	-0.063606046
230	0x3dc8741d	0.09787772
231	0x3d3d84e7	0.046269324
232	0xbc9b2e39	-0.01894294
233	0x3cab0470	0.02087614
234	0x3ca61543	0.02027381
235	0x3d19993b	0.037499648
236	0xbddfa233	-0.10919609
237	0xbdb22f15	-0.087003864
238	0x3de67098	0.11251944
239	0xbd506212	-0.050874777
240	0x3b616faf	0.0034398844
241	0xbdcc12ad	-0.099644996
242	0xbd915d7c	-0.07097909
243	0xbd369b33	-0.044581603
244	0x3d1a9bca	0.03774623
245	0x3d606ef1	0.054793302
246	0xbc46bde5	-0.012130235
247	0xbd22dc95	-0.039761145
248	0x3da0bb41	0.07848216
249	0xbd7361e9	-0.059419546
250	0xbd87db8e	-0.066336736
251	0xbc5767f8	-0.013147347
252	0x3df04f89	0.1173392
253	0x3db1e7de	0.08686803
254	0x3d83411f	0.06408905
255	0xbc95f9e5	-0.018307636

q_policy.bias f4 [64]
0	0xbdf160b4	-0.11786023
1	0xbdfd8e10	-0.12380612
2	0x3bf05a1e	0.0073349616
3	0x3ae921d7	0.0017786574
4	0xbdfd8fbd	-0.123809315
5	0x3d6b402a	0.05743424
6	0xbde4ec1d	-0.111778475
7	0xbdd1706f	-0.10226523
8	0xbc4f9b1d	-0.012671259
9	0xbcdea9ce	-0.027180579
10	0x3c2492b0	0.010044739
11	0x3aab7206	0.0013080246
12	0x3cab776b	0.020930966
13	0x3bae3b12	0.0053171003
14	0x3d69b2c2	0.057055242
15	0xbe03efb9	-0.12884416
16	0x3e03a2ff	0.12855147
17	0xbc29c277	-0.010361305
18	0xbdb9a053	-0.090637825
19	0xbaaf5b20	-0.0013378598
20	0xbd8f2746	-0.06989913
21	0x3d35690a	0.044289626
22	0x3da2d324	0.07950428
23	0x3ce753f5	0.028238276
24	0xbe04aed9	-0.12957324
25	0xbdc57bd4	-0.09642759
26	0x3c890c9d	0.016729647
27	0xbdfbab45	-0.122885264
28	0x3d9ef2e0	0.077611685
29	0x3d2d170e	0.042258315
30	0xbcedcee4	-0.029029317
31	0x3d5992e2	0.053118594
32	0x3df74f28	0.12075645
33	0x3dac0560	0.08399463
34	0xbd917ca3	-0.07103851
35	0x3d050ffc	0.032485947
36	0x3dabd71c	0.08390638
37	0xbc55e7b1	-0.013055728
38	0xbd9928d8	-0.074784935
39	0xbc91bc2d	-0.017789925
40	0xbde1d4b9	-0.11026902
41	0xbe0f6af7	-0.14005648
42	0x3cd90cee	0.026495423
43	0xbda8ff03	-0.082517646
44	0xbdc64949	-0.09681947
45	0x3b30ded0	0.0026988275
46	0xbdeeb0cd	-0.11654816
47	0x3d902cd8	0.07039803
48	0xbcb0fe2a	-0.02160557
49	0x3e142266	0.14466247
50	0xbdbdabcd	-0.09261284
51	0xbccb83fc	-0.024843208
52	0xbe103cfe	-0.14085767
53	0x3c9c8c20	0.019109786
54	0x3cec6c17	0.028860135
55	0xbd67562f	-0.056478675
56	0xbd9b9fa6	-0.0759881
57	0xbdef2326	-0.11676626
58	0x3c72ec66	0.01482687
59	0x3d403925	0.046929497
60	0x3d87daae	0.06633507
61	0xbdf1b1a4	-0.118014604
62	0x3cc61cb3	0.024183607
63	0xbd804df8	-0.06264871

embed.embedding_net.lin1_1.weight f4 [32, 4]
0	0x3e8cd449	0.2750571
1	0x3e1236e4	0.14278752
2	0xbb40e1e5	-0.0029431519
3	0x3b8174fd	0.0039507137
4	0x3e329e8d	0.17443295
5	0x3eb73e0f	0.35789534
6	0xbef3a246	-0.47584742
7	0x3e83a3ac	0.2571081
8	0x3ec11040	0.3770771
9	0x3dafe6a1	0.08588911
10	0xbe0995de	-0.13436076
11	0xbec0c653	-0.3765131
12	0xbe84efc9	-0.25964192
13	0x3c4725d4	0.012155015
14	0xbe47b630	-0.19503093
15	0x3e3fa890	0.18716645
16	0x3edd5590	0.43229342
17	0x3e8f5827	0.27996942
18	0x3e117398	0.14204252
19	0x3e811cbe	0.2521724
20	0xbe9b4856	-0.30328625
21	0xbc867a0f	-0.016415624
22	0xbe149c90	-0.14512849
23	0x3e5ee2be	0.21766183
24	0xbe4f5546	-0.20247373
25	0x3cd6cde9	0.026221232
26	0xbe0db09c	-0.13836902
27	0x3d062771	0.032752458
28	0x3d0b8dbb	0.03407071
29	0xbdcac321	-0.09900499
30	0x3c7967f5	0.015222539
31	0xbe91485e	-0.28375524
32	0xbece1ddc	-0.40257156
33	0x3eaa60e0	0.33277035
34	0x3e8d3600	0.2758026
35	0x3e9d23aa	0.30691272
36	0x3e793979	0.2433833
37	0x3e24d863	0.1609817
38	0xbc055ef6	-0.008140316
39	0xbedc5722	-0.43035227
40	0xbe955818	-0.29168773
41	0xbe97ed3d	-0.29673186
42	0xbc5a6ec4	-0.013332073
43	0x3eaf7782	0.34270865
44	0x3edb1951	0.42792752
45	0xbeea1721	-0.4572077
46	0x3ef641bb	0.48097023
47	0x3e2595ed	0.16170473
48	0xbe2b6c55	-0.16740544
49	0xbe270a03	-0.16312413
50	0xbde906c9	-0.11378247
51	0x3eef5cdf	0.46750543
52	0xbef0e8b7	-0.47052547
53	0xbc22f2e9	-0.00994561
54	0x3dbd7429	0.092506714
55	0x3eab31ad	0.33436337
56	0x3e87ad21	0.26499274
57	0xbe8e6a2e	-0.27815384
58	0x3e0190c0	0.12652874
59	0xbd9bfbb2	-0.076163664
60	0x3ebe98e1	0.37226012
61	0x3ef96a76	0.48714036
62	0xbdb3121a	-0.08743687
63	0x3eddf889	0.4335368
64	0xbe08dfea	-0.13366666
65	0xbebfbc45	-0.37448326
66	0xbda21031	-0.079132445
67	0x3eb1ab50	0.34701014
68	0xbe514a58	-0.20438516
69	0xbeabe744	-0.3357488
70	0xbe6dda5b	-0.23227827
71	0x3e958c2a	0.292085
72	0x3e3e42a4	0.18580109
73	0xbec1022c	-0.3769697
74	0x3ef111da	0.47083932
75	0x3ec7d597	0.39030144
76	0xbeec0207	-0.46095297
77	0x3ec97ff5	0.39355436
78	0x3e8aa39d	0.27077952
79	0x3e546e84	0.20745283
80	0x3eb99f5c	0.36254394
81	0xbe429811	-0.19003321
82	0xbe092b9c	-0.13395542
83	0x3d84ee74	0.06490794
84	0xbec84be9	-0.39120415
85	0x3d926df3	0.071498774
86	0x3ec34901	0.38141635
87	0x3eab6968	0.33478856
88	0xbed33139	-0.4124849
89	0xbeb74959	-0.35798147
90	0xbe191be1	-0.14952041
91	0x3e94fe67	0.29100344
92	0x3d7e43e1	0.062076453
93	0x3ebd979b	0.37029728
94	0x3e54da9e	0.20786521
95	0x3ee34a51	0.44392636
96	0xbee6d068	-0.45080876
97	0xbdabd77a	-0.08390708
98	0xbdd20da0	-0.10256505
99	0x3ea3f384	0.32021725
100	0xbdc1f924	-0.09471348
101	0x3cf20c2c	0.02954682
102	0x3eb21947	0.3478491
103	0xbecaa825	-0.3958141
104	0xbe5d4c5c	-0.2161116
105	0x3ee19736	0.44060677
106	0xbe1f83fe	-0.15577695
107	0xbedc253b	-0.42997155
108	0x3e999dd2	0.3000322
109	0x3e01378f	0.1261885
110	0xbeb2e37c	-0.34939182
111	0xbea3bfd5	-0.31982294
112	0x3f005f51	0.5014544
113	0xbc8906e1	-0.016726913
114	0x3ef3bdf1	0.4760585
115	0xbdc5e4ff	-0.09662818
116	0xbe189dd7	-0.14903961
117	0x3ed1416c	0.40870225
118	0xbebb2085	-0.36548248
119	0x3d498c6c	0.049206182
120	0xbe65b4fd	-0.22432323
121	0x3ec16d64	0.3777877
122	0xbe62605e	-0.22107074
123	0xbda62f34	-0.08114472
124	0xbeedf5b2	-0.46476513
125	0x3e9cb168	0.306041
126	0x3e9d63c3	0.30740175
127	0xbe6b7421	-0.22993518

embed.embedding_net.lin1_1.bias f4 [32]
0	0xbe711300	-0.23542404
1	0xbb6a514e	-0.0035754028
2	0xbda59b84	-0.08086303
3	0xbef952f1	-0.48696092
4	0xbe6fcbc2	-0.23417571
5	0xbe93b99c	-0.28852546
6	0xbeaba8b2	-0.33527142
7	0x3dbca593	0.09211268
8	0x3dcaccdc	0.09902355
9	0xbeb7be4e	-0.35887378
10	0xbedfa93d	-0.43683806
11	0xbdb98ae2	-0.09059693
12	0xbe9dd47a	-0.3082617
13	0x3eece6bd	0.4626979
14	0xbeab4306	-0.33449572
15	0xbc6bcf27	-0.014392651
16	0xbe123e9e	-0.14281699
17	0x3e5059e6	0.20346794
18	0x3e669dc3	0.22521119
19	0xbec2dce7	-0.3805916
20	0xbedc0388	-0.42971444
21	0x3eb632f3	0.35585746
22	0xbe5e18ff	-0.21689223
23	0x3c8cf3e4	0.01720614
24	0x3e3d1662	0.1846557
25	0xbea60bc2	-0.32430845
26	0xbdfc6393	-0.1232368
27	0x3ed51823	0.41619977
28	0xbe72fcf4	-0.23729306
29	0x3e9592b5	0.2921349
30	0x3e803f39	0.25048235
31	0xbebf1f90	-0.37328768

embed.embedding_net.bn1_1.weight f4 [32]
0	0x3f7ec230	0.99515057
1	0x3f7d5fe2	0.9897443
2	0x3f7fd471	0.99933535
3	0x3f80c1d4	1.0059152
4	0x3f811369	1.0084049
5	0x3f7f1cb9	0.996532
6	0x3f7f79c0	0.9979515
7	0x3f806f40	1.0033951
8	0x3f7e9a74	0.99454427
9	0x3f81c524	1.0138288
10	0x3f808a1d	1.0042149
11	0x3f7fb20a	0.9988104
12	0x3f804d9e	1.0023687
13	0x3f7f54ec	0.99738955
14	0x3f836c3d	1.0267407
15	0x3f7cb1aa	0.98708594
16	0x3f800b49	1.0003444
17	0x3f8065ef	1.0031108
18	0x3f7f38a7	0.9969582
19	0x3f7e1379	0.9924846
20	0x3f81be62	1.0136225
21	0x3f7e48f8	0.9933009
22	0x3f818a7d	1.0120388
23	0x3f7e3991	0.9930659
24	0x3f7f0301	0.9961396
25	0x3f804924	1.0022321
26	0x3f7b2ba3	0.9811346
27	0x3f8320ee	1.0244424
28	0x3f80cd8f	1.0062732
29	0x3f7d2425	0.9888328
30	0x3f7dc40d	0.99127275
31	0x3f807d78	1.003829

embed.embedding_net.bn1_1.bias f4 [32]
0	0xbc191596	-0.009343525
1	0xbb42008a	-0.0029602372
2	0xbb05e69a	-0.0020431639
3	0xbbb0f1d3	-0.0053999214
4	0xbba6bbc1	-0.0050883
5	0x3a68da0a	0.0008882588
6	0xbc0db428	-0.00864891
7	0xbbe92f20	-0.0071162134
8	0xbb0512b3	-0.0020305335
9	0x3ad87255	0.0016513566
10	0xbc847910	-0.016171008
11	0xbb652536	-0.0034964806
12	0xbc13899f	-0.009004979
13	0x3c230e1a	0.009952093
14	0x3c29b6a8	0.01035849
15	0xba323715	-0.0006798369
16	0x3b5f4943	0.0034070767
17	0x3bb55da3	0.005534844
18	0x3a6d9c8d	0.00090641604
19	0x3ad0a051	0.0015916919
20	0x3bf055ca	0.0073344456
21	0x3bf7fb08	0.007567767
22	0xba3d4b0d	-0.0007220961
23	0x3b437445	0.002982394
24	0xbbf5371d	-0.0074833767
25	0x3bc06fca	0.0058727013
26	0xbb8f86c8	-0.004380081
27	0x3c5a549d	0.013325837
28	0x3b901afd	0.0043977485
29	0x39d18fe8	0.00039970805
30	0xbad03a52	-0.0015886521
31	0x3b97d2cd	0.0046332837

embed.embedding_net.bn1_1.running_mean f4 [32]
0	0xbc2ba12e	-0.01047544
1	0x3f37f025	0.71850806
2	0xbfe120fe	-1.7588193
3	0xbd53daf2	-0.051722474
4	0x3fbd0eb6	1.4770114
5	0x3ea4ffc1	0.32226375
6	0xbef52f8f	-0.47887847
7	0xbf9a262a	-1.2042897
8	0x3fef2935	1.868445
9	0xc007c64d	-2.1214783
10	0x3f4dc193	0.80373496
11	0x3fac4dc4	1.3461232
12	0x3fbd383e	1.4782789
13	0x3ff03b78	1.8768148
14	0xbefefe38	-0.4980333
15	0x40101498	2.251257
16	0x3f87c315	1.0606409
17	0x3f69dbdb	0.913511
18	0x402696b3	2.602948
19	0x3f6e5e52	0.9311267
20	0xbe7f8fd3	-0.24957208
21	0x40122371	2.2834132
22	0x3efd646b	0.49490675
23	0x40239d01	2.5564578
24	0x3f9bbef7	1.2167653
25	0xbfd116d1	-1.6335088
26	0xc00c806d	-2.1953385
27	0xbfabdffd	-1.3427731
28	0x3e8d8012	0.27636772
29	0x3dcca018	0.09991473
30	0xbebe6b4e	-0.37191242
31	0xbf84c016	-1.037112

embed.embedding_net.bn1_1.running_var f4 [32]
0	0x3c027444	0.00796229
1	0x3da11a5f	0.07866358
2	0x3e6af9b3	0.22946815
3	0x3c8cde8d	0.017195964
4	0x3e163044	0.1466685
5	0x3ccab325	0.024743626
6	0x3c4f0980	0.012636542
7	0x3d915e57	0.07098072
8	0x3e92534a	0.2857917
9	0x3e3ee87a	0.1864337
10	0x3df33b48	0.118765414
11	0x3eadccff	0.33945462
12	0x3e16c0f9	0.1472205
13	0x3e30ad6d	0.17253657
14	0x3c8753a9	0.016519384
15	0x3e262037	0.16223226
16	0x3dbfcdd3	0.0936543
17	0x3d271bc3	0.04079796
18	0x3f144e18	0.5793166
19	0x3e50e969	0.20401539
20	0x3c9f3b3f	0.01943743
21	0x3ecf2369	0.40456703
22	0x3d7bfdfa	0.061521508
23	0x3eb70aeb	0.35750517
24	0x3d9d2652	0.07673325
25	0x3d4fbccb	0.050717156
26	0x3e9c2f7b	0.30504975
27	0x3eb3e77d	0.3513755
28	0x3e0d73d7	0.1381372
29	0x3dc15104	0.09439281
30	0x3dac0121	0.08398653
31	0x3d4bba5c	0.049738273

embed.embedding_net.lin1_2.weight f4 [32, 32]
0	0xbe289fa5	-0.1646715
1	0x3da46f47	0.08029037
2	0x3da153ba	0.07877298
3	0xbca5a4e3	-0.020220226
4	0xbd5855c4	-0.052816167
5	0x3e272842	0.16323951
6	0xbe25825b	-0.16163008
7	0xbddce926	-0.10786657
8	0x3d1a2219	0.037630174
9	0xbdd5508b	-0.10415753
10	0xbda2ca66	-0.07948761
11	0x3dd26a6b	0.10274204
12	0x3d9f8494	0.07788959
13	0xbceed91c	-0.02915626
14	0x3df57bda	0.119865134
15	0x3bc6f843	0.0060720756
16	0xbd125526	-0.035725735
17	0xbd7358e1	-0.059410933
18	0xbdae24f6	-0.085031435
19	0x3e13cb50	0.14433026
20	0x3de3d918	0.11125392
21	0xbe103cfd	-0.14085765
22	0x3e2a0e44	0.16607004
23	0xbc667403	-0.014065745
24	0x3cc3ba1a	0.023892451
25	0x3d0ac207	0.033876445
26	0x3e30ea26	0.1727682
27	0xbd3fdf32	-0.046843715
28	0xbce0decc	-0.027449988
29	0xbd1fc591	-0.039006773
30	0x3d54c1b0	0.051942527
31	0xbe2293d4	-0.15876704
32	0xbcd30c8d	-0.02576282
33	0x3da49574	0.080363184
34	0x3e292c34	0.16520768
35	0xbe42ae89	-0.19011892
36	0xbe2f903d	-0.17144866
37	0x3e1c87ce	0.1528618
38	0x3cba7be4	0.022764154
39	0xbd281e25	-0.041044373
40	0x3d94fbfc	0.07274625
41	0xbdfffe4b	-0.124996744
42	0xbd8730c2	-0.06601097
43	0xbd4e37a6	-0.05034604
44	0x3d3ed1ef	0.046586927
45	0xbc64e5f4	-0.013970841
46	0xbd4e9e20	-0.05044377
47	0xbdb1528c	-0.08658323
48	0xbe10afd5	-0.14129575
49	0xbda94e95	-0.082669415
50	0xbddeeddb	-0.10885211
51	0x3dab7e09	0.08373649
52	0x3e2aa0eb	0.16662948
53	0xbdda84c2	-0.10669853
54	0x3d0e89c5	0.034799356
55	0xbda61f45	-0.08111433
56	0xbca15900	-0.019695759
57	0x3c93b636	0.01803122
58	0x3e1a8700	0.15090561
59	0x3e21a175	0.15784247
60	0xbd9a8c1d	-0.07546256
61	0x3e1386be	0.14406869
62	0x3d0918f9	0.03347108
63	0xbdaad0ca	-0.083406046
64	0x3d825f9d	0.06365893
65	0xbcd3ef87	-0.025871051
66	0xbe28611c	-0.16443294
67	0xbd33c2d3	-0.04388697
68	0x3e00d71e	0.1258206
69	0xbd6fe84d	-0.05857115
70	0xbd3cf678	-0.04613349
71	0xbc52e663	-0.012872311
72	0x3cf03c93	0.029325759
73	0xbd0a7e3f	-0.033811804
74	0x3e3109eb	0.1728894
75	0xbba9ecae	-0.005185685
76	0x3e28e71d	0.16494413
77	0x3e0b8c04	0.1362763
78	0xbdef361b	-0.11680242
79	0x3cc59595	0.024119178
80	0x3e14bd59	0.14525355
81	0x3c99cfd7	0.018775864
82	0x3ca36a68	0.0199482
83	0x3dc67127	0.09689551
84	0x3c4a752d	0.012357038
85	0x3da1a0ff	0.07892036
86	0x3db3a70d	0.08772097
87	0xbde0a3f3	-0.10968771
88	0x3e1e4997	0.1545776
89	0xbce24b26	-0.027623724
90	0x3e218c30	0.15776134
91	0xbda24808	-0.07923895
92	0xbdae55fa	-0.085124925
93	0xbbf5b20d	-0.007498032
94	0x3ce1eb07	0.02757789
95	0x3b1fca39	0.0024382009
96	0xbd763e1c	-0.060117826
97	0xbdc07b21	-0.09398485
98	0x3e08bacc	0.13352507
99	0xbda54f4a	-0.08071764
100	0xbd2d7832	-0.042350955
101	0xbd43d0ec	-0.047806665
102	0x3df5b7b4	0.11997929
103	0xbbc3eea3	-0.0059793754
104	0xbd4af624	-0.049551144
105	0x3e26a3a7	0.16273366
106	0x3d5ce0a3	0.053925168
107	0xbddea187	-0.10870653
108	0x3c3cd270	0.011524782
109	0xbdc8a4d7	-0.09797066
110	0x3dc92478	0.09821409
111	0xbd86ad01	-0.065759666
112	0xba888fa3	-0.0010418784
113	0xbdfbe521	-0.12299562
114	0xbda36be1	-0.07979561
115	0x3da4218d	0.08014212
116	0x3d963f0f	0.07336246
117	0xbe060591	-0.13088061
118	0x3e1fc2bd	0.1560163
119	0xbdd699ed	-0.10478578
120	0xbd21e8d3	-0.03952868
121	0x3e288082	0.16455272
122	0x3cb4576a	0.022014339
123	0x3cdfe550	0.027331024
124	0x3df50144	0.11963132
125	0xbdb19f3a	-0.08672948
126	0x3d9eff7b	0.07763573
127	0xbe25bcc5	-0.16185291
128	0xbe295aba	-0.16538516
129	0xbdff6980	-0.124712944
130	0x3e1f3b4c	0.15549964
131	0x3d97c7b3	0.074111365
132	0x3e05764c	0.13033408
133	0x3d9290fb	0.07156559
134	0x3e027317	0.12739216
135	0x3e17295b	0.1476187
136	0xbd927e72	-0.07153024
137	0x3dd32c8f	0.10311233
138	0x3de64acd	0.11244736
139	0x3d9de8e5	0.07710437
140	0x3d949eff	0.072568886
141	0xbe00eed6	-0.12591109
142	0xbd0b4887	-0.034004714
143	0xbd9c05bd	-0.07618282
144	0x3e292b40	0.16520405
145	0x3dbf90e8	0.093538105
146	0xbc3d1656	-0.01154097
147	0xbd8e90ab	-0.06961187
148	0xbb9820d2	-0.0046425844
149	0x3e3911c4	0.18073183
150	0x3e22606c	0.15857095
151	0xbe229706	-0.15877923
152	0xbca5cd15	-0.020239392
153	0xbe0d5524	-0.1380201
154	0xbd1f03c5	-0.038821954
155	0x3e2bbab5	0.16770442
156	0x3dcc2904	0.099687606
157	0xbe2385cd	-0.1596901
158	0xbd74b765	-0.05974521
159	0xbd85eebc	-0.065396756
160	0xbe1018a7	-0.14071904
161	0x3d24b3f5	0.040210683
162	0xbd8034f7	-0.06260102
163	0xbe1f1dc0	-0.15538692
164	0x3d34d9ad	0.044152904
165	0xbc6299e3	-0.013830635
166	0x3dfcb498	0.12339133
167	0xbd2b1e7b	-0.041777115
168	0x3d8fe0d6	0.07025306
169	0x3e167b58	0.1469549
170	0x3ca35e3b	0.019942394
171	0xbd8e8e2d	-0.06960712
172	0xbc1b2b52	-0.009470778
173	0xbdd68c41	-0.1047597
174	0x3bd4de1e	0.006496205
175	0xbd7ff1e5	-0.062486548
176	0x3e1b52c9	0.15168299
177	0xbe32dd1a	-0.17467156
178	0x3bea8235	0.007156635
179	0xbdb755cd	-0.08951912
180	0x3dd35343	0.10318615
181	0x3e1152e2	0.14191774
182	0x3d88436b	0.06653484
183	0x3d7a76f4	0.0611486
184	0xbe237483	-0.15962414
185	0x3dac219d	0.08404849
186	0x3c2e5248	0.010639735
187	0x3da3643b	0.07978102
188	0xbc23c2f7	-0.009995214
189	0xbd234b1f	-0.039866563
190	0x3d946dde	0.07247518
191	0xbe095c1d	-0.13414045
192	0x3c8c3430	0.017114729
193	0x3d2319b4	0.039819434
194	0xbca2bd72	-0.019865725
195	0x3e1377fb	0.14401238
196	0x3dca567b	0.09879776
197	0xbe28aa88	-0.16471303
198	0x3d81cc4b	0.06337794
199	0x3cbebe97	0.02328424
200	0xbbcc12d2	-0.0062278295
201	0xbe227e89	-0.15868582
202	0xbde9d56f	-0.11417662
203	0x3dcd4794	0.10023418
204	0xbceb5182	-0.02872539
205	0x3d913280	0.0708971
206	0xbe227ef3	-0.1586874
207	0x3dc7dbdc	0.09758732
208	0xbd99af3e	-0.07504128
209	0x3d18f81f	0.037346
210	0xbe197634	-0.14986497
211	0x3e0b2b58	0.13590753
212	0xbcb5ebf7	-0.022207243
213	0x3e00cb7d	0.12577625
214	0xbe2c6c25	-0.16838129
215	0xbe2c85c7	-0.16847907
216	0xbc7e2306	-0.01551128
217	0xbc7fb2e9	-0.01560662
218	0x3e27caa8	0.16385901
219	0x3d8638ae	0.065537795
220	0x3d6c96ca	0.05776099
221	0xbc7295ae	-0.014806194
222	0x3c2d6e7c	0.010585424
223	0xbc9a65b0	-0.018847317
224	0xbdb6a723	-0.089185975
225	0x3d2bd3f6	0.04195019
226	0x3dcfc164	0.10144308
227	0x3d075094	0.03303583
228	0xbdebea7b	-0.11519333
229	0xbe1282c0	-0.1430769
230	0x3daf379e	0.0855553
231	0xbd65d524	-0.05611147
232	0x3db6b78b	0.08921727
233	0xbcfa2474	-0.03053496
234	0xbd104cf8	-0.035229653
235	0xbe0916e2	-0.13387635
236	0x3da9c908	0.08290297
237	0x3dee0c51	0.11623443
238	0xbe35bc87	-0.17747699
239	0x3db11780	0.086470604
240	0xbcaf2693	-0.021380698
241	0xbdca0339	-0.09863896
242	0x3bf446e2	0.007454739
243	0xbdc0d903	-0.09416392
244	0x3d1e473e	0.03864216
245	0x3c8d8e48	0.017279759
246	0x3daab595	0.08335415
247	0x3d488943	0.048959028
248	0x3dcc5961	0.09977985
249	0xbd041251	-0.03224403
250	0x3e199e75	0.15001853
251	0x3d5d033a	0.053958155
252	0x3de436a8	0.11143237
253	0xbe1a6f8f	-0.15081619
254	0xbe073c6c	-0.13206643
255	0xbdfce27f	-0.12347888

embed.embedding_net.lin1_2.bias f4 [32]
0	0xbdd8986c	-0.10575947
1	0xbcdd71bf	-0.027031777
2	0x3d4d9711	0.050192896
3	0x3df218c7	0.11821132
4	0x3d82d40c	0.06388101
5	0xbb8fb4a2	-0.004385547
6	0xbdbde4dc	-0.09272167
7	0xbd9e197c	-0.077197045
8	0xbe212330	-0.15736079
9	0xbdda795f	-0.10667681
10	0xbcccdde4	-0.02500815
11	0x3e0cdb1b	0.13755457
12	0x3dcf1f84	0.10113433
13	0xbd86b8b8	-0.06578201
14	0x3dd80932	0.10548629
15	0x3e2d8fd5	0.16949399
16	0x3d7a611e	0.061127774
17	0x3d3f7c3a	0.04674933
18	0x3dbdc435	0.09265939
19	0xbcd66c6d	-0.026174748
20	0xbdcde38b	-0.10053166
21	0x3d946743	0.07246258
22	0x3d8ce6b0	0.06879938
23	0x3df41849	0.119186945
24	0x3cc3b9d6	0.023892324
25	0x3e3605cf	0.17775653
26	0x3e18f4fb	0.14937203
27	0xbd45ccd5	-0.048291046
28	0xbc13c419	-0.009018921
29	0x3c869f27	0.016433312
30	0x3dcbb095	0.0994579
31	0xbd0d6a86	-0.034525417

embed.embedding_net.conv1.nn.0.weight f4 [32, 32]
0	0xbdd0cb3d	-0.101950146
1	0x3d895313	0.06705298
2	0xbe127e26	-0.14305934
3	0xbdcb5b41	-0.09929515
4	0x3db4c276	0.08826153
5	0xbde59a4e	-0.11211072
6	0x3e0a5af8	0.13511264
7	0x3ddc6dea	0.10763152
8	0x3d81d550	0.06339514
9	0x3d993315	0.07480446
10	0x3e14ecf0	0.1454351
11	0xbdfc0f29	-0.12307579
12	0xbddd9a12	-0.10820402
13	0xbe0f27be	-0.13980004
14	0xbdf55279	-0.11978621
15	0xbcdf4c31	-0.02725801
16	0x3d9e9daf	0.077449195
17	0xbe306e57	-0.17229591
18	0xbd5bce5d	-0.0536636
19	0x3dd27688	0.10276514
20	0xbe1feb8c	-0.15617198
21	0xbdf46edc	-0.11935207
22	0x3d888071	0.06665123
23	0x3c7f7821	0.015592606
24	0x3d348f0a	0.044081725
25	0xbcadb937	-0.021206481
26	0x3dc885b5	0.097911276
27	0xbcd3aa63	-0.025838083
28	0x3e1e58ca	0.15463558
29	0x3ca11442	0.01966298
30	0xbe0f644e	-0.14003107
31	0xbdefa9ff	-0.11702346
32	0x3e1cdffe	0.15319821
33	0xbe1d7ce3	-0.15379672
34	0x3e2a7289	0.16645254
35	0xbdb3d91a	-0.08781643
36	0x3e043af9	0.12913121
37	0xbcaf005a	-0.021362472
38	0xbd52dd8a	-0.051480807
39	0x3d44c7d5	0.048042137
40	0xbdefe00f	-0.11712658
41	0x3e1a51a7	0.1507021
42	0xbd238422	-0.039920934
43	0x3ba99f4c	0.0051764604
44	0x3dd6713a	0.10470815
45	0xbce108bc	-0.027469985
46	0x3d99119a	0.0747406
47	0x3d90be24	0.070675164
48	0x3e2da055	0.16955693
49	0xbd71d7a2	-0.059043534
50	0xbe076b74	-0.13224584
51	0xbd154a54	-0.036447838
52	0xbd7855aa	-0.06062857
53	0xbd00503b	-0.031326514
54	0xbe19c957	-0.15018211
55	0xbdb2b7cd	-0.087264635
56	0x3e0971e5	0.13422354
57	0x3b58f9e6	0.0033107935
58	0x3dbf0d88	0.09328753
59	0x3d038e80	0.03211832
60	0xbc25e22b	-0.010124723
61	0x3d7d6d93	0.061872076
62	0x3e18694d	0.14883919
63	0xbdb97da2	-0.09057166
64	0x3e00274c	0.1251499
65	0xbcd2bc88	-0.025724664
66	0x3dc4d4bc	0.09610888
67	0x3e0f2b5c	0.13981384
68	0xbe14cf4b	-0.14532201
69	0xbde74bdd	-0.11293767
70	0xbbc14019	-0.0058975336
71	0xbc2c9d81	-0.010535599
72	0x3dfbaf6d	0.12289319
73	0x3e317c7a	0.1733264
74	0xbe06faf6	-0.13181672
75	0x3c03537a	0.008015508
76	0xbc214465	-0.009842967
77	0x3da782e5	0.08179263
78	0x3dd2abc2	0.102866665
79	0x3d8ce8fe	0.06880377
80	0x3e0a8560	0.13527441
81	0xbe0e5e09	-0.13903059
82	0xbdf20da8	-0.11819011
83	0xbd65a427	-0.05606475
84	0xbdd47fc1	-0.103759296
85	0xbcbe1ff1	-0.02320859
86	0xbdae6366	-0.085150525
87	0x3d9a8533	0.07544937
88	0x3dd5c27a	0.10437484
89	0x3d87ac82	0.066247
90	0xbd9bfd78	-0.07616705
91	0x3e1673a7	0.14692555
92	0xbe30c23c	-0.17261595
93	0x3c6f7ca9	0.014617124
94	0xbe03041a	-0.12794533
95	0xbdb2aedd	-0.08724759
96	0xbd48d594	-0.04903181
97	0x3d763a25	0.060114045
98	0xbe09dce2	-0.13463166
99	0x3d3cf877	0.046135392
100	0xbd63de22	-0.055631764
101	0xbb9ee57a	-0.004849133
102	0xbd249cbd	-0.04018854
103	0xbd48a3bf	-0.048984285
104	0xbd7f780b	-0.06237034
105	0x3e36e39d	0.17860265
106	0xbe2a515d	-0.166326
107	0xbe1cf8fe	-0.15329358
108	0x3e2f7561	0.1713462
109	0xbdd29140	-0.102816105
110	0xbc8d410f	-0.017242936
111	0x3e3bb62a	0.18331209
112	0xbd8f9211	-0.07010282
113	0x3de0a9e5	0.10969905
114	0x3e09acc2	0.13444808
115	0xbd0d1411	-0.034442965
116	0xbe0ff401	-0.14057924
117	0x3d88faed	0.06688485
118	0x3bdc9484	0.0067315716
119	0x3d32db4a	0.04366616
120	0x3d4ef09d	0.050522435
121	0x3e1a366e	0.15059826
122	0x3e30731d	0.17231412
123	0x3c86c21a	0.016449977
124	0x3e34e185	0.17664154
125	0xbced5612	-0.028971706
126	0x3d4ce7a5	0.0500256
127	0xbdddc1dc	-0.10827991
128	0xbdc4746a	-0.09592517
129	0xbdabe4f8	-0.08393282
130	0x3e19f88d	0.15036221
131	0x3ced1845	0.028942237
132	0xbded9b10	-0.116018414
133	0xbd8e870b	-0.06959351
134	0xbdfe765f	-0.12424921
135	0x3e168603	0.14699559
136	0xbe31e663	-0.17373042
137	0x3d81181a	0.06303425
138	0xbe1dda34	-0.15415269
139	0x3d8e29e3	0.06941583
140	0x3e050785	0.1299115
141	0xbe2079e5	-0.15671499
142	0xbb45462a	-0.0030101635
143	0x3ca25b87	0.019819034
144	0xbe29f05e	-0.16595599
145	0xbdcc5209	-0.099765845
146	0x3d5399e0	0.05166042
147	0x3d52c86f	0.05146068
148	0xbde6f002	-0.112762466
149	0x3e18889e	0.14895865
150	0x3e11e80b	0.14248674
151	0x3e1fa4a5	0.1559015
152	0xbd94f1c6	-0.07272677
153	0xbe082a96	-0.13297495
154	0xbdb3660a	-0.08759697
155	0xbe122b98	-0.14274442
156	0x3d6c21d6	0.057649456
157	0x3bef853a	0.007309583
158	0x3e113947	0.14182006
159	0xbd562d31	-0.05228919
160	0xbdb7a711	-0.08967412
161	0x3d912b2e	0.07088314
162	0x3dc7686f	0.09736716
163	0xbb816088	-0.003948275
164	0xbc1b0828	-0.009462394
165	0xbd8a4220	-0.067508936
166	0x3ca3ded4	0.020003714
167	0x3d2bc79f	0.04193842
168	0x3d299eab	0.041411083
169	0xbe20b15a	-0.15692654
170	0xbe03ff9b	-0.12890474
171	0xbdcf9ec4	-0.10137704
172	0x3b6f3680	0.003650099
173	0xbdd4c088	-0.10388285
174	0xbe124b6d	-0.14286585
175	0x3e33647a	0.17518798
176	0x3e0b7627	0.1361929
177	0x3d36b6c8	0.044607908
178	0x3c0c27b4	0.008554388
179	0xbdfdf07a	-0.12399383
180	0xbe238689	-0.1596929
181	0xbda6638a	-0.08124454
182	0xbe1cc5d6	-0.15309843
183	0x3e01a455	0.12660344
184	0x3e0ffd90	0.1406157
185	0xbd6d7f38	-0.057982653
186	0xbe30fef5	-0.17284758
187	0xbe36a1e5	-0.17835195
188	0x3e1d7fa1	0.15380718
189	0xbe1da43b	-0.1539468
190	0xbe0b783b	-0.13620083
191	0x3e2a88d9	0.16653766
192	0xbe2aca82	-0.16678813
193	0x3d6e4c05	0.058177967
194	0xbdd7b546	-0.10532622
195	0xbd5dbb50	-0.054133713
196	0xbe02740d	-0.12739582
197	0x3d54a87b	0.051918488
198	0x3d894787	0.06703096
199	0x3d36ffbf	0.044677492
200	0xbdc14fdc	-0.0943906
201	0xbe16c1ca	-0.14722362
202	0x3e05f97b	0.1308345
203	0xbdbf9922	-0.0935538
204	0xbe064230	-0.13111186
205	0x3e19d220	0.15021563
206	0x3e050149	0.12988771
207	0xbd40824b	-0.046999257
208	0xbe2fe82d	-0.17178412
209	0xbdf03dc3	-0.1173053
210	0x3e31786a	0.1733109
211	0xbe1ee484	-0.1551686
212	0xbd17d757	-0.0370706
213	0x3de68bdb	0.11257144
214	0x3dc8af7a	0.097990945
215	0xbd772b64	-0.060344115
216	0x3d56b4bc	0.052418455
217	0x3df5aa85	0.11995415
218	0x3cfca7fc	0.03084182
219	0xbd2478f0	-0.040154397
220	0x3ca7f37b	0.020501843
221	0x3dd3603b	0.10321089
222	0xbcb5b817	-0.022182507
223	0x3d904daf	0.07046067
224	0xbdc0eeba	-0.094205335
225	0xbe0fa8cb	-0.14029233
226	0x3d586356	0.05282911
227	0xbe246d00	-0.16057205
228	0x3d78f8b4	0.060784057
229	0xbe09b44a	-0.13447681
230	0xbe28bfc9	-0.1647941
231	0xbdbd727d	-0.092503525
232	0xbd05e571	-0.032689516
233	0x3d94cda5	0.07265786
234	0x3b1e804d	0.002418536
235	0xbc6c23bd	-0.014412818
236	0x3c18b9d2	0.009321647
237	0xbbf5a6bd	-0.0074966834
238	0x3da6ece1	0.0815065
239	0xbc1c4c7b	-0.009539719
240	0x3ce48a98	0.027898118
241	0x3e1d97cc	0.15389937
242	0xbca44a40	-0.020054936
243	0xbc8b84f5	-0.017031172
244	0x3d49893b	0.04920314
245	0xbdb46c5d	-0.08809731
246	0xbdadc5af	-0.08484971
247	0xbb42f1a5	-0.0029746082
248	0x3cdc69ad	0.026905859
249	0xbe1f626b	-0.15564887
250	0x3cb51fa3	0.022109812
251	0x3d4a734d	0.049426366
252	0x3d88e179	0.066836305
253	0x3da3583c	0.07975814
254	0xbd42c154	-0.047547653
255	0xbc91ebe7	-0.017812682

embed.embedding_net.conv1.nn.0.bias f4 [32]
0	0x3dd96fa8	0.10617
1	0xbe0a50b6	-0.13507351
2	0xbe12796b	-0.1430413
3	0xbcd14179	-0.025543915
4	0x3db34439	0.08753247
5	0xbce635a1	-0.028101744
6	0xbdb89464	-0.09012678
7	0x3d9fa9b9	0.07796044
8	0x3db4153a	0.08793111
9	0xbe1c3108	-0.15253079
10	0x3e14ce22	0.14531758
11	0xbe33df41	-0.17565633
12	0xbd6f26f1	-0.058386747
13	0xbe290bbd	-0.16508384
14	0xbe3516ce	-0.1768448
15	0x3cf18c54	0.029485859
16	0x3dc1d432	0.09464301
17	0xbda015cf	-0.0781666
18	0x3da00de8	0.078151524
19	0xbde2174e	-0.11039601
20	0xbdaa9f61	-0.0833118
21	0x3de77468	0.113014996
22	0xbd3a51f2	-0.045488305
23	0x3db38d6b	0.08767208
24	0x3e088852	0.13333252
25	0xbd6bcb9e	-0.05756723
26	0x3d8ee6f9	0.06977648
27	0x3d825106	0.0636311
28	0x3d5d6076	0.05404707
29	0x3dd7c58a	0.105357245
30	0x3d6bc971	0.057565156
31	0x3e262630	0.16225505

embed.embedding_net.conv1.nn.2.weight f4 [32, 32]
0	0xbdd858e4	-0.105638295
1	0xbc3d1e73	-0.011542904
2	0x3daa2e5e	0.08309625
3	0xbdde87f9	-0.108657785
4	0x3dee6f90	0.116423726
5	0xbcf5eae2	-0.030019227
6	0x3d8b6729	0.068067856
7	0x3e3d562d	0.18489905
8	0xbddc739f	-0.107642405
9	0x3c731fe7	0.014839149
10	0x3ce267fc	0.027637474
11	0xbddee102	-0.108827606
12	0xbd75ec99	-0.06004009
13	0xbdb59a86	-0.08867364
14	0xbd404ab4	-0.046946242
15	0x3c19a5c9	0.009377905
16	0xbdb110aa	-0.086457565
17	0x3d5d1d11	0.053982798
18	0xbdde2ab9	-0.108479924
19	0x3e26bd21	0.16283084
20	0xbe23f0d2	-0.16009834
21	0x3dfccb73	0.12343492
22	0xbd2651a2	-0.040605195
23	0xbd90e6dd	-0.07075284
24	0xbd1c4caa	-0.03815905
25	0xbd927e11	-0.071529515
26	0x3de785b1	0.113047965
27	0xbe144047	-0.14477645
28	0xbe38f311	-0.18061472
29	0x3dee6c3a	0.11641736
30	0xbd815f6e	-0.0631703
31	0xbcaa7962	-0.020809833
32	0xbb04a344	-0.0020238915
33	0xbda5fceb	-0.08104881
34	0x3e26e884	0.16299635
35	0x3dd5de45	0.10442785
36	0xbe007c55	-0.12547429
37	0x3e006b52	0.1254094
38	0xbe17e56c	-0.14833611
39	0xbdca70f5	-0.09884826
40	0x3e2bafa8	0.16766226
41	0xbe0bb430	-0.13642955
42	0x3d2e7088	0.042587787
43	0xbdd2527d	-0.1026964
44	0xbded4a81	-0.11586476
45	0x3dfaea57	0.12251728
46	0xbcc6dfb8	-0.0242766
47	0xbd0b1719	-0.033957575
48	0x3c9dcc50	0.019262463
49	0x3da528e9	0.080644436
50	0x3dad0e37	0.08449977
51	0xbdc87997	-0.097888164
52	0xbd9d1c32	-0.076713935
53	0x3e179dc6	0.1480628
54	0xbe2be1d6	-0.16785368
55	0x3de121d7	0.109927826
56	0xbde43529	-0.11142952
57	0xbd0b35f1	-0.03398699
58	0xbd2defd7	-0.042465057
59	0x3e486eb0	0.19573474
60	0xbe4332f8	-0.19062412
61	0xbe231ee9	-0.1592976
62	0x3e260334	0.1621216
63	0xbdd745a9	-0.105113335
64	0xbe238895	-0.1597007
65	0x3e308dbc	0.17241567
66	0xbda5738e	-0.08078681
67	0xbb36bfd3	-0.0027885332
68	0xbcb51f7c	-0.02210974
69	0xbd9ea189	-0.07745654
70	0x3e2f575e	0.17123172
71	0xbd6e1cb9	-0.05813286
72	0xbd8d735c	-0.06906769
73	0x3cf9d2ef	0.030496089
74	0x3d88b0f6	0.066743776
75	0x3c47c395	0.0121926265
76	0x3e082a24	0.13297325
77	0x3dd7d027	0.10537749
78	0x3da478cd	0.080308534
79	0xbdb38f55	-0.08767573
80	0x3cbf75a0	0.023371518
81	0x3d31953e	0.04335522
82	0xbde5f453	-0.11228242
83	0x3e0fdeb8	0.14049804
84	0x3d82d08c	0.063874334
85	0x3d73debd	0.05953859
86	0xbd35ac76	-0.044353925
87	0x3d4a84b9	0.04944298
88	0xbd4c9150	-0.04994327
89	0x3b6fc8b3	0.0036588132
90	0xbce255db	-0.02762883
91	0x3e0dc64a	0.13845173
92	0x3de73a37	0.112904005
93	0x3e399512	0.18123272
94	0xbe1c773e	-0.15279862
95	0x3da3cc56	0.07997958
96	0x3ca15b69	0.019696908
97	0xbe19f625	-0.15035303
98	0xbe1ecad9	-0.15507068
99	0x3d74dc2a	0.059780277
100	0x3dd6d25a	0.1048934
101	0x3e29e22d	0.16590185
102	0x3d7674db	0.060170036
103	0xbda07363	-0.07834508
104	0x3deacbdc	0.11464664
105	0x3d4cc7bf	0.04999518
106	0xbe39f145	-0.18158443
107	0xbe2ec356	-0.17066702
108	0xbdc7523a	-0.0973248
109	0xbdc1f208	-0.09469992
110	0x3d99c6f4	0.075086504
111	0xbe13be35	-0.14428027
112	0x3e1b32ee	0.15156147
113	0xbdce833c	-0.10083625
114	0xbd500427	-0.05078521
115	0x3cd3e608	0.025866523
116	0xbdf1b518	-0.11802119
117	0xbe10f82b	-0.14157169
118	0x3e1cff84	0.15331846
119	0xbdfa5439	-0.122230954
120	0xbc66513b	-0.014057453
121	0x3de66753	0.11250176
122	0xbd6d963e	-0.05800461
123	0x3d3998c4	0.045311704
124	0xbdd4b273	-0.10385599
125	0x3c8d1d19	0.017225789
126	0x3e0a1cd3	0.13487558
127	0x3e274e12	0.16338375
128	0x3e160b8f	0.14652847
129	0xbe2b02b1	-0.16700245
130	0xbe14e896	-0.1454185
131	0xbe1311fb	-0.14362328
132	0x3dd41722	0.10355975
133	0x3cac609b	0.021042159
134	0x3d691aa1	0.05691016
135	0xbe08776c	-0.13326806
136	0x3e08eada	0.13370839
137	0xbe151200	-0.14557648
138	0x3e3f3415	0.18672211
139	0xbe33af1b	-0.17547266
140	0xbd4798ae	-0.04872959
141	0x3e1d24ec	0.15346116
142	0x3e395c7e	0.18101689
143	0xbe13b6ac	-0.14425153
144	0xbe2be065	-0.16784818
145	0x3cbeb9ed	0.023282016
146	0x3e00b897	0.12570415
147	0x3d32734e	0.043566994
148	0xbe1272bf	-0.14301585
149	0x3e0edbf7	0.13951097
150	0x3b1a2dce	0.0023525837
151	0xbc743d2f	-0.014907165
152	0xbdad6264	-0.08466032
153	0xbe030077	-0.12793146
154	0x3d01d340	0.031695604
155	0x3d517679	0.051138375
156	0x3dd77c23	0.10521724
157	0xbd599727	-0.053122666
158	0x3dc9b29c	0.0984852
159	0xbdd7cc05	-0.105369605
160	0xbd01bb26	-0.03167262
161	0x3d49daeb	0.049281042
162	0x3e30897f	0.1723995
163	0x3e20c85f	0.15701436
164	0x3c5e0f21	0.013553412
165	0xbdf046c3	-0.11732247
166	0xbc73d324	-0.014881883
167	0x3db7430c	0.08948335
168	0xbde51a61	-0.11186672
169	0x3da4be22	0.080440775
170	0xbe15740b	-0.14595048
171	0x3dc54fcc	0.09634361
172	0x3e12e130	0.14343715
173	0xbd603bb9	-0.054744456
174	0xbcd6b866	-0.026210975
175	0xbe005a6f	-0.12534498
176	0xbd7aa4a3	-0.061192166
177	0xbd80339b	-0.06259843
178	0xbd980aff	-0.07423972
179	0xbc83fbb6	-0.016111236
180	0xbda7f790	-0.08201516
181	0xbcd52e0f	-0.026022939
182	0x3b14ddf7	0.002271531
183	0x3d92a50d	0.07160387
184	0x3e21850e	0.15773413
185	0xbd862584	-0.06550124
186	0xbc36b1b4	-0.011150766
187	0xbd6fb15a	-0.058518745
188	0x3d25151e	0.040303342
189	0x3dd027e3	0.10163858
190	0x3c01c52f	0.007920547
191	0x3da288c9	0.07936246
192	0xbd8fe254	-0.070255905
193	0x3d9c91de	0.076450095
194	0xbccc1777	-0.024913533
195	0xbe18bde9	-0.14916195
196	0x3de16fe8	0.110076725
197	0x3e32159a	0.17391053
198	0xbce72a92	-0.028218541
199	0x3cfdf962	0.031002704
200	0xbe0cb122	-0.13739446
201	0x3da79177	0.08182042
202	0xbd8d588b	-0.06901654
203	0x3e040009	0.12890638
204	0xbe3bf0c2	-0.1835356
205	0x3dc995ea	0.09843047
206	0x3d43ce21	0.047804
207	0x3d243e08	0.04009822
208	0xbd5d9d7a	-0.05410526
209	0x3d817767	0.06321602
210	0xbd9b00e4	-0.07568529
211	0x3de575cb	0.11204108
212	0xbd8fa33c	-0.07013556
213	0x3db2c25a	0.08728476
214	0x3dfd857b	0.12378975
215	0x3bc6000d	0.0060424865
216	0xbde6a59a	-0.11262055
217	0xbd5496dc	-0.051901683
218	0x3e068c7e	0.13139531
219	0xbdb6c0af	-0.0892347
220	0xbe17cf0e	-0.14825079
221	0x3e142426	0.14466915
222	0xbda03d37	-0.07824176
223	0x3de8cc64	0.113671094
224	0x3de592cb	0.11209639
225	0xbe3836e4	-0.17989689
226	0xbd647a8d	-0.055780936
227	0xbe155682	-0.14583781
228	0x3e2cae3a	0.16863337
229	0xbe0e2e12	-0.13884762
230	0x3d99b5f5	0.07505409
231	0xbe06b369	-0.13154377
232	0xba653a5c	-0.0008744353
233	0x3e3359c3	0.1751471
234	0xbe236df2	-0.1595991
235	0xbdfd128e	-0.12357055
236	0xbd683745	-0.056693334
237	0xbd191f85	-0.037383575
238	0x3df33afa	0.11876483
239	0x3c08f669	0.00835953
240	0xbe24ee34	-0.16106492
241	0x3c80ebb1	0.015737386
242	0x3dbe9aa7	0.09306841
243	0x3e0e9ab0	0.13926196
244	0xbdc91158	-0.09817761
245	0xbe23999a	-0.15976563
246	0x3d3ec3b6	0.046573363
247	0xbd2c643d	-0.042087782
248	0x3d8e0caf	0.06936013
249	0xbbe62125	-0.007022994
250	0xbc68e9e9	-0.014215925
251	0xbdacdeb7	-0.08440917
252	0x3d2824be	0.041050665
253	0xbd5fa344	-0.05459906
254	0x3e1f87c0	0.15579128
255	0xbdef4203	-0.116825126

embed.embedding_net.conv1.nn.2.bias f4 [32]
0	0xbd95e265	-0.07318572
1	0x3d746a00	0.059671402
2	0xbcbe430a	-0.023225326
3	0x3dfa1961	0.12211872
4	0xbcfada0e	-0.030621555
5	0x3e0bd781	0.13656427
6	0xbe189bf3	-0.1490324
7	0xbdae6442	-0.085152164
8	0xbdb6e3b0	-0.08930147
9	0xbdb0b897	-0.08628958
10	0xbd74b181	-0.059739593
11	0x3def8377	0.11694997
12	0xbe31bb67	-0.17356645
13	0x3e24344b	0.16035573
14	0x3dd8d194	0.10586849
15	0x3de5ff30	0.11230314
16	0x3db5f9b3	0.08885517
17	0xbe25f6b1	-0.16207387
18	0x3c26f51a	0.010190273
19	0x3d45b044	0.048263803
20	0x3d843b1e	0.06456588
21	0x3e07fb46	0.13279447
22	0x3e29efcd	0.16595383
23	0x3d4c90af	0.04994267
24	0x3e0e1315	0.13874467
25	0xbd8a58cf	-0.0675522
26	0xbda905f2	-0.08253087
27	0x3dfa68e3	0.12227037
28	0xbd6bc874	-0.057564214
29	0xbe168a47	-0.14701186
30	0x3d8a514a	0.06753786
31	0xbddf5b56	-0.10906093

embed.embedding_net.bn1.weight f4 [32]
0	0x3f806dd3	1.0033516
1	0x3f803791	1.0016958
2	0x3f7e724c	0.99393153
3	0x3f8178b3	1.011496
4	0x3f804fac	1.0024314
5	0x3f7ed85f	0.99548906
6	0x3f8006ce	1.0002077
7	0x3f8003df	1.0001181
8	0x3f805fb2	1.0029204
9	0x3f7ed747	0.9954724
10	0x3f821ba8	1.016469
11	0x3f7fa90b	0.99867314
12	0x3f818ac8	1.0120478
13	0x3f7e8427	0.994204
14	0x3f80e674	1.0070329
15	0x3f832c2f	1.0247859
16	0x3f7dcd16	0.9914106
17	0x3f80c6e8	1.0060701
18	0x3f7fd1e1	0.99929625
19	0x3f807251	1.0034887
20	0x3f80d45d	1.0064808
21	0x3f80617e	1.0029752
22	0x3f811f10	1.0087605
23	0x3f7dbe24	0.99118257
24	0x3f7da007	0.9907231
25	0x3f81219b	1.008838
26	0x3f80c886	1.0061195
27	0x3f7cd87c	0.9876783
28	0x3f7dc788	0.99132586
29	0x3f835678	1.0260763
30	0x3f80c792	1.0060904
31	0x3f7e46a8	0.9932656

embed.embedding_net.bn1.bias f4 [32]
0	0x3b854246	0.0040667383
1	0xbc04c416	-0.008103391
2	0xbc514c80	-0.012774587
3	0x3c43f3bb	0.011959965
4	0xbc62d9a3	-0.013845834
5	0xbb2d9f68	-0.0026492719
6	0xbb4542fc	-0.003009974
7	0xb8a85d79	-8.028275e-05
8	0xb93325ba	-0.00017084825
9	0xbbff0da8	-0.0077836104
10	0x3c567c38	0.0130911395
11	0xbca59b63	-0.020215696
12	0x3c3fc916	0.0117056575
13	0xbc0242f2	-0.007950531
14	0x3c113ce4	0.008864615
15	0x3c723361	0.0147827575
16	0xbbaed87f	-0.005335867
17	0x3a274c86	0.00063819473
18	0x3bde4d12	0.00678409
19	0xbc391fa9	-0.011299052
20	0x3b22d39e	0.0024845372
21	0xba529fb6	-0.0008034663
22	0x3c3e6253	0.011620122
23	0xbc45a449	-0.012063094
24	0xbba24afa	-0.0049527856
25	0x3af24d5e	0.0018486192
26	0x3b85393a	0.00406566
27	0xbcb496b6	-0.02204452
28	0x3bbc7aba	0.005751935
29	0x3c879867	0.016552163
30	0xbb8a9729	-0.0042294455
31	0x3b1e9383	0.002419681

embed.embedding_net.bn1.running_mean f4 [32]
0	0xbd59e628	-0.05319801
1	0x3b28f099	0.0025778173
2	0x3e06758c	0.13130778
3	0xbdaf5d49	-0.085627146
4	0x3cdad088	0.026710764
5	0x3e14a4fe	0.14516065
6	0xbe0ebab8	-0.13938415
7	0xbe823d2f	-0.25437304
8	0xbd706929	-0.05869404
9	0xbe19f634	-0.15035325
10	0xbe7f0028	-0.24902403
11	0x3e39f245	0.18158825
12	0xbe89fbdb	-0.26949963
13	0x3e78ddb5	0.24303325
14	0x3c61a006	0.013771063
15	0x3d96864d	0.073498346
16	0x3e2ab888	0.16671956
17	0xbe62d3e8	-0.22151148
18	0x3e771352	0.24128464
19	0x3e0ae527	0.13563977
20	0x3e1151b1	0.14191319
21	0x3e109bbb	0.14121906
22	0xbd132e52	-0.035932846
23	0x3dd99428	0.10623962
24	0x3df59a2a	0.11992295
25	0xbdfd9e85	-0.12383751
26	0xbe1cc399	-0.1530899
27	0x3cd6f790	0.026241094
28	0xbc6b8c99	-0.014376783
29	0xbd9191d5	-0.071078934
30	0x3e82566f	0.2545657
31	0xbca7ee81	-0.02049947
