trained_managers/30_150_5_MH_gin_32.pth (torch, 271880 bytes, 74 tensors)

key_policy.weight f4 [64, 32]
000000 1b 61 a1 3c 89 ac b0 3c 72 4c 32 3e 69 52 ef 3c
       0.019699624 0.021566646 0.17411974 0.0292141
000010 39 94 df bd f4 08 c2 bc fa 95 73 3d 36 af a6 3d
       -0.10916943 -0.02368591 0.0594692 0.081388876
000020 6b 4e 56 3c e8 3a 04 be 97 91 86 bd 33 f3 d8 bc
       0.01308022 -0.12913096 -0.06570738 -0.026483154
000030 cd 0e 17 3d e5 a8 aa 3d 6f 7b e3 bd b2 5a c2 3d
       0.03687935 0.08332995 -0.111075275 0.09489955
000040 2a b9 fa 3d 9d 55 19 3d a5 6f 50 bd 98 82 b2 bd
       0.122423485 0.037435163 -0.050887723 -0.08716315
000050 65 c8 03 be be 6c b2 bd c9 7b 2d bd 96 e9 d4 3d
       -0.12869413 -0.08712147 -0.04235438 0.103961155
000060 d9 c4 39 3d 12 85 42 bd a4 05 da bd 56 58 ed 3d
       0.045353744 -0.047490187 -0.10645607 0.11589114
000070 a6 b7 e0 bd 2d 84 21 bd 80 18 26 bb 00 3b 31 be
       -0.10972528 -0.039432693 -0.0025344193 -0.17307663
000080 42 c0 fe 3d 50 1e 0e be 0b c0 c0 3d de 43 90 3d
       0.12439014 -0.13878751 0.09411629 0.07044195
000090 0c 9d 7e bd 4c 04 b9 bd 90 b6 fd 3d 03 7c 98 bd
       -0.06216149 -0.09034023 0.12388337 -0.07445528
0000a0 8c 78 16 3e 32 88 00 3b 41 34 30 3e 3e 7b 04 3e
       0.14694422 0.0019612429 0.17207433 0.12937638
0000b0 9b c6 5a bd 75 34 f8 bc a2 2f 96 3c 92 fd da 3d
       -0.05341206 -0.030298451 0.01833326 0.10692896
0000c0 71 02 3f 3c 79 b3 a3 bd 6f d3 f8 bb 43 66 e6 bc
       0.011658297 -0.07993216 -0.007593564 -0.028124934
0000d0 76 71 24 3e 4d 4d 9e 3d 85 34 00 be 04 5f ec bd
       0.16058907 0.07729588 -0.12520035 -0.1154156
0000e0 a1 38 d6 bd 98 06 db 3d 99 50 37 3c b4 7a 6d bd
       -0.1046002 0.10694617 0.01118865 -0.057978347
0000f0 60 a3 47 3d 57 e5 e8 3d 2b b7 a3 ba a9 3b 87 3d
       0.04873979 0.11371868 -0.0012490501 0.06603176
000100 e8 6f c5 bc 9b 87 33 3d 1a cf fb 3d c7 7e 32 bd
       -0.024101213 0.043830495 0.12295361 -0.043577936
000110 f5 2b 89 bd 38 43 81 bd 23 85 76 3d 40 8d de bd
       -0.06697837 -0.06311649 0.060185563 -0.10866785
000120 30 07 1f 3e 80 9c b6 3d 93 54 1f be 91 2b a2 bd
       0.15530086 0.08916569 -0.15559606 -0.07918466
000130 c9 57 15 3e b4 ef 8f bd 34 52 3b be a2 58 ee 3d
       0.14584269 -0.070281416 -0.18293077 0.11637999
000140 1b ed 15 be 57 b0 57 bd 84 0c 4a bd 8d 4d bd bd
       -0.1464123 -0.052658405 -0.049328342 -0.09243307
000150 34 9a 27 3e 6b 0a a4 3d ae 2c 8c bd 9a 5b ed bc
       0.16367418 0.080097996 -0.068444595 -0.028974343
000160 bc 1c 69 bd bb 4e 4b bd 79 ff 86 3d 8f f1 27 bd
       -0.05691217 -0.04963563 0.06591696 -0.041001853
000170 28 8a 33 3d bf fd 35 bd 24 53 14 be c8 36 2e 3e
       0.043832928 -0.044431444 -0.1448484 0.17013085
000180 71 44 34 3e f5 35 c0 bd 4d 4d 7a bd 2d 13 df bd
       0.17604233 -0.093852915 -0.061108876 -0.10892329
000190 7f 68 cc 3d d4 82 ac 3d 0c cd 93 3d 6f 37 78 bd
       0.099808685 0.08423391 0.07216844 -0.06059974
0001a0 ef 5e 20 bb c7 56 f3 3d d8 8c 61 3d f4 86 23 3e
       -0.0024470647 0.11881786 0.05506596 0.1596945
0001b0 b7 e8 a7 3d db 9c fe bd 7b 39 14 be ae a2 f1 3d
       0.08198684 -0.124322616 -0.14475052 0.11798607
0001c0 b5 80 f4 bc 91 18 98 bd f8 b1 c0 3d 56 80 3a bd
       -0.029846529 -0.07426561 0.09408945 -0.045532547
0001d0 ad 6a f8 bd 52 77 a5 bd d1 0f 8a bc d1 78 7a bd
       -0.12129722 -0.08079399 -0.016853245 -0.061150376
0001e0 9c 97 ff 3c d8 93 2a bd ce b9 2b 3e 98 da 56 3d
       0.031200223 -0.0416449 0.16770098 0.05245456
0001f0 d2 a7 b3 bd 99 9a bd bd 61 18 9f bd b0 b6 ed 3d
       -0.087722436 -0.09258003 -0.07768322 0.116071105
000200 a0 ca 9d bd c7 a9 a1 3c ec 77 0f 3e 16 69 47 bd
       -0.07704663 0.019734276 0.1401059 -0.048684202
000210 00 40 65 bc d5 84 c2 bd 49 13 14 3e d2 ea 5c 3d
       -0.01399231 -0.09497992 0.14460482 0.05393488
000220 ab 8e 36 bc 40 ee 9c bd 04 b2 17 3e d2 f4 d0 3d
       -0.011142413 -0.0766263 0.14814001 0.10202946
000230 63 96 37 3d be c1 c8 3d 34 ec 1a 3e f9 55 73 3d
       0.044821154 0.098025784 0.15129167 0.05940816
000240 8c a6 1f be 17 39 9e bd a6 53 6d bd ed 90 3a 3e
       -0.15590876 -0.07725733 -0.0579411 0.18219347
000250 64 c7 a5 3d b0 53 c5 bd 0d 92 ab 3d 34 2c aa bd
       0.08094671 -0.09635103 0.08377466 -0.08309212
000260 8d 1d 39 3e 65 24 45 bd 54 c1 5a 3d c4 0f d9 3d
       0.18077679 -0.04813041 0.05340703 0.1059871
000270 93 8c ee 3d 69 5b 44 bd 88 c8 1a 3e af a3 a3 3c
       0.11647906 -0.047938738 0.15115559 0.019975511
000280 99 1b d5 bc a6 0d 32 be a1 f3 c0 3c 72 aa 14 3c
       -0.026014136 -0.17388019 0.023553671 0.00907384
000290 38 2e cc bc 7a e5 7b bd a7 96 27 3e ea 96 72 bd
       -0.024924383 -0.061498143 0.16366063 -0.059225954
0002a0 3e 58 a3 bd 1e 2a 68 bd 90 42 46 bd d5 ce f7 bd
       -0.07975815 -0.05668079 -0.048403323 -0.12099997
0002b0 a8 fd 2a 3e 75 3e 25 3e b2 15 f8 bd c6 c6 d6 bd
       0.16698325 0.16137107 -0.12113513 -0.10487132
0002c0 79 62 ee 3c 1c 2f 66 3d 4d 18 89 bd eb ba 2c be
       0.02909969 0.05619727 -0.06694088 -0.16868179
0002d0 cb e5 2e 3e 19 ff 50 bd 9a 9a 02 3e 0f c8 b8 bd
       0.17079847 -0.05102453 0.12754288 -0.09022533
0002e0 5c 11 8a bd 47 de 9f 3d d9 3a 2a 3c c6 4f 18 bd
       -0.06741592 0.07806068 0.010390007 -0.037185453
0002f0 2c 57 35 bd ad c9 e4 3d 86 a4 b1 3d be c7 db 3c
       -0.044272587 0.11171279 0.086739585 0.026828643
000300 2e 53 1d 3e 17 03 aa 3c ef 01 2b 3e 7d d8 f9 bb
       0.15363762 0.020753426 0.16699956 -0.0076246844
000310 1c eb 2c 3e 0d 61 26 3d f1 6c 02 be 87 2a 8e bd
       0.16886562 0.0406199 -0.1273687 -0.06941705
000320 26 8d 2c be 54 d3 9e 3d 15 ba b0 3d 87 f7 39 3e
       -0.16850719 0.077551514 0.08629242 0.1816083
000330 e7 10 e5 bd 4b 50 e5 bc 30 75 10 be 0b 97 da 3d
       -0.111848645 -0.027992388 -0.14107203 0.106733404
000340 cd af 89 bc ae 44 aa bd 79 7a 0a bd c3 b9 65 3d
       -0.016807461 -0.08313881 -0.033808205 0.05608536
000350 d5 ab 18 3e b2 1a 6f bd 54 d8 25 ba 56 df e2 bd
       0.14909299 -0.058375068 -0.0006326486 -0.11077754
000360 d7 24 5d 3d c4 4f d0 3c 24 bb 97 3d bd 78 ff 3d
       0.05399021 0.02542866 0.07408741 0.12474201
000370 76 a0 9c 3d 1f 05 10 3d 46 1a 1a be a9 39 83 bc
       0.07647793 0.035161134 -0.15049085 -0.016018705
000380 34 dd c4 bd c3 eb 60 3c 58 d6 be bd e8 9f 5e bb
       -0.09612504 0.013728085 -0.093182266 -0.0033969823
000390 76 d0 13 be 3f a8 e1 3d ae 89 b2 bd 55 e6 cc bd
       -0.1443499 0.110184185 -0.087176666 -0.1000487
0003a0 46 e1 2a 3e 5f ca 02 3d 2f bf 11 be 5a 31 e4 bd
       0.16687497 0.031931277 -0.14233087 -0.111422256
0003b0 b5 fd a5 bc 4f 6c 31 be f9 ce c1 3d e1 0b c3 3d
       -0.020262579 -0.17326473 0.09463305 0.0952375
0003c0 f8 ac 14 be ca a2 6f 3c 98 57 17 3e 02 0c b5 bd
       -0.14519107 0.014626214 0.14779508 -0.08840181
0003d0 6b 7b 26 be e9 84 6b bd f4 56 02 be 85 7d 0b 3d
       -0.16258018 -0.0574998 -0.12728482 0.03405525
0003e0 46 76 64 bd 71 8e 22 be da 7c f7 bd d1 5e 0b 3e
       -0.055776857 -0.1587465 -0.120843604 0.13610388
0003f0 92 9b 01 be 7e 10 67 3d 4c 21 9d bd ce 24 bd bd
       -0.12657002 0.056412213 -0.076723665 -0.092355356

key_policy.bias f4 [64]
000000 ea 17 54 bd 5a 89 2a bc a6 1a 01 be d4 da 34 3e
       -0.05178062 -0.010408724 -0.12607822 0.17661601
000010 53 fa 05 be d4 74 00 be 71 d0 e6 39 63 bb 70 3d
       -0.13083772 -0.12544566 0.0004402432 0.058772456
000020 06 20 98 3d 61 13 1c 3e 40 a7 bd 3d dd 96 24 be
       0.07427983 0.15241767 0.09260416 -0.16073175
000030 4a e9 ea bb 15 35 80 3d 9a 3a 83 bc bf 21 d9 3d
       -0.0071689235 0.062601246 -0.016019154 0.1060214
000040 ce 0d fd bd 12 a1 ac 3c f7 3e 7f bd 73 c3 27 bd
       -0.12356149 0.021072898 -0.062315907 -0.04095788
000050 82 e1 25 be a2 02 c3 3d b2 57 22 be e2 f5 a1 bc
       -0.16199306 0.095219865 -0.15853766 -0.019770566
000060 fe 7a 20 3d 98 d6 07 bc 2b 87 f7 3d 7e 91 2b 3d
       0.039179794 -0.008290909 0.12086328 0.0418868
000070 30 30 00 3e 4c 37 d7 bd b5 49 81 3d 4c 5a 19 bd
       0.12518382 -0.10508594 0.063128866 -0.03743963
000080 05 89 26 3e cc ef de bd b1 f3 29 3e 87 b2 ae bd
       0.16263206 -0.108855814 0.16596867 -0.08530145
000090 0e 2e 0f 3e 15 29 65 3d 15 57 ca 3d 2e 40 0c 3e
       0.13982412 0.055947382 0.09879891 0.13696358
0000a0 34 3c fa 3d 01 50 1e be d0 35 e1 3c 36 d9 01 bd
       0.12218514 -0.15460207 0.02749148 -0.03170129
0000b0 22 a9 12 3e c8 59 26 3e 9b 5b 09 3e b5 26 63 bd
       0.14322332 0.16245186 0.13413851 -0.055456836
0000c0 a5 c0 11 be 4b ef 92 3d 54 47 e0 bd b1 31 1d be
       -0.14233644 0.07174548 -0.10951105 -0.15350987
0000d0 7e 3e f8 3d b8 8b 01 3e 3b d2 8d bc b7 02 73 3d
       0.121212944 0.12650955 -0.01731216 0.05932876
0000e0 83 bb ab 3d 88 29 bc 3c 24 05 d1 bd 23 f3 6a bc
       0.083853744 0.022969022 -0.102060586 -0.014340195
0000f0 a5 71 fc 3d 18 16 65 3d e8 37 27 be 4b 07 40 bb
       0.123263635 0.055929273 -0.1632992 -0.0029301222

q_policy.weight f4 [64, 64]
000000 01 ad a8 bc 4d b1 83 3d b6 6f cc 3d ef 4b 71 bd
       -0.020590307 0.06430302 0.09982245 -0.058910307
000010 f5 54 3f 3d 56 01 fc bd d1 d2 eb 3d b2 44 d9 bd
       0.04671188 -0.12304942 0.115148194 -0.10608806
000020 28 ff fe bd 12 54 59 3d d0 70 06 be d5 cb f9 3d
       -0.12451011 0.05305869 -0.13128972 0.12197081
000030 a2 e5 ea bd 88 c3 19 3d 0e 3c 18 3d a1 d9 01 3e
       -0.1146958 0.03753999 0.037166648 0.12680675
000040 87 43 0f bd bc db d4 3d 9d 54 e6 bc 15 b2 8f bd
       -0.03497651 0.103934735 -0.028116519 -0.07016388
000050 2d 86 9b bd 1d 88 4b 3c 42 6f c7 3c ef cd 0a be
       -0.075939514 0.012422589 0.024345044 -0.1355512
000060 55 d8 41 bd 3c 58 1b bd 21 96 50 bd 2b 9a 81 bd
       -0.04732545 -0.037925944 -0.050924424 -0.06328233
000070 41 97 2b bd 10 fe 65 3d 84 e1 4c bd 4a fd 02 bc
       -0.041892294 0.056150496 -0.050019756 -0.007994959
000080 0b f1 06 be d0 e9 27 3d 85 ff b5 bd 21 52 c3 3c
       -0.13177888 0.040994465 -0.08886627 0.023842873
000090 b8 cf ec bd fe 2f 92 3d 88 22 d5 3d 30 9f 5b 3c
       -0.11563057 0.0713806 0.10406977 0.0134046525
0000a0 cc 44 46 3d 0d c9 05 bd 6a a6 d5 3d 6b a8 69 3d
       0.048405454 -0.03266244 0.104321316 0.05704538
0000b0 6e 7d ef bc 5e 65 d6 bd b1 c0 81 bd d1 ea 91 bd
       -0.029234614 -0.10468553 -0.06335581 -0.07124866
0000c0 8c 92 b1 3b db 8c ca 3d 23 30 66 bd 7f d4 15 3d
       0.005419081 0.09890147 -0.05619825 0.036579605
0000d0 a6 43 5d 3d b7 b5 8a 3d 4a c5 d8 3d 7d e8 a4 bd
       0.054019593 0.067729406 0.10584505 -0.08052156
0000e0 44 16 bd 3d 3e d6 a1 3d 66 6d 93 3d 77 7c 66 ba
       0.092327625 0.079021916 0.071986005 -0.00087923504
0000f0 cd f1 51 3d 93 ff 7c 3d 10 df dd 3d 66 75 dc bd
       0.05125599 0.061767172 0.108335614 -0.107645795
000100 5f 0e f0 3d 62 79 b9 3c 88 1c 7e bd 79 63 70 3c
       0.11721491 0.022640888 -0.06203893 0.014672154
000110 58 c5 39 3d 00 45 a6 bd 13 d4 30 bd 8f 89 4d 3d
       0.045354217 -0.081186295 -0.043171 0.050180014
000120 d5 d0 85 bd 31 19 85 bd 4e 08 c1 3c 93 e0 7a 3d
       -0.06533972 -0.064989455 0.02356353 0.061249327
000130 02 e5 e5 3d c5 e5 bd 3d 55 98 5a bc 1b f7 c4 3d
       0.112253204 0.09272341 -0.013341983 0.09617444
000140 e3 b0 9e bc 68 26 0e 3e 31 27 dc bc 06 37 8c 3d
       -0.019371456 0.13881838 -0.026874157 0.068464324
000150 67 93 bc bc 24 f8 d2 bc 98 60 44 3d 01 db 9b 3d
       -0.023019506 -0.025753088 0.04794368 0.07610131
000160 38 3a d3 bc 2c 11 68 3c cb f8 d8 bd 2f fb f4 3c
       -0.025784597 0.01416425 -0.105943285 0.02990493
000170 fe 19 40 bd c1 ed aa bc 4f 81 91 3d 75 b9 f8 bd
       -0.046899788 -0.020865323 0.07104742 -0.12144748
000180 81 d9 b4 bd 2e 74 ef 3d 29 8c 75 bd 93 48 99 3d
       -0.08830548 0.116920814 -0.05994812 0.074845456
000190 a3 cf 4c bd fa ec 9e bd de a7 8e 3d 18 14 a5 3c
       -0.050002705 -0.077600434 0.06965612 0.020151183
0001a0 64 3f 20 3d a2 ee 83 bd bb d8 4e bd a6 ad d0 3d
       0.039122954 -0.06442 -0.05049966 0.10189371
0001b0 d6 97 cb 3c 5e cd ff 3d e8 44 d0 bd a3 9d b7 3c
       0.024852674 0.124903426 -0.10169393 0.022414034
0001c0 81 2c 43 3c 74 4d 99 bd e4 f6 b1 3d 12 79 99 3d
       0.011912466 -0.07485476 0.08689669 0.074937955
0001d0 86 21 9d ba 78 44 9d bc 6d b3 2a 3b f6 96 93 bd
       -0.001198814 -0.019197688 0.0026046888 -0.07206528
0001e0 6d c0 97 3d 94 9d ba 3d 38 ba 95 bc 65 16 a2 bd
       0.07409749 0.09112087 -0.018277273 -0.07914428
0001f0 c4 0f fa 3d 0b ef 88 3d 52 bb 2b bd dc 73 3d bb
       0.12210038 0.06686219 -0.04192669 -0.002890817
000200 0a 07 f4 3d 02 db 1a bd f7 ad e3 bc 0f 54 c6 bc
       0.11915405 -0.03780652 -0.027792914 -0.024210004
000210 cb 86 85 bd c8 fe ce bc 70 d5 e4 3b ea db be bd
       -0.0651985 -0.025267974 0.0069834515 -0.09319289
000220 26 a6 ff 3d e3 09 0b 3d 4b 6c ab 3d 0c 33 d8 bd
       0.12482862 0.033944976 0.083702646 -0.105566114
000230 38 20 d9 bd 0f 00 93 3d 2c 14 db bd 14 b6 14 3d
       -0.10601848 0.071777456 -0.10697207 0.036306456
000240 9f ed 24 bd c3 81 d9 bc 4a 62 de 3d fe ed d9 bb
       -0.040265676 -0.026551133 0.10858591 -0.0066506853
000250 cc 40 76 3d 1d 2c 57 3d a5 f6 0d be c7 37 8e bc
       0.06012039 0.052532304 -0.13863619 -0.017360581
000260 bf 7c bb bd eb e1 95 3d f5 47 84 bd 4b 76 e7 3d
       -0.09154653 0.07318481 -0.06459037 0.113018595
000270 57 43 e6 3d d4 47 d2 3d 8e da d6 3d 9c 6a 90 3d
       0.11243313 0.102676064 0.10490905 0.07051584
000280 84 a8 dd 3d 14 2f 21 bc 11 46 a8 bc 36 d7 11 be
       0.108231574 -0.009837884 -0.020541223 -0.14242253
000290 ee fd 96 bd 24 f1 83 bd 99 b1 b9 bd 4c 1f c4 3d
       -0.07372652 -0.06442478 -0.09067077 0.09576282
0002a0 da c4 86 3d 73 dd 95 3d b4 3f 44 bd 2c 4b 2d bd
       0.06580515 0.07317629 -0.047912315 -0.042308018
0002b0 70 32 c4 3d e7 b2 7f 3d 69 f7 5a 3c 98 d7 c8 3b
       0.09579933 0.062426474 0.013364651 0.0061292164
0002c0 83 42 ce bd 7e bd e4 bd 8a 5b df bd 5a 68 98 3d
       -0.1007128 -0.11168955 -0.109061316 0.074417785
0002d0 f0 a4 66 bd d5 70 b2 bd 23 03 d1 3d 70 31 94 bd
       -0.05630964 -0.08712927 0.102056764 -0.07235992
0002e0 83 91 d5 3d 15 48 b2 3d 76 31 da 3d fd b0 cb 3c
       0.10428145 0.08705155 0.10653965 0.024864668
0002f0 2d 15 48 bd 19 6f b9 bd 99 90 81 bd dc 05 cc 3d
       -0.04884832 -0.09054393 -0.06326408 0.09962055
000300 b7 35 47 bd f6 62 a0 bd 29 4f 1a 3d f3 64 c0 bd
       -0.04863521 -0.07831375 0.03767315 -0.093942545
000310 e9 72 42 3c d4 57 1a 3d 84 9a a0 bd 5a 1e 9b bb
       0.011868217 0.037681416 -0.078419715 -0.004733843
000320 6d 99 b7 3d f1 44 47 3c c3 ba da bd ad 9e 78 bd
       0.089648105 0.012162433 -0.10680153 -0.0606982
000330 10 b9 b1 3d be 14 d7 bd c1 27 9e 3c 91 32 dc bc
       0.08677876 -0.10502003 0.019306066 -0.02687958
000340 02 e8 c0 3d 58 ac 8f 3d 0c 82 4b 3d 09 a9 6a bc
       0.09419252 0.07015294 0.04968457 -0.014322528
000350 4d e0 91 bd 5c d3 c7 bd c2 8f ef bd 6f 88 9a 3c
       -0.0712286 -0.097571105 -0.116973415 0.018863885
000360 aa e3 49 3d ef 21 8c bd 63 cc 06 bd 28 1f 3b 3d
       0.049289383 -0.0684241 -0.032909762 0.04568401
000370 e1 70 c3 3d df 5e 89 bd 76 cf ed 3d 29 4b 8a bc
       0.09543014 -0.06707548 0.11611836 -0.016881542
000380 dc c7 9d bd 0c b2 b6 3a 93 96 b7 3d b9 e6 f2 bc
       -0.07704136 0.001393856 0.08964267 -0.029651033
000390 c7 86 cc bd 77 45 7a bd 8a ce 94 3d 41 7d 39 3d
       -0.09986644 -0.061101403 0.07265957 0.045285467
0003a0 25 88 15 bc b0 25 2e bb 46 d0 51 3b 6c 6b 80 3d
       -0.009126698 -0.0026572756 0.003201501 0.06270489
0003b0 84 4c e5 bd a5 40 a7 bd 88 89 ca 3d f3 12 30 bd
       -0.11196235 -0.08166627 0.09889513 -0.04298682
0003c0 73 b8 34 3c d3 76 e0 bd f4 63 a0 bd ed 0f 30 bd
       0.011030304 -0.10960164 -0.078315645 -0.042983938
0003d0 e9 ab 63 3d 46 78 89 3d ab 72 7d bc ee a9 10 bd
       0.05558387 0.067123935 -0.0154692335 -0.035318308
0003e0 74 dd a7 3d 79 a9 8d bd 7a e8 87 bd 9e 6a bf 3b
       0.08196536 -0.0691709 -0.06636138 0.005841567
0003f0 e2 7c 02 3e 9c 4e d4 3d 99 28 a3 3d 79 4f bc bb
       0.12742952 0.10366556 0.07966728 -0.0057467786

q_policy.bias f4 [64]
000000 66 18 cc bd 8f 8a f3 bd 91 4f 64 3c 9b 88 1d bb
       -0.09965591 -0.11891662 0.013934986 -0.0024037722
000010 9b ec 09 be 6a 12 08 3d 08 b9 01 be 91 54 a6 bd
       -0.13469164 0.033220686 -0.1266824 -0.081215985
000020 55 a5 85 3c 10 f2 55 bd 26 d7 0b 3b c2 ec 44 bc
       0.016314188 -0.052232802 0.0021337955 -0.012019338
000030 28 66 27 3d c3 a7 6f 3a c1 66 34 3d 1a 99 25 be
       0.04086891 0.0009142125 0.044043306 -0.16171685
000040 e2 67 05 3e dd cc ff bb 19 55 81 bd 0c cc d7 3b
       0.1302791 -0.007806404 -0.06315059 0.0065856036
000050 48 91 4b bd b5 3c f2 3c ac b0 c8 3d 95 2b 33 ba
       -0.049699098 0.029569963 0.097993225 -0.00068348023
000060 d8 06 07 be 95 7b e3 bd 38 0c 2f 39 6e e0 1f be
       -0.13186204 -0.11107556 0.00016693852 -0.15612957
000070 ce 4a cf 3d 2d b8 4c 3d a1 18 67 bb 2f cd 02 3d
       0.1012169 0.04998033 -0.0035262483 0.03193396
000080 1c 84 08 3e 29 6d 93 3d 31 68 9c bd 50 2a 47 3d
       0.13331646 0.07198555 -0.076370604 0.048624337
000090 99 63 91 3d 12 57 4f bd c2 dc a8 bd 97 37 a8 bc
       0.07099075 -0.050620146 -0.08245231 -0.02053432
0000a0 f4 76 04 be b7 9b 02 be 57 39 9f 3d 8b 8c 95 bd
       -0.12936002 -0.12754713 0.077746086 -0.07302197
0000b0 ca 41 96 bd 77 9a 20 bc 7b 37 c9 bd 36 6f 96 3d
       -0.07336767 -0.009802452 -0.09825035 0.073454306
0000c0 fd 1c 58 bd 1b 57 e3 3d 66 fc a1 bd 83 49 99 bc
       -0.05276202 0.111005984 -0.07909469 -0.018711811
0000d0 40 c2 08 be 0c 44 03 3c 35 ea ce 3c 8f d4 8c bd
       -0.1335535 0.008011829 0.025258163 -0.0687648
0000e0 3a 0f a4 bd 6a f7 09 be a3 ee e5 3c 3b e1 10 3d
       -0.08010717 -0.13473287 0.028067892 0.035371047
0000f0 bc 73 8d 3d 75 cc 10 be e5 c0 68 3a 8b 8f 99 bd
       0.0690684 -0.14140494 0.0008878841 -0.07498082

embed.embedding_net.lin1_1.weight f4 [32, 4]
000000 e2 ea 86 3e 38 5f 1e 3e 88 81 ef 39 90 a6 9e 3b
       0.26351076 0.1546601 0.0004568214 0.004841633
000010 f9 45 35 3e a8 d4 b7 3e 74 94 fa be 40 4e 75 3e
       0.17702474 0.3590443 -0.48941386 0.23955631
000020 ab 12 c0 3e 7d a3 96 3d ad 20 06 be d8 12 c4 be
       0.37514243 0.07355402 -0.13098402 -0.38295627
000030 21 78 89 be 08 73 3f 3d 8c 5b 35 be 48 a8 4d 3e
       -0.26849464 0.04674056 -0.17710704 0.20083725
000040 1d e6 d6 3e 8d c8 95 3e 2c 32 10 3e 11 69 84 3e
       0.41972438 0.2925457 0.14081639 0.2586141
000050 86 43 9b be 0f 63 80 bc c2 d3 16 be fd f3 5c 3e
       -0.30324954 -0.015672235 -0.14729217 0.21577449
000060 52 47 6c be b5 2d 97 3b 26 7d e9 bd 0c cd 4a 3d
       -0.23074082 0.004613603 -0.11400823 0.049511954
000070 94 5d 1a 3d bd c2 d2 bd 67 20 9f 3c 7f 7c 8f be
       0.0376869 -0.1029105 0.01942463 -0.2802467
000080 01 51 ca be d7 88 ac 3e d3 de 8e 3e 3a 58 9d 3e
       -0.39514926 0.3369815 0.27904376 0.30731374
000090 5a 04 85 3e 85 46 15 3e b6 93 0a 3c cb 5c d8 be
       0.25979882 0.14577682 0.008458069 -0.42258295
0000a0 cb 5c 95 be a5 76 9c be e0 7d 8e bc f6 5b ac 3e
       -0.29172358 -0.3055927 -0.017394006 0.3366391
0000b0 9f a6 df 3e 2f 55 ee be 2f 9c eb 3e 80 d7 2d 3e
       0.4368181 -0.46549365 0.46017596 0.16976738
0000c0 03 66 3a be a6 7e 1b be b0 b9 e9 bd 56 a6 ee 3e
       -0.18202977 -0.15185031 -0.1141237 0.4661128
0000d0 1d 8d f2 be 82 45 fc bc 46 ee d6 3d 8b a1 a7 3e
       -0.47373286 -0.030794863 0.10494666 0.32740435
0000e0 08 24 88 3e 49 98 90 be 69 01 db 3d 07 1d c9 bd
       0.2658999 -0.28241184 0.10693628 -0.0981999
0000f0 58 d8 b4 3e e1 27 01 3f 55 65 a6 bd c9 25 de 3e
       0.35321307 0.50451475 -0.08124796 0.43388203
000100 81 e9 bc bd a0 76 c3 be 44 40 a8 bd 26 53 b3 3e
       -0.09224225 -0.3817644 -0.08215383 0.35024375
000110 1d b0 1b be b9 25 a4 be ef 74 59 be 65 e0 a5 3e
       -0.152039 -0.3206003 -0.21236013 0.32397762
000120 be 82 41 3e 57 72 cd be 42 4a ea 3e f0 91 c2 3e
       0.1889753 -0.40126297 0.4575978 0.38001966
000130 0b 3c e8 be 74 21 ce 3e 24 18 8b 3e 51 b3 53 3e
       -0.4535831 0.40259898 0.27166855 0.20673873
000140 5a 7e ad 3e 7d a3 58 be 38 8d 12 be e1 f9 51 3d
       0.3388546 -0.21156116 -0.14311683 0.051263694
000150 b0 76 c1 be fc 86 46 3d 8e 4e d0 3e 12 b9 ab 3e
       -0.37785864 0.048468575 0.40684932 0.33539635
000160 7a b0 d2 be 10 5f bb be d2 dd 28 be 2b 01 8f 3e
       -0.41150266 -0.36595964 -0.16490868 0.2793058
000170 61 a4 50 3d 8b 3e bb 3e 77 f2 62 3e f2 5f e3 3e
       0.050938014 0.36571154 0.22162805 0.44409138
000180 6b 1d e4 be 3b 38 86 bd f1 7c bd bd 4b 00 aa 3e
       -0.44553694 -0.06553694 -0.09252346 0.3320335
000190 2a 01 05 be 80 87 a9 3c aa d3 bd 3e 1e 85 bd be
       -0.12988725 0.020694494 0.3707555 -0.37015623
0001a0 c1 48 77 be 0a ef dc 3e 48 9c 26 be a9 6d d9 be
       -0.24148847 0.43151122 -0.16270554 -0.42466477
0001b0 43 40 99 3e 37 ea c3 3d d9 bd b5 be ca 71 a9 be
       0.2993184 0.09566157 -0.35496405 -0.33094627
0001c0 67 73 ff 3e 0e c1 8d b8 15 a5 f4 3e eb 58 cb bd
       0.49892733 -6.759363e-05 0.47782198 -0.09929069
0001d0 4c e0 0f be 7c eb d8 3e d6 49 b5 be 15 4f 7d 3d
       -0.14050406 0.4236716 -0.35407895 0.061842997
0001e0 64 47 5d be c9 f1 c5 3e 5e 48 61 be 8e a2 a5 bd
       -0.21609265 0.3866103 -0.22000262 -0.080876455
0001f0 c6 f0 e6 be cc e7 a8 3e f1 6c 98 3e 14 19 75 be
       -0.4510557 0.32989347 0.29770616 -0.23935348

embed.embedding_net.lin1_1.bias f4 [32]
000000 22 77 68 be bd c8 94 3c 07 c6 7d bd 66 bc f4 be
       -0.22701696 0.018162126 -0.06195643 -0.47799987
000010 d8 4b 6b be 6f 62 90 be 5f 4d ae be c9 ca b8 3d
       -0.22978151 -0.282001 -0.34043404 0.09023053
000020 11 1a c3 3d a2 3d b4 be cd 79 e3 be 31 1d 86 bd
       0.09526456 -0.35203272 -0.44428864 -0.065485366
000030 c8 ae 96 be ec 48 de 3e ff 00 b6 be 77 bb d3 bc
       -0.29430223 0.4341501 -0.35547635 -0.025846226
000040 0a a6 21 be 24 77 54 3e 31 65 4d 3e e1 42 c1 be
       -0.15785995 0.20748574 0.20058133 -0.37746337
000050 ff 49 d8 be a8 22 b5 3e 34 78 5f be 5d 69 b1 3c
       -0.42243955 0.35378003 -0.21823198 0.021656686
000060 55 74 37 3e 2f 78 a4 be f5 c2 01 be 38 d6 d8 3e
       0.17915471 -0.32122943 -0.12672026 0.42350936
000070 73 bf 7a be 4d 86 89 3e 25 bb 80 3e 03 5f c8 be
       -0.24487095 0.26860276 0.2514278 -0.39134988

embed.embedding_net.bn1_1.weight f4 [32]
000000 2f 33 82 3f 34 8d 7e 3f 70 34 7d 3f 55 79 7f 3f
       1.017187 0.9943421 0.9890814 0.99794513
000010 8f ab 7c 3f b7 42 7f 3f ab 25 81 3f 8c 11 80 3f
       0.9869928 0.99711174 1.008962 1.0005355
000020 53 8d 7f 3f 41 79 7e 3f a4 21 7f 3f e5 71 7f 3f
       0.9982502 0.9940377 0.99660707 0.99783164
000030 9a ed 7e 3f 6b 58 80 3f 6d ba 81 3f 37 af 7f 3f
       0.995813 1.0026983 1.0135018 0.9987673
000040 5a 2a 81 3f 6a 3d 7d 3f 96 6a 7e 3f 3b 1d 80 3f
       1.009105 0.98921835 0.9938139 1.000892
000050 4e 3d 81 3f 64 0a 80 3f 1d 75 81 3f d7 a4 7f 3f
       1.0096834 1.0003171 1.0113865 0.998609
000060 c3 73 80 3f c6 56 81 3f 6a 62 7f 3f ca 20 80 3f
       1.0035328 1.0104606 0.9975954 1.0010006
000070 0a 19 7e 3f b6 e9 7f 3f 31 0b 80 3f e4 0d 80 3f
       0.99256957 0.9996599 1.0003415 1.0004239

embed.embedding_net.bn1_1.bias f4 [32]
000000 ed 86 6c 3c 24 42 f4 3b 47 6d 19 3b 75 a5 98 3b
       0.014436466 0.0074541736 0.0023411082 0.004658396
000010 51 72 4f bc d7 4a e3 b9 5e a8 84 ba 52 20 0b bb
       -0.0126615325 -0.00043352574 -0.0010120978 -0.0021228981
000020 2d 48 58 3b 18 52 9f bc 37 34 db 3a 4a 70 3d 3b
       0.0033002004 -0.019448325 0.0016723935 0.002890604
000030 78 c6 83 ba 32 39 ef ba 71 c9 01 3b 29 63 85 3c
       -0.0010053655 -0.0018251298 0.0019803906 0.016282635
000040 9b 48 58 3b 23 15 98 bb 6b 83 36 bb c0 a6 d1 bb
       0.003300226 -0.0046411916 -0.0027849327 -0.006398052
000050 4c 75 98 bb 82 b2 00 ba e5 09 b8 3b 02 c2 c6 ba
       -0.0046526548 -0.0004909412 0.005616414 -0.001516402
000060 a9 52 f7 3b fc c9 a4 ba 88 e6 09 3b 8f 06 59 bc
       0.0075476957 -0.0012572403 0.0021041948 -0.013246193
000070 53 7b dd ba fa 14 77 ba 7d b6 82 3b 30 72 8d 3b
       -0.0016897715 -0.0009425428 0.0039890395 0.0043165907

embed.embedding_net.bn1_1.running_mean f4 [32]
000000 10 07 b5 3b 6a 01 25 3f 5c 88 e2 bf cb 0d 72 3d
       0.0055245236 0.6445528 -1.7697864 0.059095185
000010 c1 20 c1 3f 0e b6 a2 3e 9d 6b cc be 13 d0 97 bf
       1.5088121 0.31779522 -0.39925852 -1.1860374
000020 3f 07 f0 3f 24 75 03 c0 83 0b 42 3f 35 fe af 3f
       1.8752211 -2.0540247 0.75798815 1.3749453
000030 51 cd bd 3f 94 4e e9 3f 03 a6 26 bf 25 ff 0f 40
       1.4828283 1.8227105 -0.65097064 2.2499478
000040 73 26 89 3f f3 e1 8f 3f a7 e2 1f 40 3c 43 70 3f
       1.0714859 1.1240829 2.4982088 0.9385259
000050 3c 15 ae be a7 24 14 40 de e4 d3 3e c0 b7 24 40
       -0.34000576 2.314737 0.4138555 2.5737152
000060 8a 5e a5 3f 4b 51 c0 bf 87 bb 0c c0 d4 77 b4 bf
       1.2919476 -1.5024809 -2.1989458 -1.4099069
000070 02 84 87 3e 5e d7 28 3e 1c af b7 be 51 ff 8b bf
       0.264679 0.16488406 -0.35875785 -1.0937291

embed.embedding_net.bn1_1.running_var f4 [32]
000000 20 ae fd 3b e2 8c b3 3d c5 d4 6e 3e 09 af 9b 3c
       0.0077417046 0.08767106 0.23323353 0.019004362
000010 43 ca 19 3e bf ae c6 3c ff 63 10 3c e0 a5 8b 3d
       0.15018563 0.024253247 0.008812903 0.068187475
000020 44 0b 94 3e b0 b0 2f 3e 46 d1 e9 3d 33 fd a8 3e
       0.28914845 0.17157245 0.11416869 0.33005676
000030 11 1a 16 3e 76 14 34 3e 3f 3b 81 3c eb a7 29 3e
       0.14658381 0.1758593 0.015775321 0.16567962
000040 17 08 c1 3d f8 7b 48 3d 84 5f 0d 3f 40 44 51 3e
       0.09425371 0.04894635 0.5522387 0.20436192
000050 d5 39 ad 3c a1 65 dd 3e 43 0a 65 3d d2 ed bd 3e
       0.02114574 0.432416 0.05591799 0.37095505
000060 0d 59 ae 3d aa 16 3c 3d 07 b7 9c 3e 7d 99 bd 3e
       0.08513079 0.04592005 0.3060839 0.37031165
000070 7a 0e 0d 3e 5a 43 ae 3d 63 18 ac 3d 8c 8f 48 3d
       0.13775054 0.0850894 0.08403089 0.048965022

embed.embedding_net.lin1_2.weight f4 [32, 32]
000000 7b 86 37 be 6a 59 7b 3d bf 32 8d 3d fe 82 08 bc
       -0.17922394 0.06136457 0.06894445 -0.008332012
000010 49 e9 70 bd 37 e9 2d 3e 29 62 19 be 85 35 e0 bd
       -0.058816228 0.16983496 -0.14978851 -0.10947708
000020 bf e7 38 3d 56 b8 ea bd 09 30 9d bd a6 9b ca 3d
       0.045142885 -0.114609405 -0.076751776 0.09892969
000030 31 48 9a 3d 61 c6 bc bc e8 e9 e3 3d 66 4f 94 ba
       0.07533301 -0.023043813 0.111285985 -0.0011315166
000040 57 e3 1c bd a1 67 59 bd bf 4d b3 bd 34 52 1e 3e
       -0.038302746 -0.053077344 -0.08755063 0.15461046
000050 ab db b7 3d 27 97 0b be 04 25 39 3e 82 b8 73 bc
       0.08977445 -0.13631879 0.18080527 -0.014875533
000060 17 c7 03 3d 25 56 55 3d 6e b6 2c 3e 90 61 61 bd
       0.03217229 0.052084107 0.16866466 -0.055024683
000070 16 fc 08 bd 92 1f 3f bd 41 96 47 3d ba 3a 16 be
       -0.033443533 -0.046660967 0.048727278 -0.1467084
000080 3e 3b f7 bc ce b8 84 3d f8 6d 1d 3e cf 78 2f be
       -0.030179616 0.06480561 0.15373981 -0.17135929
000090 66 bf 32 be d4 de 2b 3e 3f 5c 8d 3c 1e eb 45 bd
       -0.17455825 0.16784221 0.0172559 -0.04831993
0000a0 4f e1 a4 3d b4 1f 0d be 19 3d 8d bd 1d 92 7c bd
       0.08050787 -0.13781625 -0.06896419 -0.061662782
0000b0 3f 18 37 3d bf 7d 11 bc ea de 76 bd 4f 7e ad bd
       0.044700857 -0.008880078 -0.06027118 -0.08471357
0000c0 47 9d 19 be a1 5c ae bd 34 6a ed bd 45 a3 c0 3d
       -0.15001403 -0.08513761 -0.11592522 0.09406141
0000d0 43 57 23 3e 73 fd d3 bd 98 36 1b 3d 8f 09 a3 bd
       0.15951256 -0.10351076 0.03789386 -0.079608075
0000e0 c2 0d 3d bc 03 d2 8f 3c 78 f8 0b 3e 36 2e 16 3e
       -0.011538925 0.017556196 0.13669002 0.14666066
0000f0 bc 51 af bd fe a0 03 3e 8e d9 95 3c ea 15 89 bd
       -0.085605115 0.12854382 0.018292215 -0.06693633
000100 b0 db 4e 3d 56 49 ea bc e8 31 26 be 64 10 58 bd
       0.05050248 -0.028599422 -0.16229975 -0.052750006
000110 0c cf f4 3d 1f 88 76 bd 2b 8c 45 bd 7b 58 4c bc
       0.119535536 -0.06018841 -0.048229378 -0.012472267
000120 5e b7 e5 3c 6c 21 09 bd 1b c1 2e 3e 6f 07 09 bc
       0.028041538 -0.03347914 0.17065851 -0.008363589
000130 9c 66 27 3e 80 cc 0a 3e 29 4f f0 bd 27 b0 80 3c
       0.16347736 0.13554573 -0.117338486 0.015708996
000140 3f fc 13 3e 6e 6e 3c 3c a1 36 85 3c 83 4c c7 3d
       0.14451693 0.011500938 0.0162614 0.0973139
000150 6a 09 cd 3c ef 57 9a 3d 85 f2 a3 3d cf e9 e9 bd
       0.025028903 0.07536303 0.08005241 -0.114215486
000160 43 89 1d 3e 88 15 0a bd 69 51 1e 3e 17 9b a1 bd
       0.15384392 -0.03371194 0.15460743 -0.07890909
000170 3b 4b b8 bd 04 c0 2f bc 06 24 bc 3c f2 9a 4a bb
       -0.08998724 -0.010726932 0.022966396 -0.0030915109
000180 cb a4 8e bd 00 67 c0 bd d2 af ec 3d 2e 25 95 bd
       -0.069650255 -0.09394646 0.115569726 -0.07282482
000190 c4 01 3b bd 82 1c 12 bd e2 e0 e4 3d bf 2e ce bc
       -0.04565598 -0.03567172 0.111757055 -0.025168775
0001a0 fe e4 58 bd b8 66 14 3e 1d e7 44 3d 74 d7 00 be
       -0.05295276 0.14492309 0.04807197 -0.12582189
0001b0 bb bd 35 3c 39 4c ce bd 38 f4 80 3d 99 b0 6f bd
       0.011092599 -0.10073132 0.06296581 -0.058518026
0001c0 43 2e f9 bb 17 ce f7 bd 51 9e bd bd fa 23 9f 3d
       -0.007604392 -0.120998554 -0.09258712 0.07770534
0001d0 46 6d 6c 3d 89 b6 0d be 55 f8 1d 3e c2 20 dc bd
       0.0577214 -0.13839163 0.15426762 -0.107484356
0001e0 af ed 0f bd 3b d3 1b 3e 74 2a d1 3b 6f 34 12 3c
       -0.035138782 0.15217297 0.0063832346 0.008923634
0001f0 b8 4f d9 3d 87 de c5 bd 5d 9e 82 3d 19 15 28 be
       0.10610908 -0.09661584 0.06377862 -0.16414298
000200 81 30 36 be 4f 9d 0a be 70 53 10 3e 78 f9 85 3d
       -0.1779194 -0.13536571 0.14094329 0.06541723
000210 82 a2 02 3e 73 06 81 3d ed 99 f0 3d 6c f8 0a 3e
       0.12757304 0.06300058 0.11748109 0.13571328
000220 fa 37 a9 bd 9a 7f b3 3d 8a 2f e7 3d 69 87 ad 3d
       -0.0826263 0.087645724 0.11288364 0.08473093
000230 f8 f5 91 3d 70 c3 08 be b3 93 53 bc 35 64 ab bd
       0.07126993 -0.13355803 -0.012913632 -0.08368722
000240 0b 9c 30 3e c4 db cd 3d c5 b4 1a bc 2f 73 a8 bd
       0.17247026 0.100516826 -0.009442513 -0.082250945
000250 1e 65 b3 37 97 ab 30 3e 7f 4f 23 3e 10 e7 29 be
       2.138555e-05 0.17252956 0.15948294 -0.1659205
000260 e0 66 d8 bc 19 78 1e be e9 6a 57 bd f4 43 1c 3e
       -0.026416242 -0.15475501 -0.05259219 0.15260297
000270 20 5e d5 3d 9d 1d 31 be 02 c7 96 bd 51 28 b5 bd
       0.104183435 -0.17296453 -0.073621765 -0.0884558
000280 74 2d 0e be fc 6e d1 3c 5b 91 8f bd 5f 21 0f be
       -0.13884526 0.025565617 -0.07010146 -0.13977574
000290 46 35 0e 3d fa 08 5b bb 85 51 03 3e 0c cd 2b bd
       0.034718774 -0.0033422098 0.12824066 -0.041943595
0002a0 99 38 93 3d 1e 3b 0d 3e 9b 50 cd 3c c3 f6 8f bd
       0.071885295 0.13792083 0.02506285 -0.07029488
0002b0 57 f5 2f bc c5 78 ce bd ca f0 f1 3b 45 8f 95 bd
       -0.010739646 -0.10081629 0.0073834406 -0.07302717
0002c0 3c 88 1d 3e 0d 8f 22 be 9a f7 d3 3b 2f f4 b2 bd
       0.15384 -0.15874882 0.0064687254 -0.087379806
0002d0 08 73 c5 3d fd 8d 14 3e f7 12 b8 3d 20 4c 66 3d
       0.09641081 0.14507289 0.08987992 0.056224942
0002e0 97 a8 1b be 4b 40 bc 3d 01 50 43 3b 95 66 96 3d
       -0.1520103 0.091919504 0.0029802325 0.07343785
0002f0 9b 92 78 bc d8 8d 56 bd 57 10 81 3d f6 e3 08 be
       -0.015171672 -0.052381366 0.06301945 -0.1336821
000300 f2 72 fb 3c 60 bc 5d 3d e0 59 9a bc 85 ff 11 3e
       0.030694459 0.054134727 -0.018841684 0.14257629
000310 a3 d3 d3 3d 86 94 20 be 43 ea 40 3d 95 b7 74 3c
       0.10343101 -0.15681657 0.04709841 0.0149363475
000320 d8 3b 35 ba 69 dd 20 be f3 9f e1 bd 41 2a cf 3d
       -0.00069135195 -0.15709461 -0.11016836 0.10115481
000330 2f 5e af bc a6 01 9d 3d 6d bb 2d be b6 63 d6 3d
       -0.021407215 0.0766633 -0.16966029 0.10468237
000340 88 3b 93 bd 73 13 11 3d 9e 29 16 be bf 42 10 3e
       -0.07189089 0.03541894 -0.14664313 0.14087962
000350 6e 5f 8b bc 9b c0 05 3e 72 01 31 be 70 12 26 be
       -0.017013278 0.13061754 -0.17285708 -0.16217971
000360 79 83 ea bb 7b 78 0b bd 8b ff 23 3e c2 63 83 3d
       -0.007156786 -0.034050446 0.1601545 0.06415512
000370 cb 72 79 3d 91 6f 4c bc 76 3f 0b 3c 9c 83 81 bc
       0.06090049 -0.012477771 0.008499017 -0.015809827
000380 b7 ab cf bd 13 89 a3 3c 17 fd af 3d bc 5e 73 3d
       -0.10140174 0.019962823 0.08593195 0.059416518
000390 11 de ef bd 64 cc f9 bd 7a 14 cd 3d a8 8b 77 bd
       -0.11712278 -0.121971875 0.10013671 -0.06043592
0003a0 9e c5 c5 3d fb 3a 41 bd 6a f0 c2 bc 9b bb 06 be
       0.09656833 -0.04717539 -0.023796279 -0.13157503
0003b0 a2 51 b8 3d 97 0b 02 3e 2e 97 3f be d9 f5 a8 3d
       0.08999945 0.12699734 -0.18710014 0.08250017
0003c0 19 d7 5e bc 5f 24 ab bd 52 59 41 3c 71 bb b0 bd
       -0.013601088 -0.083565466 0.011801081 -0.086295016
0003d0 ca 37 b0 3c 43 87 cf 3c c5 da e1 3d 5b 7b 55 3d
       0.021510977 0.025333053 0.11028055 0.052119594
0003e0 13 d0 ea 3d fb 6d a6 bc ca 80 0f 3e 07 cd 27 3d
       0.11465468 -0.020316115 0.14013973 0.040967014
0003f0 55 d4 e2 3d 89 4c 29 be 1a a3 12 be 80 05 f0 bd
       0.11075655 -0.16533102 -0.14320031 -0.11719799

embed.embedding_net.lin1_2.bias f4 [32]
000000 19 95 d0 bd 6d 01 18 bd c2 46 42 3d 4a a3 d3 3d
       -0.10184688 -0.037110735 0.04743076 0.10333879
000010 14 ed 7c 3d f8 29 f5 bb 5c 1a c7 bd 15 94 b9 bd
       0.061749533 -0.0074818097 -0.097218245 -0.090614475
000020 73 dc 18 be f3 4b d5 bd 6d df be bc b2 31 06 3e
       -0.14927845 -0.10414877 -0.023299897 0.13104895
000030 7b 02 ea 3d 90 bd 7a bd cd 95 e3 3d 05 23 3a 3e
       0.11426254 -0.061215937 0.111125566 0.18177421
000040 9b e6 88 3d ba 18 2b 3d aa 92 b0 3d fc b8 d5 bc
       0.066846095 0.041771628 0.08621724 -0.026089184
000050 aa 8a cd bd f3 9f 78 3d 5d 7e 94 3d 5f 1c f6 3d
       -0.10036214 0.060699414 0.072506644 0.1201713
000060 86 12 05 3d 99 09 2e 3e 1c 3b 15 3e 49 42 42 bd
       0.03248837 0.16995849 0.1457333 -0.047426496
000070 ad d5 00 bc 7b 2c b9 3c 90 39 c3 3d a7 ca b6 bc
       -0.007863444 0.022604218 0.095324636 -0.022313429

embed.embedding_net.conv1.nn.0.weight f4 [32, 32]
000000 3d cb d0 bd 13 53 89 3d 26 7e 12 be 41 5b cb bd
       -0.101950146 0.06705298 -0.14305934 -0.09929515
000010 76 c2 b4 3d 4e 9a e5 bd f8 5a 0a 3e ea 6d dc 3d
       0.08826153 -0.11211072 0.13511264 0.10763152
000020 50 d5 81 3d 15 33 99 3d f0 ec 14 3e 29 0f fc bd
       0.06339514 0.07480446 0.1454351 -0.12307579
000030 12 9a dd bd be 27 0f be 79 52 f5 bd 31 4c df bc
       -0.10820402 -0.13980004 -0.11978621 -0.02725801
000040 af 9d 9e 3d 57 6e 30 be 5d ce 5b bd 88 76 d2 3d
       0.077449195 -0.17229591 -0.0536636 0.10276514
000050 8c eb 1f be dc 6e f4 bd 71 80 88 3d 21 78 7f 3c
       -0.15617198 -0.11935207 0.06665123 0.015592606
000060 0a 8f 34 3d 37 b9 ad bc b5 85 c8 3d 63 aa d3 bc
       0.044081725 -0.021206481 0.097911276 -0.025838083
000070 ca 58 1e 3e 42 14 a1 3c 4e 64 0f be ff a9 ef bd
       0.15463558 0.01966298 -0.14003107 -0.11702346
000080 5b 88 22 3e 4b af 1e be f7 79 2b 3e 03 6d b9 bd
       0.15872328 -0.15496556 0.16745745 -0.090539955
000090 de d8 f7 3d 29 5a 81 bc 04 bf 6e bd 0f c7 2d 3d
       0.12101911 -0.015790062 -0.058287635 0.042426165
0000a0 8f a8 e6 bd dc db 0c 3e df 9d f1 bc 95 82 c6 3b
       -0.11262619 0.13755745 -0.029494224 0.006058047
0000b0 2a 08 d8 3d 84 4f 24 bd 85 56 71 3d 02 23 60 3d
       0.10548432 -0.040114895 0.058920402 0.054720886
0000c0 4d 6b 30 3e 10 bb 87 bd 93 0b 0a be 69 01 d8 bc
       0.17228432 -0.06627476 -0.13480978 -0.02636786
0000d0 40 7f 74 bd 33 57 23 bd bf 2a 0b be 09 8f b3 bd
       -0.059691668 -0.03987808 -0.13590525 -0.08767516
0000e0 a3 79 14 3e 85 a4 92 ba f2 ba c8 3d ff 7c 80 3c
       0.14499526 -0.0011187947 0.09801282 0.015684603
0000f0 53 16 a3 bc a3 9d 72 3d e0 99 11 3e 6b b9 c0 bd
       -0.019908106 0.059232365 0.14218855 -0.09410366
000100 93 91 08 3e a9 d5 9a bc a6 ff bf 3d 01 81 0c 3e
       0.13336782 -0.01890071 0.09374933 0.13721086
000110 b8 c7 17 be 55 e5 ef bd c6 bf 00 bb 0a 29 29 ba
       -0.1482228 -0.117136635 -0.0019645556 -0.00064529537
000120 58 f3 f1 3d 48 4f 37 3e 9a b8 17 be 44 3f 70 bb
       0.11813992 0.17901337 -0.14816514 -0.0036658803
000130 98 0c 1f bc dd 99 af 3d ae ac c8 3d e7 b6 96 3d
       -0.009707592 0.08574269 0.09798561 0.073591046
000140 99 aa 03 3e b9 e7 01 be c4 5a e0 bd 73 bd 44 bd
       0.12858047 -0.12686051 -0.10954812 -0.048032235
000150 dc cf de bd 5a 90 03 bd 04 a0 e1 bd 40 60 a4 3d
       -0.1087949 -0.032120086 -0.11016849 0.08026171
000160 de 0d af 3d b5 68 76 3d 3e 63 8f bd ca aa 21 3e
       0.08547567 0.06015845 -0.07001351 0.15787807
000170 d6 b9 2a be 2e b6 06 3c 7c 1f 01 be 7f 49 96 bd
       -0.16672453 0.008222146 -0.12609667 -0.07338237
000180 5e ec 53 bd 6b 60 6b 3d 3b c5 09 be 68 14 ef 3c
       -0.05173909 0.057465 -0.13454144 0.029184535
000190 55 8d b0 bd f7 60 89 bc 4d ed 1c bd e1 c4 6d bd
       -0.08620707 -0.01676987 -0.038312245 -0.058049086
0001a0 39 b9 65 bd e2 83 29 3e 98 56 22 be 72 9a 20 be
       -0.056084845 0.16554216 -0.15853345 -0.15683916
0001b0 bb ba 35 3e 60 75 04 be 0d 7c e9 bc 6b 86 2b 3e
       0.17747013 -0.129354 -0.028501535 0.16750495
0001c0 4d e6 8e bd 3e b4 ca 3d f6 a4 fd 3d 52 ce b4 bc
       -0.0697752 0.0989766 0.123849794 -0.022071037
0001d0 e1 85 01 be c6 72 4f 3d 86 29 22 3d 43 5b 16 3d
       -0.12648727 0.050646566 0.03959038 0.036708128
0001e0 6f f3 82 3d 3f d7 1b 3e d7 c6 32 3e 92 0a 01 3c
       0.063940875 0.15218829 0.17458664 0.007876055
0001f0 08 2f 33 3e 72 6c 2a bd be 54 3d 3d 65 1a e2 bd
       0.1749841 -0.041607328 0.046223395 -0.110401906
000200 08 5e de bd ed f4 ac bd f7 2b 21 3e 29 74 e5 3c
       -0.10857779 -0.084451534 0.15739428 0.028009491
000210 a6 b1 d4 bd 22 8f 71 bd bc d8 d7 bd c5 a6 35 3e
       -0.10385446 -0.058974393 -0.10539386 0.17739399
000220 88 fe 2e be fe 90 79 3d 8b 69 10 be 36 c5 8b 3d
       -0.17089283 0.06092929 -0.14102761 0.068247244
000230 27 be 05 3e e1 ac 1f be ce 94 d6 3a aa 86 ae 3c
       0.13060819 -0.15593292 0.0016371252 0.021304447
000240 62 9b 19 be c3 24 d8 bd 40 ff 70 3d ca 28 53 3d
       -0.1500068 -0.10553887 0.058837175 0.05155257
000250 a8 a8 e8 bd 0f 32 1c 3e b5 7b 08 3e 96 ce 38 3e
       -0.113602936 0.15253471 0.1332844 0.18047556
000260 1b ba a2 bd 36 89 ed bd d9 60 c0 bd d8 c7 0e be
       -0.07945653 -0.115984365 -0.09393472 -0.13943422
000270 d8 d8 91 3d a2 6e e5 3c 0a 1a 22 3e 63 9c 13 bd
       0.07121438 0.028006855 0.15830246 -0.036037814
000280 94 b6 82 bd e2 84 81 3d 05 2c b9 3d 2e 08 fd 3a
       -0.0638248 0.063241735 0.09041599 0.0019304806
000290 1d 53 d8 3b 8e 03 2f bd f4 5a 25 bb 41 10 e2 3c
       0.0066017048 -0.042728 -0.0025231214 0.027595641
0002a0 ca 7d 6c 3d df 88 1a be c2 37 04 be d8 63 c2 bd
       0.05773715 -0.15091275 -0.12911895 -0.094917
0002b0 11 d3 1e bc a9 eb c5 bd 72 05 2b be 7b 24 26 3e
       -0.009693877 -0.09664089 -0.16701296 0.16224854
0002c0 fc 5d 0f 3e d4 bf 2a 3d 40 e6 8a 3b a0 76 0d be
       0.14000696 0.041686848 0.0042388737 -0.13814783
0002d0 8c 6e 20 be 02 49 92 bd 97 c4 10 be 15 bc ec 3d
       -0.1566717 -0.071428314 -0.14137493 0.11559311
0002e0 de 6c 1f 3e ec 2c 9e bd ee 13 35 be fb 2f 40 be
       0.15568873 -0.07723412 -0.17683384 -0.18768303
0002f0 2e 64 0a 3e 2f 51 23 be e2 f9 22 be aa 1e 13 3e
       0.13514778 -0.15948938 -0.15915635 0.14367166
000300 52 26 29 be 94 57 55 3d 96 f4 c2 bd e5 74 8b bd
       -0.16518524 0.052085474 -0.09519307 -0.06809405
000310 f9 bd 0a be 6d 78 2b 3d 5e 26 83 3d f8 1a 36 3d
       -0.13549031 0.041862894 0.06403802 0.044459313
000320 e6 21 ae bd 6c a6 1e be 55 f0 03 3e 62 43 bc bd
       -0.08502559 -0.15493172 0.12884648 -0.0919254
000330 64 ea 01 be db b8 14 3e 27 84 00 3e f2 e3 57 bd
       -0.12687069 0.14523642 0.12550412 -0.05270762
000340 e0 0c 2f be 3c b2 0c be e0 b2 2c 3e 30 94 25 be
       -0.17094755 -0.13739866 0.1686511 -0.1616981
000350 31 b0 72 bc df fa ec 3d eb ce c9 3d a3 2c 95 bd
       -0.014812515 0.11571287 0.098539196 -0.072839044
000360 5d 6b 71 3d f7 50 f3 3d 42 3c 1c 3c 15 e1 2c bd
       0.05894028 0.11880677 0.009535851 -0.042206842
000370 66 9e 1c 3c 45 2c df 3d b1 a9 f1 bc 48 0e 86 3d
       0.0095592495 0.108971156 -0.02949986 0.06545693
000380 07 b2 cc bd 46 9c fc bd b1 26 3d 3d cd 1d 13 be
       -0.099948935 -0.12334494 0.046179477 -0.14366837
000390 3e 57 81 3d 85 27 fc bd 48 cf 32 be 1d 17 e7 bd
       0.06315468 -0.12312225 -0.17461884 -0.112837054
0003a0 50 ff 58 bd 90 d6 78 3d d6 a9 b7 3b 16 db 3d 3c
       -0.05297786 0.060751498 0.005604963 0.011587879
0003b0 00 62 58 3c 98 90 39 3c 7c 55 d3 3d 4b 9a 83 3c
       0.013206959 0.011325978 0.10319039 0.016064784
0003c0 06 30 1d 3d e4 63 2c 3e 76 93 97 bc 11 10 b8 bc
       0.038375877 0.1683498 -0.018502932 -0.022468599
0003d0 79 70 2e 3d f6 1e c2 bd ac 98 b7 bd 4b 53 8b 3b
       0.04258773 -0.094785616 -0.08964667 0.0042518727
0003e0 3e 5a 13 3d 89 77 13 be b4 0a 43 3c ea 4e 1f 3d
       0.035974734 -0.14401068 0.011904407 0.038893618
0003f0 46 9f a4 3d 53 38 97 3d c7 cf 2c bd 5e d8 02 bd
       0.080381915 0.0738379 -0.04219034 -0.031944625

embed.embedding_net.conv1.nn.0.bias f4 [32]
000000 a8 6f d9 3d 56 2a 03 be 8d 5d 18 be e9 53 f3 bc
       0.10617 -0.12809119 -0.14879437 -0.029703097
000010 eb ba 9e 3d fa bf 0f bd a5 7d c2 bd 13 10 ba 3d
       0.077504955 -0.035095192 -0.09496621 0.09085097
000020 3d 85 bd 3d 95 55 17 be 1c 1a 0a 3e 80 75 2a be
       0.09253929 -0.1477874 0.13486522 -0.16646385
000030 05 98 81 bd 46 93 20 be ac 65 32 be 85 f1 09 3d
       -0.063278235 -0.1568118 -0.17421597 0.033677597
000040 1a 8e bd 3d bb 7f 99 bd ec 32 84 3d ad 92 df bd
       0.09255619 -0.07495066 0.06455025 -0.10916648
000050 fa 49 ab bd 5e 6a 14 3e 4b 09 08 bd 5a 24 ab 3d
       -0.08363719 0.14493701 -0.033211987 0.08356543
000060 9c e1 0b 3e 08 2c 97 bd 1f 05 81 3d 5b c7 d8 3d
       0.13660282 -0.07381445 0.06299805 0.10584899
000070 e3 db 24 3d 0b b0 c9 3d 44 4e ab 3d 73 0b 32 3e
       0.040248763 0.09848031 0.08364537 0.1738718

embed.embedding_net.conv1.nn.2.weight f4 [32, 32]
000000 e4 58 d8 bd 35 2f 0e bd 68 91 8c 3d 76 e4 be bd
       -0.105638295 -0.03471299 0.068636715 -0.09320919
000010 27 cd eb 3d 64 53 da bc c0 de 93 3d fe 15 2c 3e
       0.11513739 -0.026651092 0.072202206 0.16805264
000020 14 fe f4 bd b4 6c 01 3c 07 07 d6 3c ed 9a e5 bd
       -0.11962524 0.007899452 0.026126398 -0.112111904
000030 de 09 78 bd 41 f1 ac bd 22 69 43 bd 3f fa 00 3d
       -0.060556285 -0.08444453 -0.047707684 0.031488653
000040 d7 d2 ce bd e3 d7 92 3d 45 cb b5 bd 77 e9 2b 3e
       -0.10098808 0.071700834 -0.08876661 0.16788279
000050 ca 0c 2a be a9 6e 0c 3e 5f da 80 bd d4 36 8f bd
       -0.16606441 0.13714088 -0.06291651 -0.069928795
000060 7b e5 42 bd e7 3a 81 bd 9a b2 e0 3d dd d0 fb bd
       -0.04758213 -0.06310063 0.109715655 -0.12295697
000070 e3 0d 2d be 17 6d 0c 3e 15 ec 1c bd 97 b1 2f bd
       -0.16899829 0.1371349 -0.038311083 -0.042893972
000080 44 a3 04 bb 65 08 8d bd cb 55 23 3e 67 17 db 3d
       -0.0020238915 -0.06886367 0.15950696 0.10697823
000090 e4 e6 d9 bd c8 1c 03 3e b6 67 1b be 77 6b b5 bd
       -0.10639742 0.12803948 -0.15176281 -0.08858388
0000a0 a7 1b 3b 3e 3c f7 15 be 2f b1 06 3d e1 84 b6 bd
       0.18272267 -0.14645094 0.03288382 -0.089120634
0000b0 20 03 04 be 59 6d e9 3d b0 c7 19 bd b7 e7 27 bd
       -0.12891817 0.113978095 -0.037543952 -0.040992465
0000c0 d6 b7 8f 3c 08 86 8c 3d 66 91 cb 3d bd 1b c2 bd
       0.017543714 0.06861502 0.09939842 -0.09477947
0000d0 ef 2b 9e bd 3d f2 16 3e 13 cd 0c be b5 69 c8 3d
       -0.077232234 0.14740844 -0.13750105 0.09785787
0000e0 2c 0d eb bd 5b 06 4d bd 00 1f 39 bd b2 ca 45 3e
       -0.11477122 -0.05005489 -0.04519558 0.19315603
0000f0 24 72 38 be 1b 72 25 be 2c 0b 17 3e 83 97 e8 bd
       -0.18012291 -0.16156809 0.14750355 -0.113570236
000100 95 88 23 be 23 98 35 3e 47 7c 8f bd 31 8c 37 bc
       -0.1597007 0.17733817 -0.07006126 -0.011202858
000110 06 39 dc bc 6b ad 97 bd 4b cb 19 3e 23 be 48 bd
       -0.02688266 -0.07406124 0.15018956 -0.049009454
000120 1d 00 8c bd e0 57 15 3d eb 0f 8c 3d 6e f1 23 ba
       -0.06835959 0.036460757 0.068389736 -0.00062539324
000130 f9 86 06 3e 69 c2 ce 3d 29 d3 a4 3d 04 fc d5 bd
       0.13137425 0.100956745 0.08048088 -0.10448459
000140 ba c9 09 3c bd bf 49 3d e2 80 01 be 2c a3 0e 3e
       0.008409912 0.04925512 -0.12646821 0.13929433
000150 03 c8 69 3d 30 fc 37 3d de 97 84 bd 60 6f 3f 3d
       0.05707551 0.04491824 -0.06474279 0.046737075
000160 9a 75 45 bd 78 3b cd bb 46 75 29 bd cc 3f 01 3e
       -0.048207857 -0.0062631927 -0.041371606 0.12621993
000170 18 bb d6 3d 98 6d 2a 3e 05 92 2f be 0e e4 95 3d
       0.10484904 0.16643369 -0.17145546 0.073188886
000180 69 5b a1 3c f3 b4 16 be 3f 68 1e be 23 d3 73 3d
       0.019696908 -0.14717464 -0.15469454 0.059527528
000190 59 d6 d6 3d 3f fa 30 3e 0e 8e 92 3d dc 41 99 bd
       0.10490102 0.17282961 0.07156001 -0.07483265
0001a0 28 37 01 3e 45 de 8b 3d 01 7d 22 be c1 dd 21 be
       0.12618697 0.06829504 -0.15867998 -0.15807249
0001b0 df 88 ab bd 5b f3 be bd 84 13 a5 3d 6c 9c 10 be
       -0.083757155 -0.0932376 0.08060363 -0.1412217
0001c0 04 b6 1a 3e fc 96 ff bd cb c8 f4 bc cf b7 45 3d
       0.15108496 -0.1247997 -0.029880902 0.048270997
0001d0 6a 5f ff bd 54 ee 05 be 04 5d 2f 3e 99 7c d8 bd
       -0.12469371 -0.13079196 0.17125326 -0.1057064
0001e0 c2 76 23 3c 6d 5f 04 3e 5d aa 20 bd 28 fe 8a 3d
       0.009977045 0.12927027 -0.03922497 0.06786758
0001f0 6d 52 f5 bd 14 6e 51 3d 59 7e 13 3e 63 be 2f 3e
       -0.11978612 0.05113037 0.14403667 0.1716247
000200 8f 0b 16 3e f4 82 2d be 5d 55 24 be 19 27 1a be
       0.14652847 -0.16944486 -0.16048189 -0.15053977
000210 c6 7a d4 3d 90 3f 4c 3b fa 4c 5b 3d 32 4e fd bd
       0.1037498 0.0031165816 0.053540207 -0.1236843
000220 01 03 0b 3e 0a f8 09 be e4 ff 31 3e 2c af 3e be
       0.13575365 -0.13473526 0.17382771 -0.1862151
000230 a9 06 2e bd 3c dd 21 3e 27 6c 37 3e 38 9a 19 be
       -0.04248682 0.1580705 0.1791235 -0.15000236
000240 10 7c 2d be a5 4e 23 3d 29 6d e0 3d b2 13 22 3d
       -0.16941857 0.039869923 0.10958321 0.039569564
000250 90 47 11 be f7 09 0b 3e a6 7f fa bc e7 08 15 bd
       -0.14187455 0.1357802 -0.030578446 -0.036385443
000260 3b 07 c4 bd 94 53 ea bd 85 2e c1 3c 0e 0c 25 3d
       -0.095716916 -0.114417225 0.023581753 0.0402947
000270 db 0e f7 3d ce 19 90 bd 1f 91 c2 3d c3 38 a6 bd
       0.1206338 -0.07036172 0.09500336 -0.08116295
000280 26 bb 01 bd bb 12 8b 3d ab 6c 25 3e b0 4a 32 3e
       -0.03167262 0.06790682 0.16154735 0.17411304
000290 54 43 14 3d ca 9b e4 bd a3 f0 b9 bc 5f 45 cc 3d
       0.03619702 -0.11162527 -0.022697752 0.09974169
0002a0 d7 d9 c6 bd e2 00 83 3d 11 0f 2a be 8f 2b e3 3d
       -0.097095184 0.06396653 -0.1660731 0.110922925
0002b0 67 4d f9 3d 7e 3f 5b bd c0 e1 c6 bc 35 08 05 be
       0.121729665 -0.053527348 -0.024277568 -0.12991412
0002c0 76 c3 4a bd 0f 3b 6e bd 6b 34 8b bd d8 b9 0d bd
       -0.049502812 -0.05816179 -0.06797107 -0.034601063
0002d0 88 71 a0 bd 95 c0 7e bc 61 c5 0a bc 12 88 30 3d
       -0.07834154 -0.015548845 -0.00846991 0.043098517
0002e0 33 81 10 3e a9 f1 9b bd 2a a9 c3 bb 01 20 a0 bd
       0.14111786 -0.076144524 -0.0059710937 -0.07818604
0002f0 14 34 a2 3d 87 b5 ae 3d 9d f2 bf bb 66 3f a6 3d
       0.07920089 0.08530717 -0.005857779 0.08117561
000300 54 e2 8f bd c8 03 b0 3d 08 7b be bc 52 f0 1b be
       -0.070255905 0.08594471 -0.023252025 -0.15228394
000310 f4 a9 d1 3d 78 29 21 3e fd 4d f2 bc 78 d1 02 3d
       0.10237494 0.15738475 -0.029578203 0.031938046
000320 1a a7 0f be 4f 70 a7 3d f0 33 64 bd 2e 06 e6 3d
       -0.14028588 0.08175718 -0.055713594 0.112316474
000330 a3 26 4a be 8c db a7 3d 60 38 4b 3d 96 8c 01 3d
       -0.19741301 0.08196172 0.04961431 0.031628214
000340 38 fb 61 bd d9 76 8e 3d 4d 47 d4 bd 4e cb b9 3d
       -0.05517122 0.06956262 -0.10365162 0.090719804
000350 bf 62 9c bd 45 fd a2 3d 2d 98 f0 3d 16 6d 5a 3b
       -0.07636022 0.079584636 0.11747775 0.003332918
000360 06 73 dc bd 40 c4 0a bd 28 e2 02 3e 39 ff 02 be
       -0.107641265 -0.033878565 0.12781584 -0.12792672
000370 c4 ee 17 be c5 78 03 3e 38 c6 cf bd 71 ab c6 3d
       -0.14837176 0.12839039 -0.10145229 0.097006686
000380 cb 92 e5 3d e0 10 23 be f2 ca 6e bd 8d 3b 27 be
       0.11209639 -0.15924406 -0.058299012 -0.1633131
000390 d9 ac 34 3e b3 bd ec bd b0 04 c8 3d 06 c0 03 be
       0.17644061 -0.1155962 0.09766519 -0.1286622
0003a0 d7 42 13 3c 3f ca 38 3e 47 75 0f be bc 43 06 be
       0.008988104 0.18045901 -0.14009582 -0.13111776
0003b0 59 b9 33 bd 98 a6 32 bd 7a 6e 00 3e 0a e7 9b 3c
       -0.043877933 -0.043615907 0.12542143 0.019031066
0003c0 bd fd 29 be bc 22 ff 3b c3 16 c3 3d a7 f9 20 3e
       -0.166007 0.007786123 0.09525826 0.15720235
0003d0 ee b8 d8 bd ba 1b 16 be 56 83 6f 3d 22 26 06 bd
       -0.105821475 -0.14659014 0.05847486 -0.03275121
0003e0 ca b0 b0 3d b0 65 9c ba df cb 77 bb 87 91 ae bd
       0.0862747 -0.0011932161 -0.0037810726 -0.08523851
0003f0 21 d8 3c 3d 18 14 f1 bc f8 91 2e 3e c4 38 ff bd
       0.046104554 -0.029428527 0.1704787 -0.12461999

embed.embedding_net.conv1.nn.2.bias f4 [32]
000000 26 7f 96 bd 71 e2 9d 3d 39 5a d3 bc ce 72 0b 3e
       -0.073484704 0.07709206 -0.025799857 0.13618013
000010 46 e7 99 bc 04 a2 0e 3e 8b b1 04 be 9b 2b b9 bd
       -0.018787038 0.13928992 -0.12958352 -0.0904152
000020 f7 64 9b bd fd f9 a9 bd a6 33 3e bd 71 84 e3 3d
       -0.07587617 -0.082996346 -0.046435975 0.111092456
000030 73 d9 2f be 9c be 29 3e b5 7f eb 3d 55 b0 fa 3d
       -0.17172794 0.16576618 0.114989676 0.12240664
000040 e8 7c b2 3d 09 73 1b be 51 ab 7f 3c be 23 52 3d
       0.0871523 -0.15180601 0.01560481 0.051303618
000050 d4 42 a4 3d 7a 99 0c 3e 44 58 2a 3e ef ba fe 3c
       0.08020559 0.13730422 0.16635233 0.031094996
000060 08 bc f7 3d 9f f9 84 bd 68 98 a9 bd 15 18 cf 3d
       0.12096411 -0.06492924 -0.08281022 0.10112015
000070 01 73 57 bd 95 63 10 be aa 11 aa 3d 1f 18 ee bd
       -0.05259991 -0.14100488 0.083041504 -0.116256945

embed.embedding_net.bn1.weight f4 [32]
000000 f2 9c 7d 3f dc 0b 81 3f 8b 5b 7e 3f 12 bb 7c 3f
       0.99067605 1.0081744 0.99358433 0.98722947
000010 94 70 80 3f 5a ae 7f 3f b7 24 7e 3f 27 d0 7e 3f
       1.0034356 0.99875414 0.9927477 0.99536365
000020 77 84 80 3f 2c 50 80 3f 35 52 82 3f 93 5d 7d 3f
       1.0040425 1.0024467 1.0181338 0.9897091
000030 4d f3 84 3f 9a 62 81 3f 93 1c 7b 3f be 64 82 3f
       1.038675 1.0108216 0.98090476 1.0186994
000040 00 88 7c 3f f6 8a 80 3f 73 45 7b 3f 4f 8b 7e 3f
       0.9864502 1.0042408 0.98152846 0.9943132
000050 3d ec 80 3f 21 03 7f 3f 1d 14 80 3f 74 17 80 3f
       1.0072094 0.9961415 1.0006138 1.0007157
000060 64 6c 82 3f 92 dd 81 3f 2e 79 82 3f 6a 8f 82 3f
       1.0189328 1.0145743 1.0193231 1.0200016
000070 49 9c 80 3f 3f b8 81 3f 4d 20 81 3f 96 d3 7d 3f
       1.0047694 1.0134352 1.0087982 0.9915098
