trained_managers/30_150_10_MH_gin_32_minmax.pth (torch, 450582 bytes, 104 tensors)

key_policy.weight f4 [64, 32]
0.031071274 0.014601782 0.17611715 0.035505854 -0.10755556 -0.014157261 0.057181247 0.08806142
0.017213823 -0.13199618 -0.06100419 -0.01704528 0.047618315 0.08014129 -0.10696837 0.10828564
0.12037669 0.049355805 -0.053980514 -0.100895315 -0.12656002 -0.08326866 -0.055277124 0.11455437
0.03345165 -0.03352396 -0.11771514 0.11217473 -0.09564154 -0.03620428 -0.0014783333 -0.16555734
0.13073254 -0.14553283 0.10247323 0.060625575 -0.07265025 -0.0890605 0.13738169 -0.06702724
0.15593752 -0.0034589975 0.16543128 0.11721343 -0.045811344 -0.037159786 0.006726275 0.123443045
0.01067642 -0.06539596 -0.014361552 -0.028094778 0.16443789 0.07465742 -0.12926395 -0.12054018
-0.1013799 0.1020555 0.014251647 -0.056193255 0.04411693 0.112633325 -0.0014002384 0.067822486
-0.007873417 0.046774473 0.13621269 -0.015735727 -0.061604597 -0.051566146 0.052728325 -0.08952294
0.18428315 0.0810081 -0.15585274 -0.059451677 0.15039322 -0.069078565 -0.17336313 0.11456131
-0.13688596 -0.031789668 -0.03660713 -0.10115202 0.1569421 0.09828642 -0.07819035 -0.008849379
-0.051403433 -0.05133532 0.07053933 -0.024758758 0.06630567 -0.034686573 -0.12552929 0.18070893
0.18463553 -0.1034399 -0.050253294 -0.09704684 0.10184843 0.090680696 0.06479235 -0.050287902
0.014421658 0.10674506 0.04827598 0.17307368 0.07700139 -0.12513433 -0.14733781 0.101129495
-0.02845291 -0.07068428 0.10254144 -0.05012115 -0.13204762 -0.07884385 -0.028919015 -0.062418345
0.035468273 -0.050112188 0.16717948 0.056080945 -0.08494965 -0.106865086 -0.06723504 0.11227117
-0.08590588 0.014952147 0.12923741 -0.059370942 -0.014959718 -0.095399424 0.14969376 0.049982514
-0.034619387 -0.07312594 0.14588964 0.07983031 0.046818566 0.08869926 0.15544651 0.069935106
-0.16093528 -0.07398226 -0.07584289 0.1806189 0.09106363 -0.10505769 0.07654555 -0.084491774
0.16515516 -0.052942943 0.059212934 0.12591597 0.118001595 -0.03932864 0.14427 0.023488916
-0.039887276 -0.16979006 0.034848887 0.008398329 -0.018015413 -0.05768332 0.16296414 -0.051251628
-0.07513411 -0.056858595 -0.043170594 -0.09454722 0.16513719 0.16834868 -0.12263516 -0.11404192
0.03797525 0.048516575 -0.05413174 -0.16342239 0.16970374 -0.040647153 0.1366533 -0.087123856
-0.05468979 0.07681658 0.020780884 -0.031861655 -0.053088885 0.12042204 0.088048026 0.022447594
0.14716457 0.035133306 0.1740802 -0.028657172 0.16482145 0.03849034 -0.12768373 -0.08747877
-0.18816896 0.08316722 0.09421234 0.1701846 -0.11990349 -0.02616806 -0.14331253 0.12304136
-0.015903726 -0.09542092 -0.038144242 0.07496986 0.15867274 -0.06462873 0.014316021 -0.11685895
0.05995873 0.030985901 0.08284171 0.1183993 0.07223899 0.03534126 -0.15470597 -0.013235481
-0.08574039 0.020228177 -0.10016341 0.0158994 -0.13516599 0.1133171 -0.08475826 -0.09522208
0.18008344 0.04557214 -0.14277904 -0.10524466 -0.004178518 -0.16772978 0.11806046 0.0975707
-0.14311835 0.019790001 0.14607018 -0.08715457 -0.15455534 -0.048129138 -0.121625915 0.055411592
-0.05705741 -0.15543401 -0.11982921 0.1436188 -0.120193884 0.06313033 -0.07817348 -0.08341878
00000000: 2f89 fe3c 503c 6f3c 0e58 343e 966e 113d
00000010: 1746 dcbd dbf3 67bc e236 6a3d 8c59 b43d
00000020: 0104 8d3c 022a 07be 88df 79bd 8ba2 8bbc
00000030: 6c0b 433d 1e21 a43d 3c12 dbbd ddc4 dd3d
00000040: 0e88 f63d 5029 4a3d ac1a 5dbd 34a2 cebd
00000050: f398 01be c288 aabd 446a 62bd 7b9b ea3d
00000060: 9904 093d 6b50 09bd a314 f1bd ddbb e53d
00000070: b6df c3bd f04a 14bd a2c4 c1ba dd87 29be
00000080: c0de 053e 8f06 15be 7cdd d13d 8652 783d
00000090: a7c9 94bd 5a65 b6bd c9ad 0c3e 9445 89bd
000000a0: 16ae 1f3e 59b0 62bb d166 293e 980d f03d
000000b0: ada4 3bbd dc34 18bd 1668 dc3b b5cf fc3d
000000c0: 27ec 2e3c 51ee 85bd b74c 6bbc 0527 e6bc
000000d0: 6862 283e fde5 983d c55d 04be c5dd f6bd
000000e0: 44a0 cfbd 7902 d13d bd7f 693c e62a 66bd
000000f0: f4b3 343d 4dac e63d 3488 b7ba 84e6 8a3d
00000100: 81ff 00bc 9796 3f3d 577b 0b3e 36e8 80bc
00000110: 1a55 7cbd 0637 53bd a8f9 573d ce57 b7bd
00000120: b9b4 3c3e 93e7 a53d dc97 1fbe 9a83 73bd
00000130: ae00 1a3e 1079 8dbd 1b86 31be 1f9f ea3d
00000140: d52b 0cbe e235 02bd 5cf1 15bd ca28 cfbd
00000150: 6eb5 203e 644a c93d 4322 a0bd fcfc 10bc
00000160: 688c 52bd fc44 52bd ed76 903d e1d2 cabc
00000170: 44cb 873d 8213 0ebd c08a 00be c30b 393e
00000180: 1911 3d3e 4cd8 d3bd 66d6 4dbd 7ec0 c6bd
00000190: e995 d03d cdb6 b93d dab1 843d b0fa 4dbd
000001a0: d148 6c3c 279d da3d 09bd 453d 3a3a 313e
000001b0: e8b2 9d3d 3723 00be b9df 16be fb1c cf3d
000001c0: 1416 e9bc ebc2 90bd 3f01 d23d d64b 4dbd
000001d0: 7e37 07be e278 a1bd 92e7 ecbc 61aa 7fbd
000001e0: 2e47 113d 7042 4dbd 1931 2b3e 22b5 653d
000001f0: 15fa adbd 15dc dabd 86b2 89bd 6dee e53d
00000200: 6cef afbd daf9 743c d056 043e f22e 73bd
00000210: 9b19 75bc c660 c3bd 5249 193e 77ba 4c3d
00000220: 0fcd 0dbd 0ec3 95bd 1864 153e 137e a33d
00000230: d3c4 3f3d f5a7 b53d 5f2d 1f3e 233a 8f3d
00000240: 38cc 24be 0384 97bd 8453 9bbd 29f4 383e
00000250: 927f ba3d 7c28 d7bd eac3 9c3d 060a adbd
00000260: 6f1e 293e b3da 58bd 4389 723d 1ef0 003e
00000270: d2aa f13d 1117 21bd 84bb 133e d46b c03c
00000280: d760 23bd 72dd 2dbe b5bd 0e3d 2599 093c
00000290: 0f95 93bc 5845 6cbd 12e0 263e 3aed 51bd
000002a0: eadf 99bd 8fe4 68bd a6d3 30bd f9a1 c1bd
000002b0: b919 293e 9963 2c3e 2528 fbbd cf8e e9bd
000002c0: f08b 1b3d 51b9 463d 3eb9 5dbd 3358 27be
000002d0: d1c6 2d3e a17d 26bd d8ee 0b3e fe6d b2bd
000002e0: 6702 60bd 0352 9d3d ac3c aa3c 5e81 02bd
000002f0: bb73 59bd d59f f63d 8652 b43d 04e4 b73c
00000300: 4fb2 163e f1e7 0f3d 1442 323e 72c2 eabc
00000310: f4c6 283e 0ca8 1d3d 86bf 02be 1228 b3bd
00000320: 5daf 40be 9353 aa3d 66f2 c03d df44 2e3e
00000330: f68f f5bd 665e d6bc 85c0 12be 1cfd fb3d
00000340: 8848 82bc 0b6c c3bd 233d 1cbd cc89 993d
00000350: 1b7b 223e 115c 84bd bf8d 6a3c bf53 efbd
00000360: 4997 753d 25d6 fd3c eaa8 a93d 557b f23d
00000370: 09f2 933d ffc1 103d 3e6b 1ebe a2d9 58bc
00000380: a898 afbd 90b5 a53c 7922 cdbd 753f 823c
00000390: f468 0abe cc12 e83d bd95 adbd cb03 c3bd
000003a0: cb67 383e daa9 3a3d ab34 12be 838a d7bd
000003b0: f3eb 88bb 5bc1 2bbe afc9 f13d 26d3 c73d
000003c0: 9e8d 12be a41e a23c 6c93 153e 187e b2bd
000003d0: c143 1ebe 0f23 45bd 0217 f9bd 44f7 623d
000003e0: 08b5 69bd 182a 1fbe 0469 f5bd cf10 133e
000003f0: 3628 f6bd 794a 813d 6b19 a0bd 77d7 aabd

key_policy.bias f4 [64]
-0.045802567 -0.006802584 -0.12121222 0.17325899 -0.1278806 -0.12175957 0.0010018849 0.06860254
0.07089494 0.14844006 0.08797377 -0.15497458 -0.007990707 0.062169667 -0.008833526 0.10105699
-0.11559101 0.029620398 -0.06714547 -0.049669392 -0.15790786 0.10765852 -0.15800677 -0.012110511
0.03139189 -0.008336961 0.12304885 0.038011473 0.12359345 -0.10150738 0.06120588 -0.038871642
0.16933192 -0.09618826 0.17327888 -0.07977219 0.14004894 0.05833339 0.10601589 0.14906803
0.11124462 -0.14843477 0.035038702 -0.040480398 0.15525009 0.16925067 0.13892181 -0.061752964
-0.13476096 0.081779756 -0.101048 -0.16461468 0.12128991 0.13459231 -0.01324575 0.05456168
0.08711724 0.0152640985 -0.10022735 -0.011848533 0.13177444 0.051701725 -0.15896937 0.0030758712
00000000: 799b 3bbd 36e8 debb 1d3e f8bd ce6a 313e
00000010: 22f3 02be 155d f9bd ae51 833a 7d7f 8c3d
00000020: 5e31 913d ac00 183e 982b b43d a8b1 1ebe
00000030: 74eb 02bc 9fa5 7e3d 7eba 10bc f8f6 ce3d
00000040: fbba ecbd 7aa6 f23c 9083 89bd 2272 4bbd
00000050: 99b2 21be 127c dc3d 87cc 21be 2a6b 46bc
00000060: c894 003d c097 08bc 0901 fc3d ebb1 1b3d
00000070: 901e fd3d 1ae3 cfbd 04b3 7a3d df37 1fbd
00000080: 5965 2d3e 5afe c4bd 0570 313e 9a5f a3bd
00000090: fd68 0f3e feee 6e3d dc1e d93d 4aa5 183e
000000a0: 38d4 e33d 49ff 17be be84 0f3d c6ce 25bd
000000b0: e1f9 1e3e 0c50 2d3e 8541 0e3e adf0 7cbd
000000c0: c7fe 09be 257c a73d 41f2 cebd c090 28be
000000d0: d866 f83d 91d2 093e b404 59bc 117c 5f3d
000000e0: 866a b23d 4516 7a3c ff43 cdbd 5920 42bc
000000f0: e1ef 063e 30c5 533d dec8 22be 8e94 493b

q_policy.weight f4 [64, 64]
-0.026325898 0.0607379 0.11548852 -0.06250675 0.05081988 -0.09785735 0.118036084 -0.12176507
-0.13004458 0.030365465 -0.123465955 0.11941125 -0.10107632 0.020536738 0.032448143 0.1205245
-0.034894615 0.11773274 -0.02254358 -0.07934534 -0.071008295 -0.010139139 0.012085013 -0.11930583
-0.05857813 -0.038367033 -0.050667487 -0.03851319 -0.04675849 0.04335149 -0.073976345 -0.006243592
-0.12200661 0.039709188 -0.10082934 0.007942204 -0.13601695 0.05874197 0.111741394 0.034116607
0.03450593 -0.043977235 0.079483815 0.07639473 -0.03148834 -0.0903429 -0.06860106 -0.08379235
0.01409595 0.08117306 -0.083205245 0.052573998 0.0452131 0.06692443 0.10042023 -0.09111189
0.10379392 0.087477446 0.08120801 -0.01570773 0.04695492 0.08071094 0.092492394 -0.13824975
0.13805182 0.030790852 -0.06526069 0.022069743 0.031024555 -0.07822543 -0.05321872 0.04799917
-0.06925185 -0.05768934 0.008916099 0.054707315 0.10696245 0.104046054 -0.012254135 0.10074772
-0.028707966 0.13279533 -0.030936994 0.062603354 -0.03732714 -0.0142266685 0.03704582 0.07408367
-0.026677074 0.026460188 -0.103788964 0.02088645 -0.054124855 -0.016010253 0.079561666 -0.11416817
-0.099368155 0.12067357 -0.04536343 0.069538064 -0.043191712 -0.08210743 0.070247166 0.013329313
0.03569746 -0.054259606 -0.039853275 0.09866365 0.031533103 0.12032393 -0.105088316 0.010777927
-0.0026759042 -0.073158555 0.1009987 0.06768278 0.004187472 -0.022647342 0.016206007 -0.084710665
0.073922366 0.090908416 -0.013576742 -0.083239205 0.115624495 0.07111422 -0.040011596 0.0007042635
0.118026935 -0.032121543 -0.024258416 -0.018852917 -0.07463492 -0.029356506 0.018064344 -0.08587954
0.119441174 0.028385231 0.08400013 -0.116060816 -0.100796305 0.07228986 -0.1014669 0.042814262
-0.041945305 -0.025975596 0.09826015 -0.0011654602 0.05766696 0.05024654 -0.12094216 -0.00811203
-0.08093071 0.06861251 -0.052860055 0.11555014 0.09094303 0.09470383 0.09107025 0.07263775
0.11889643 -0.0015221301 -0.035764128 -0.1310709 -0.062204678 -0.06356744 -0.07662703 0.09510949
0.06389095 0.085656956 -0.053376615 -0.03615681 0.10631725 0.07171096 0.020485584 0.0042312155
-0.09636044 -0.11040784 -0.12704615 0.08759122 -0.075799935 -0.08567344 0.09736315 -0.06535176
0.11681717 0.11560688 0.105417095 0.01520008 -0.04331306 -0.09818855 -0.08090412 0.0867995
-0.05387384 -0.074325375 0.03794118 -0.09308405 -0.007320025 0.050958272 -0.096699 -0.0067746295
0.08180137 0.020927949 -0.104941204 -0.07235265 0.093890704 -0.10733921 0.003575845 -0.015593972
0.09591781 0.06988194 0.05065409 -0.008985809 -0.084461205 -0.09382576 -0.12204934 0.024115494
0.06361101 -0.056287613 -0.019873867 0.044826154 0.091631465 -0.08092351 0.106692635 -0.012853852
-0.08606156 0.022068357 0.09465639 -0.028232139 -0.098597035 -0.06112158 0.08224016 0.03866496
-0.021737125 0.009326382 0.0037644447 0.055070575 -0.10843481 -0.0742114 0.11855179 -0.04483152
-0.0053803916 -0.11916601 -0.066876575 -0.047921106 0.055480476 0.061377205 -0.008612102 -0.047849506
0.07029701 -0.06408084 -0.06231118 -0.021612206 0.115788065 0.10967131 0.0696398 -0.020970104
00000000: 69a9 d7bc 4ec8 783d 3f85 ec3d 8a03 80bd
00000010: 8228 503d 6f69 c8bd e7bc f13d f75f f9bd
00000020: 682a 05be ffc0 f83c b8db fcbd e38d f43d
00000030: 1a01 cfbd a93c a83c 58e8 043d 8dd5 f63d
00000040: a8ed 0ebd dd1d f13d 50ad b8bc cf7f a2bd
00000050: cc6c 91bd a21e 26bc 3800 463c 9d56 f4bd
00000060: 9fef 6fbd c026 1dbd b688 4fbd 02c0 1dbd
00000070: d585 3fbd 5591 313d e980 97bd 0c97 ccbb
00000080: 9ade f9bd 1aa6 223d 9d7f cebd 0520 023c
00000090: 0748 0bbe 6c9b 703d acd8 e43d dbbd 0b3d
000000a0: 1756 0d3d 7921 34bd 69c8 a23d d774 9c3d
000000b0: ebf9 00bd b305 b9bd b67e 8cbd 539b abbd
000000c0: b3f2 663c 103e a63d 8367 aabd d557 573d
000000d0: 5f31 393d ad0f 893d 1fa9 cd3d df98 babd
000000e0: e891 d43d 6027 b33d 6350 a63d 7fad 80bc
000000f0: cd53 403d c74b a53d a76c bd3d 5891 0dbe
00000100: 755d 0d3e 193d fc3c 66a7 85bd 9bcb b43c
00000110: 3527 fe3c a734 a0bd dffb 59bd c79a 443d
00000120: ead3 8dbd a84b 6cbd d414 123c c714 603d
00000130: 210f db3d 1916 d53d 91c5 48bc d254 ce3d
00000140: f82c ebbc 80fb 073e 946f fdbc 3036 803d
00000150: 58e4 18bd f916 69bc 5cbd 173d 2eb9 973d
00000160: e189 dabc 09c3 d83c 4f8f d4bd 0f1a ab3c
00000170: 06b2 5dbd ef27 83bc 3af1 a23d 00d1 e9bd
00000180: 8881 cbbd b423 f73d 01cf 39bd f969 8e3d
00000190: cbe9 30bd f127 a8bd bfdd 8f3d 3163 5a3c
000001a0: 8037 123d 523f 5ebd 303d 23bd 2b10 ca3d
000001b0: db28 013d 656c f63d 8b38 d7bd e795 303c
000001c0: 395e 2fbb 27d4 95bd 68d8 ce3d 459d 8a3d
000001d0: 1037 893b eb86 b9bc 76c2 843c c97c adbd
000001e0: 9c64 973d 312e ba3d fc70 5ebc 5179 aabd
000001f0: 89cc ec3d 55a4 913d 33e3 23bd 539e 383a
00000200: 1bb8 f13d e191 03bd 96b9 c6bc 6f71 9abc
00000210: 31da 98bd 0e7d f0bc adfb 933c 9de1 afbd
00000220: 939d f43d 2588 e83c 4308 ac3d 4bb1 edbd
00000230: 4b6e cebd b50c 943d e1cd cfbd 025e 2f3d
00000240: d7ce 2bbd c6ca d4bc 9e3c c93d 5bc2 98ba
00000250: 3134 6c3d 51cf 4d3d 86b0 f7bd 52e8 04bc
00000260: 00bf a5bd b784 8c3d c983 58bd 8da5 ec3d
00000270: 5740 ba3d 15f4 c13d 0a83 ba3d 1ac3 943d
00000280: f97f f33d 3682 c7ba 687d 12bd 7337 06be
00000290: 55ca 7ebd a52f 82bd a2ee 9cbd c4c8 c23d
000002a0: 42d9 823d ea6c af3d 70a1 5abd 2a19 14bd
000002b0: dcbc d93d 32dd 923d 62d1 a73c 02a6 8a3b
000002c0: 9f58 c5bd 811d e2bd 6318 02be 0763 b33d
000002d0: ff3c 9bbd 8e75 afbd 5566 c73d 25d7 85bd
000002e0: d73d ef3d 4dc3 ec3d ebe4 d73d c209 793c
000002f0: 0969 31bd 1417 c9bd 0fb1 a5bd f0c3 b13d
00000300: d1aa 5cbd e737 98bd 3668 1b3d daa2 bebd
00000310: d2dc efbb 9fb9 503d 200a c6bd b6fd ddbb
00000320: 7a87 a73d 1771 ab3c 6aeb d6bd a02d 94bd
00000330: c549 c03d a9d4 dbbd b958 6a3b dc7d 7fbc
00000340: 8f70 c43d 431e 8f3d aa7a 4f3d 3739 13bc
00000350: fff9 acbd b827 c0bd 01f5 f9bd db8d c53c
00000360: 7d46 823d d78d 66bd 85ce a2bc a19b 373d
00000370: 47a9 bb3d 3abb a5bd ab81 da3d f698 52bc
00000380: 0b41 b0bd b3c8 b43c 36db c13d 1647 e7bc
00000390: 3eed c9bd 9f5a 7abd 876d a83d 265f 1e3d
000003a0: 0e12 b2bc aecd 183c e7b4 763b af91 613d
000003b0: 1213 debd 25fc 97bd 48cb f23d 42a1 37bd
000003c0: ff4d b0bb 4f0d f4bd 96f6 88bd ec48 44bd
000003d0: 7f3f 633d aa66 7b3d c619 0dbc d8fd 43bd
000003e0: e1f7 8f3d d13c 83bd 023a 7fbd 150c b1bc
000003f0: 4b22 ed3d 5a9b e03d 509f 8e3d 7fc9 abbc

q_policy.bias f4 [64]
-0.11093649 -0.12509882 0.0005739764 0.0026168248 -0.12877898 0.04426508 -0.12980263 -0.087375894
-0.0031733683 -0.055935845 0.0009716128 -0.0005188029 0.023714852 -0.015984835 0.05535544 -0.15712248
0.13989606 -0.01061147 -0.08179613 0.0049876194 -0.040754065 0.037634913 0.07505119 0.0050635524
-0.13611208 -0.093455 0.0017191856 -0.14943811 0.09429624 0.050209466 -0.0059105684 0.061372984
0.15239437 0.08433816 -0.078743845 0.072822616 0.08146293 -0.028277818 -0.067850284 -0.015037826
-0.12750366 -0.15194602 0.07493373 -0.0953309 -0.065528825 -0.006721473 -0.094507255 0.07028298
-0.022050917 0.11158415 -0.11246645 -0.011172943 -0.13936162 0.021984087 0.014374334 -0.07404299
-0.08028106 -0.114331044 0.028383238 0.028995564 0.06632097 -0.14694217 0.026699308 -0.06444047
00000000: ac32 e3bd e819 00be e776 163a 097f 2b3b
00000010: a3de 03be 4d4f 353d fbea 04be 22f2 b2bd
00000020: 49f8 4fbb fc1c 65bd d5b3 7e3a 4600 08ba
00000030: a645 c23c a1f2 82bc 63bc 623d b7e4 20be
00000040: ea40 0f3e bbdb 2dbc bb84 a7bd 2f6f a33b
00000050: bced 26bd 1127 1a3d 70b4 993d 28ec a53b
00000060: f760 0bbe 5665 bfbd 4c56 e13a 4e06 19be
00000070: 631e c13d 71a8 4d3d 71ad c1bb 3d62 7b3d
00000080: 450d 1c3e 7cb9 ac3d 7444 a1bd 0624 953d
00000090: 09d6 a63d e2a6 e7bc 17f5 8abd 3761 76bc
000000a0: 5290 02be bd97 1bbe db76 993d d93c c3bd
000000b0: fa33 86bd cd3f dcbb 058d c1bd 86f0 8f3d
000000c0: 20a4 b4bc 3b86 e43d cf54 e6bd b80e 37bc
000000d0: d0b4 0ebe f917 b43c 5482 6b3c daa3 97bd
000000e0: 656a a4bd 6526 eabd f783 e83c 1b88 ed3c
000000f0: 4ad3 873d 0278 16be 82b8 da3c 5df9 83bd

embed.embedding_net.lin1_1.weight f4 [32, 4]
0.2822876 0.13066824 -0.015034491 -0.00910833 0.16750409 0.35338748 -0.49071166 0.24135366
0.37327668 0.082510956 -0.13681768 -0.3811926 -0.26943815 0.016298993 -0.18126144 0.19693118
0.4283445 0.27935883 0.14302109 0.25921664 -0.28797588 -0.02043301 -0.1271831 0.23636386
-0.213084 0.029348794 -0.123682186 0.050701603 0.05465994 -0.08501778 0.015845917 -0.28974193
-0.39341596 0.3538057 0.27095827 0.29892167 0.25976703 0.1557426 0.012126781 -0.41935602
-0.2858334 -0.28432956 -0.00020814479 0.35765433 0.42692223 -0.4971688 0.44656333 0.13783026
-0.17117408 -0.1543933 -0.11833406 0.4667266 -0.45822233 -0.011457143 0.109087154 0.34310153
0.26653087 -0.27716413 0.120620415 -0.08445778 0.3685115 0.5020347 -0.087890945 0.42479172
-0.10210793 -0.3776652 -0.07675017 0.35330984 -0.17726305 -0.3368253 -0.21322015 0.31284785
0.18707031 -0.38230988 0.46815726 0.38719136 -0.4657729 0.3781352 0.2814292 0.20919725
0.34365004 -0.21102673 -0.1409291 0.052814443 -0.39351508 0.044694506 0.3907225 0.3328367
-0.41490132 -0.35459214 -0.1573938 0.2875459 0.0593566 0.385735 0.20351797 0.4286729
-0.4595394 -0.0635535 -0.10545595 0.31686348 -0.1110188 0.022231044 0.36141774 -0.38093427
-0.24652976 0.41481006 -0.1715189 -0.43766612 0.31330508 0.12811396 -0.33160788 -0.31240118
0.50324047 -0.012957768 0.47340572 -0.103276305 -0.15198386 0.40284336 -0.36922613 0.052846096
-0.23569526 0.35675102 -0.23725349 -0.09740127 -0.45558834 0.30763313 0.31349266 -0.22456208
00000000: 0088 903e e5cd 053e 3a53 76bc 1b3b 15bc
00000010: 3186 2b3e 34ef b43e 8f3e fbbe 6a25 773e
00000020: 1f1e bf3e 81fb a83d ef19 0cbe ad2b c3be
00000030: ccf3 89be 7785 853c 999c 39be 54a8 493e
00000040: f84f db3e 1f08 8f3e 1f74 123e 0bb8 843e
00000050: 9371 93be 2163 a7bc 493c 02be 5e09 723e
00000060: b132 5abe e26c f03c 164d fdbd 7cac 4f3d
00000070: 1ae3 5f3d cd1d aebd 4ccf 813c 0e59 94be
00000080: d16d c9be 0526 b53e 0bbb 8a3e 430c 993e
00000090: 2f00 853e fd7a 1f3e 68af 463c d5b5 d6be
000000a0: c158 92be a593 91be 7141 5ab9 781e b73e
000000b0: 8d95 da3e e98c febe f3a3 e43e 6023 0d3e
000000c0: 4248 2fbe 4719 1ebe 2159 f2bd caf6 ee3e
000000d0: 1e9c eabe beb6 3bbc 1669 df3d 01ab af3e
000000e0: bc76 883e 75e8 8dbe d607 f73d 33f8 acbd
000000f0: 8aad bc3e 5985 003f 2b00 b4bd 4d7e d93e
00000100: f61d d1bd 555d c1be 312f 9dbd 07e5 b43e
00000110: 7284 35be 5e74 acbe 6256 5abe 982d a03e
00000120: 5c8f 3f3e 1fbe c3be 4fb2 ef3e f23d c63e
00000130: c979 eebe f09a c13e 7d17 903e ce37 563e
00000140: e6f2 af3e 6417 58be b84f 10be f553 583d
00000150: cf7a c9be 9611 373d c80c c83e 9269 aa3e
00000160: f26d d4be 1a8d b5be d72b 21be 3739 933e
00000170: e81f 733d 0f7f c53e 0467 503e 047b db3e
00000180: c048 ebbe 5628 82bd 4af9 d7bd ee3b a23e
00000190: d35d e3bd e11d b63c bf0b b93e d109 c3be
000001a0: 4c72 7cbe fc61 d43e a7a2 2fbe c615 e0be
000001b0: 8669 a03e 4e30 033e 82c8 a9be 0cf3 9fbe
000001c0: 5ed4 003f d14c 54bc 3c62 f23e 8782 d3bd
000001d0: a8a1 1bbe 7c41 ce3e 350b bdbe 2675 583d
000001e0: 195a 71be 12a8 b63e 94f2 72be 517a c7bd
000001f0: e042 e9be 1782 9d3e 1c82 a03e 9af3 65be

embed.embedding_net.lin1_1.bias f4 [32]
-0.21737155 -0.008627414 -0.076892436 -0.4748286 -0.23164056 -0.28240263 -0.34563163 0.094556496
0.08239077 -0.33830482 -0.43675664 -0.07128009 -0.29000312 0.43829843 -0.36676636 -0.028691957
-0.15150768 0.20860581 0.21982555 -0.39944962 -0.43142688 0.3540058 -0.23235522 0.02728557
0.19163008 -0.31884027 -0.12403207 0.41808304 -0.23350103 0.2935967 0.24850683 -0.37631837
00000000: a696 5ebe ff59 0dbc c879 9dbd bc1c f3be
00000010: 2f33 6dbe 1497 90be a1f6 b0be d6a6 c13d
00000020: 7ebc a83d 4a36 adbe 919e dfbe 4cfb 91bd
00000030: 4a7b 94be a768 e03e cdc8 bbbe 650b ebbc
00000040: d424 1bbe c39c 553e f319 613e a984 ccbe
00000050: fce3 dcbe 4040 b53e 87ee 6dbe fd85 df3c
00000060: ad3a 443e 083f a3be 8704 febd fb0e d63e
00000070: e51a 6fbe 4f52 963e 9378 7e3e cdac c0be

embed.embedding_net.bn1_1.weight f4 [32]
1.0100706 0.9966704 0.9984643 1.0056839 0.98835164 0.9971908 0.9884966 1.0006638
1.0049993 0.99705243 0.99632186 1.0020443 0.99589366 1.0006 1.0153834 1.0028265
1.0069221 1.0165136 0.9984219 0.9967859 1.0098501 1.0019796 1.0036544 0.9966553
1.0048732 1.0023106 0.9947526 1.0020493 0.98913926 0.99671984 0.9998295 1.0002453
00000000: fe49 813f cb25 7f3f 5b9b 7f3f 40ba 803f
00000010: 9d04 7d3f e547 7f3f 1d0e 7d3f c015 803f
00000020: d1a3 803f d43e 7f3f f30e 7f3f fd42 803f
00000030: e3f2 7e3f a913 803f 15f8 813f 9e5c 803f
00000040: d3e2 803f 1e1d 823f 9498 7f3f 5c2d 7f3f
00000050: c542 813f de40 803f bf77 803f cd24 7f3f
00000060: af9f 803f b74b 803f 1ba8 7e3f 2743 803f
00000070: 3b38 7d3f 0829 7f3f d3f4 7f3f 0a08 803f

embed.embedding_net.bn1_1.bias f4 [32]
0.010478423 0.003988841 0.010264374 0.010462393 -0.022743378 0.0038987042 -0.010658267 -0.0034189285
0.012488163 -0.0020947843 0.0039194357 -0.006437095 -0.0104748495 0.012882821 0.0022788995 0.0034009186
0.00056836795 0.013478463 0.0063600386 -0.00050718925 0.02153138 0.008927269 0.01017679 -0.0021540208
0.015141695 0.004171524 -0.001771949 0.010527634 -0.010607879 0.006716629 0.00087135256 0.0010945869
00000000: b1ad 2b3c d3b4 823b e82b 283c 756a 2b3c
00000010: 5250 babc 6781 7f3b 03a0 2ebc 1a10 60bb
00000020: 279b 4c3c a648 09bb 9c6e 803b 44ee d2bb
00000030: b49e 2bbc 7812 533c 9759 153b f2e1 5e3b
00000040: 87fe 143a c5d4 5c3c df67 d03b e5f4 04ba
00000050: 9462 b03c ae43 123c 8dbc 263c 792a 0dbb
00000060: df14 783c 48b1 883b be40 e8ba 197c 2c3c
00000070: abcc 2dbc 2b17 dc3b 7b6b 643a 3e78 8f3a

embed.embedding_net.bn1_1.running_mean f4 [32]
-0.07618264 0.6148466 -1.7834522 0.022533005 1.5119259 0.44730616 -0.39278558 -1.2117654
1.8224375 -2.017103 0.90101945 1.1869453 1.4891025 1.922449 -0.5766694 2.2027209
1.0988922 1.0538616 2.57887 0.9260333 -0.33798885 2.2725048 0.45381746 2.498711
1.2108312 -1.5523233 -2.282026 -1.2750505 0.24905176 0.10881088 -0.4864004 -1.001947
00000000: a505 9cbd 9666 1d3f 2948 e4bf 2397 b83c
00000010: ca86 c13f 5005 e53e 311b c9be 211b 9bbf
00000020: a245 e93f 3718 01c0 36a9 663f d3ed 973f
00000030: e99a be3f cf12 f63f 9ba0 13bf 61f9 0c40
00000040: 80a8 8c3f f0e4 863f 350c 2540 8510 6d3f
00000050: e00c adbe b870 1140 c35a e83e e2ea 1f40
00000060: 84fc 9a3f 88b2 c6bf b70c 12c0 db34 a3bf
00000070: 6d07 7f3e 3dd8 de3d 7909 f9be cd3f 80bf

embed.embedding_net.bn1_1.running_var f4 [32]
0.008432994 0.08717881 0.2352453 0.018356163 0.15174815 0.030452702 0.009236764 0.07392443
0.27446872 0.166908 0.13409023 0.29042065 0.1446063 0.18886356 0.015975129 0.1567853
0.09778585 0.046969987 0.5733121 0.21212606 0.020919587 0.4125327 0.05908494 0.33759356
0.074869424 0.047375195 0.32617494 0.32811418 0.13384694 0.09457153 0.098708354 0.050056577
00000000: 8a2a 0a3c ce8a b23d 25e4 703e aa5f 963c
00000010: de63 1b3e f277 f93c cc55 173c b165 973d
00000020: 2a87 8c3e eee9 2a3e f34e 093e 04b2 943e
00000030: ad13 143e 7365 413e 46de 823c 538c 203e
00000040: f343 c83d 9a63 403d 95c4 123f 9337 593e
00000050: 8e5f ab3c 7c37 d33e 0d03 723d 10d9 ac3e
00000060: 2455 993d 7e0c 423d 6700 a73e 95fe a73e
00000070: 2c0f 093e b8ae c13d 9b27 ca3d 2008 4d3d

embed.embedding_net.lin1_2.weight f4 [32, 32]
-0.17411844 0.06231595 0.06701188 -0.016737454 -0.054006495 0.15966198 -0.15014012 -0.11276413
0.04710428 -0.11588192 -0.07880093 0.10763 0.07476367 -0.024177328 0.12177448 0.0032109169
-0.03849547 -0.062425755 -0.081337206 0.1562234 0.08619129 -0.13391088 0.1684121 -0.011533864
0.024040852 0.04555488 0.16920727 -0.056424484 -0.024762264 -0.04381693 0.05132414 -0.14853127
-0.031793617 0.06798355 0.15526214 -0.17241588 -0.17152366 0.1662609 0.028413653 -0.04664217
0.082332134 -0.13515782 -0.06311511 -0.054847702 0.048450474 -0.005418609 -0.06394736 -0.08494303
-0.14376292 -0.08112588 -0.10972489 0.09532838 0.15276569 -0.099795654 0.0431735 -0.077028185
-0.009647622 0.03134696 0.14358823 0.14909245 -0.07914321 0.1350024 0.02595953 -0.06481703
0.06529892 -0.025482688 -0.15701266 -0.049666736 0.13020453 -0.064703174 -0.044186 -0.005568344
0.03104376 -0.02740306 0.16604044 -0.004970721 0.16281182 0.1332962 -0.117113926 0.026852777
0.13878812 0.0076277866 0.019535406 0.09955173 0.028365903 0.07792917 0.07498734 -0.10660462
0.14878552 -0.028476523 0.16261163 -0.072291024 -0.08207061 -0.0047428394 0.03001564 0.0059570638
-0.054149047 -0.08757494 0.13096958 -0.08594399 -0.045470364 -0.053418368 0.111235574 -0.0139377145
-0.062028814 0.16037075 0.041549012 -0.12172675 0.00324533 -0.109960094 0.08999331 -0.06192175
-0.011737587 -0.13234217 -0.09342096 0.06755932 0.080962695 -0.14509085 0.14011966 -0.1125378
-0.049893055 0.15577604 0.016180588 0.022409761 0.11168743 -0.089233086 0.07264279 -0.17275125
-0.17441747 -0.14493357 0.13276021 0.072905585 0.13272758 0.07061106 0.12340114 0.12835568
-0.07082764 0.08036913 0.12148832 0.09764883 0.07624587 -0.12299431 0.002445209 -0.08200404
0.17864309 0.10044186 0.0020339838 -0.06902922 -0.0064893067 0.18553917 0.1657745 -0.15843038
-0.01721189 -0.14578196 -0.0547755 0.14571041 0.11373732 -0.1739062 -0.071900465 -0.06345628
-0.14782648 0.026287163 -0.071304455 -0.14397426 0.032234177 -0.011335553 0.1312905 -0.041916363
0.06668146 0.13728443 0.012745648 -0.07752007 -0.016541818 -0.10960298 0.0032993695 -0.07250132
0.14240555 -0.17142153 -0.00030338185 -0.09220581 0.089796 0.13717629 0.07323785 0.05282985
-0.1629041 0.08994073 0.006471793 0.073438704 -0.019509537 -0.047815427 0.067577034 -0.1366835
0.005642032 0.045152202 -0.013141571 0.145344 0.091254964 -0.16054617 0.06564575 0.028077872
-0.013797482 -0.15179452 -0.11153769 0.099770375 -0.027434967 0.06893737 -0.15538973 0.08822644
-0.071503825 0.042824004 -0.15110238 0.12694116 -0.010232289 0.12185415 -0.16233735 -0.175013
-0.013914751 -0.012446389 0.16978031 0.07171658 0.05368924 -0.010109546 0.015173553 -0.021505522
-0.08571575 0.027288621 0.09525326 0.04144882 -0.11492916 -0.1461708 0.092477255 -0.05560345
0.0896892 -0.037278384 -0.044465583 -0.1363942 0.07659494 0.1122985 -0.17455526 0.08786888
-0.033405207 -0.10822587 0.0051863533 -0.09353809 0.030438874 0.016310874 0.07934047 0.049413763
0.0910395 -0.02757999 0.14694513 0.049184754 0.11217996 -0.15675102 -0.1356631 -0.11999004
00000000: 1b4c 32be 023f 7f3d 863d 893d fc1c 89bc
00000010: ea35 5dbd 6e7e 233e 55be 19be e1f0 e6bd
00000020: 6bf0 403d 8053 edbd 6262 a1bd 1e6d dc3d
00000030: b21d 993d 880f c6bc e664 f93d 3f6e 523b
00000040: 6dad 1dbd 26b2 7fbd 1f94 a6bd 07f9 1f3e
00000050: 0f85 b03d ef1f 09be 3974 2c3e 88f8 3cbc
00000060: 52f1 c43c c197 3a3d ac44 2d3e 5c1d 67bd
00000070: 3bda cabc 6279 33bd 4339 523d 9518 18be
00000080: 063a 02bd f63a 8b3d 0afd 1e3e ca8d 30be
00000090: e6a3 2fbe 4c40 2a3e c0c3 e83c dc0b 3fbd
000000a0: c09d a83d d066 0abe 7f42 81bd fca7 60bd
000000b0: 0174 463d 968e b1bb d5f6 82bd 9cf6 adbd
000000c0: 9636 13be 5325 a6bd 71b7 e0bd 873b c33d
000000d0: 9c6e 1c3e aa61 ccbd b2d6 303d f4c0 9dbd
000000e0: 0f11 1ebc ac65 003d cb08 133e b1ab 183e
000000f0: d615 a2bd 123e 0a3e 15a9 d43c cbbe 84bd
00000100: 71bb 853d 12c1 d0bc edc7 20be 596f 4bbd
00000110: 5654 053e 1983 84bd 61fc 34bd a876 b6bb
00000120: 7c4f fe3c 627c e0bc 8106 2a3e 6ee1 a2bb
00000130: 24b8 263e cd7e 083e 6dd9 efbd 5bfa db3c
00000140: 791e 0e3e 83f2 f93b b708 a03c c7e1 cb3d
00000150: 9c5f e83c 5499 9f3d f692 993d 8653 dabd
00000160: 3b5b 183e 9947 e9bc aa83 263e 510d 94bd
00000170: a314 a8bd d269 9bbb 5ce3 f53c 7933 c33b
00000180: 64cb 5dbd 7d5a b3bd e41c 063e 6703 b0bd
00000190: 223f 3abd 38cd 5abd 7acf e33d 035b 64bc
000001a0: ed11 7ebd 3b38 243e 4c2f 2a3d e04b f9bd
000001b0: 9aaf 543b c232 e1bd 6a4e b83d a9a1 7dbd
000001c0: 024f 40bc b584 07be 7d53 bfbd 8a5c 8a3d
000001d0: c5cf a53d b292 14be 877b 0f3e 387a e6bd
000001e0: a95c 4cbd c183 1f3e 278d 843c ad94 b73c
000001f0: 61bc e43d d6bf b6bd bec5 943d b4e5 30be
00000200: 7e9a 32be 7769 14be 4bf2 073e 864f 953d
00000210: bde9 073e 889c 903d bdb9 fc3d ac6f 033e
00000220: 150e 91bd 9298 a43d dece f83d 1cfc c73d
00000230: cb26 9c3d 71e4 fbbd cd3f 203b bcf1 a7bd
00000240: 37ee 363e 76b4 cd3d 964c 053b 315f 8dbd
00000250: 40a4 d4bb fbfd 3d3e cac0 293e 933b 22be
00000260: f3ff 8cbc de47 15be 465c 60bd 1c35 153e
00000270: 1def e83d 7814 32be 8d40 93bd 5ef5 81bd
00000280: d35f 17be 2d58 d73c 1208 92bd fd6d 13be
00000290: fc07 043d c1b8 39bc 0471 063e 7eb0 2bbd
000002a0: 4a90 883d 4a94 0c3e 1fd3 503c d8c2 9ebd
000002b0: b582 87bc 8777 e0bd 3c3a 583b 927b 94bd
000002c0: c3d2 113e 2089 2fbe 390f 9fb9 66d6 bcbd
000002d0: f7e6 b73d f177 0c3e bafd 953d 1d64 583d
000002e0: 55d0 26be d832 b83d 5611 d43b 0867 963d
000002f0: 77d2 9fbc 1cda 43bd d465 8a3d c2f6 0bbe
00000300: cbe0 b83b 84f1 383d be4f 57bc 0fd5 143e
00000310: e2e3 ba3d 3766 24be 4771 863d 9103 e63c
00000320: d50e 62bc 0670 1bbe df6d e4bd 6954 cc3d
00000330: 4cbf e0bc 092f 8d3d 7c1e 1fbe 10b0 b43d
00000340: 9970 92bd 3968 2f3d 95ba 1abe ddfc 013e
00000350: 55a5 27bc ab8e f93d c33b 26be 9c36 33be
00000360: b2fa 63bc f0eb 4bbc e4da 2d3e 24e0 923d
00000370: 40e9 5b3d 82a2 25bc 7e9a 783c 592c b0bc
00000380: bd8b afbd 638c df3c 2414 c33d 3dc6 293d
00000390: fb5f ebbd ccad 15be b764 bd3d 71c0 63bd
000003a0: f9ae b73d 38b1 18bd 8b21 36bd ecaa 0bbe
000003b0: cfdd 9c3d c2fc e53d 9dbe 32be 99f4 b33d
000003c0: e6d3 08bd 86a5 ddbd 49f2 a93b e690 bfbd
000003d0: f25a f93c 629e 853c 427d a23d 1666 4a3d
000003e0: eb72 ba3d 6eef e1bc c978 163e f475 493d
000003f0: 9bbe e53d 5783 20be 45eb 0abe 57bd f5bd

embed.embedding_net.lin1_2.bias f4 [32]
-0.10266795 -0.02341153 0.05280286 0.11408481 0.06557077 -0.0106451735 -0.09735387 -0.079333596
-0.14674231 -0.10233711 -0.022007337 0.14386477 0.10950134 -0.06105301 0.106630035 0.1724956
0.060861737 0.047849566 0.10015361 -0.024866551 -0.105404034 0.061749656 0.06316869 0.11518725
0.02653714 0.17390397 0.13954896 -0.045947816 -0.017658519 0.022420164 0.0877419 -0.03171393
00000000: 9343 d2bd 89c9 bfbc d047 583d 4ca5 e93d
00000010: f849 863d 1869 2ebc 7761 c7bd a779 a2bd
00000020: 9e43 16be 1e96 d1bd bb48 b4bc 4951 133e
00000030: 3d42 e03d b912 7abd d960 da3d b0a2 303e
00000040: 284a 793d e8fd 433d 561d cd3d f0b4 cbbc
00000050: 12de d7bd 35ed 7c3d 965e 813d 4be7 eb3d
00000060: 6b64 d93c e213 323e ece5 0e3e c733 3cbd
00000070: 99a8 90bc 7eaa b73c 06b2 b33d 77e6 01bd

embed.embedding_net.conv1.nn.0.weight f4 [32, 32]
-0.101950146 0.06705298 -0.14305934 -0.09929515 0.08826153 -0.11211072 0.13511264 0.10763152
0.06339514 0.07480446 0.1454351 -0.12307579 -0.10820402 -0.13980004 -0.11978621 -0.02725801
0.077449195 -0.17229591 -0.0536636 0.10276514 -0.15617198 -0.11935207 0.06665123 0.015592606
0.044081725 -0.021206481 0.097911276 -0.025838083 0.15463558 0.01966298 -0.14003107 -0.11702346
0.16770023 -0.15658954 0.16564685 -0.09149924 0.121555395 -0.024670107 -0.0669256 0.028382877
-0.11089781 0.14484473 -0.043420695 0.00614206 0.10688791 -0.03528462 0.06071392 0.06097446
0.16356328 -0.060089402 -0.14193945 -0.037626605 -0.052257534 -0.03166042 -0.14195234 -0.10133664
0.14115244 -0.0040168692 0.09046068 0.027354738 -0.021598369 0.057663895 0.13651516 -0.103127755
0.12622435 -0.030971311 0.106165476 0.124386236 -0.14079188 -0.12786241 -0.002605205 -0.0062510604
0.13151805 0.17039905 -0.14122684 -0.0067521096 0.0013112901 0.073976435 0.09242707 0.07616521
0.13944072 -0.13640048 -0.10475795 -0.05691479 -0.095208354 -0.023722934 -0.10767742 0.08439418
0.08981243 0.071215846 -0.08081448 0.15702984 -0.17475393 0.02116286 -0.11563067 -0.069228195
-0.043681983 0.043919735 -0.1198659 0.018904926 -0.07111512 -0.029503832 -0.049458038 -0.048560895
-0.042619877 0.17597252 -0.1718997 -0.16968572 0.1841973 -0.12960674 -0.025716754 0.16909982
-0.074264064 0.10243978 0.12613189 -0.02366722 -0.11718574 0.06593998 0.006129416 0.03729373
0.043431055 0.15247919 0.16494024 0.022136644 0.17013322 -0.02650028 0.048118226 -0.09740515
-0.11551177 -0.081168406 0.1502485 0.028442077 -0.11756887 -0.063645676 -0.093406454 0.1807433
-0.17439932 0.063565105 -0.1415283 0.069571085 0.12165522 -0.15158035 0.0099541675 0.026954083
-0.15400161 -0.104011625 0.05512221 0.052249122 -0.114182375 0.15108308 0.14227672 0.17830743
-0.06995387 -0.11910081 -0.08909702 -0.13646042 0.077785626 0.021631813 0.15978794 -0.033760052
-0.078012 0.06315077 0.09598214 -0.005725273 0.00013295829 -0.059226993 0.018378494 0.050955273
0.0528244 -0.14827663 -0.13570485 -0.10531423 -0.0069693835 -0.10209534 -0.15395275 0.16677071
0.13376853 0.03955342 0.0035667247 -0.12796189 -0.15523574 -0.07523715 -0.15200008 0.12043206
0.14014499 -0.06960609 -0.1754601 -0.16912882 0.15236692 -0.14941597 -0.14691064 0.16213685
-0.15239975 0.05404643 -0.10916061 -0.06190292 -0.13256867 0.0456432 0.03678929 0.04840368
-0.08886315 -0.14548723 0.11519641 -0.095343 -0.1334634 0.15342182 0.11985305 -0.052517135
-0.17903805 -0.12717173 0.16660585 -0.15516602 -0.021516867 0.10403298 0.08642306 -0.07695977
0.047046892 0.11074376 0.019296933 -0.032320134 0.023264375 0.09781226 -0.035460453 0.06063355
-0.107708305 -0.12846592 0.055227775 -0.15414788 0.061596178 -0.13311347 -0.16469021 -0.10716384
-0.04599623 0.04248736 0.017956153 0.010879113 0.022447344 0.002465198 0.097307295 0.0059706653
0.047091935 0.15274687 -0.011877443 -0.025808116 0.052802514 -0.09453348 -0.08251987 0.00042351816
0.044889614 -0.14069629 0.003974455 0.029961554 0.069814794 0.07912039 -0.037000466 -0.030029867
00000000: 3dcb d0bd 1353 893d 267e 12be 415b cbbd
00000010: 76c2 b43d 4e9a e5bd f85a 0a3e ea6d dc3d
00000020: 50d5 813d 1533 993d f0ec 143e 290f fcbd
00000030: 129a ddbd be27 0fbe 7952 f5bd 314c dfbc
00000040: af9d 9e3d 576e 30be 5dce 5bbd 8876 d23d
00000050: 8ceb 1fbe dc6e f4bd 7180 883d 2178 7f3c
00000060: 0a8f 343d 37b9 adbc b585 c83d 63aa d3bc
00000070: ca58 1e3e 4214 a13c 4e64 0fbe ffa9 efbd
00000080: 9cb9 2b3e 0259 20be 549f 293e f463 bbbd
00000090: 09f2 f83d f718 cabc 4a10 89bd 3583 e83c
000000a0: 641e e3bd 2d52 143e e6d9 31bd 5543 c93b
000000b0: 0ce8 da3d 9b86 10bd 29af 783d 5bc0 793d
000000c0: 227d 273e 4e20 76bd 9358 11be 5b1e 1abd
000000d0: ff0b 56bd 5bae 01bd f45b 11be 9689 cfbd
000000e0: 448a 103e f19f 83bb 7343 b93d 0b17 e03c
000000f0: 10ef b0bc fa30 6c3d a1ca 0b3e a534 d3bd
00000100: f540 013e 8cb7 fdbc 496d d93d 36be fe3d
00000110: bf2b 10be 5dee 02be 16bc 2abb b2d5 ccbb
00000120: abac 063e 177d 2e3e c59d 10be cd40 ddbb
00000130: 98df ab3a f580 973d 674a bd3d 81fc 9b3d
00000140: 8cc9 0e3e 91ac 0bbe 568b d6bd 7c1f 69bd
00000150: 99fc c2bd 9956 c2bc fb85 dcbd dbd6 ac3d
00000160: 94ef b73d 9dd9 913d 1082 a5bd 6ecc 203e
00000170: b2f2 32be bc5d ad3c c6cf ecbd 83c7 8dbd
00000180: e1eb 32bd 2ee5 333d 417c f5bd 81de 9a3c
00000190: cea4 91bd 05b2 f1bc 8394 4abd cae7 46bd
000001a0: 2e92 2ebd 2432 343e 7a06 30be 18c2 2dbe
000001b0: 389e 3c3e a1b7 04be f1ab d2bc 8128 2d3e
000001c0: c217 98bd f3cb d13d b828 013e c2e1 c1bc
000001d0: 14ff efbd 8a0b 873d 45d9 c83b 4fc1 183d
000001e0: c3e4 313d 8123 1c3e 18e6 283e e857 b53c
000001f0: 6737 2e3e 1d17 d9bc 9e17 453d 5a7c c7bd
00000200: 6f91 ecbd 9f3b a6bd beda 193e 5cff e83c
00000210: f3c7 f0bd aa58 82bd e24b bfbd c614 393e
00000220: bc95 32be 6c2e 823d cbec 10be 497b 8e3d
00000230: 5f26 f93d e137 1bbe ce16 233c cfce dc3c
00000240: 99b2 1dbe 0c04 d5bd d4c7 613d 2d03 563d
00000250: 73d8 e9bd 86b5 1a3e fdb0 113e 3996 363e
00000260: f943 8fbd 20eb f3bd 8078 b6bd 48bc 0bbe
00000270: 124e 9f3d 3335 b13c 739f 233e fb47 0abd
00000280: c1c4 9fbd 3155 813d 4992 c43d 129b bbbb
00000290: b86a 0b39 0198 72bd 7f8e 963c 7ab6 503d
000002a0: 665e 583d d4d5 17be 36f6 0abe fdae d7bd
000002b0: 6d5f e4bb 5d17 d1bd caa5 1dbe f1c5 2a3e
000002c0: 9efa 083e c402 223d b6bf 693b 7108 03be
000002d0: 1ef6 1ebe ef15 9abd e9a5 1bbe 15a5 f63d
000002e0: 2b82 0f3e a38d 8ebd d0ab 33be 1b30 2dbe
000002f0: 1306 1c3e 8000 19be be6f 16be 3407 263e
00000300: ae0e 1cbe ca5f 5d3d 998f dfbd eb8d 7dbd
00000310: 15c0 07be 5df4 3a3d 5eb0 163d f042 463d
00000320: e2fd b5bd 9bfa 14be 18ec eb3d 3143 c3bd
00000330: a1aa 08be 9c1a 1d3e 8475 f53d 351c 57bd
00000340: c055 37be 4e39 02be b99a 2a3e d7e3 1ebe
00000350: 2444 b0bc 3e0f d53d 93fe b03d 159d 9dbd
00000360: 3eb4 403d a0cd e23d 9a14 9e3c 1e62 04bd
00000370: ee94 be3c cb51 c83d fb3e 11bd e35a 783d
00000380: 2c96 dcbd 928c 03be 8536 623d f1d8 1dbe
00000390: 464c 7c3d e64e 08be 8da4 28be b778 dbbd
000003a0: 8b66 3cbd 3a07 2e3d c818 933c 4f3e 323c
000003b0: 7ee3 b73c 298f 213b 0c49 c73d 92a5 c33b
000003c0: 79e3 403d ad69 1c3e 9b99 42bc 8b6b d3bc
000003d0: 7347 583d c59a c1bd 2d00 a9bd a50b de39
000003e0: 2cde 373d b012 10be 253c 823b ef71 f53c
000003f0: 0ffb 8e3d df09 a23d cd8d 17bd 3201 f6bc

embed.embedding_net.conv1.nn.0.bias f4 [32]
0.10617 -0.13568775 -0.1410995 -0.028364532 0.071749195 -0.037975557 -0.098306224 0.08898718
0.088452235 -0.15178612 0.15219352 -0.17148839 -0.053636476 -0.16526026 -0.17172228 0.030042876
0.09812507 -0.082885176 0.06338587 -0.11254936 -0.080395386 0.13171673 -0.05135639 0.08000329
0.13255827 -0.07517819 0.0495385 0.09807019 0.05361705 0.09451376 0.08411764 0.16311803
00000000: a86f d93d bbf1 0abe 637c 10be bc5c e8bc
00000010: 3ef1 923d 428c 1bbd c654 c9bd e93e b63d
00000020: 7226 b53d d26d 1bbe 9ed8 1b3e a79a 2fbe
00000030: ecb1 5bbd fc39 29be f7d7 2fbe 7a1c f63c
00000040: ccf5 c83d b4bf a9bd 73d0 813d 4780 e6bd
00000050: 56a6 a4bd c0e0 063e 145b 52bd c4d8 a33d
00000060: 5bbd 073e 06f7 99bd e2e8 4a3d 06d9 c83d
00000070: 8d9d 5b3d 6e90 c13d df45 ac3d 6a08 273e

embed.embedding_net.conv1.nn.2.weight f4 [32, 32]
-0.105638295 -0.036948744 0.06811922 -0.09119856 0.11352019 -0.033887073 0.071015276 0.16038346
-0.12397891 -0.0013046982 0.025732614 -0.11365489 -0.07127223 -0.09041447 -0.047767572 0.036434386
-0.08584236 0.06570465 -0.08298815 0.16098526 -0.15954171 0.14459203 -0.045279305 -0.062001932
-0.05445928 -0.065269925 0.102418 -0.12787096 -0.1674489 0.13487816 -0.03755441 -0.028783103
-0.0020238915 -0.078630306 0.16264044 0.092324264 -0.11649626 0.1290164 -0.14968866 -0.096273355
0.17093384 -0.15616791 0.03359751 -0.10084614 -0.124702126 0.11503426 -0.04491163 -0.039952323
0.0063422215 0.07787337 0.0832757 -0.10535568 -0.08077746 0.14257433 -0.14038315 0.09872152
-0.11574242 -0.04854649 -0.04251297 0.18854745 -0.19059075 -0.17055945 0.15100092 -0.12045619
-0.1597007 0.16779375 -0.09796711 -0.007092896 -0.021295644 -0.07622284 0.16681495 -0.060427994
-0.06691958 0.03496051 0.07322004 0.0025879533 0.13111408 0.10522582 0.081357904 -0.09654661
0.010010369 0.04989076 -0.12262501 0.1453044 0.05503665 0.04601879 -0.055894513 0.04204276
-0.041087948 -0.0025837705 -0.030801492 0.14166021 0.106466785 0.17728415 -0.16078334 0.08575786
0.019696908 -0.15091488 -0.15152547 0.049020126 0.10411529 0.16982482 0.07126463 -0.07102522
0.118778236 0.06793706 -0.16362491 -0.16464335 -0.08614181 -0.100116 0.079410985 -0.14882858
0.16050333 -0.11872781 -0.046648726 0.041509736 -0.12418999 -0.14373381 0.1453256 -0.124043494
0.0024652008 0.12667856 -0.03860963 0.05170735 -0.12415735 0.039796717 0.12783523 0.16823268
0.14652847 -0.16998202 -0.167973 -0.1363818 0.10478223 0.0055383416 0.043687165 -0.1252714
0.13854913 -0.13001461 0.1819393 -0.17969409 -0.04879552 0.14685223 0.17580481 -0.14606905
-0.17894804 0.03259198 0.12078779 0.056180183 -0.1521453 0.14253353 -0.0013332079 -0.03610105
-0.09366028 -0.10718986 0.019551056 0.04526637 0.115989186 -0.04942586 0.09270436 -0.10181919
-0.03167262 0.051390633 0.15723209 0.15510993 0.020135105 -0.12240877 -0.025424572 0.0922001
-0.10763136 0.075031705 -0.14393643 0.08870298 0.14377826 -0.054389212 -0.023918271 -0.12991953
-0.051409367 -0.06366167 -0.07082298 -0.016588846 -0.09792384 -0.035332933 -0.007817393 0.045656566
0.15676548 -0.07620784 -0.002499586 -0.0714023 0.057686195 0.09861446 -0.00029359836 0.09741416
-0.070255905 0.07192489 -0.025106097 -0.15813904 0.106659725 0.15787984 -0.029161466 0.030397894
-0.13939266 0.08649628 -0.051597577 0.10363796 -0.19254155 0.09004185 0.049161486 0.03516425
-0.050614808 0.06281536 -0.08808107 0.11081817 -0.08207955 0.082302704 0.11432852 0.003440408
-0.09639981 -0.042777993 0.12532227 -0.09934694 -0.16593666 0.15500501 -0.08671404 0.1189024
0.11209639 -0.17641403 -0.060398616 -0.15782313 0.16568172 -0.11836305 0.09812277 -0.14793508
-0.009728573 0.17034262 -0.14938979 -0.1285183 -0.040648006 -0.036442507 0.12535632 0.03430733
-0.16628253 0.015679328 0.09105387 0.13478962 -0.093909204 -0.12867878 0.050980598 -0.030031063
0.06340778 -0.0039360276 -0.011137561 -0.09277586 0.05488082 -0.041887812 0.1839741 -0.11220923
00000000: e458 d8bd 9157 17bd 1782 8b3d 50c6 babd
00000010: 467d e83d 2ccd 0abd 7570 913d 903b 243e
00000020: a8e8 fdbd 6802 abba 34cd d23c e5c3 e8bd
00000030: 2df7 91bd 392b b9bd eea7 43bd 393c 153d
00000040: 1fce afbd 2990 863d b1f5 a9bd 52d9 243e
00000050: e75e 23be ef0f 143e cb76 39bd bdf5 7dbd
00000060: b210 5fbd 3dac 85bd 87c0 d13d 9bf0 02be
00000070: b977 2bbe 801d 0a3e a7d2 19bd 8bca ebbc
00000080: 44a3 04bb ed08 a1bd 378b 263e 8114 bd3d
00000090: 9795 eebd e01c 043e fc47 19be f72a c5bd
000000a0: 4809 2f3e 7bea 1fbe 8b9d 093d 6c88 cebd
000000b0: d463 ffbd 1597 eb3d 42f5 37bd 0ca5 23bd
000000c0: 69d2 cf3b 137c 9f3d 738c aa3d b8c4 d7bd
000000d0: a76e a5bd 01ff 113e 9ac0 0fbe 822e ca3d
000000e0: 5d0a edbd afd8 46bd 1422 2ebd 9512 413e
000000f0: 392a 43be 23a7 2ebe fc9f 1a3e bcb1 f6bd
00000100: 9588 23be 20d2 2b3e fba2 c8bd 866b e8bb
00000110: 3474 aebc b81a 9cbd 8ad1 2a3e 5883 77bd
00000120: 220d 89bd c032 0f3d 63f4 953d a79a 293b
00000130: c542 063e a280 d73d f99e a63d 3bba c5bd
00000140: 8802 243c 415a 4c3d d222 fbbd adca 143e
00000150: 1c6e 613d 337e 3c3d a5f1 64bd 0735 2c3d
00000160: d64b 28bd 7a54 29bb 6953 fcbc 600f 113e
00000170: 420b da3d fa89 353e 63a4 24be d1a1 af3d
00000180: 695b a13c 6e89 1abe 7e29 1bbe 54c9 483d
00000190: 663a d53d 8fe6 2d3e 31f3 913d ac75 91bd
000001a0: 0142 f33d 9622 8b3d 4a8d 27be 4498 28be
000001b0: 1e6b b0bd 9e09 cdbd 3aa2 a23d 8566 18be
000001c0: fc5a 243e 9127 f3bd bc12 3fbd 1d06 2a3d
000001d0: 5257 febd f52e 13be 3cd0 143e 840a febd
000001e0: 358f 213b 06b8 013e 2225 1ebd 16cb 533d
000001f0: 3546 febd e201 233d 3de7 023e 3045 2c3e
00000200: 8f0b 163e c40f 2ebe 1d01 2cbe aca7 0bbe
00000210: 1198 d63d fa7a b53b 50f1 323d 2547 00be
00000220: d3df 0d3e 8d22 05be 4c4e 3a3e ba01 38be
00000230: d0dd 47bd 6e60 163e 2d06 343e 2093 15be
00000240: 283e 37be 2b7f 053d 975f f73d 311d 663d
00000250: facb 1bbe 4ff4 113e 09bf aeba b2de 13bd
00000260: f6d0 bfbd 5b86 dbbd 8929 a03c 3b69 393d
00000270: bd8b ed3d c572 4abd c9db bd3d 9486 d0bd
00000280: 26bb 01bd fc7e 523d 7301 213e 23d5 1e3e
00000290: 60f2 a43c 73b1 fabd 3147 d0bc 68d3 bc3d
000002a0: d56d dcbd 39aa 993d 1264 13be e8a9 b53d
000002b0: 9c3a 133e 39c7 5ebd 40f0 c3bc a009 05be
000002c0: a192 52bd 0d61 82bd a30b 91bd 55e5 87bc
000002d0: 4b8c c8bd 44b9 10bd 8614 00bc 6102 3b3d
000002e0: 2187 203e db12 9cbd 18d0 23bb 5e3b 92bd
000002f0: 5c48 6c3d 61f6 c93d 1bee 99b9 1381 c73d
00000300: 54e2 8fbd 5b4d 933d 4dab cdbc 33ef 21be
00000310: 6a70 da3d 41ab 213e 07e4 eebc 0105 f93c
00000320: f3bc 0ebe f624 b13d fb57 53bd 2440 d43d
00000330: 9d29 45be dd67 b83d 8e5d 493d 6308 103d
00000340: 7951 4fbd 57a5 803d d963 b4bd a3f4 e23d
00000350: 5319 a8bd 528e a83d 1225 ea3d 7878 613b
00000360: 436d c5bd fa37 2fbd 7b54 003e 6976 cbbd
00000370: 4deb 29be a2b9 1e3e 2197 b1bd 1a83 f33d
00000380: cb92 e53d e1a5 34be 8a64 77bd 639c 21be
00000390: 78a8 293e 5468 f2bd 97f4 c83d 4b7c 17be
000003a0: 9864 1fbc 4c6e 2e3e a3f9 18be 4d9a 03be
000003b0: 867e 26bd bd44 15bd 685d 003e d885 0c3d
000003c0: f845 2abe ef71 803c 747a ba3d 4a06 0a3e
000003d0: 7853 c0bd 5fc4 03be 08d1 503d b403 f6bc
000003e0: f0db 813d cbf9 80bb 517a 36bc 4501 bebd
000003f0: b6ca 603d 8e92 2bbd b563 3c3e f4cd e5bd

embed.embedding_net.conv1.nn.2.bias f4 [32]
-0.07395419 0.07300507 -0.026868626 0.12889053 -0.021053925 0.14649223 -0.14936364 -0.0985731
-0.07598054 -0.08966611 -0.04870786 0.11872504 -0.17126 0.1527737 0.10509359 0.117098644
0.101967946 -0.15124404 0.0068433397 0.04666336 0.06480275 0.11969889 0.16855676 0.057199508
0.14276728 -0.070502624 -0.08971721 0.108761795 -0.054644123 -0.13331665 0.08161244 -0.1051059
00000000: 4b75 97bd af83 953d 981b dcbc e1fb 033e
00000010: 4879 acbc 0f02 163e c8f2 18be b2e0 c9bd
00000020: af9b 9bbd dea2 b7bd e581 47bd 1d26 f33d
00000030: c85e 2fbe b570 1c3e 4f3b d73d 6ad1 ef3d
00000040: 92d4 d03d b8df 1abe 183e e03b 1422 3f3d
00000050: 4eb7 843d b124 f53d 259a 2c3e 084a 6a3d
00000060: 9631 123e ae63 90bd a8bd b7bd 81be de3d
00000070: 84d2 5fbd 2984 08be 6c24 a73d c341 d7bd

embed.embedding_net.bn1.weight f4 [32]
1.0081798 1.0113391 1.0111471 0.99159807 0.9950064 0.9992105 0.995355 1.0085561
1.0025198 0.9927569 1.0143023 1.0054541 1.004144 0.99066246 1.0029554 1.0026561
1.0035734 1.0059115 0.99397707 1.0044934 0.9866767 0.99914396 1.00508 0.99162847
1.0131838 1.017752 1.0190555 0.9853745 1.0039388 1.0067295 0.99529225 1.0011387
00000000: 090c 813f 8f73 813f 456d 813f 5fd9 7d3f
00000010: bdb8 7e3f 42cc 7f3f 96cf 7e3f 5e18 813f
00000020: 9252 803f 5125 7e3f a8d4 813f b8b2 803f
00000030: ca87 803f 0e9c 7d3f d860 803f 0957 803f
00000040: 1875 803f b5c1 803f 4875 7e3f 3d93 803f
00000050: d896 7c3f e6c7 7f3f 76a6 803f 5ddb 7d3f
00000060: 02b0 813f b345 823f 6970 823f 8141 7c3f
00000070: 1181 803f 83dc 803f 79cb 7e3f 5025 803f

embed.embedding_net.bn1.bias f4 [32]
0.014441354 0.010378199 0.0055690138 -0.00475887 0.0026840859 -0.007252419 -0.00046875 0.00855944
-0.0035692938 -0.016208155 0.017636346 -0.0057221274 0.0031101184 -0.017217139 -0.005014186 -0.00048457267
0.0013216991 0.011737491 -0.0024966185 0.00096554024 -0.020293051 0.018461356 -0.0009654304 -0.0067566056
0.016412098 0.019890819 0.016303925 -0.01860294 0.010167896 0.005748843 -0.0077401134 0.0049681193
00000000: 6e9b 6c3c 5209 2a3c 467c b63b 4cf0 9bbb
00000010: 7de7 2f3b b3a5 edbb 8fc2 f5b9 e53c 0c3c
00000020: d0ea 69bb f7c6 84bc 197a 903c af80 bbbb
00000030: 21d3 4b3b f50a 8dbc 0a4e a4bb 3e0e feb9
00000040: dd3c ad3a 9b4e 403c 4f9e 23bb 4f1c 7d3a
00000050: 9d3d a6bc 453c 973c f014 7dba 8466 ddbb
00000060: aa72 863c 12f2 a23c cf8f 853c 3165 98bc
00000070: 3f97 263c ca60 bc3b c7a0 fdbb 9bcb a23b

embed.embedding_net.bn1.running_mean f4 [32]
-0.10171507 0.1320253 0.06137707 0.020718738 0.026013544 0.14352751 -0.20503135 -0.23059925
-0.016733503 -0.16224465 -0.31844303 0.16800366 -0.3465309 0.27486116 0.030479506 -0.013096317
0.1821131 -0.11841162 0.26349312 0.11176183 0.0752184 0.056907974 0.041915413 0.033347122
0.13193299 -0.16900043 -0.09405183 0.07124548 0.040559676 -0.06765682 0.23981945 -0.104746014
00000000: fe4f d0bd a431 073e 8666 7b3d 58ba a93c
00000010: 5b1a d53c e0f8 123e bdf3 51be 3622 6cbe
00000020: b314 89bc 7623 26be f70a a3be 2709 2c3e
00000030: 806c b1be 9aba 8c3e 28b0 f93c ef91 56bc
00000040: db7b 3a3e cb81 f2bd 92e8 863e 63e3 e43d
00000050: 1b0c 9a3d 5618 693d 7faf 2b3d fe96 083d
00000060: 7119 073e 730e 2dbe 3f9e c0bd 26e9 913d
00000070: e721 263d a98f 8abd 3b93 753e 1485 d6bd

embed.embedding_net.bn1.running_var f4 [32]
0.0070724217 0.011906466 0.004142156 0.004749683 0.0026274216 0.0018446787 0.0025597804 0.0123680355
0.0034472614 0.013353577 0.009199895 0.0043703327 0.0046240874 0.015858106 0.007384499 0.0048277015
0.006295564 0.0067154435 0.015652258 0.008200939 0.008377482 0.016531412 0.004951253 0.0025046975
0.0017057566 0.0044604405 0.004634129 0.012872802 0.010338981 0.0038211294 0.013167395 0.007897482
00000000: c6bf e73b 5713 433c ecba 873b 3ba3 9b3b
00000010: d230 2c3b 25c9 f13a fdc1 273b 4da3 4a3c
00000020: 73eb 613b f6c8 5a3c 28bb 163c 0235 8f3b
00000030: a885 973b dce8 813c abf9 f13b b231 9e3b
00000040: 054b ce3b 390d dc3b 2a39 803c 3b5d 063c
00000050: b541 093c e26c 873c 1f3e a23b da25 243b
00000060: b293 df3a e328 923b e4d9 973b 72e8 523c
00000070: d464 293c ea6b 7a3b 0fbc 573c 7164 013c
