trained_managers/50_150_10_MH_gin_32_minmax.pth (torch, 450582 bytes, 104 tensors)

key_policy.weight f4 [64, 32]
000000 07 08 cc 3c c4 84 76 3c cc a2 2f 3e 0a 07 0f 3d
       0.024906171 0.015046302 0.17151946 0.034918822
000010 6c db ce bd e5 93 78 bc 4f 72 67 3d 82 43 a8 3d
       -0.10100445 -0.01517198 0.056505498 0.08216001
000020 70 64 0c 3c 5d df 04 be 36 d5 74 bd 9c c3 b8 bc
       0.008568868 -0.12975831 -0.059773646 -0.022554211
000030 aa de 43 3d 2e 54 b7 3d 6d 79 e2 bd 94 6c d6 3d
       0.04781977 0.08951603 -0.110583164 0.104699284
000040 04 60 fc 3d d8 e6 20 3d 10 cf 61 bd b8 23 cb bd
       0.12323001 0.03928265 -0.05512911 -0.09918922
000050 f0 ce ff bd f8 94 bd bd a5 3d 42 bd 0c f3 e0 3d
       -0.12490642 -0.09256929 -0.04742207 0.109838575
000060 bf 3f 0f 3d 6a a8 08 bd ff 3d ea bd f6 31 f3 3d
       0.034972902 -0.033363737 -0.11437606 0.11874764
000070 9f da be bd 74 8e 1b bd 99 c0 f4 bb b6 bf 31 be
       -0.093190424 -0.03797765 -0.0074692485 -0.17358288
000080 9f 1f 07 3e fc bb 0e be 49 3c c0 3d 7a f9 8f 3d
       0.13195656 -0.13938898 0.093864985 0.07030006
000090 60 13 79 bd 1d 9a b7 bd c7 4b 08 3e f8 da 8e bd
       -0.060809493 -0.08964942 0.13310157 -0.06975359
0000a0 4b 14 19 3e ec 5a c9 3b 8e 18 30 3e 15 97 fe 3d
       0.14949147 0.006144872 0.17196867 0.1243116
0000b0 97 a3 30 bd 82 1b c7 bc 37 81 77 3c 0d fc ef 3d
       -0.04312476 -0.024305109 0.015106491 0.11717997
0000c0 61 9b 61 3c fa e4 a3 bd fb 67 32 bc 8d 5e 88 bc
       0.013769955 -0.08002658 -0.010889049 -0.016646648
0000d0 64 7f 24 3e 84 e1 a1 3d de e4 f3 bd bf b0 ef bd
       0.1606422 0.07904342 -0.11908887 -0.117036335
0000e0 8c 6e c9 bd 6e 36 de 3d bb 45 18 3c 8d 49 53 bd
       -0.09835538 0.108502254 0.009293969 -0.051583815
0000f0 1d a5 3d 3d 14 8d e7 3d 18 f6 b9 ba 0d 33 88 3d
       0.046300042 0.113062054 -0.0014187722 0.06650362
000100 61 56 5a bc 2f 17 44 3d 34 e9 06 3e 61 ac c0 bc
       -0.013326258 0.047873672 0.13174897 -0.023519697
000110 66 57 63 bd e6 fc 7d bd e7 a1 6d 3d c9 c6 ae bd
       -0.05550327 -0.06200876 0.05801573 -0.08534009
000120 5e 43 33 3e 8b dd ae 3d d4 79 20 be 38 a5 81 bd
       0.17506167 0.0853835 -0.15671474 -0.06330341
000130 16 ad 1f 3e cd 18 9a bd 7a 3a 32 be e4 a5 e9 3d
       0.15593371 -0.075242616 -0.1740512 0.11408594
000140 29 d9 14 be 05 7f 10 bd 1b 2a 2d bd bd f1 d0 bd
       -0.14535965 -0.035277385 -0.042276483 -0.10202358
000150 14 ad 2b 3e 76 2a b8 3d 57 a0 9c bd 32 51 2e bc
       0.16765243 0.08992474 -0.0764777 -0.010639476
000160 ed 50 66 bd 7b 40 33 bd 6c 6f 8c 3d bf f6 e1 bc
       -0.05622952 -0.043762665 0.068571895 -0.027583478
000170 5d a2 82 3d 5e 2c dc bc b4 eb 04 be 24 d3 36 3e
       0.063786246 -0.026876625 -0.12980539 0.17853981
000180 25 9c 33 3e 6b f5 c4 bd 07 92 5f bd 9f 2f d2 bd
       0.17540033 -0.09617122 -0.054582622 -0.10262989
000190 93 cb cc 3d e8 04 c1 3d a6 20 8a 3d b9 3a 5c bd
       0.09999766 0.09424764 0.067445084 -0.05376694
0001a0 0d 46 2f 3c 54 f1 e0 3d da 1f 53 3d bb 9e 30 3e
       0.010697854 0.1098353 0.051544048 0.17248051
0001b0 8d 16 a3 3d a5 95 fd bd 72 b1 19 be 90 3c e3 3d
       0.079632856 -0.12382058 -0.15009096 0.11095536
0001c0 a7 77 e4 bc 79 f7 91 bd b4 f3 c6 3d af bd 4a bd
       -0.027889086 -0.0712728 0.097144514 -0.049497303
0001d0 e0 f4 08 be 27 87 a2 bd 29 ce 95 bc e7 0f 7e bd
       -0.13374662 -0.079359345 -0.018286781 -0.062026884
0001e0 ed 89 20 3d d2 22 42 bd 0f 7e 38 3e c3 8a 7b 3d
       0.039194036 -0.04739649 0.18016838 0.06141163
0001f0 12 59 b5 bd c7 aa d4 bd 52 11 9a bd 14 02 d7 3d
       -0.088548794 -0.10384136 -0.07522835 0.10498443
000200 88 ba 9f bd 34 ae 84 b9 99 1f fa 3d f7 e3 5c bd
       -0.0779925 -0.00025306793 0.12213058 -0.05392834
000210 4f 73 4b bc 65 ca c4 bd e7 9d 12 3e 9c bf 6c 3d
       -0.012417628 -0.09608916 0.14318047 0.05779992
000220 d0 33 f0 bc 8c 99 99 bd 34 e0 12 3e 4d 32 be 3d
       -0.029321581 -0.0749999 0.14343339 0.09286938
000230 ba 36 43 3d ee a2 c4 3d 93 9d 20 3e 0f b1 5e 3d
       0.047659613 0.09601389 0.1568511 0.054368075
000240 a8 1f 25 be ce 93 98 bd d5 36 94 bd 7b 20 36 3e
       -0.16125357 -0.074500665 -0.07237021 0.17785828
000250 11 6c a6 3d 31 23 c7 bd 2e 03 8e 3d 2a bf b8 bd
       0.08126081 -0.09723509 0.069342 -0.09020837
000260 80 24 29 3e 27 9c 57 bd 04 e9 4d 3d 9b 7c f2 3d
       0.1651783 -0.052639153 0.05027105 0.11840173
000270 08 63 e9 3d fb 3e 2f bd f8 9b 18 3e 10 ae b4 3c
       0.11395842 -0.042784672 0.14903247 0.022055656
000280 49 24 0b bd b1 7a 2e be 0d 47 0c 3d a9 80 17 3c
       -0.03397015 -0.1703899 0.034247447 0.009246984
000290 04 ba 9f bc 1b 86 7a bd af fa 23 3e 8b 9c 55 bd
       -0.019497879 -0.06116305 0.16013597 -0.052151244
0002a0 99 c1 88 bd 48 c3 70 bd 20 ef 4b bd 89 ed cc bd
       -0.06677551 -0.058779985 -0.049788594 -0.10006244
0002b0 00 4a 26 3e 89 25 27 3e fb 5e fb bd 0b fe f1 bd
       0.16239166 0.16322912 -0.122739755 -0.11816033
0002c0 f2 6e 07 3d 14 21 6a 3d 99 93 5e bd 07 9b 2a be
       0.03306479 0.057160452 -0.05433998 -0.166607
0002d0 6a 2f 29 3e 76 ea 2b bd a2 1b 06 3e 04 79 bc bd
       0.16521993 -0.041971646 0.13096479 -0.092027694
0002e0 65 8b 5e bd 34 ce 97 3d dd 28 89 3c 69 7d 29 bd
       -0.054332156 0.07412377 0.016743118 -0.041379366
0002f0 2e b7 55 bd dd db e0 3d c1 c0 ba 3d 05 d1 76 3c
       -0.052176647 0.109794356 0.09118796 0.015064483
000300 99 5f 1c 3e 6b c0 f2 3c 98 91 32 3e a1 41 a2 bc
       0.15270843 0.029632768 0.17438352 -0.019806685
000310 b9 43 2c 3e ed 1b 2c 3d 58 6d 00 be fa 57 a6 bd
       0.16822709 0.04201882 -0.12541711 -0.08122249
000320 95 32 38 be 78 9d 9b 3d c4 74 bd 3d 7e 17 2e 3e
       -0.17988046 0.07598394 0.09250787 0.17001149
000330 09 df f7 bd be e4 d1 bc d6 10 11 be 91 90 f0 3d
       -0.121030875 -0.025621768 -0.14166579 0.11746324
000340 5f ed 5b bc 93 f6 b9 bd 31 b5 fc bc cb 56 8b 3d
       -0.013423293 -0.090802334 -0.030848118 0.06803664
000350 ca a3 21 3e f2 39 82 bd 54 3e 3b 3c 9a c3 f0 bd
       0.15785137 -0.063587084 0.011428434 -0.11756058
000360 45 3e 70 3d 1e 84 ea 3c 89 b7 a0 3d 1f 55 e9 3d
       0.058653135 0.028627452 0.078475066 0.11393189
000370 03 de 92 3d 71 95 dd 3c 26 2a 1b be ac 12 9d bc
       0.071712516 0.027048798 -0.15152797 -0.019173943
000380 e3 a2 b5 bd 4f 5b 79 3c 27 49 d1 bd 3f 41 d4 3b
       -0.08868959 0.015219524 -0.10219031 0.0064775045
000390 c4 0c 13 be b4 de e1 3d 9f 1b b2 bd ff 4e c3 bd
       -0.14360338 0.110288054 -0.086966746 -0.09536552
0003a0 3c 48 2e 3e 7b 0b 04 3d 13 5e 0d be bb 0b e3 bd
       0.17019743 0.03223751 -0.13805418 -0.11086222
0003b0 0d fb e6 bb 56 48 37 be 58 39 d8 3d 4d b8 d7 3d
       -0.0070489706 -0.17898688 0.105578125 0.105331995
0003c0 6e 3a 16 be 53 ef 66 3c 85 c4 14 3e f0 4f bb bd
       -0.14670727 0.014095145 0.14528091 -0.09146106
0003d0 c4 a4 1f be 99 19 74 bd 19 9a 06 be 53 7e 57 3d
       -0.15590197 -0.059594724 -0.13144721 0.052610707
0003e0 a0 c8 93 bd 4b f0 1a be ba b8 fd bd b1 78 0d 3e
       -0.072160006 -0.15130727 -0.123887494 0.13815571
0003f0 1f 03 e2 bd 97 0e 97 3d 17 89 a0 bd a4 95 9f bd
       -0.110357516 0.0737583 -0.07838648 -0.077922136

key_policy.bias f4 [64]
000000 5b 26 41 bd 19 09 a9 bb 73 bb ec bd 08 8b 32 3e
       -0.04715572 -0.005158555 -0.115591906 0.17435849
000010 9d 40 05 be 7a f6 fc bd 3e 8c 16 bb 7c 3d 81 3d
       -0.1301293 -0.12351699 -0.0022971774 0.06310555
000020 1f f4 96 3d d6 4d 18 3e ab 47 b1 3d 92 d9 20 be
       0.07370781 0.14873442 0.08656248 -0.15707996
000030 d0 ca c7 bb 96 d4 80 3d b9 06 35 bc ef 49 da 3d
       -0.006097175 0.062905475 -0.011048966 0.10658633
000040 3c 1c f9 bd 4e 65 c0 3c 48 bb 74 bd 48 9e 31 bd
       -0.121635884 0.023485806 -0.059748918 -0.04336384
000050 d9 66 21 be bc 78 cf 3d 8f d6 21 be 0b ef 92 bc
       -0.1576189 0.1013045 -0.15804504 -0.01793625
000060 85 57 33 3d 4c 11 0a bc 7b 5e 00 3e 2d 54 1b 3d
       0.043784637 -0.008426975 0.12536041 0.037922073
000070 27 3d f0 3d 82 1c da bd 55 a7 6d 3d ca ee 22 bd
       0.11730414 -0.10649969 0.05802091 -0.03977851
000080 94 ba 2a 3e a8 1f cd bd a4 4f 35 3e 0c 71 b0 bd
       0.16672736 -0.100158036 0.17706162 -0.08615312
000090 c1 10 10 3e 79 7c 75 3d 9b d6 d2 3d cd c3 14 3e
       0.14068891 0.05993316 0.10294839 0.14527817
0000a0 2f 78 00 3e 5d 6c 17 be 6d ca dd 3c 50 81 15 bd
       0.12545846 -0.14787431 0.027074063 -0.036500275
0000b0 ae 6e 14 3e 2b 85 26 3e 48 cb 09 3e 28 02 80 bd
       0.14495346 0.16261737 0.13456452 -0.06250411
0000c0 34 43 0d be 35 53 a1 3d c6 23 da bd 5b 60 23 be
       -0.13795167 0.078771986 -0.106513545 -0.15954725
0000d0 29 3d 00 3e ac 9e 03 3e 8b 91 98 bc a2 c4 5b 3d
       0.12523331 0.12853497 -0.018624088 0.05365432
0000e0 50 07 b6 3d f7 1d b7 3c 9b 25 d6 bd 81 e3 72 bc
       0.088881135 0.022353156 -0.104563914 -0.014824749
0000f0 36 04 ff 3d e2 36 57 3d 58 cd 23 be cf a0 9a ba
       0.12451975 0.052542575 -0.15996301 -0.0011797192

q_policy.weight f4 [64, 64]
000000 ea 65 95 bc b3 11 68 3d cf 72 d0 3d 35 69 98 bd
       -0.018237073 0.056657504 0.10178148 -0.07441942
000010 78 32 90 3d bf 0d e7 bd 7d 49 ef 3d c8 34 e9 bd
       0.07040876 -0.11281919 0.11683939 -0.1138702
000020 37 58 f4 bd d7 f5 fc 3c 72 6c 0c be 72 15 06 3e
       -0.11930888 0.030878944 -0.13713244 0.13094118
000030 cb 01 d4 bd a6 80 0a 3d 5b 89 39 3d 43 04 ef 3d
       -0.103519045 0.033814095 0.045297008 0.11670735
000040 b6 2c d6 bc ab 69 ee 3d a0 60 cc bc cb 61 a1 bd
       -0.026144367 0.11641248 -0.024948418 -0.07879981
000050 fd ad 5a bd 08 60 3f bb 82 23 af 3c a3 57 fb bd
       -0.053388584 -0.0029201526 0.021379236 -0.12272575
000060 ae 7e 3d bd b8 f7 3b bd 9f 7f 4e bd b9 0e 58 bd
       -0.04626339 -0.04589054 -0.050414678 -0.052748416
000070 0e 43 22 bd 4d 86 54 3d 74 d4 83 bd ed 12 e7 bb
       -0.03961473 0.05188589 -0.064370066 -0.0070518167
000080 68 2d fa bd 6e ad b9 3c 7c 3d ca bd f5 a8 29 3c
       -0.12215692 0.022665706 -0.098750085 0.010355224
000090 3e 00 07 be 6f db 8b 3d 33 84 d1 3d 90 40 25 3d
       -0.13183686 0.06828963 0.10230293 0.040344775
0000a0 24 a9 0c 3d 5c 46 20 bd 23 83 cb 3d 71 f1 95 3d
       0.034340993 -0.0391296 0.09937122 0.07321442
0000b0 14 83 40 bd 34 0f c8 bd 18 9b 8a bd e5 4c 8b bd
       -0.047000006 -0.09768525 -0.06767863 -0.06801776
0000c0 66 07 a6 3c 05 fd a3 3d 97 95 96 bd c7 6a 10 3d
       0.0202672 0.08007244 -0.07352751 0.03525808
0000d0 f6 a0 49 3d f0 d6 83 3d c3 f5 c4 3d 12 4f ae bd
       0.04922577 0.064374804 0.09617188 -0.08511175
0000e0 e6 bd e2 3d cc a3 a6 3d 01 4d 71 3d 34 c7 e8 3a
       0.110713765 0.081367105 0.058911327 0.0017759562
0000f0 f4 5b 5f 3d d5 c8 97 3d a7 76 d6 3d 39 09 fd bd
       0.054531053 0.074113525 0.1047185 -0.12355275
000100 a5 fc ff 3d 24 c7 df 3c d2 ca 7a bd 54 30 aa 3c
       0.1249936 0.027316637 -0.06122858 0.020774998
000110 22 41 18 3d e1 b4 af bd 64 38 50 bd 40 ab 47 3d
       0.03717149 -0.08579422 -0.05083503 0.0487473
000120 33 ff 8d bd 52 a5 6e bd b5 b7 98 3c 7a 9d 7c 3d
       -0.06933441 -0.05826313 0.018642286 0.06167362
000130 3a 29 e4 3d 46 d4 c8 3d 50 b0 67 bc 38 04 d3 3d
       0.11140676 0.09806113 -0.014141157 0.10303539
000140 26 28 bf bc 2b 07 fe 3d 3c c9 05 bd 55 dd 88 3d
       -0.023334574 0.12403711 -0.032662615 0.06682841
000150 fb 8e f3 bc 73 a7 a3 bc df 8f 45 3d 08 ab 8d 3d
       -0.029731264 -0.019977307 0.04823291 0.06917387
000160 01 57 db bc f2 b4 ca 3c 20 70 e8 bd d3 13 bb 3c
       -0.026774885 0.024744485 -0.11349511 0.022836601
000170 37 1d 4a bd 6d 40 12 bc 80 ca ab 3d 33 de e8 bd
       -0.049344268 -0.008926493 0.08388233 -0.11370506
000180 10 d2 b6 bd 44 81 fc 3d 88 32 5c bd db f9 9c 3d
       -0.08926785 0.12329343 -0.053759128 0.07664844
000190 5a fc 2c bd f0 c7 b7 bd 81 6d 8a 3d e7 1e ea 3b
       -0.04223285 -0.08973682 0.067591675 0.007144797
0001a0 9d 25 1e 3d b9 ae 65 bd 2a a0 3a bd d5 59 c1 3d
       0.03861009 -0.05607483 -0.0455629 0.09440962
0001b0 e6 35 0b 3d 1c d4 f1 3d 63 76 ca bd 08 f4 40 3c
       0.03398695 0.11808035 -0.09885862 0.011776932
0001c0 1b 4e 71 3b 2f 3c 8e bd ce ad cc 3d 46 91 9e 3d
       0.0036820236 -0.06945073 0.09994088 0.077425525
0001d0 33 8b 9f 3b 27 1b c8 bc 6a 0c 75 3c a3 c0 a5 bd
       0.0048688888 -0.02442701 0.014956573 -0.08093383
0001e0 1c 04 8f 3d 06 33 c4 3d ac 0c 46 bc 39 eb a3 bd
       0.06983206 0.095800444 -0.012087982 -0.080038495
0001f0 e5 0f e8 3d ad cb 7b 3d 38 1c 2c bd 34 3d b9 3b
       0.11331157 0.061473537 -0.0420191 0.005653048
000200 cc 54 fa 3d c4 93 28 bd 67 c4 b3 bc be d0 6c bc
       0.12223205 -0.041156545 -0.021944238 -0.014454065
000210 b6 01 97 bd 77 be bc bc a3 b3 b9 3b f7 13 c1 bd
       -0.07373373 -0.02304004 0.0056671663 -0.09427636
000220 8a 77 f1 3d b5 da 23 3d 15 75 a5 3d 0c 90 db bd
       0.117903784 0.040003497 0.08078972 -0.10720834
000230 7e 34 cf bd cf 96 9a 3d a3 50 c9 bd 26 43 2c 3d
       -0.10117434 0.07548296 -0.09829833 0.042056225
000240 e7 98 0c bd da 26 de bc e0 63 de 3d b1 52 3b ba
       -0.034325507 -0.027118135 0.108588934 -0.0007145806
000250 4f 79 89 3d 2b b4 79 3d b5 6e fe bd 69 da c8 bc
       0.06712591 0.060962837 -0.124234594 -0.024518209
000260 43 d4 a0 bd 5f 04 ab 3d fc 82 7a bd 5e 67 dd 3d
       -0.07852986 0.08350443 -0.061160073 0.10810731
000270 d4 a9 d2 3d 25 f1 bf 3d f7 c0 d9 3d 4e fd 98 3d
       0.102862984 0.093721665 0.10632508 0.07470189
000280 f9 3c f7 3d ab d4 0c bc ef 29 f2 bc 21 a9 0b be
       0.120721765 -0.008595626 -0.029561011 -0.13638736
000290 44 48 78 bd e4 83 89 bd b1 fd bc bd de 9a ba 3d
       -0.060615793 -0.06714609 -0.09228075 0.0911157
0002a0 f3 d8 83 3d 59 8b ad 3d 07 7b 41 bd ad f3 39 bd
       0.06437864 0.08473844 -0.04723647 -0.045398403
0002b0 d2 9f c8 3d ba c0 90 3d 30 15 8f 3c 94 a8 45 3c
       0.09796108 0.0706801 0.017466158 0.012064118
0002c0 47 89 d2 bd 50 23 e8 bd c5 26 e9 bd 21 28 a8 3d
       -0.1028009 -0.1133486 -0.11384348 0.08210779
0002d0 da ea 73 bd 7f 55 bc bd bc cd cc 3d 84 11 a8 bd
       -0.059550144 -0.091959946 0.10000178 -0.08206466
0002e0 b4 08 e3 3d bd 6c ca 3d f3 74 d1 3d 8d 46 91 3c
       0.11085644 0.098840214 0.102273844 0.017733837
0002f0 d2 ca 59 bd fb db c1 bd 5f a8 89 bd b1 68 c0 3d
       -0.05317194 -0.09465786 -0.06721567 0.09394968
000300 55 6b 50 bd 57 c2 9b bd 7d cc fa 3c f1 2e ea bd
       -0.05088361 -0.07605427 0.030615086 -0.114347346
000310 10 07 9a 3c 4a 78 1f 3d 82 a9 d1 bd 22 1d 7b ba
       0.018802196 0.038933076 -0.10237409 -0.0009579231
000320 3d 69 c5 3d 0d 02 1b 3b cc 60 e9 bd 38 f1 7f bd
       0.09639213 0.0023652345 -0.11395416 -0.062485904
000330 fc a3 cb 3d 3d 1b e4 bd 47 48 4b 3c aa e0 e6 bc
       0.09943387 -0.11138008 0.012407369 -0.0281833
000340 43 11 b8 3d 55 22 93 3d fc 59 30 3d 52 1d 66 bc
       0.089876674 0.07184283 0.043054566 -0.014045076
000350 cf a0 96 bd f4 9d da bd fd 43 de bd 0a 3f 04 3d
       -0.073548906 -0.106746584 -0.108528115 0.03228668
000360 4a c1 6a 3d ad 28 a0 bd 4f 2f d8 bc 7f bf 51 3d
       0.05731324 -0.07820258 -0.026389746 0.051208016
000370 9f d9 af 3d 9a e0 79 bd ba 74 d7 3d 4e 63 ee bb
       0.0858643 -0.061005212 0.10520311 -0.0072750216
000380 7f c9 a2 bd 97 bc c7 3b d6 0f ba 3d b4 10 ea bc
       -0.079485886 0.0060954797 0.09085052 -0.028572418
000390 bc c7 d6 bd 18 34 7a bd ec a6 9c 3d 93 94 5e 3d
       -0.10487315 -0.061084837 0.07649025 0.05434091
0003a0 7d be 10 bd d7 f2 dd 3a 93 11 93 3b 75 12 80 3d
       -0.035337914 0.0016933334 0.004488179 0.062535204
0003b0 1e 07 f0 bd 21 65 ac bd b4 3b e6 3d 7e 59 40 bd
       -0.117201075 -0.08417726 0.11241856 -0.046960346
0003c0 a5 b5 45 3c 33 37 f9 bd 1b c7 a0 bd 48 fc 64 bd
       0.012067233 -0.121687315 -0.07850476 -0.055904657
0003d0 4c f0 57 3d d8 87 71 3d e9 73 3f bc f8 6d 02 bd
       0.0527194 0.05896744 -0.01168535 -0.031843156
0003e0 df 35 ad 3d 30 e9 53 bd d8 70 8c bd 13 1b 84 bb
       0.08457541 -0.051736057 -0.06857461 -0.004031548
0003f0 29 27 08 3e e1 90 c9 3d fb 94 9f 3d 7a 7e 78 bc
       0.13296188 0.098420866 0.07792088 -0.015166873

q_policy.bias f4 [64]
000000 8a da d7 bd 7c 83 e8 bd 63 ca a8 bb 84 37 fe 3b
       -0.1053973 -0.11353204 -0.0051510795 0.007758083
000010 d0 57 f4 bd 4a f8 3c 3d 7e c0 f7 bd 96 ee c3 bd
       -0.119308114 0.046135224 -0.12097262 -0.09566991
000020 70 b1 05 bb dd 8f 39 bd 9b 77 db ba 75 cb b8 bb
       -0.002039995 -0.045303214 -0.0016744019 -0.0056394883
000030 38 90 e8 3c 18 5b a3 bb 20 bf 6d 3d 0b f7 16 be
       0.028389081 -0.0049852245 0.0580436 -0.14742677
000040 05 b0 02 3e 69 6d 87 bc 02 69 9b bd a1 c8 43 3a
       0.12762459 -0.016531663 -0.07588388 0.00074685557
000050 61 99 6f bd 44 a6 22 3d 8e 1e ca 3d 5a 89 7d 3c
       -0.058495883 0.039709345 0.09869109 0.015474642
000060 6f ff fa bd 8e a3 dd bd 24 0f 5d 3c 27 a9 09 be
       -0.12255751 -0.10822211 0.013492379 -0.13443433
000070 b7 3d b2 3d d6 b2 0c 3d ad 56 c9 bc 54 0c 5d 3d
       0.087031774 0.03435024 -0.024577463 0.053966835
000080 cf d8 0f 3e 43 d5 ac 3d 27 6d a9 bd a6 71 7a 3d
       0.1404755 0.08439114 -0.08272772 0.06114354
000090 61 01 84 3d d1 39 18 bc a2 6c a7 bd f4 dc 08 bd
       0.064455755 -0.009291128 -0.08175017 -0.033413842
0000a0 9a 27 eb bd ef 87 06 be 1b 54 7f 3d c0 43 a3 bd
       -0.11482163 -0.13137792 0.06233607 -0.07971907
0000b0 50 75 97 bd 01 13 d7 3b 44 52 e0 bd 79 0d 9e 3d
       -0.073954225 0.0065635447 -0.10953191 0.077174135
0000c0 5f 8b 07 bd bd 53 f6 3d fc 01 cf bd 13 23 eb bc
       -0.0330919 0.120276906 -0.101078 -0.028703248
0000d0 80 76 07 be fc 5d 47 3c fe 5b 92 3c de ac 6a bd
       -0.13228798 0.012168404 0.01786613 -0.057293765
0000e0 af e4 94 bd 31 6e e0 bd 6a c5 df 3c a3 d5 28 3d
       -0.072701804 -0.10958517 0.027315814 0.041219365
0000f0 2f 9f 86 3d eb 02 0a be ac 2b 95 3c 64 08 75 bd
       0.065733306 -0.13477676 0.018209301 -0.059822455

embed.embedding_net.lin1_1.weight f4 [32, 4]
000000 f1 94 8d 3e e9 48 0f 3e 69 9a 0e bc 93 6c 43 bb
       0.27652696 0.13992657 -0.008703806 -0.0029819354
000010 e0 a0 2a 3e 88 31 b0 3e 33 d8 fd be 57 d8 74 3e
       0.16662931 0.3441279 -0.4957901 0.23910652
000020 02 02 be 3e 0f b9 b4 3d 16 4d 0b be bf d8 c3 be
       0.37110907 0.088243596 -0.13603625 -0.38251302
000030 8a 59 84 be a5 18 31 3c 86 5e 3e be 34 37 49 3e
       -0.25849563 0.010809098 -0.18590745 0.19649965
000040 c8 d1 dd 3e 11 c1 92 3e 61 c1 09 3e 0c 24 7f 3e
       0.43324113 0.28662923 0.13452674 0.24916095
000050 6b c6 99 be 9b c9 9a bb 5c 5f 0d be 4d 71 65 3e
       -0.30034193 -0.0047237403 -0.13805908 0.22406502
000060 ac f4 62 be cb 9e 71 3c f9 aa f4 bd fb 28 4e 3d
       -0.22163647 0.014747332 -0.11946673 0.05033205
000070 8b 89 39 3d ed 59 b9 bd 13 18 9b 3c 58 35 93 be
       0.045297187 -0.09050355 0.018932378 -0.28751636
000080 37 18 cb be 90 4a b2 3e aa 4e 8f 3e b6 70 96 3e
       -0.39666912 0.34822512 0.27989703 0.29382867
000090 4e c5 82 3e 43 e3 23 3e d8 5b 21 3c 81 50 d7 be
       0.25541157 0.16004662 0.009848557 -0.42053607
0000a0 0a be 94 be 66 c1 96 be d1 78 6c bc 15 26 b1 3e
       -0.29051238 -0.29444426 -0.014433102 0.34599367
0000b0 32 0f db 3e 65 d1 ef be cb e5 f0 3e b2 4a 27 3e
       0.4278503 -0.46839443 0.47050318 0.16337088
0000c0 0f b8 30 be ae 0a 21 be 16 eb ee bd f0 c9 ee 3e
       -0.17257713 -0.1572673 -0.11665933 0.4663844
0000d0 b5 e6 eb be b3 16 15 bd fe ff d0 3d 2c 29 af 3e
       -0.46074453 -0.0363986 0.10205077 0.342111
0000e0 c9 09 87 3e b2 3b 91 be 5f 8c e8 3d 10 19 ba bd
       0.26374653 -0.28365856 0.11354899 -0.090868115
0000f0 7e 2e bc 3e d3 8f fa 3e 16 ff a2 bd b5 5b df 3e
       0.3675422 0.48937854 -0.0795881 0.43624654
000100 9d 22 de bd 1c 4e be be 2b 3d a3 bd 81 9c b5 3e
       -0.10846446 -0.37168968 -0.07970651 0.35470966
000110 38 08 35 be 9c 49 9f be 2c 6c 5b be 2f 1b a4 3e
       -0.17678916 -0.31110847 -0.21427983 0.3205199
000120 e9 85 35 3e f9 18 be be e1 12 f4 3e bf 99 cb 3e
       0.17726864 -0.37128428 0.47670653 0.39765736
000130 77 f6 e9 be f2 e7 c1 3e 06 e9 90 3e fc ff 5f 3e
       -0.4569585 0.37872273 0.28302783 0.21874994
000140 4d 9f b1 3e 07 22 59 be c0 73 0b be 1f b5 6a 3d
       0.3469185 -0.21204387 -0.13618374 0.057301637
000150 36 4f c5 be 0b 48 0b 3d cd 1b cb 3e ec 36 ad 3e
       -0.38536996 0.034004252 0.39669648 0.33830965
000160 48 d0 d0 be dc 56 bb be 53 e5 24 be 07 87 90 3e
       -0.40783906 -0.36589706 -0.16103105 0.28228018
000170 1c cc 63 3d fd 53 c2 3e 11 b4 62 3e 9c 1d da 3e
       0.055614576 0.37954703 0.22139002 0.42600715
000180 66 c1 df be 19 2c 9a bd 19 dc c6 bd 82 d6 ab 3e
       -0.4370224 -0.07527942 -0.09709949 0.33562094
000190 6f ca dc bd da 25 c4 3c 6c 42 b7 3e 04 e4 c4 be
       -0.10780799 0.02394383 0.35792863 -0.38455212
0001a0 89 b4 72 be bd 82 d3 3e 0c 0d 33 be 33 74 e3 be
       -0.23701681 0.41310683 -0.17485446 -0.4442459
0001b0 e6 5b 97 3e 46 5a e4 3d b6 99 b6 be f2 d8 a8 be
       0.295623 0.11150031 -0.35664147 -0.32978016
0001c0 72 fd 01 3f e0 f0 3a bc 54 3c f0 3e a8 ee d7 bd
       0.5077735 -0.011409968 0.46921027 -0.10543567
0001d0 f5 6f 17 be d3 b3 ce 3e ed 3d be be d6 38 34 3d
       -0.14788802 0.4037157 -0.3715662 0.043999515
0001e0 74 b1 62 be 43 26 bc 3e d8 de 6f be a8 f2 c1 bd
       -0.22138005 0.3674794 -0.23424852 -0.09470111
0001f0 9f df e3 be c7 94 a6 3e 95 2b a0 3e 61 ce 64 be
       -0.44506547 0.32535383 0.3128325 -0.22344352

embed.embedding_net.lin1_1.bias f4 [32]
000000 83 b4 6a be 77 c3 8c bb 07 ef 7b bd 62 a3 f8 be
       -0.22920422 -0.004295762 -0.06150725 -0.4856215
000010 ac f2 6d be 73 f2 8e be c9 6e ad be 02 ca d0 3d
       -0.23237103 -0.2791935 -0.33873585 0.1019478
000020 73 21 a7 3d 0c 7c b0 be 18 b8 e5 be 18 da 9e bd
       0.08160677 -0.3446964 -0.44867015 -0.07756442
000030 d4 12 94 be 5e b2 e3 3e 5c be b7 be a2 a3 85 bc
       -0.28920615 0.4447202 -0.3588742 -0.016313378
000040 da 0d 08 be d2 5f 55 3e d4 78 59 3e f0 e0 bf be
       -0.13286534 0.20837334 0.21237499 -0.374763
000050 77 5b de be ef 07 ba 3e 33 76 59 be 71 9d b8 3c
       -0.43429157 0.36334178 -0.21236496 0.022536011
000060 5d c7 3a 3e dc 1b 9e be 61 77 f8 bd 28 44 d5 3e
       0.18240114 -0.3088063 -0.12132145 0.41653562
000070 5b 13 75 be 31 f0 91 3e 44 cf 77 3e df 60 c8 be
       -0.23933165 0.28503564 0.2420016 -0.39136407

embed.embedding_net.bn1_1.weight f4 [32]
000000 e9 33 82 3f 9c f5 7e 3f dd f3 7e 3f 73 02 80 3f
       1.0172092 0.9959352 0.99590856 1.0000747
000010 cc da 7e 3f 1f 64 7f 3f c7 7b 7f 3f 72 95 7f 3f
       0.9955261 0.9976215 0.99798244 0.9983741
000020 06 d5 7f 3f 36 74 7f 3f 98 77 7f 3f 82 b2 7e 3f
       0.9993442 0.997867 0.9979186 0.9949113
000030 5d 53 7e 3f 99 64 7f 3f e9 fa 81 3f 54 6b 80 3f
       0.9934595 0.99762875 1.0154697 1.0032754
000040 4b 74 80 3f bd 12 7f 3f cb 31 7f 3f 76 df 7e 3f
       1.003549 0.9963797 0.99685353 0.99559724
000050 fa 29 81 3f 16 46 7f 3f 1a 48 81 3f 88 07 80 3f
       1.0090935 0.9971632 1.0100129 1.0002298
000060 7b d8 7f 3f 8e d7 80 3f 72 4b 7e 3f cf 1e 81 3f
       0.999397 1.0065782 0.9933387 1.0087527
000070 ee f2 7f 3f d7 2e 7f 3f 2c 01 80 3f 22 d8 80 3f
       0.99980056 0.99680847 1.0000358 1.0065958

embed.embedding_net.bn1_1.bias f4 [32]
000000 7f 76 49 3c 80 34 01 bb da 9b 0c 3c ac 56 40 bb
       0.012296318 -0.001971513 0.00858208 -0.0029348535
000010 b3 4f b5 bb 16 79 0b 3b aa c8 06 bc 28 d9 e8 bb
       -0.0055331825 0.002128189 -0.008226553 -0.007105965
000020 78 c5 86 3a 4c 06 17 bc c1 24 9a bb dd 72 ba bb
       0.0010282239 -0.00921781 -0.0047040884 -0.0056899623
000030 54 84 79 bb c9 4c 35 3a 85 8e 9f 3a 7f 5e 3e 3c
       -0.0038073258 0.0006916044 0.0012173211 0.011619209
000040 2b bd b7 bb 13 5d 0d bc 5b 67 e6 3a 05 4d 74 bc
       -0.0056072674 -0.008628148 0.001757841 -0.014910941
000050 d4 75 31 3b 30 1f 45 bb 8f 20 78 3c 3e 8b 66 3c
       0.0027078288 -0.0030078404 0.015144481 0.014071284
000060 84 75 96 ba db f1 71 3c 26 e7 e0 3b c0 12 40 bb
       -0.0011479114 0.0147671355 0.0068634925 -0.002930805
000070 3c 08 b8 3b fb 93 2b 3c 2e e3 4c 3b 70 ce ad 3b
       0.005616216 0.010472293 0.003126334 0.0053041503

embed.embedding_net.bn1_1.running_mean f4 [32]
000000 82 73 44 bd 00 ae 18 3f 7d d0 e2 bf 3e 5f 9d 3b
       -0.04796172 0.596405 -1.7719876 0.0048026135
000010 fd b6 ba 3f f3 2b c1 3e 87 a4 c8 be c0 70 99 bf
       1.4587094 0.37728843 -0.39188024 -1.1987534
000020 c9 70 e7 3f 46 e9 01 c0 68 b0 4e 3f d2 3f ac 3f
       1.8081294 -2.0298629 0.80737925 1.3456976
000030 4d 9a be 3f 4c 5a f3 3f 06 68 1c bf bf 80 11 40
       1.4890839 1.9011931 -0.6109623 2.273483
000040 3c 37 8f 3f f8 cb 8c 3f 3f 66 28 40 cb 07 80 3f
       1.1188731 1.0999746 2.6312406 1.0002378
000050 4b 2f 9e be ec 1d 14 40 96 79 e2 3e 4f 44 20 40
       -0.30895457 2.3143263 0.44233388 2.5041692
000060 e3 00 a7 3f ad de c7 bf 22 f7 13 c0 0d 2e b4 bf
       1.3047146 -1.561483 -2.3119588 -1.4076554
000070 b6 b8 6a 3e 5e db 68 3d c2 77 ee be 6e 04 80 bf
       0.22922024 0.05684983 -0.46575743 -1.0001352

embed.embedding_net.bn1_1.running_var f4 [32]
000000 2f 92 03 3c 6d 83 b6 3d a2 7b 71 3e 40 37 92 3c
       0.008030458 0.08911786 0.23582318 0.01784861
000010 3f 65 10 3e c8 56 d9 3c 97 be 13 3c 1d 1e 93 3d
       0.14101122 0.026530638 0.009017608 0.07183478
000020 bd cb 8d 3e 72 73 2c 3e 1f 3e f6 3d f3 51 aa 3e
       0.27694502 0.16840914 0.120235674 0.33265647
000030 04 a5 14 3e 23 2f 3c 3e e0 37 81 3c a2 f8 2b 3e
       0.14516073 0.18377356 0.015773714 0.16794065
000040 d1 d0 c6 3d 41 9c 43 3d 94 c1 18 3f c9 58 61 3e
       0.09707797 0.047756437 0.59670377 0.22006525
000050 5b fc a3 3c c9 1a d9 3e f1 b5 69 3d 42 a9 b3 3e
       0.020017793 0.42403248 0.05705828 0.3509007
000060 6b 7a ad 3d d7 ed 44 3d 61 e8 ab 3e a1 e0 bc 3e
       0.08470615 0.048078384 0.3357573 0.36890128
000070 6b ce 05 3e e6 ca cb 3d c6 d8 c4 3d 93 0e 4d 3d
       0.13067023 0.09950809 0.09611659 0.050062727

embed.embedding_net.lin1_2.weight f4 [32, 32]
000000 20 d3 35 be d0 38 8e 3d 47 2e 90 3d 9a da 11 bc
       -0.17756319 0.0694443 0.07040077 -0.008902216
000010 45 81 68 bd d6 a5 2d 3e 0a 8d 17 be a3 a0 df bd
       -0.056763906 0.16957793 -0.14799896 -0.10919311
000020 51 d2 2a 3d 89 03 e6 bd 5b bb 96 bd cc 6a d4 3d
       0.04170448 -0.11231143 -0.07359954 0.103719324
000030 3e 4f a1 3d 08 db c0 bc 07 07 e6 3d 82 ce d9 3a
       0.078764424 -0.023541942 0.11231809 0.001661733
000040 11 21 06 bd 13 2c 49 bd 45 d7 ab bd ae 56 19 3e
       -0.03274638 -0.049114298 -0.08390669 0.14974472
000050 12 1f bc 3d de 2b 0c be 28 7f 39 3e a2 9d 7f bc
       0.09185614 -0.13688609 0.18114913 -0.015601547
000060 19 41 00 3d 2e 9b 39 3d b0 73 30 3e 8f ba 58 bd
       0.031312082 0.045314007 0.17231631 -0.05291229
000070 b1 6f f2 bc 3b b9 27 bd d1 e2 59 3d 99 08 1e be
       -0.029594274 -0.040948134 0.053194825 -0.15432967
000080 e6 f0 eb bc 23 ac 91 3d 18 5e 25 3e a5 2b 33 be
       -0.028801393 0.071129106 0.16149175 -0.17497118
000090 42 1e 2f be dd 3a 23 3e f6 a5 f3 3c d9 22 22 bd
       -0.17101386 0.15940423 0.029742222 -0.039584015
0000a0 a0 65 9b 3d 58 c9 04 be 1e 94 8a bd da b9 5c bd
       0.07587743 -0.12967432 -0.06766532 -0.05388818
0000b0 54 1a 38 3d e1 63 42 bc ee 28 6c bd 0a 43 b0 bd
       0.044946983 -0.011864633 -0.05765622 -0.08606537
0000c0 9e b0 15 be 4c 36 ac bd 96 d6 e3 bd 7c fc b3 3d
       -0.14618155 -0.08408794 -0.111249134 0.08788392
0000d0 fd e2 25 3e 7b 81 d7 bd b9 d3 11 3d 13 8b a5 bd
       0.1619987 -0.10522743 0.035602305 -0.08083167
0000e0 cd 90 86 bc b6 0c c7 3c 70 f7 17 3e c3 f2 1e 3e
       -0.016426468 0.024298053 0.14840484 0.15522294
0000f0 82 a3 9d bd f6 e9 0d 3e c5 38 f2 3c 35 a7 9f bd
       -0.07697202 0.1385878 0.029568085 -0.07795564
000100 75 07 68 3d 77 71 c3 bc c2 03 24 be c2 04 58 bd
       0.056647737 -0.023857815 -0.16017058 -0.052738912
000110 39 87 06 3e e4 4a 89 bd 0b 88 52 bd e7 c6 1a bc
       0.13137521 -0.067037374 -0.051399272 -0.009446836
000120 d4 67 ea 3c 3b c6 01 bd 99 cb 28 3e f0 62 1a bc
       0.028613962 -0.031683188 0.16483916 -0.009423003
000130 f2 99 28 3e a9 9e 06 3e af a3 e1 bd 85 c6 04 3d
       0.16464975 0.13146462 -0.11017548 0.032415885
000140 ea 05 0f 3e 08 6a 22 3c c7 1e 82 3c b7 4c c4 3d
       0.139671 0.009912975 0.015883816 0.09584945
000150 f4 22 ec 3c 7b 77 99 3d 64 6a 90 3d 71 4e da bd
       0.02882526 0.07493492 0.070515424 -0.10659493
000160 38 db 16 3e e8 08 2d bd 70 8c 1d 3e 19 df 9c bd
       0.14732063 -0.04224482 0.15385604 -0.0765974
000170 4f 3c ac bd f2 62 3b bc ee e1 a6 3c 64 b3 c4 bb
       -0.084099405 -0.011437165 0.020371404 -0.0060028303
000180 5f c3 62 bd 8d 32 bf bd 24 0e 04 3e 49 9b 9c bd
       -0.0553621 -0.09335814 0.12896019 -0.07646806
000190 64 a4 2c bd a9 3a 35 bd 31 59 ed 3d 0d 94 59 bc
       -0.042148963 -0.044245396 0.115892775 -0.013279927
0001a0 9f e2 57 bd 82 73 21 3e 4d 06 33 3d 8b b7 f8 bd
       -0.052706357 0.15766719 0.04370718 -0.12144383
0001b0 a1 ad d2 3b 95 ff d2 bd f2 72 b1 3d b2 92 70 bd
       0.0064293896 -0.10302655 0.08664502 -0.05873365
0001c0 f8 dd 55 bc f2 e9 07 be b0 0f ba bd 40 c5 9f 3d
       -0.01305341 -0.13272837 -0.090850234 0.07801294
0001d0 9e 54 9a 3d 3f 15 0d be da d4 15 3e 3d a9 db bd
       0.07535671 -0.13777636 0.14631978 -0.10725639
0001e0 bf 53 2c bd 9e d5 23 3e e3 1f 78 3c 9e 7d af 3c
       -0.042072054 0.15999457 0.015144321 0.021422204
0001f0 71 e5 e8 3d af 19 bc bd 9e c7 92 3d 09 c7 21 be
       0.113718875 -0.09184586 0.0716698 -0.15798582
000200 09 db 36 be 63 80 0a be ab f7 0d 3e e2 97 8c 3d
       -0.17856993 -0.13525538 0.13864009 0.06864907
000210 fa 31 00 3e 3e 79 82 3d c1 23 fb 3d 2e cd 08 3e
       0.12519065 0.06370781 0.12262679 0.1335952
000220 97 99 a9 bd 67 5d b1 3d 7b 37 e1 3d 8c 18 a2 3d
       -0.08281248 0.08660393 0.1099691 0.07914838
000230 16 1a 8d 3d ec 55 0a be 1d fe cb bc f4 80 ab bd
       0.06889741 -0.13509339 -0.024901444 -0.08374205
000240 28 e6 2b 3e 71 58 c9 3d 89 77 57 bc 71 cc a6 bd
       0.16787016 0.09831322 -0.013151058 -0.08144463
000250 ce f4 57 bc 14 0d 30 3e 19 05 23 3e 04 ce 2b be
       -0.013180925 0.17192489 0.15919913 -0.16777807
000260 63 14 e7 bc 91 8f 19 be 72 31 4f bd 45 83 1b 3e
       -0.028207963 -0.14996172 -0.050584264 0.15186794
000270 ac a8 c9 3d cb f6 2d be 58 23 8f bd 30 56 a1 bd
       0.09846625 -0.16988675 -0.06989163 -0.07877767
000280 08 53 0e be 93 6f cd 3c 1d 2d 8e bd 26 52 13 be
       -0.13898861 0.025077617 -0.069421984 -0.14386806
000290 3d 5c 04 3d f0 fe d1 bb 1a 76 05 3e 59 ae 26 bd
       0.032314528 -0.0064085647 0.13033333 -0.040693615
0002a0 39 7c 8c 3d 9f 8f 0e 3e 1c b3 9e 3c bc 31 95 bd
       0.06859631 0.13921975 0.019372515 -0.07284877
0002b0 fe d6 90 bc 58 42 d9 bd 7b 6f a0 3b 78 5a 9b bd
       -0.017680641 -0.10608357 0.004896102 -0.07585615
0002c0 ad 16 17 3e 17 70 29 be ff d7 35 3b db d5 b7 bd
       0.14754744 -0.16546665 0.0027747152 -0.089763366
0002d0 ca ba c3 3d 22 b9 0f 3e db 7b ac 3d d3 e0 57 3d
       0.095571116 0.14035466 0.08422061 0.052704643
0002e0 8f bd 20 be e7 69 c1 3d d3 8f ea 3b b7 a9 98 3d
       -0.15697311 0.094440274 0.0071582585 0.074542455
0002f0 0d 45 85 bc 34 a7 48 bd 83 61 8b 3d 7f 6a 04 be
       -0.016268278 -0.048987582 0.06805708 -0.1293125
000300 1b fa c7 3c 87 21 54 3d 44 ab f5 bb a8 29 17 3e
       0.024411252 0.051789787 -0.007497223 0.14761984
000310 36 69 c6 3d 4b a4 22 be d9 16 81 3d 2d bd fe 3c
       0.09688036 -0.15882985 0.06303186 0.031096065
000320 08 f9 12 bc 16 58 16 be 24 40 e1 bd 5e 41 d2 3d
       -0.0089705065 -0.1468204 -0.10998562 0.10266374
000330 09 ab c1 bc 5c fa 93 3d 6f 68 20 be 60 9d c1 3d
       -0.023641126 0.07225487 -0.15664838 0.09453845
000340 1d 3a 90 bd c6 b6 25 3d 98 2e 17 be a3 73 06 3e
       -0.07042334 0.04045751 -0.14763868 0.1313005
000350 54 16 e4 bb 36 df 00 3e de 4d 27 be cc 1d 2e be
       -0.0069606695 0.12585148 -0.16338298 -0.17003554
000360 57 01 33 bc d9 7b 8e bc 56 bf 2e 3e a6 29 9c 3d
       -0.010925612 -0.01739304 0.17065176 0.07625131
000370 58 2d 70 3d 33 7c 09 bc 84 80 75 3c 00 2c e2 bc
       0.058636993 -0.008391428 0.014984254 -0.027608871
000380 bd ce ca bd 80 2a c8 3c 6f ef b7 3d 14 ec 3f 3d
       -0.099027134 0.024434328 0.08981215 0.046856
000390 c9 d7 fa bd 0e a1 0e be 4e 6b c0 3d fa d6 6c bd
       -0.12248189 -0.13928625 0.09395467 -0.057822205
0003a0 dc ab a9 3d 65 26 31 bd 2b 49 19 bd 90 4b 0b be
       0.08284733 -0.043249507 -0.037423294 -0.13603044
0003b0 e3 6c a1 3d 9f c2 e3 3d c0 cd 35 be 1e 03 a0 3d
       0.078820966 0.111211054 -0.17754269 0.078130946
0003c0 7d d9 ba bc 77 46 b7 bd f0 10 87 3b 9b 3d cf bd
       -0.022808785 -0.08948987 0.004121892 -0.10119172
0003d0 91 17 f3 3c 62 09 50 3c 70 11 c6 3d 72 6e 2c 3d
       0.029674323 0.01269755 0.09671295 0.042097516
0003e0 1d 47 c6 3d 43 27 fa bc ad 68 12 3e 28 f9 35 3d
       0.096815325 -0.0305363 0.14297743 0.044427067
0003f0 89 45 dd 3d ca 5e 26 be 20 3b 10 be 5c c3 05 be
       0.108042784 -0.16247097 -0.14085054 -0.13062805

embed.embedding_net.lin1_2.bias f4 [32]
000000 8c 12 d5 bd 19 26 04 bd af f3 20 3d fe c7 ec 3d
       -0.10403928 -0.032262895 0.039294895 0.11561583
000010 e1 c2 5d 3d e8 77 79 3b c9 e2 ba bd d2 b1 af bd
       0.05414093 0.0038065854 -0.09125287 -0.085788384
000020 fe 73 1d be 46 31 d6 bd 93 cf 8b bc 53 fe 0a 3e
       -0.15376279 -0.10458617 -0.017066753 0.1357358
000030 37 58 de 3d 00 03 80 bd 63 7f ec 3d 36 4a 35 3e
       0.108566694 -0.06250572 0.115477346 0.1770409
000040 7b 7e 6a 3d 65 a7 18 3d af a1 b4 3d 61 d6 00 bd
       0.057249527 0.037269015 0.08819901 -0.031454448
000050 f3 b9 d0 bd 64 fe 9c 3d 6f 08 a7 3d f6 f0 e8 3d
       -0.10191717 0.07665709 0.081559055 0.11374085
000060 6f 34 df 3c 36 02 34 3e 18 83 12 3e 56 41 2f bd
       0.027246682 0.17578968 0.14307821 -0.04278692
000070 d2 09 a2 bc a3 13 0a 3d 94 20 d2 3d f9 0e b9 bc
       -0.019780073 0.033710133 0.1026012 -0.022590147

embed.embedding_net.conv1.nn.0.weight f4 [32, 32]
000000 3d cb d0 bd 13 53 89 3d 26 7e 12 be 41 5b cb bd
       -0.101950146 0.06705298 -0.14305934 -0.09929515
000010 76 c2 b4 3d 4e 9a e5 bd f8 5a 0a 3e ea 6d dc 3d
       0.08826153 -0.11211072 0.13511264 0.10763152
000020 50 d5 81 3d 15 33 99 3d f0 ec 14 3e 29 0f fc bd
       0.06339514 0.07480446 0.1454351 -0.12307579
000030 12 9a dd bd be 27 0f be 79 52 f5 bd 31 4c df bc
       -0.10820402 -0.13980004 -0.11978621 -0.02725801
000040 af 9d 9e 3d 57 6e 30 be 5d ce 5b bd 88 76 d2 3d
       0.077449195 -0.17229591 -0.0536636 0.10276514
000050 8c eb 1f be dc 6e f4 bd 71 80 88 3d 21 78 7f 3c
       -0.15617198 -0.11935207 0.06665123 0.015592606
000060 0a 8f 34 3d 37 b9 ad bc b5 85 c8 3d 63 aa d3 bc
       0.044081725 -0.021206481 0.097911276 -0.025838083
000070 ca 58 1e 3e 42 14 a1 3c 4e 64 0f be ff a9 ef bd
       0.15463558 0.01966298 -0.14003107 -0.11702346
000080 4e bd 24 3e ac f0 19 be a4 33 28 3e d2 f4 b9 bd
       0.16087839 -0.15033215 0.1642595 -0.09079899
000090 f7 d5 e7 3d ef b1 d0 bc ca 1f 6e bd a8 fd 25 3d
       0.113201074 -0.02547547 -0.058135785 0.04052511
0000a0 bd d3 f2 bd b4 28 11 3e 98 c4 17 bd 7f 93 06 3c
       -0.11856792 0.14175683 -0.03705272 0.008213877
0000b0 02 0c db 3d 16 f9 0e bd e4 ae 8a 3d f0 73 82 3d
       0.1069565 -0.034905516 0.06771639 0.063697696
0000c0 8e 39 29 3e f6 16 7e bd f0 75 0b be d1 1a d2 bc
       0.16525862 -0.062033616 -0.13619208 -0.025647553
0000d0 35 a9 6b bd ec 1f 32 bd a3 5b 10 be 61 d6 c2 bd
       -0.057534415 -0.043487474 -0.14097457 -0.09513546
0000e0 65 44 0f 3e 2c e4 be 39 26 9a c3 3d 68 d2 b5 3c
       0.13990934 0.00036409625 0.09550886 0.022195056
0000f0 11 ba 99 bc 16 d8 5f 3d 4a 16 14 3e 74 9f c4 bd
       -0.018765481 0.054649435 0.14461628 -0.09600726
000100 66 ce 03 3e 81 a6 08 bd 48 e6 dd 3d 26 80 f3 3d
       0.12871704 -0.033361915 0.10834938 0.11889677
000110 08 e4 0e be f3 03 06 be c3 15 1b bb 4a 02 d0 3a
       -0.13954175 -0.13087444 -0.0023664094 0.0015869823
000120 9a ca 0a 3e 20 ab 34 3e 57 a6 11 be cf ca 9b bc
       0.13553849 0.17643404 -0.1422361 -0.019017605
000130 3a 3f a7 3a d2 c4 8c 3d 8c 9a ba 3d ee 21 95 3d
       0.0012759932 0.06873478 0.09111509 0.07281862
000140 3b 6b 0b 3e 91 77 06 be 1d e3 d1 bd 20 2f 5d bd
       0.13615124 -0.13131548 -0.102483965 -0.05400002
000150 3b aa c0 bd ba db cc bc f6 39 e8 bd 5e 99 ba 3d
       -0.09407469 -0.025007118 -0.1133918 0.09111284
000160 df ca a3 3d 5d aa 8f 3d 49 cb a1 bd 4d f4 29 3e
       0.07997679 0.07014916 -0.07900102 0.165971
000170 11 b2 32 be d9 65 a2 3c 1b bd e3 bd 6e d5 78 bd
       -0.1745074 0.019823955 -0.111200534 -0.060750417
000180 5b ba 3e bd 1e dc 7a 3d c2 1e 06 be 74 ea e5 3c
       -0.04656444 0.061245076 -0.1309767 0.028065898
000190 5f 30 ae bd 12 ec 72 bc 80 83 1e bd ec 88 51 bd
       -0.0850532 -0.014826791 -0.038699627 -0.05115597
0001a0 69 09 63 bd 3d 48 2c 3e 3b 09 22 be 9c 93 23 be
       -0.055428896 0.16824432 -0.15823834 -0.15974277
0001b0 6d 50 38 3e 07 92 ff bd 56 f7 f8 bc 83 8a 2a 3e
       0.1799943 -0.124790244 -0.030391376 0.166544
0001c0 75 ff 8a bd aa 30 cb 3d bc 23 01 3e 3d bb 8a bc
       -0.06787006 0.09921391 0.12611288 -0.016934985
0001d0 98 3a ff bd ae 2c 2e 3d 08 6e bc 3c 8e 83 20 3d
       -0.12462348 0.04252308 0.023001686 0.03918796
0001e0 1c f9 61 3d e0 46 1d 3e 74 58 2c 3e ad 64 1c 3c
       0.05516921 0.15359068 0.16830617 0.009545487
0001f0 26 fe 38 3e 4a 8f 20 bd 85 dd 4c 3d e8 c9 d2 bd
       0.180657 -0.03919915 0.050015945 -0.10292417
000200 d4 e7 ce bd c8 3f b0 bd f7 47 1a 3e 65 0a f5 3c
       -0.101028115 -0.08605915 0.15066515 0.029912183
000210 2a 4c dc bd 79 54 6b bd 4a 71 e4 bd 35 89 25 3e
       -0.10756715 -0.057453606 -0.11154421 0.16165622
000220 a7 2a 2c be 48 ad 89 3d c9 cd 19 be 00 df 93 3d
       -0.16813146 0.06722504 -0.15019907 0.07220268
000230 d8 65 f4 3d 8c 4d 18 be 20 c4 5c bb a2 89 d3 3c
       0.11933488 -0.14873332 -0.0033686236 0.025822464
000240 4e 37 1e be f8 2f d1 bd c5 01 5c 3d 17 ba 18 3d
       -0.15450785 -0.102142274 0.053712625 0.037286844
000250 e4 e9 de bd bf fd 20 3e e7 10 11 3e b6 a7 2d 3e
       -0.10884455 0.15721796 0.14166604 0.16958508
000260 26 99 8c bd 90 28 05 be 43 65 cb bd bb 35 09 be
       -0.06865148 -0.13003755 -0.099314235 -0.13399403
000270 e5 63 8c 3d ff 9d b3 3c cf b3 18 3e 68 ca 44 bd
       0.06854991 0.021925924 0.14912342 -0.048044592
000280 dd 5f 82 bd c9 42 95 3d 22 26 b7 3d 3a e9 2f bb
       -0.06365941 0.07288129 0.0894282 -0.0026841895
000290 15 e7 d8 bb 66 4c 5a bd 26 14 85 3c b3 4f 78 3d
       -0.006619344 -0.053295515 0.01624496 0.060622882
0002a0 ba 48 3e 3d de 01 0d be 6c 2f 0e be 27 2f de bd
       0.046456076 -0.13770244 -0.13885278 -0.10848837
0002b0 82 04 49 bc 09 e6 c5 bd 77 88 22 be 2e ce 26 3e
       -0.012269141 -0.09663016 -0.1587237 0.16289589
0002c0 d4 01 02 3e 32 56 3a 3d 24 03 61 3b 8b 1d ea bd
       0.1269601 0.04549236 0.0034334147 -0.11431416
0002d0 9f 44 27 be a8 b3 ba bd 09 e4 27 be 83 6a f1 3d
       -0.1633477 -0.09116298 -0.16395582 0.117878936
0002e0 e0 d2 00 3e b0 3c a0 bd ef aa 2c be 7f db 2e be
       0.12580442 -0.07824075 -0.16862081 -0.17075919
0002f0 dc 01 20 3e f8 c8 25 be 9d 16 19 be 7e 93 2d 3e
       0.1562571 -0.16189945 -0.14950033 0.16950795
000300 a2 ce 28 be e6 88 60 3d e5 9e cb bd 01 29 6a bd
       -0.16485074 0.054818057 -0.09942416 -0.05716801
000310 c5 1f 03 be b3 0a 3b 3d 6f 3e 36 3d e4 5c 22 3d
       -0.12805088 0.0456645 0.044493135 0.03963937
000320 da a8 c0 bd 72 03 1f be dc 34 00 3e 8d 37 b2 bd
       -0.09407206 -0.15528658 0.12520164 -0.08702002
000330 71 62 00 be 3a 04 1d 3e 58 78 07 3e a6 45 3d bd
       -0.12537552 0.15333644 0.13229501 -0.046209
000340 c0 fe 2e be 5b b9 ff bd 27 35 31 3e 3a 2e 27 be
       -0.17089367 -0.124865256 0.17305432 -0.16326228
000350 6d 37 c8 bc 90 6f ef 3d 2d c5 c3 3d 26 f9 90 bd
       -0.024440492 0.11691201 0.09559093 -0.07078771
000360 36 39 6d 3d 1c 99 f6 3d a5 a2 7a 3c b4 44 2d bd
       0.05791589 0.12040922 0.015297567 -0.04230185
000370 3c f4 e2 3b 2c b9 e0 3d 54 4d e4 bc 82 f0 58 3d
       0.0069260877 0.10972819 -0.027868904 0.05296374
000380 ef d7 cd bd 85 70 0b be 6a c7 51 3d 94 2c 25 be
       -0.10050952 -0.13617142 0.051215567 -0.16130286
000390 5e 98 52 3d 98 49 0b be 45 8a 28 be bd e8 da bd
       0.05141484 -0.13602293 -0.16458996 -0.106889226
0003a0 5d 9d 19 bd ec ae 71 3d 15 fb 72 3b b8 8d d4 ba
       -0.03750359 0.05900471 0.0037075926 -0.0016216552
0003b0 a2 b8 5b 3c 2a e0 8c bb 9a e4 a6 3d 3f 0c 98 b9
       0.013410719 -0.0042991834 0.08149071 -0.00029000823
0003c0 da 66 01 3d 0e fd 22 3e d0 0e d1 bc 81 4f ad bc
       0.031592228 0.15916845 -0.025519758 -0.021156074
0003d0 8c 27 67 3d db fd bc bd 52 54 a5 bd b6 ae b6 bb
       0.0564342 -0.092281066 -0.080727234 -0.0055750264
0003e0 1f 2f 17 3d aa 4c 19 be b3 0c f5 3b 8d 8f 3a 3d
       0.036910173 -0.14970651 0.0074783205 0.045547057
0003f0 5e 25 9b 3d 63 93 96 3d f9 e6 42 bd bc d6 e5 bc
       0.075754866 0.073523305 -0.047583554 -0.028056495

embed.embedding_net.conv1.nn.0.bias f4 [32]
000000 a8 6f d9 3d 22 ae 0b be 80 ac 13 be ec 16 07 bd
       0.10617 -0.13640645 -0.14421272 -0.032980844
000010 9e b3 a1 3d 87 b0 53 bd 72 a3 b1 bd 84 34 a7 3d
       0.078955874 -0.05168202 -0.08673753 0.081643134
000020 e1 74 c3 3d 76 2c 15 be 69 cd 1a 3e 0e b5 2f be
       0.09543777 -0.14567742 0.1511742 -0.1715891
000030 e2 ae 7b bd ed b9 1c be ae cf 30 be 8e a7 0a 3d
       -0.061446078 -0.153053 -0.17266724 0.0338512
000040 f4 da c8 3d 88 cd 90 bd ea 2a 8a 3d a7 f3 cc bd
       0.09807387 -0.07070452 0.067464665 -0.100074105
000050 4c 8a ad bd 40 3d f6 3d 47 d5 09 bd cc 14 c1 3d
       -0.08473644 0.12023401 -0.033650663 0.09427795
000060 9a 09 0d 3e 30 35 78 bd ef 00 66 3d 3a 99 ba 3d
       0.13773194 -0.0605976 0.056153234 0.09111257
000070 97 38 2f 3d 95 33 cd 3d 8f 99 83 3d d0 43 2a 3e
       0.042778578 0.10019604 0.06425773 0.16627431

embed.embedding_net.conv1.nn.2.weight f4 [32, 32]
000000 e4 58 d8 bd 94 36 93 bc 54 fc c4 3d f7 c2 cd bd
       -0.105638295 -0.01797036 0.0961844 -0.10046952
000010 0d 99 f7 3d 25 df 69 bc 9f bb 92 3d 4a 43 39 3e
       0.12089739 -0.014274393 0.07164692 0.18092075
000020 da 75 da bd 97 5c 36 3c bf af 99 3c 54 15 cc bd
       -0.1066701 0.011130474 0.01876056 -0.099650055
000030 75 16 80 bd ed e8 b3 bd 56 f2 50 bd 1f 32 8e 3c
       -0.06254283 -0.087846614 -0.05101236 0.017357884
000040 bc aa b8 bd 4d b0 7c 3d 86 ae a3 bd a1 1f 3e 3e
       -0.0901694 0.06169157 -0.07992272 0.18566753
000050 f7 64 22 be 29 f1 07 3e b2 2a 1e bd 3d 83 93 bd
       -0.15858828 0.13275589 -0.038614936 -0.07202766
000060 ad 20 23 bd 99 eb 9e bd d8 8d f8 3d bd 97 e8 bd
       -0.039826084 -0.077597804 0.121364295 -0.11357067
000070 bd e0 37 be 53 8f 04 3e 75 c4 4d bd d0 5c db bc
       -0.17956825 0.12945299 -0.050236184 -0.026777655
000080 44 a3 04 bb d8 1f a0 bd a0 fe 21 3e d1 fa c1 3d
       -0.0020238915 -0.07818574 0.15819788 0.094716676
000090 ec cd f0 bd 97 f4 fb 3d 96 e9 1d be 7a 35 d2 bd
       -0.117580265 0.12302511 -0.15421137 -0.10264106
0000a0 ad 5d 2b 3e 07 03 2e be e2 b2 0e 3d 88 a3 cd bd
       0.16734953 -0.16993342 0.034838565 -0.10040957
0000b0 e7 a2 fe bd 9b 67 d2 3d 00 8a 31 bd 30 a8 fc bc
       -0.12433415 0.102736674 -0.043344498 -0.030841917
0000c0 7a ea 79 3b d1 63 9a 3d 79 83 ad 3d a4 9d d7 bd
       0.0038134144 0.0753857 0.08472342 -0.105281144
0000d0 5d 59 9e bd b5 42 1e 3e 81 28 19 be b2 eb ce 3d
       -0.077318884 0.15455134 -0.14956857 0.10103549
0000e0 32 07 00 be ff d7 4a bd 36 2c 52 bd d9 22 36 3e
       -0.12502745 -0.049522396 -0.051311694 0.17786731
0000f0 70 ef 39 be a1 91 2a be db 2d 1f 3e 29 f6 f7 bd
       -0.18157744 -0.16657116 0.15544836 -0.12107498
000100 95 88 23 be 0d 9a 26 3e f9 92 bf bd 50 27 8f bc
       -0.1597007 0.16269703 -0.09354205 -0.0174748
000110 53 21 d4 bc 40 a1 af bd 6d 9e 2d 3e 47 be 86 bd
       -0.025894796 -0.08575678 0.16954966 -0.06579261
000120 43 48 95 bd fc d1 0f 3d 94 c7 99 3d da cc f4 ba
       -0.072891735 0.035112366 0.0750877 -0.0018676773
000130 aa fe 00 3e ef c0 d7 3d d9 15 aa 3d a5 7f be bd
       0.12597147 0.10534846 0.08304948 -0.0930169
000140 23 b5 d6 3c b8 43 5a 3d ce 73 fe bd aa 39 07 3e
       0.02620942 0.053287238 -0.12424432 0.13205591
000150 9c 7f 58 3d 10 04 3b 3d 9e 5b 4f bd 2d ac 35 3d
       0.052856073 0.04565817 -0.050624482 0.044353653
000160 72 9e 37 bd 89 4a 26 b9 aa 1c 1a bd f1 a0 0a 3e
       -0.04482884 -0.0001585876 -0.037624992 0.13537957
000170 de 65 e3 3d dc 47 35 3e 8b b4 22 be 0c 70 a7 3d
       0.11103414 0.17703193 -0.15889184 0.08175668
000180 69 5b a1 3c 48 ad 1a be ce 46 1e be 9a 96 77 3d
       0.019696908 -0.15105164 -0.15456697 0.06044636
000190 0f 51 c5 3d ec 91 31 3e 78 54 89 3d 7d 0b a1 bd
       0.09634601 0.17340821 0.06705564 -0.07863519
0001a0 f2 58 ee 3d ce f3 70 3d e2 76 29 be f2 d6 29 be
       0.11638059 0.05882626 -0.16549256 -0.16585901
0001b0 61 ee bb bd a5 c1 cd bd 32 83 a0 3d 2f c4 14 be
       -0.091763265 -0.100467004 0.078375235 -0.14527963
0001c0 b5 51 24 3e 58 75 fe bd eb 36 40 bd e6 5f 22 3d
       0.16046794 -0.12424725 -0.046927374 0.039642237
0001d0 d1 50 02 be b4 db 0e be 85 67 11 3e da 98 e7 bd
       -0.12726142 -0.13950998 0.14199646 -0.11308451
0001e0 4f 67 46 39 56 da 03 3e a8 54 40 bd ae 87 44 3d
       0.00018921237 0.12876257 -0.046955734 0.047980957
0001f0 c3 3d ea bd a1 4d 1e 3d 3c 09 09 3e bc 3d 2e 3e
       -0.11437561 0.03864825 0.13382429 0.17015737
000200 8f 0b 16 3e 66 c4 25 be 6a 47 23 be 85 d5 11 be
       0.14652847 -0.16188201 -0.15945211 -0.14241607
000210 8e 02 d8 3d 68 fb 95 3c 34 7d 54 3d 12 46 fd bd
       0.10547362 0.018308356 0.051877216 -0.123668805
000220 a9 b6 0e 3e 93 9e 11 be 54 ea 2e 3e d1 8e 37 be
       0.13936867 -0.14220648 0.17081577 -0.17925574
000230 ce 69 43 bd 4d 73 1d 3e 18 41 30 3e d3 74 18 be
       -0.047708325 0.15376015 0.17212331 -0.14888315
000240 e7 d9 34 be 15 1f 28 3d f9 67 ee 3d 2f 39 32 3d
       -0.17661248 0.041045267 0.11640925 0.043511566
000250 7f 75 1c be 58 f0 10 3e ef 1a 25 ba 2b c1 17 bd
       -0.15279196 0.14154184 -0.0006298264 -0.037049454
000260 62 2f c6 bd 8e c8 ed bd 48 da d6 3c 12 3c 1f 3d
       -0.09677006 -0.116105184 0.026227131 0.038875647
000270 15 e2 f0 3d 3d 86 89 bd 4b ef bb 3d f1 99 d4 bd
       0.11761872 -0.06715057 0.09176501 -0.103809245
000280 26 bb 01 bd c0 b2 76 3d f0 f3 2c 3e 40 e0 20 3e
       -0.03167262 0.060229063 0.1688993 0.15710545
000290 30 08 d2 3c 38 15 e4 bd 0b 18 f9 bb df ea bc 3d
       0.02563867 -0.1113686 -0.007601743 0.092244856
0002a0 a2 04 d2 bd 5e af 8c 3d 20 44 1c be bc 10 ce 3d
       -0.1025479 0.06869386 -0.15260363 0.100617856
0002b0 48 5d 12 3e c1 a7 11 bd 55 cb bf bc 52 70 ff bd
       0.14293396 -0.035560373 -0.023412386 -0.12472595
0002c0 cf d0 10 bd 01 fb 8f bd 53 8c 89 bd 57 fe bd bc
       -0.035355385 -0.07030297 -0.06716218 -0.023192568
0002d0 77 98 b5 bd ba 91 89 bc b3 18 4d bc 46 aa 69 3d
       -0.08866971 -0.01679312 -0.012518096 0.05704715
0002e0 de 24 20 3e e9 d1 a4 bd 81 4e 10 bb f9 31 8c bd
       0.15639064 -0.0804785 -0.0022019448 -0.06845469
0002f0 d4 e7 57 3d d7 82 c8 3d 51 2f 14 3c df ae ac 3d
       0.052711323 0.09790581 0.009044484 0.084317915
000300 54 e2 8f bd 88 14 94 3d 36 21 0c bd f5 4b 22 be
       -0.070255905 0.072304785 -0.03421136 -0.15849288
000310 77 58 d1 3d a2 49 20 3e 6a 1f 00 bd 74 6f cf 3c
       0.102219515 0.15653089 -0.03127996 0.0253217
000320 86 47 16 be 06 c1 a8 3d a4 a3 70 bd 50 43 d1 3d
       -0.14675722 0.08239941 -0.05874981 0.10217917
000330 18 d5 4c be 84 6f b2 3d 09 5a 59 3d 60 82 18 3d
       -0.20003164 0.08712676 0.05306438 0.03723371
000340 7b 18 1d bd 0b 32 85 3d b3 db c1 bd 81 30 d3 3d
       -0.038353425 0.065036856 -0.094657324 0.10311986
000350 af 96 a2 bd 7d c8 9b 3d fa 75 d6 3d 36 e9 d3 3a
       -0.07938897 0.076065995 0.10471721 0.0016167525
000360 9e 41 df bd 21 aa 33 bd 94 db e8 3d 17 8c e5 bd
       -0.10901187 -0.04386342 0.11370006 -0.11208361
000370 52 4b 15 be 92 d9 10 3e 78 3e b2 bd 35 b1 e7 3d
       -0.14579514 0.14145496 -0.08703321 0.113130964
000380 cb 92 e5 3d 59 36 31 be 72 73 38 bd 7a fb 21 be
       0.11209639 -0.17305888 -0.045031972 -0.15818587
000390 20 e6 2d 3e b5 b3 01 be 3e 8a c0 3d aa 45 09 be
       0.16982317 -0.12666209 0.094013676 -0.13405481
0003a0 52 50 aa 3a 4f 8a 38 3e 5c a5 11 be c3 6a 09 be
       0.0012993908 0.1802151 -0.14223236 -0.13419633
0003b0 97 d4 30 bd 01 b7 38 bd 45 c2 fc 3d 7d 04 cc 3c
       -0.04317149 -0.0450964 0.123417415 0.024904484
0003c0 20 41 2a be a0 d5 1a 3b 82 d2 b7 3d 2a 65 17 3e
       -0.16626406 0.0023625866 0.08975698 0.14784685
0003d0 56 10 cc bd a2 8a 0e be 61 0e 4e 3d 9c 4c 0f bd
       -0.09964053 -0.13920072 0.05030668 -0.03498517
0003e0 2a 18 97 3d 7e aa 1c 3c ea 16 7a bb b8 8a b4 bd
       0.07377656 0.009562133 -0.003816063 -0.08815521
0003f0 46 be 39 3d 53 93 15 bd 73 2e 30 3e 8e 24 eb bd
       0.045347475 -0.036517452 0.17205219 -0.11481582

embed.embedding_net.conv1.nn.2.bias f4 [32]
000000 1a 8d b5 bd 64 b3 89 3d 1e e5 c9 bc 7f b8 0b 3e
       -0.088648036 0.06723669 -0.024645384 0.13644598
000010 1c d5 1e bd dc 8d 07 3e 42 38 0e be 89 03 ad bd
       -0.038777456 0.13237709 -0.13888648 -0.0844794
000020 e4 8d b5 bd 0e d9 b5 bd 0c ce 53 bd d1 80 ec 3d
       -0.08864954 -0.088792905 -0.051710173 0.11548007
000030 f3 3c 30 be 69 c2 2e 3e c8 53 da 3d b0 45 05 3e
       -0.1721075 0.17066349 0.10660511 0.13014865
000040 66 07 d2 3d 13 c2 25 be c6 40 99 bb 93 dd 63 3d
       0.102553174 -0.16187315 -0.004676911 0.05563123
000050 a9 fc 97 3d fb 35 ff 3d e1 ee 22 3e 64 02 4a 3d
       0.07421238 0.12461468 0.15911438 0.049318686
000060 c3 ca 01 3e 8b 38 96 bd 05 36 d0 bd d5 d1 e8 3d
       0.12675004 -0.073350035 -0.101665534 0.11368147
000070 72 b5 56 bd 75 ff 0e be 79 4d 74 3d f6 49 e4 bd
       -0.052419133 -0.13964637 0.059644196 -0.111469194

embed.embedding_net.bn1.weight f4 [32]
000000 81 a8 7f 3f df f4 80 3f 7c e7 80 3f 8d bf 7c 3f
       0.9986649 1.0074729 1.0070643 0.98729783
000010 37 60 80 3f b8 f9 7f 3f 1f 9a 7f 3f 85 79 7f 3f
       1.0029362 0.99990416 0.99844545 0.997948
000020 e3 45 80 3f 1e 38 7e 3f c5 0e 81 3f e4 51 80 3f
       1.0021328 0.9930438 1.0082632 1.0024991
000030 88 50 81 3f 01 d8 7d 3f 0d fe 7f 3f 2d 12 81 3f
       1.0102701 0.9915772 0.99997026 1.0083672
000040 fc 31 7f 3f 6c 0f 81 3f 81 99 7e 3f 5c 2a 80 3f
       0.99685645 1.0082831 0.9945298 1.0012927
000050 69 12 80 3f ad fe 7e 3f d8 74 7e 3f ac 6a 80 3f
       1.0005618 0.99607354 0.9939704 1.0032554
000060 64 1b 81 3f 60 b7 80 3f e9 45 82 3f e6 3c 7f 3f
       1.0086484 1.0055962 1.0177585 0.997023
000070 e2 f2 7e 3f 70 e5 81 3f 27 d3 80 3f 84 c1 80 3f
       0.9958936 1.0148144 1.0064439 1.0059056
