trained_managers/50_150_5_MH_gin_32_minmax.pth (torch, 271880 bytes, 74 tensors)

key_policy.weight f4 [64, 32]
0.026304863 -0.0029220122 0.17621593 0.039436106 -0.09717663 -0.015224275 0.048594616 0.095086046
0.02309853 -0.12560005 -0.07057147 -0.009860559 0.05066524 0.08510279 -0.11228831 0.10631049
0.12357993 0.04723821 -0.05397451 -0.10442824 -0.11808397 -0.07430923 -0.05533852 0.11867076
0.025923438 -0.043318927 -0.11154041 0.121817395 -0.09762535 -0.027557265 0.00617997 -0.16146937
0.139068 -0.15511037 0.111514926 0.07604116 -0.05671926 -0.085561216 0.12580036 -0.06403606
0.16262767 -0.0013802144 0.15751807 0.13370073 -0.042675514 -0.035586644 0.0034153475 0.12604143
0.017975967 -0.0588653 -0.005927104 -0.023708098 0.1681556 0.08941115 -0.12722369 -0.108464256
-0.09978899 0.0989908 0.025514597 -0.043847673 0.056500148 0.11681355 0.022542743 0.07605558
-0.02741177 0.027208913 0.13130854 -0.038829967 -0.062287673 -0.06303726 0.046773355 -0.093700096
0.15978588 0.08454721 -0.16060466 -0.075852 0.14549568 -0.0814984 -0.17996787 0.11354025
-0.14565332 -0.03216809 -0.05782714 -0.110363476 0.16917361 0.09023714 -0.084937714 -0.0055217627
-0.0636383 -0.057539243 0.065156296 -0.024321387 0.050150134 -0.035880145 -0.13269354 0.1755139
0.18029514 -0.103930034 -0.05651232 -0.09510552 0.09709013 0.09058592 0.063830264 -0.04462991
0.022475949 0.11750676 0.055743907 0.17114913 0.09303107 -0.123617746 -0.1427488 0.12142691
-0.02816626 -0.07180256 0.09176566 -0.050487008 -0.13049497 -0.07055627 -0.023491845 -0.05633886
0.0462138 -0.04838417 0.17250104 0.062453862 -0.08865304 -0.09711177 -0.078083746 0.11404328
-0.07164102 0.025867073 0.13604617 -0.05844076 -0.02119847 -0.103846796 0.15572508 0.045528147
-0.026364781 -0.08588949 0.14232263 0.07899496 0.033677038 0.08010084 0.14389001 0.051422726
-0.15943961 -0.060208403 -0.06397526 0.18345474 0.0895604 -0.107260935 0.07562263 -0.08006054
0.1771897 -0.0588404 0.052963138 0.112956986 0.11608834 -0.04947221 0.16027734 0.025863701
-0.036000434 -0.163208 0.02881863 -0.0030445028 -0.0355927 -0.061544005 0.1588677 -0.06454802
-0.07818299 -0.05213 -0.044247285 -0.12252647 0.15327697 0.15939318 -0.117438465 -0.11454931
0.030171715 0.04089645 -0.07178136 -0.16786592 0.16296664 -0.051938653 0.13221414 -0.08404943
-0.054299857 0.07901005 0.0020566108 -0.040977705 -0.05773958 0.10428687 0.075294614 0.020025251
0.149842 0.033510778 0.17132224 -0.020097576 0.16475569 0.03730429 -0.12917018 -0.08033448
-0.17956896 0.075567305 0.07890539 0.17883146 -0.123308904 -0.025388496 -0.14934632 0.11314362
-0.020370776 -0.093641214 -0.029779071 0.06798698 0.1488522 -0.061646793 0.00620969 -0.11870403
0.050146345 0.030536583 0.07892825 0.11526607 0.0758285 0.03115052 -0.15353292 -0.022296436
-0.09879917 0.025514584 -0.110135905 -0.004689352 -0.13795108 0.10539824 -0.06840977 -0.09983804
0.15342371 0.03679287 -0.121971175 -0.11889877 -0.013693137 -0.1669312 0.11305779 0.08976362
-0.1470858 0.0039870194 0.1489444 -0.087932445 -0.15240514 -0.07454433 -0.11757477 0.03409058
-0.060063522 -0.14712213 -0.1302629 0.1268869 -0.12882434 0.064319514 -0.08955646 -0.09046665
00000000: 4c7d d73c 3b7f 3fbb f371 343e c187 213d
00000010: 8a04 c7bd 3d6f 79bc 260b 473d 79bc c23d
00000020: 2139 bd3c 4d9d 00be c687 90bd 2f8e 21bc
00000030: 5b86 4f3d 5f4a ae3d 6af7 e5bd 50b9 d93d
00000040: 7917 fd3d da7c 413d 6014 5dbd 79de d5bd
00000050: 02d6 f1bd 702f 98bd a5aa 62bd a809 f33d
00000060: 645d d43c 306f 31bd 4c6f e4bd 667b f93d
00000070: cdef c7bd c6bf e1bc 5981 ca3b 3a58 25be
00000080: d767 0e3e 41d5 1ebe f061 e43d 78bb 9b3d
00000090: 7452 68bd b83a afbd cfd1 003e 5625 83bd
000000a0: de87 263e 4fe8 b4ba 6b4c 213e d8e8 083e
000000b0: 85cc 2ebd 4dc3 11bd 06d4 5f3b 0111 013e
000000c0: 5642 933c be1c 71bd 2738 c2bb 7c37 c2bc
000000d0: fb30 2c3e 311d b73d ed46 02be 8222 debd
000000e0: 2c5e ccbd b0bb ca3d fd03 d13c 9e99 33bd
000000f0: b36c 673d f13b ef3d 8fab b83c 07c3 9b3d
00000100: a68e e0bc 3ae5 de3c bf75 063e 2c0c 1fbd
00000110: 5c21 7fbd ae19 81bd 6b95 3f3d d6e5 bfbd
00000120: e99e 233e 1627 ad3d 8c75 24be 4b58 9bbd
00000130: d2fc 143e a2e8 a6bd 7f49 38be ca87 e83d
00000140: 2526 15be b0c2 03bd 27dc 6cbd 3f06 e2bd
00000150: d93b 2d3e 40ce b83d d3f3 adbd e7ef b4bb
00000160: cc54 82bd 45ae 6bbd aa70 853d a53d c7bc
00000170: 3a6a 4d3d 0ff7 12bd d1e0 07be eab9 333e
00000180: 4a9f 383e 45d9 d4bd 7679 67bd afc6 c2bd
00000190: 31d7 c63d 1c85 b93d 71b9 823d dacd 36bd
000001a0: 7b1f b83c 62a7 f03d b953 643d b841 2f3e
000001b0: 1387 be3d 4d2b fdbd be2c 12be acae f83d
000001c0: eebc e6bc 380d 93bd a2ef bb3d 77cb 4ebd
000001d0: 79a0 05be ce7f 90bd f871 c0bc 94c3 66bd
000001e0: ae4a 3d3d 7b2e 46bd 1da4 303e 9fcf 7f3d
000001f0: ba8f b5bd 89e2 c6bd 5fea 9fbd 868f e93d
00000200: 87b8 92bd 2fe7 d33c b04f 0b3e 945f 6fbd
00000210: 6aa8 adbc a1ad d4bd 6576 1f3e b97b 3a3d
00000220: f4fa d7bc d4e6 afbd 06bd 113e 1cc8 a13d
00000230: eff0 093d e90b a43d e757 133e a3a0 523d
00000240: 2344 23be 169d 76bd 7605 83bd 8fdb 3b3e
00000250: 716b b73d 9fab dbbd 0ae0 9a3d c8f6 a3bd
00000260: 3771 353e a202 71bd e0ef 583d fe55 e73d
00000270: b9bf ed3d 5fa3 4abd be1f 243e 1de0 d33c
00000280: 3175 13bd ff1f 27be 0c15 ec3c 4886 47bb
00000290: a7c9 11bd 9115 7cbd 37ae 223e c131 84bd
000002a0: 671e a0bd 4486 55bd a43c 35bd 28ef fabd
000002b0: a3f4 1c3e f737 233e 9483 f0bd d498 eabd
000002c0: ac2a f73c 0983 273d 1b02 93bd 0be5 2bbe
000002d0: bae0 263e a0bd 54bd 2563 073e 1c22 acbd
000002e0: 8769 5ebd 05d0 a13d 34c8 063b 3dd8 27bd
000002f0: 5680 6cbd 5b94 d53d 1034 9a3d ff0b a43c
00000300: 2e70 193e 9942 093d 196f 2f3e aca3 a4bc
00000310: b7b5 283e 62cc 183d 3045 04be 6786 a4bd
00000320: ede0 37be 08c3 9a3d 2699 a13d 981f 373e
00000330: 6189 fcbd 89fb cfbc 3eee 18be d8b7 e73d
00000340: 9de0 a6bc f7c6 bfbd 3df3 f3bc c23c 8b3d
00000350: b66c 183e 5981 7cbd a87a cb3b 191b f3bd
00000360: 4166 4d3d db27 fa3c 22a5 a13d 9e10 ec3d
00000370: f94b 9b3d 602f ff3c bc37 1dbe 04a7 b6bc
00000380: 3857 cabd f603 d13c ef8e e1bd 23a9 99bb
00000390: 0c43 0dbe 08db d73d 6c1a 8cbd e377 ccbd
000003a0: 1b1b 1d3e 1fb4 163d 06cc f9bd 3381 f3bd
000003b0: 2e59 60bc 03f0 2abe d88a e73d fdd5 b73d
000003c0: a99d 16be 8ba5 823b e184 183e ed15 b4bd
000003d0: 1810 1cbe b3aa 98bd 0acb f0bd 90a2 0b3d
000003e0: 2b05 76bd 2fa7 16be a363 05be a4ee 013e
000003f0: 87ea 03be f3b9 833d 6169 b7bd 9446 b9bd

key_policy.bias f4 [64]
-0.041225944 -0.002354739 -0.120839976 0.18417726 -0.13957459 -0.1240421 -0.0066271448 0.05796817
0.07612721 0.15199278 0.09719899 -0.1601667 -0.0059378464 0.061623197 -0.013407717 0.11314464
-0.117996514 0.026115485 -0.06691203 -0.044036735 -0.16111198 0.10469606 -0.16116445 -0.021568503
0.042796265 -0.002056081 0.12591662 0.03982934 0.1196924 -0.1021226 0.059139486 -0.0427146
0.16847113 -0.094465286 0.17853568 -0.08487205 0.14019841 0.05922795 0.098536596 0.14275938
0.116812415 -0.15324952 0.020332942 -0.039851718 0.15521611 0.17224586 0.1293716 -0.06421383
-0.14027783 0.08440849 -0.1044849 -0.161773 0.12060508 0.12565902 -0.01648728 0.06071405
0.08994672 0.026370171 -0.10948925 -0.014267866 0.12491088 0.058375753 -0.16554736 -0.0053143045
00000000: 89dc 28bd f751 1abb f37a f7bd f798 3c3e
00000010: a4ec 0ebe c909 febd 8528 d9bb 0870 6d3d
00000020: 95e8 9b3d ffa3 1b3e 4410 c73d bd02 24be
00000030: 4492 c2bb 9b68 7c3d 0bac 5bbc 61b8 e73d
00000040: 28a8 f1bd 24f0 d53c 2d09 89bd dd5f 34bd
00000050: 8afa 24be e36a d63d 4b08 25be 6eb0 b0bc
00000060: 234b 2f3d 51bf 06bb 49f0 003e 1724 233d
00000070: 4a21 f53d a725 d1bd 3f3c 723d 81f5 2ebd
00000080: b283 2c3e 0477 c1bd 0fd2 363e 66d1 adbd
00000090: 2c90 0f3e 0299 723d 8ecd c93d 842f 123e
000000a0: 593b ef3d 71ed 1cbe 4591 a63c 8e3b 23bd
000000b0: f9f0 1e3e 3861 303e fd79 043e 8a82 83bd
000000c0: fea4 0fbe 5cde ac3d 2efc d5bd d2a7 25be
000000d0: ccff f63d c2ac 003e 5510 87bc 4caf 783d
000000e0: fc35 b83d 4206 d83c e63b e0bd c4c3 69bc
000000f0: 47d1 ff3d 6a1b 6f3d 3f85 29be 9e23 aebb

q_policy.weight f4 [64, 64]
-0.029183434 0.05597311 0.10268818 -0.07642513 0.055337775 -0.12313774 0.1179928 -0.11581502
-0.107884176 0.020774752 -0.12855418 0.11187679 -0.10475289 0.02138768 0.02274197 0.11574623
-0.046039443 0.12621531 -0.024005428 -0.09491677 -0.055526838 -0.008192882 0.027330304 -0.10162563
-0.03954132 -0.07159713 -0.053124703 -0.034275085 -0.04749031 0.034468763 -0.08959903 -0.010877268
-0.10583149 0.035039365 -0.10835074 0.0165415 -0.13096705 0.058354277 0.122499876 0.033507828
0.03654996 -0.04218074 0.08307048 0.07703796 -0.04218055 -0.09024195 -0.061594635 -0.079600714
0.022722747 0.077992134 -0.08166364 0.045281067 0.038060714 0.050260328 0.097905785 -0.070144914
0.10490196 0.09964071 0.08205685 0.00026248404 0.0691947 0.064043604 0.08432851 -0.14002776
0.1303231 0.02931314 -0.07204025 0.011733532 0.040554654 -0.08991287 -0.05583837 0.051232513
-0.064604186 -0.06318301 0.013982354 0.057654683 0.11744613 0.09658294 -0.0021482483 0.0985322
-0.033076685 0.1449507 -0.030507939 0.06733285 -0.02416683 -0.021136401 0.045797206 0.069543295
-0.024109956 0.016768044 -0.11194854 0.024678443 -0.048536535 -0.017515307 0.0764255 -0.12467604
-0.105027474 0.117576756 -0.057612598 0.0790783 -0.050709307 -0.07397611 0.06712681 0.023049843
0.03691376 -0.06036508 -0.04517936 0.104006335 0.031844273 0.11502193 -0.100458525 0.022190778
0.008505445 -0.07176632 0.08889072 0.07851343 -0.0010586818 -0.019952757 0.0087365005 -0.07008612
0.08272857 0.090192504 -0.0147357695 -0.08129716 0.12022214 0.0637953 -0.036055293 0.00074523955
0.10962473 -0.038655568 -0.025812138 -0.027289266 -0.0829342 -0.0341853 0.013743391 -0.08946284
0.12768337 0.02177467 0.086196885 -0.120495446 -0.104713455 0.066059366 -0.110275805 0.036831323
-0.052568667 -0.012532431 0.10368063 -0.015851317 0.06785128 0.04759917 -0.12518461 0.0038211949
-0.07085102 0.055528834 -0.057120275 0.12462687 0.095536314 0.0737019 0.07361569 0.080663994
0.1275677 -0.0071755988 -0.0417353 -0.13171235 -0.06979612 -0.071494654 -0.068739645 0.10189502
0.06673027 0.07933853 -0.06144492 -0.03956915 0.09950691 0.07419304 0.010541666 0.0039181146
-0.099501945 -0.110905625 -0.1349972 0.098235935 -0.07596737 -0.0969366 0.083714135 -0.060471516
0.12061321 0.11372086 0.12123987 0.016706197 -0.03891777 -0.09798836 -0.088853784 0.07279508
-0.03504963 -0.07225647 0.019358788 -0.110212415 0.019022308 0.04647714 -0.11351694 -0.0023846847
0.08659818 0.009635434 -0.11975275 -0.070103385 0.11475355 -0.1091097 0.030245181 -0.026215484
0.083921514 0.08388436 0.051279623 -0.0071820333 -0.07308773 -0.09212906 -0.1089601 0.022705825
0.058780145 -0.071982265 -0.037056927 0.04262608 0.09416569 -0.06662502 0.10924126 -0.02230557
-0.088825524 0.0020288946 0.08268142 -0.023425069 -0.10343417 -0.048481017 0.07578826 0.05887806
-0.02963011 0.0047904975 0.009792295 0.06642282 -0.11327845 -0.091150835 0.11854617 -0.031832825
0.0071528186 -0.12193888 -0.07808908 -0.050075173 0.05133921 0.06614742 -0.013932453 -0.031898476
0.09578127 -0.06021717 -0.07586899 -0.0056806607 0.12447892 0.10882316 0.08243209 -0.016084285
00000000: 1912 efbc 0f44 653d 2e4e d23d c784 9cbd
00000010: dda9 623d a42f fcbd 36a6 f13d 6d30 edbd
00000020: 61f2 dcbd d02f aa3c b5a3 03be a91f e53d
00000030: af88 d6bd 3735 af3c 5e4d ba3c 5c0c ed3d
00000040: db93 3cbd 963e 013e 08a7 c4bc b963 c2bd
00000050: 1c70 63bd 703b 06bc cde3 df3c 1921 d0bd
00000060: 14f6 21bd 84a1 92bd 4a99 59bd 0864 0cbd
00000070: 3385 42bd 1e2f 0d3d b27f b7bd 9236 32bc
00000080: 2ebe d8bd 7085 0f3d fee6 ddbd 0a82 873c
00000090: 3a1c 06be e504 6f3d 37e1 fa3d 813f 093d
000000a0: 69b5 153d b6c5 2cbd db20 aa3d 14c6 9d3d
000000b0: 83c5 2cbd c5d0 b8bd a84a 7cbd b305 a3bd
000000c0: 0e25 ba3c 57ba 9f3d 443f a7bd a478 393d
000000d0: 8de5 1b3d c6dd 4d3d d482 c83d 23a8 8fbd
000000e0: d7d6 d63d 6e10 cc3d 6c0d a83d 039e 8939
000000f0: f3b5 8d3d 4b29 833d 6db4 ac3d 7063 0fbe
00000100: 6b73 053e 1c22 f03c d789 93bd 003e 403c
00000110: a31c 263d 3d24 b8bd c6b6 64bd 2fd9 513d
00000120: 334f 84bd 1866 81bd 3e16 653c 5127 6c3d
00000130: 9987 f03d 47cd c53d a0c9 0cbb 40cb c93d
00000140: 6b7b 07bd f56d 143e c9eb f9bc cee5 893d
00000150: 84f9 c5bc 3f26 adbc da95 3b3d b76c 8e3d
00000160: 3e82 c5bc 235d 893c 4745 e5bd 722a ca3c
00000170: 3fce 46bd 437c 8fbc f984 9c3d 2756 ffbd
00000180: a518 d7bd 15cc f03d 30fb 6bbd cef3 a13d
00000190: 90b4 4fbd c980 97bd c879 893d 06d3 bc3c
000001a0: e232 173d 6041 77bd fe0d 39bd 4601 d53d
000001b0: 246f 023d 9e90 eb3d 33bd cdbd 6fc9 b53c
000001c0: 6c5a 0b3c 38fa 92bd 560c b63d a6cb a03d
000001d0: 77c3 8aba f773 a3bc 8a23 0f3c 5089 8fbd
000001e0: 996d a93d d9b6 b83d 4c6e 71bc 207f a6bd
000001f0: 0637 f63d 1ca7 823d b7ae 13bd 2e5c 433a
00000200: ee82 e03d 4d55 1ebd fa73 d3bc bd8d dfbc
00000210: 68d9 a9bd e305 0cbd f62b 613c 4b38 b7bd
00000220: 6ebf 023e cb60 b23c fe87 b03d 51c6 f6bd
00000230: 0274 d6bd 224a 873d 48d8 e1bd 71dc 163d
00000240: 3e52 57bd d354 4dbc 8356 d43d 9fda 81bc
00000250: 9df5 8a3d 59f7 423d 6530 00be 036d 7a3b
00000260: 571a 91bd 3472 633d f3f6 69bd 5f3c ff3d
00000270: 8ba8 c33d 06f1 963d d3c3 963d 2a33 a53d
00000280: 1ba1 023e 4921 ebbb a2f2 2abd 9adf 06be
00000290: 45f1 8ebd ca6b 92bd 5fc7 8cbd 56ae d03d
000002a0: e1a9 883d 3d7c a23d abad 7bbd 4313 22bd
000002b0: 47ca cb3d 85f2 973d f4b6 2c3c 8763 803b
000002c0: adc7 cbbd 7d22 e3bd b53c 0abe ec2f c93d
000002d0: c894 9bbd b286 c6bd 5172 ab3d fbb0 77bd
000002e0: 0f04 f73d 7be6 e83d 9c4c f83d 6fdb 883c
000002f0: 3d68 1fbd 1fae c8bd f9f8 b5bd 9615 953d
00000300: 3390 0fbd 33fb 93bd 5296 9e3c 0cb7 e1bd
00000310: acd4 9b3c d05e 3e3d 927b e8bd 5f48 1cbb
00000320: 635a b13d f0dd 1d3c ee40 f5bd 5d92 8fbd
00000330: e903 eb3d e874 dfbd bec4 f73c dbc1 d6bc
00000340: 0bdf ab3d 90cb ab3d 950a 523d 4357 ebbb
00000350: 05af 95bd 29ae bcbd 7926 dfbd 9101 ba3c
00000360: 73c3 703d 706b 93bd 01c9 17bd af98 2e3d
00000370: f1d9 c03d b372 88bd e2b9 df3d 2cba b6bc
00000380: 28ea b5bd 34f7 043b e054 a93d eee5 bfbc
00000390: 4bd5 d3bd 0894 46bd e036 9b3d 1f2a 713d
000003a0: d8ba f2bc 9bf9 9c3b dd6f 203c b008 883d
000003b0: 88fe e7bd 4aad babd 56c8 f23d 2363 02bd
000003c0: 3162 ea3b 17bb f9bd 2bed 9fbd a01b 4dbd
000003d0: 1049 523d 4c78 873d f144 64bc faa7 02bd
000003e0: f828 c43d 47a6 76bd 3361 9bbd d624 babb
000003f0: ceee fe3d adde de3d 28d2 a83d 31c3 83bc

q_policy.bias f4 [64]
-0.1474986 -0.11965636 -0.03500986 0.006839722 -0.11863005 0.055419654 -0.10929064 -0.09641
-0.017387617 -0.057885025 -0.0063536107 -0.0029629236 0.038372155 -0.009563577 0.059601642 -0.14939669
0.12761189 -0.019089747 -0.08996346 -0.0004595782 -0.05700363 0.016871218 0.074934006 0.02247264
-0.122731544 -0.08464464 0.014675507 -0.1629762 0.089137316 0.033975434 -0.02667131 0.051341698
0.15440747 0.06661336 -0.08063903 0.06916462 0.027502934 -0.011397435 -0.059426088 -0.037238363
-0.11593278 -0.12902412 0.07069314 -0.077190235 -0.07375071 0.016883297 -0.09631015 0.07893487
-0.02528348 0.09516831 -0.11589733 -0.03116276 -0.12652537 0.013948115 0.011683271 -0.057522915
-0.069380276 -0.11528928 0.032061026 0.044683453 0.069307484 -0.13785373 0.04456317 -0.056162145
00000000: df09 17be 650e f5bd 8066 0fbd bf1f e03b
00000010: 50f4 f2bd b8ff 623d c5d3 dfbd 9b72 c5bd
00000020: 7a70 8ebc d918 6dbd f331 d0bb 9c2d 42bb
00000030: 1f2c 1d3d 8db0 1cbc da20 743d 72fb 18be
00000040: b1ac 023e 1a62 9cbc c33e b8bd 8bf3 f0b9
00000050: a37c 69bd 8235 8a3c 0077 993d 8b18 b83c
00000060: ad5a fbbd 2b5a adbd 8a71 703c 3ce3 26be
00000070: a08d b63d d329 0b3d cb7d dabc ac4b 523d
00000080: fe1c 1e3e 966c 883d 1326 a5bd 2ea6 8d3d
00000090: d54d e13c 4fbc 3abc c568 73bd 4187 18bd
000000a0: 2a6e edbd e61e 04be 91c7 903d ea15 9ebd
000000b0: 9d0a 97bd d74e 8a3c 423e c5bd 9ba8 a13d
000000c0: 4d1f cfbc 9ae7 c23d 945b edbd 0b49 ffbc
000000d0: de8f 01be a286 643c 316b 3f3c 269d 6bbd
000000e0: 3f17 8ebd c91c ecbd 6c52 033d ff05 373d
000000f0: 15f1 8d3d 8729 0dbe df87 363d 470a 66bd

embed.embedding_net.lin1_1.weight f4 [32, 4]
0.26632836 0.14513722 -0.019806428 -0.01401088 0.1804684 0.36025462 -0.48346347 0.24570881
0.38679123 0.0653727 -0.12505911 -0.3720663 -0.26449054 0.0151034705 -0.18585797 0.19465351
0.4214311 0.28538013 0.14346062 0.26070136 -0.309798 -0.017925106 -0.1456555 0.21380386
-0.21856269 0.017310962 -0.12094531 0.049330797 0.033706974 -0.08216185 0.013825868 -0.30112582
-0.3855456 0.3530314 0.27373242 0.30619237 0.260408 0.1653813 0.015119587 -0.4142536
-0.2923423 -0.29000866 -0.0062205982 0.34903064 0.43407157 -0.46654058 0.46804675 0.16123411
-0.17291419 -0.15714937 -0.12273191 0.46282047 -0.44982308 -0.020710599 0.11811342 0.3491909
0.28246576 -0.26516747 0.10983967 -0.09595145 0.35778308 0.49966562 -0.07994701 0.43506405
-0.10626521 -0.3752296 -0.07306141 0.3547695 -0.18328057 -0.32518157 -0.217915 0.3109826
0.18143044 -0.3733162 0.47525993 0.39421177 -0.45781317 0.3965448 0.27073148 0.20578034
0.33287823 -0.22253339 -0.1403354 0.056539893 -0.37309536 0.05163762 0.40083826 0.34540868
-0.41716298 -0.35884213 -0.16050886 0.2806004 0.07015726 0.37366614 0.21112783 0.43693745
-0.45188326 -0.06481435 -0.09746321 0.32495937 -0.10498121 0.015091807 0.3585339 -0.38458186
-0.25096944 0.415678 -0.16465813 -0.433267 0.29656503 0.116317034 -0.35100248 -0.32737225
0.5069306 -0.019675033 0.46898878 -0.10809532 -0.13847463 0.41146925 -0.36543003 0.053455245
-0.2175208 0.3745877 -0.22847548 -0.09017304 -0.45398235 0.31590348 0.307307 -0.22996618
00000000: 315c 883e da9e 143e 1741 a2bc e48d 65bc
00000010: b5cc 383e 4b73 b83e 8688 f7be 179b 7b3e
00000020: 8009 c63e 1fe2 853d 7f0f 00be 797f bebe
00000030: 4e6b 87be 8c74 773c 8d51 3ebe 4053 473e
00000040: d1c5 d73e 581d 923e 57e7 123e a67a 853e
00000050: d89d 9ebe acd7 92bc b726 15be 66ef 5a3e
00000060: e6ce 5fbe b8cf 8d3c 2db2 f7bd 170f 4a3d
00000070: 5310 0a3d 7944 a8bd e585 623c 2a2d 9abe
00000080: 3c66 c5be 88c0 b43e a826 8c3e 3fc5 9c3e
00000090: 3354 853e b759 293e 25b8 773c 0c19 d4be
000000a0: e4ad 95be 047c 94be 29d6 cbbb 25b4 b23e
000000b0: a13e de3e 68de eebe d3a3 ef3e 8e1a 253e
000000c0: 6b10 31be c4eb 20be de5a fbbd cef6 ec3e
000000d0: 364f e6be 46a9 a9bc 73e5 f13d 26c9 b23e
000000e0: 5a9f 903e 08c4 87be 9ff3 e03d 3282 c4bd
000000f0: 582f b73e 2cd4 ff3e 42bb a3bd b7c0 de3e
00000100: 93a1 d9bd 181e c0be 38a1 95bd 59a4 b53e
00000110: e7ad 3bbe 337e a6be 1c25 5fbe 1d39 9f3e
00000120: e7c8 393e 4d23 bfbe 4555 f33e 20d6 c93e
00000130: 7d66 eabe ec07 cb3e 519d 8a3e 15b8 523e
00000140: 046f aa3e cbdf 63be 15b4 0fbe 6096 673d
00000150: 5b06 bfbe f881 533d ac3a cd3e 68d9 b03e
00000160: 6396 d5be 28ba b7be 6f5c 24be dbaa 8f3e
00000170: 9cae 8f3d 2b51 bf3e e531 583e 44b6 df3e
00000180: 3e5d e7be 63bd 84bd cb9a c7bd 1361 a63e
00000190: 6300 d7bd a043 773c c191 b73e eae7 c4be
000001a0: 117f 80be bfd3 d43e 249c 28be 2cd5 ddbe
000001b0: 5fd7 973e a037 ee3d 99b6 b3be 569d a7be
000001c0: 34c6 013f 892d a1bc 4c1f f03e 1461 ddbd
000001d0: 4bcc 0dbe 19ac d23e a519 bbbe e3f3 5a3d
000001e0: c6bd 5ebe f6c9 bf3e 7af5 69be a5ac b8bd
000001f0: 6070 e8be 1abe a13e 5857 9d3e 417c 6bbe

embed.embedding_net.lin1_1.bias f4 [32]
-0.235638 -0.0059302556 -0.05794722 -0.48699585 -0.22130612 -0.2680007 -0.34521437 0.103044346
0.090755604 -0.3603572 -0.4553049 -0.07674058 -0.2883427 0.44111338 -0.35891232 -0.02037646
-0.15922467 0.19824715 0.21325412 -0.3933741 -0.42143384 0.35510975 -0.21426211 0.03258212
0.18492658 -0.316087 -0.13112012 0.41498825 -0.246872 0.28440052 0.24368754 -0.39534262
00000000: 164b 71be 9752 c2bb 105a 6dbd 8557 f9be
00000010: 129e 62be 6337 89be f0bf b0be ea08 d33d
00000020: 13de b93d bd80 b8be b91d e9be 2a2a 9dbd
00000030: a8a1 93be 9dd9 e13e 5bc3 b7be 89ec a6bc
00000040: cb0b 23be 4d01 4b3e 4a5f 5a3e 5468 c9be
00000050: 2dc6 d7be f2d0 b53e 8767 5bbe d474 053d
00000060: 655d 3d3e 28d6 a1be 5a44 06be 5779 d43e
00000070: 03cc 7cbe f29c 913e 3a89 793e 596a cabe

embed.embedding_net.bn1_1.weight f4 [32]
1.0127319 1.0010556 0.9909397 1.0032012 0.9933303 1.0028174 0.987102 0.9967374
0.9917713 0.9969797 0.997964 0.996035 0.99381244 1.0009336 1.0166761 1.0084342
1.0055083 1.0053109 0.99602735 1.0035094 1.0137323 0.9976884 1.0038354 0.99728686
1.0067097 0.99860406 0.99244773 1.0089232 0.99117595 1.0021317 0.9980585 1.0013896
00000000: 33a1 813f 9722 803f 39ae 7d3f e668 803f
00000010: e54a 7e3f 525c 803f b7b2 7c3f 2f2a 7f3f
00000020: b9e4 7d3f 103a 7f3f 927a 7f3f 26fc 7e3f
00000030: 7e6a 7e3f 981e 803f 7122 823f 5f14 813f
00000040: 7fb4 803f 07ae 803f a6fb 7e3f ff72 803f
00000050: fbc1 813f 8268 7f3f ae7d 803f 314e 7f3f
00000060: dddb 803f 84a4 7f3f 0e11 7e3f 6524 813f
00000070: b5bd 7d3f da45 803f c380 7f3f 892d 803f

embed.embedding_net.bn1_1.bias f4 [32]
0.005415328 0.0075566755 -0.004027279 0.006160901 0.0001653254 -0.00010562241 -0.016205749 -0.003249329
-0.003757878 -0.008385726 -0.012960191 0.00052682596 -0.01276841 0.005763008 0.01912852 0.014428243
-0.00225409 -0.014477313 0.001278022 0.0010960774 -0.0046375985 -0.0036186925 0.006662954 0.0071904613
0.015289689 0.0019423603 0.005623267 0.0028193458 0.0012318594 0.010421146 0.011769301 0.003342494
00000000: 1073 b13b fd9d f73b 44f7 83bb 62e1 c93b
00000010: 335b 2d39 9981 ddb8 ebc1 84bc b2f2 54bb
00000020: bb46 76bb 4964 09bc fb56 54bc b11a 0a3a
00000030: 9832 51bc 9dd7 bc3b 6ab3 9c3c 7064 6c3c
00000040: 5bb9 13bb 4032 6dbc 4d83 a73a 41aa 8f3a
00000050: fff6 97bb 9627 6dbb e954 da3b f69d eb3b
00000060: 9b81 7a3c cc96 fe3a 6243 b83b c6c4 383b
00000070: 5876 a13a 74bd 2a3c 07d4 403c be0d 5b3b

embed.embedding_net.bn1_1.running_mean f4 [32]
-0.12280753 0.65923995 -1.7057954 -0.003911076 1.527886 0.32118475 -0.40246853 -1.2664053
1.872186 -2.0043378 0.8261942 1.3355037 1.4633607 1.9654154 -0.6229432 2.2626734
1.099963 1.0304012 2.6118631 0.9125437 -0.31929484 2.3573556 0.4301132 2.552628
1.2553586 -1.5711088 -2.2584739 -1.3872244 0.20411678 0.12104738 -0.42593002 -1.0483154
00000000: 8482 fbbd f3c3 283f 8157 dabf 7c28 80bb
00000010: c591 c33f 5472 a43e 5b10 cebe 9219 a2bf
00000020: caa3 ef3f 1247 00c0 7781 533f c9f1 aa3f
00000030: 674f bb3f bb92 fb3f 3579 1fbf a4cf 1040
00000040: 96cb 8c3f 30e4 833f c428 2740 779c 693f
00000050: 9d7a a3be eade 1640 cc37 dc3e 425e 2340
00000060: 97af a03f 181a c9bf d68a 10c0 9290 b1bf
00000070: fd03 513e b0e7 f73d 8013 dabe 332f 86bf

embed.embedding_net.bn1_1.running_var f4 [32]
0.008452521 0.083846465 0.21908107 0.017943254 0.15305875 0.02427235 0.009185752 0.080668576
0.28370163 0.16122523 0.12555711 0.32848358 0.13974743 0.19901097 0.01578623 0.16730274
0.09951291 0.045369275 0.5899583 0.20266393 0.020319067 0.43659157 0.056634862 0.35405934
0.080310926 0.04804145 0.31546283 0.36121702 0.12949602 0.09241398 0.09110227 0.04958356
00000000: 717c 0a3c b2b7 ab3d ca56 603e bbfd 923c
00000010: 6fbb 1c3e cfd6 c63c d67f 163c 9135 a53d
00000020: 5741 913e 3a18 253e 0b92 003e 002f a83e
00000030: f319 0f3e 88c9 4b3e 2052 813c 6951 2b3e
00000040: 6dcd cb3d 22d5 393d 8207 173f 2287 4f3e
00000050: 2c74 a63c ee88 df3e f5f9 673d 4447 b53e
00000060: 0e7a a43d 1dc7 443d 5884 a13e 70f1 b83e
00000070: 9b9a 043e 8a43 bd3d d493 ba3d 2218 4b3d

embed.embedding_net.lin1_2.weight f4 [32, 32]
-0.17610572 0.06502397 0.07252544 -0.00045296448 -0.05649252 0.17769706 -0.14996786 -0.10719779
0.04940162 -0.111973435 -0.074831866 0.0988838 0.079359576 -0.019419897 0.11752339 0.004337388
-0.037282474 -0.05444887 -0.086574696 0.15984432 0.10554909 -0.13375717 0.17937195 -0.011612605
0.036135115 0.045819867 0.1685854 -0.05238947 -0.0336944 -0.046654176 0.047821593 -0.13567868
-0.041234765 0.06670463 0.15712085 -0.1684874 -0.17276756 0.16841811 0.037027925 -0.041737348
0.083804294 -0.13327484 -0.06593731 -0.05678641 0.04753435 -0.0064124027 -0.07338741 -0.08644016
-0.14831907 -0.090971634 -0.11122509 0.097364806 0.1501125 -0.100069426 0.03705267 -0.07608419
-0.00980211 0.03575712 0.15036294 0.15253992 -0.082022294 0.14096482 0.033802822 -0.05851233
0.05620966 -0.019357877 -0.15539458 -0.05138745 0.12828243 -0.06184686 -0.036330543 -0.00605157
0.033295874 -0.024338173 0.168877 -0.00710532 0.16406679 0.13716866 -0.12094748 0.026549894
0.14093372 0.004985571 0.01782531 0.10287703 0.016590562 0.07887027 0.072845735 -0.10769574
0.15386276 -0.01906622 0.17000932 -0.07042938 -0.08488669 0.005931775 0.0410695 0.012142937
-0.05450616 -0.0915131 0.1278211 -0.08035136 -0.046667237 -0.0452265 0.108431324 -0.016206324
-0.05346868 0.15658188 0.049514845 -0.11689063 0.0092241615 -0.10170379 0.09490781 -0.06489446
-0.0043571764 -0.11976463 -0.087052725 0.0764685 0.07463705 -0.13662635 0.15721282 -0.10859482
-0.040345542 0.15813227 0.012726419 0.019897545 0.11194114 -0.09344241 0.068916336 -0.16613631
-0.17453194 -0.13544042 0.1422046 0.07626504 0.12824167 0.071392484 0.12745096 0.13699646
-0.08162647 0.090575255 0.11531161 0.08617004 0.07312233 -0.13148223 -0.017875874 -0.08325031
0.17240103 0.09991946 -0.007431355 -0.080864705 -0.0048636454 0.17503709 0.16317575 -0.16558342
-0.023587203 -0.14153224 -0.046020307 0.15524861 0.10500505 -0.16694082 -0.065750025 -0.073644795
-0.16280608 0.016199272 -0.07940369 -0.14485624 0.028515344 -0.009888399 0.118394345 -0.049188443
0.066202946 0.12766272 0.0128935445 -0.07967364 -0.017189918 -0.11003479 0.009862864 -0.07563707
0.14310202 -0.17099336 -0.003134801 -0.092147194 0.10317709 0.13583237 0.06959598 0.051375218
-0.16178744 0.078169994 -0.0067205844 0.063949205 -0.024386093 -0.06115122 0.053413212 -0.13337046
0.03104363 0.055711124 -0.013969431 0.14845006 0.09980059 -0.1532006 0.05679418 0.021536365
-0.0035632127 -0.15204056 -0.105641715 0.10259723 -0.020710178 0.07686772 -0.15418547 0.09959292
-0.066527486 0.047356255 -0.14639227 0.13746041 -0.01178627 0.12965147 -0.15750428 -0.16599426
-0.004438466 -0.018612316 0.16428223 0.06934756 0.058981437 -0.01016479 0.01162944 -0.016226355
-0.09731516 0.02416694 0.09256027 0.049567148 -0.110850394 -0.13408527 0.0858362 -0.057779666
0.09354187 -0.04180136 -0.03449618 -0.13245416 0.086238824 0.11828035 -0.16154957 0.09315653
-0.020547887 -0.091699876 0.009313561 -0.089643836 0.05026817 0.019981943 0.09080166 0.053822633
0.10180178 -0.035691306 0.13839914 0.045339316 0.114216685 -0.16605459 -0.14622504 -0.11823382
00000000: 0f55 34be 4a2b 853d 3888 943d dd7b edb9
00000010: b364 67bd 38f6 353e 2d91 19be 848a dbbd
00000020: 5a59 4a3d 5452 e5bd 7341 99bd 9783 ca3d
00000030: 4687 a23d 7a16 9fbc 1ab0 f03d a620 8e3b
00000040: 82b5 18bd c705 5fbd 134e b1bd 3bae 233e
00000050: 1f2a d83d a4f7 08be 48ad 373e cc42 3ebc
00000060: 6a02 143d 9dad 3b3d a7a1 2c3e 5796 56bd
00000070: 2403 0abd 7318 3fbd 93e0 433d 5aef 0abe
00000080: c9e5 28bd 709c 883d 4ae4 203e f687 2cbe
00000090: fbe9 30be cc75 2c3e 98aa 173d c8f4 2abd
000000a0: 96a1 ab3d 3379 08be 240a 87bd de98 68bd
000000b0: 61b3 423d 221f d2bb 234c 96bd 8a07 b1bd
000000c0: f4e0 17be 564f babd fbc9 e3bd 3367 c73d
000000d0: 17b7 193e 33f1 ccbd 8ac4 173d 07d2 9bbd
000000e0: 0799 20bc 0f76 123d bef8 193e 6d33 1c3e
000000f0: 4efb a7bd 1559 103e d474 0a3d a0aa 6fbd
00000100: 1a3c 663d 6994 9ebc c21f 1fbe a67b 52bd
00000110: 785c 033e 2253 7dbd 56cf 14bd 404c c6bb
00000120: 4161 083d d960 c7bc 18ee 2c3e bfd3 e8bb
00000130: 2001 283e f175 0c3e 50b3 f7bd 2a7f d93c
00000140: ee50 103e 005e a33b 6206 923c 31b1 d23d
00000150: eee8 873c bc86 a13d 2530 953d 968f dcbd
00000160: 338e 1d3e c330 9cbc ec16 2e3e 473d 90bd
00000170: 13d9 adbd 565f c23b 7e38 283d 2bf3 463c
00000180: da41 5fbd 386b bbbd 89e3 023e 418f a4bd
00000190: 2526 3fbd 6c3f 39bd 3e11 de3d 20c3 84bc
000001a0: f901 5bbd 0057 203e 14d0 4a3d 5b64 efbd
000001b0: f020 173c 144a d0bd 075f c23d 63e7 84bd
000001c0: a5c6 8ebb 2947 f5bd b348 b2bd 849b 9c3d
000001d0: 4fdb 983d c7e7 0bbe 66fc 203e f666 debd
000001e0: 5e41 25bd 6ded 213e 7882 503c 2d00 a33c
000001f0: 6541 e53d bc5e bfbd 0224 8d3d a31f 2abe
00000200: 80b8 32be e5b0 0abe 159e 113e d830 9c3d
00000210: c951 033e 3936 923d 8182 023e cd48 0c3e
00000220: c72b a7bd 857f b93d 7e28 ec3d eb79 b03d
00000230: 29c1 953d 47a3 06be 6d70 92bc 237f aabd
00000240: e589 303e 93a2 cc3d b982 f3bb 659c a5bd
00000250: 375f 9fbb ec3c 333e 8b17 273e b38e 29be
00000260: f339 c1bc d4ed 10be ca7f 3cbd 7ef9 1e3e
00000270: e30c d73d 89f2 2abe f3a7 86bd 15d3 96bd
00000280: a3b6 26be 56b4 843c 679e a2bd 3255 14be
00000290: 0399 e93c f402 22bc bc78 f23d d279 49bd
000002a0: 6995 873d 04ba 023e 723f 533c ef2b a3bd
000002b0: dfd1 8cbc ec59 e1bd da97 213c 9ce7 9abd
000002c0: 5689 123e e218 2fbe 3c71 4dbb abb7 bcbd
000002d0: 834e d33d a417 0b3e 5688 8e3d d26e 523d
000002e0: 9bab 25be 9717 a03d 5938 dcbb cdf7 823d
000002f0: 58c5 c7bc b479 7abd d0c7 5a3d 4492 08be
00000300: 364f fe3c 5931 643d 0ae0 64bc 4b03 183e
00000310: 4064 cc3d 9ee0 1cbe 04a1 683d 086d b03c
00000320: ca84 69bb 85b0 1bbe af5a d8bd 7f1e d23d
00000330: 64a8 a9bc d36c 9d3d cce2 1dbe 5ff7 cb3d
00000340: 903f 88bd a2f8 413d dbe7 15be 6cc2 0c3e
00000350: 331b 41bc 5bc3 043e cd48 21be 66fa 29be
00000360: 8d70 91bb db78 98bc 9a39 283e 1806 8e3d
00000370: 8596 713d 388a 26bc 6889 3e3c 22ed 84bc
00000380: 2c4d c7bd bff9 c53c 3d90 bd3d ec06 4b3d
00000390: 8805 e3bd a64d 09be e4ca af3d 5faa 6cbd
000003a0: e192 bf3d e737 2bbd de4b 0dbd 10a2 07be
000003b0: fb9d b03d f83c f23d 406d 25be dac8 be3d
000003c0: 0b54 a8bc 25cd bbbd e897 183c 3097 b7bd
000003d0: ffe5 4d3d 2cb1 a33c 39f6 b93d 1f75 5c3d
000003e0: 747d d03d 0c31 12bd 81b8 0d3e b8b5 393d
000003f0: 70ea e93d 370a 2abe 04bc 15be 9324 f2bd

embed.embedding_net.lin1_2.bias f4 [32]
-0.092329696 -0.031159934 0.052346006 0.115704946 0.061327875 -0.016500946 -0.09060286 -0.077257454
-0.14790224 -0.093592145 -0.024449155 0.14604494 0.10974319 -0.059453472 0.10755306 0.17316669
0.061994594 0.04183405 0.08741769 -0.032016363 -0.098274976 0.061883505 0.07463962 0.11788784
0.022722317 0.18266721 0.14299405 -0.040633723 -0.029896332 0.017833473 0.09536876 -0.029852273
00000000: 5a17 bdbd 1e43 ffbc c468 563d b7f6 ec3d
00000010: f032 7b3d fe2c 87bc fe8d b9bd 2839 9ebd
00000020: af73 17be 3dad bfbd 9849 c8bc ce8c 153e
00000030: 0ac1 e03d 7c85 73bd c744 dc3d 9c52 313e
00000040: 0bee 7d3d 2e5a 2b3d 0c08 b33d 9723 03bd
00000050: 6444 c9bd 8f79 7d3d a8dc 983d 2e6f f13d
00000060: 2724 ba3c 1d0d 3b3e 086d 123e 8c6f 26bd
00000070: 27e9 f4bc 8117 923c b250 c33d c18c f4bc

embed.embedding_net.conv1.nn.0.weight f4 [32, 32]
-0.101950146 0.06705298 -0.14305934 -0.09929515 0.08826153 -0.11211072 0.13511264 0.10763152
0.06339514 0.07480446 0.1454351 -0.12307579 -0.10820402 -0.13980004 -0.11978621 -0.02725801
0.077449195 -0.17229591 -0.0536636 0.10276514 -0.15617198 -0.11935207 0.06665123 0.015592606
0.044081725 -0.021206481 0.097911276 -0.025838083 0.15463558 0.01966298 -0.14003107 -0.11702346
0.15989372 -0.15182954 0.16612458 -0.08676034 0.12241512 -0.025674878 -0.063578375 0.034508474
-0.11794798 0.14320931 -0.032391127 0.010165429 0.108776785 -0.034613177 0.0709606 0.06379213
0.16678816 -0.058844678 -0.13614158 -0.031209739 -0.061062615 -0.035333987 -0.14320186 -0.09389896
0.14012858 0.0045597656 0.09865262 0.019702304 -0.026353832 0.05787788 0.14286095 -0.10210327
0.11143666 -0.024557384 0.11060569 0.12834364 -0.13480952 -0.13273098 -0.0029576996 -0.015849438
0.12461217 0.16314808 -0.13693869 -0.00509093 0.010810753 0.07510257 0.11584528 0.10642249
0.15067463 -0.11881864 -0.09159296 -0.06455615 -0.096368246 -0.019289408 -0.12217028 0.11189829
0.082889795 0.08945397 -0.08309858 0.15371123 -0.17313783 0.025475232 -0.090830505 -0.05956199
-0.045295525 0.05616837 -0.12915999 0.03678481 -0.06416938 -0.013789652 -0.044897392 -0.050315395
-0.053127836 0.18013003 -0.1639693 -0.15940675 0.17656596 -0.118947856 -0.020915328 0.17203872
-0.071709715 0.11036707 0.12796903 -0.024189282 -0.13704315 0.0629547 0.009915747 0.041921433
0.04901098 0.15117817 0.1817366 0.01585055 0.16719131 -0.02753194 0.04813316 -0.108224094
-0.10258596 -0.086348996 0.15070817 0.029074706 -0.11293736 -0.05531686 -0.10521349 0.15877412
-0.16679431 0.07191474 -0.1438979 0.06839855 0.11979924 -0.15486681 -0.007044757 0.023840236
-0.1524734 -0.09945849 0.05071917 0.040836863 -0.11025043 0.1556449 0.1442787 0.17683274
-0.067587376 -0.1249034 -0.09100886 -0.13759747 0.07030737 0.021490898 0.15179016 -0.04531244
-0.083733745 0.06733298 0.09184471 -0.0056961984 -0.008376685 -0.04979653 0.03595254 0.061340295
0.054090604 -0.14250325 -0.12299957 -0.105887294 -0.011429051 -0.09839901 -0.15468243 0.16561136
0.13786767 0.040149808 -0.0009873703 -0.12471846 -0.15742461 -0.08065795 -0.1476728 0.13083208
0.1424949 -0.06786966 -0.1756837 -0.16707054 0.16454352 -0.1488378 -0.14000681 0.17011884
-0.15620372 0.05099705 -0.10489447 -0.06412961 -0.13015163 0.052205235 0.050140984 0.05139885
-0.08509378 -0.14150916 0.11827667 -0.10156128 -0.13544667 0.15304571 0.12094078 -0.053037286
-0.1791173 -0.120003566 0.1663548 -0.15407473 -0.028676571 0.11247993 0.08144492 -0.071215905
0.0455832 0.11131935 0.024975445 -0.03049011 0.024071889 0.10553254 -0.032725688 0.07282013
-0.099335104 -0.1374487 0.051835682 -0.15883948 0.060860444 -0.12942763 -0.1630281 -0.097385965
-0.036405943 0.058537394 0.009383789 -0.0014560958 0.009031866 -0.0042369743 0.08352717 -0.0074769687
0.034865677 0.15169255 -0.020696728 -0.021188874 0.05182882 -0.08948102 -0.07524243 -0.0026313977
0.03978094 -0.15396449 0.013271905 0.04105456 0.07494758 0.08102167 -0.048540354 -0.023098443
00000000: 3dcb d0bd 1353 893d 267e 12be 415b cbbd
00000010: 76c2 b43d 4e9a e5bd f85a 0a3e ea6d dc3d
00000020: 50d5 813d 1533 993d f0ec 143e 290f fcbd
00000030: 129a ddbd be27 0fbe 7952 f5bd 314c dfbc
00000040: af9d 9e3d 576e 30be 5dce 5bbd 8876 d23d
00000050: 8ceb 1fbe dc6e f4bd 7180 883d 2178 7f3c
00000060: 0a8f 343d 37b9 adbc b585 c83d 63aa d3bc
00000070: ca58 1e3e 4214 a13c 4e64 0fbe ffa9 efbd
00000080: 2ebb 233e 3479 1bbe 901c 2a3e 68af b1bd
00000090: c7b4 fa3d 1f54 d2bc 6135 82bd c258 0d3d
000000a0: b68e f1bd 76a5 123e 8fac 04bd e68c 263c
000000b0: 5dc6 de3d 8cc6 0dbd cb53 913d 73a5 823d
000000c0: 84ca 2a3e 1e07 71bd b368 0bbe 91ab ffbc
000000d0: cb1c 7abd 5fba 10bd 82a3 12be 194e c0bd
000000e0: de7d 0f3e 166a 953b 630a ca3d ba66 a13c
000000f0: fee3 d7bc 5b11 6d3d 244a 123e 851b d1bd
00000100: e738 e43d 912c c9bc 3c85 e23d 846c 033e
00000110: 820b 0abe a1ea 07be f7d5 41bb aed6 81bc
00000120: aa34 ff3d 4a10 273e a839 0cbe d1d1 a6bb
00000130: 961f 313c 60cf 993d 4a40 ed3d 09f4 d93d
00000140: 734a 1a3e 3057 f3bd 1795 bbbd 0436 84bd
00000150: b75c c5bd d204 9ebc 6934 fabd ee2a e53d
00000160: 20c2 a93d a533 b73d 972f aabd 7a66 1d3e
00000170: 0b4b 31be 6fb1 d03c 5805 babd 46f7 73bd
00000180: cd87 39bd ce10 663d 8442 04be abab 163d
00000190: 3c6b 83bd feed 61bc 54e6 37bd 8417 4ebd
000001a0: 939c 59bd 0274 383e 91e7 27be 863b 23be
000001b0: b5cd 343e ef9a f3bd 9f56 abbc eb2a 303e
000001c0: 8bdc 92bd 2108 e23d 500a 033e 9a28 c6bc
000001d0: 0a55 0cbe 65ee 803d a875 223c cfb5 2b3d
000001e0: bdbf 483d 73ce 1a3e 2919 3a3e 03d9 813c
000001f0: 3334 2b3e aa8a e1bc 4727 453d 98a4 ddbd
00000200: 9618 d2bd bed7 b0bd 3e53 1a3e 142e ee3c
00000210: b44b e7bd ef93 62bd 2c7a d7bd af95 223e
00000220: 21cc 2abe 0948 933d f959 13be 8a14 8c3d
00000230: 4e59 f53d 6895 1ebe b4d7 e6bb 994c c33c
00000240: fd21 1cbe e5b0 cbbd e8be 4f3d 8e44 273d
00000250: faca e1bd 6061 1f3e ccbd 133e a413 353e
00000260: 406b 8abd 5bcd ffbd da62 babd 5ae6 0cbe
00000270: 4ffd 8f3d ae0d b03c e16e 1b3e 8999 39bd
00000280: 997c abbd e0e5 893d 1419 bc3d 2da7 babb
00000290: 5d3e 09bc 72f7 4bbd f842 133d f63f 7b3d
000002a0: 1c8e 5d3d 5fec 11be 33e7 fbbd 70db d8bd
000002b0: ea40 3bbc 6c85 c9bd 1265 1ebe 0696 293e
000002c0: 2f2d 0d3e 2074 243d a66a 81ba 646c ffbd
000002d0: eb33 21be ff2f a5bd 8a37 17be d8f8 053e
000002e0: 2fea 113e 40ff 8abd 6ee6 33be 8a14 2bbe
000002f0: 197e 283e f068 18be f25d 0fbe a233 2e3e
00000300: def3 1fbe 48e2 503d e9d2 d6bd 6356 83bd
00000310: 7846 05be 28d5 553d a260 4d3d 9a87 523d
00000320: a645 aebd c7e7 10be 0a3b f23d 5cff cfbd
00000330: 88b2 0abe 04b8 1c3e cdaf f73d a03d 59bd
00000340: 876a 37be 6ec4 f5bd ea58 2a3e c4c5 1dbe
00000350: 21eb eabc e15b e63d 98cc a63d a5d9 91bd
00000360: 73b5 3a3d 66fb e33d 4e99 cc3c 65c6 f9bc
00000370: 6932 c53c 7221 d83d 5f0b 06bd b822 953d
00000380: 3470 cbbd 5abf 0cbe a751 543d d1a6 22be
00000390: cd48 793d ad88 04be d7f0 26be 4b72 c7bd
000003a0: 661e 15bd e8c4 6f3d 77be 193c 78da beba
000003b0: 64fa 133c 51d6 8abb 4b10 ab3d 5c01 f5bb
000003c0: 50cf 0e3d 4b55 1b3e 2f8c a9bc 4a94 adbc
000003d0: 754a 543d d341 b7bd b418 9abd 8773 2cbb
000003e0: 57f1 223d dea8 1dbe 6772 593c d428 283d
000003f0: 1e7e 993d b0ee a53d 40d2 46bd f238 bdbc

embed.embedding_net.conv1.nn.0.bias f4 [32]
0.10617 -0.1273676 -0.12388602 -0.02777546 0.077866666 -0.047839765 -0.09796651 0.080510736
0.09100689 -0.158951 0.14449187 -0.17628948 -0.051130287 -0.16383818 -0.17042421 0.028669287
0.08678586 -0.07826452 0.07281963 -0.10183076 -0.075104274 0.124088526 -0.040847603 0.082940504
0.14627819 -0.0767281 0.060667604 0.10257682 0.05240806 0.10905334 0.07210107 0.1762612
00000000: a86f d93d a76c 02be f4b7 fdbd 5d89 e3bc
00000010: 8f78 9f3d a1f3 43bd aaa2 c8bd d0e2 a43d
00000020: d261 ba3d 0dc4 22be adf5 133e 3b85 34be
00000030: fe6d 51bd 32c5 27be af83 2ebe dadb ea3c
00000040: c9bc b13d 2649 a0bd 7522 953d a58c d0bd
00000050: 45d0 99bd 2022 fe3d d14f 27bd b6dc a93d
00000060: f3c9 153e 9f23 9dbd 987e 783d cc13 d23d
00000070: d5a9 563d 5c57 df3d baa9 933d d17d 343e

embed.embedding_net.conv1.nn.2.weight f4 [32, 32]
-0.105638295 -0.019712156 0.07618927 -0.0948386 0.112874635 -0.02079681 0.08021406 0.17482887
-0.113978915 -0.0067380522 0.026224699 -0.112171575 -0.06238522 -0.09328615 -0.04763321 0.021302627
-0.0805924 0.07105676 -0.10076594 0.16657689 -0.15514591 0.13559775 -0.056609288 -0.074572496
-0.042608693 -0.06491583 0.10960207 -0.13044357 -0.17242219 0.12672172 -0.051373385 -0.043735597
-0.0020238915 -0.07219961 0.17804308 0.09914816 -0.11300583 0.12952815 -0.14869817 -0.093012184
0.17522654 -0.13684075 0.038266677 -0.0939225 -0.122457914 0.12806983 -0.039349735 -0.034093175
0.020985328 0.07794134 0.09384783 -0.09703838 -0.07483467 0.15582736 -0.14779401 0.09764644
-0.11758321 -0.049106866 -0.04803488 0.18963465 -0.17883419 -0.16374773 0.15770455 -0.11639637
-0.1597007 0.16312407 -0.092955165 -0.0074343476 -0.02783047 -0.08573112 0.16680208 -0.06781836
-0.07165572 0.029600224 0.07219322 0.0012919793 0.13685736 0.109823614 0.0822622 -0.09024223
-0.0075801355 0.0417067 -0.11737225 0.13193409 0.056092102 0.049387656 -0.045379836 0.052924354
-0.045026407 0.0036595478 -0.036098402 0.14034347 0.11197434 0.18220526 -0.15538345 0.09572332
0.019696908 -0.1532708 -0.15102968 0.048654083 0.098641224 0.16580452 0.072571106 -0.07436372
0.115829796 0.067482054 -0.14994626 -0.1706958 -0.08208811 -0.09205865 0.077838294 -0.14642854
0.14741798 -0.115218274 -0.050365448 0.04516409 -0.13294007 -0.15614302 0.16340467 -0.10873626
0.015655575 0.13237621 -0.04301092 0.05255433 -0.1120401 0.046634678 0.13551724 0.19207044
0.14652847 -0.1706999 -0.16941369 -0.13761736 0.10154067 0.02240476 0.043947484 -0.13237724
0.13432738 -0.14118202 0.16870591 -0.17954883 -0.040455855 0.14910457 0.17360863 -0.14140113
-0.18206765 0.044288427 0.11770867 0.04917617 -0.14922214 0.14654727 -0.004635741 -0.034596894
-0.10181048 -0.110561825 0.01762074 0.047809433 0.10712039 -0.059223734 0.0979937 -0.13556017
-0.03167262 0.055350572 0.14498854 0.16189988 0.029353827 -0.114259034 -0.023892568 0.0927516
-0.10267121 0.070674494 -0.16194035 0.101817004 0.14048749 -0.0642072 -0.02766638 -0.1283376
-0.06871837 -0.068971254 -0.06966049 -0.023340536 -0.085435644 -0.028140731 -0.0129378345 0.041344073
0.14617476 -0.07306153 -0.001617456 -0.06950919 0.05837412 0.09489601 0.003085306 0.09826179
-0.070255905 0.07171831 -0.02167389 -0.17314215 0.09534262 0.15807074 -0.03743743 0.03501588
-0.14330839 0.09599667 -0.05329602 0.10249332 -0.16917637 0.08513082 0.047417555 0.02830349
-0.065615706 0.08299698 -0.10278804 0.113422416 -0.07531802 0.074005574 0.1132975 -0.0072068176
-0.10595668 -0.03547139 0.12324216 -0.11144492 -0.15733023 0.1471951 -0.0950847 0.11374391
0.11209639 -0.15877204 -0.051829524 -0.15418422 0.18126094 -0.124604434 0.09218372 -0.12735952
0.008578583 0.15928946 -0.1555 -0.124851786 -0.062477335 -0.031326316 0.1260659 0.0128803905
-0.15705793 -0.006279528 0.1012826 0.13878135 -0.088366784 -0.14844845 0.035425 -0.028461756
0.0792573 -0.0058019077 -0.005943453 -0.08276141 0.04476151 -0.05489285 0.17071588 -0.11654821
00000000: e458 d8bd 637b a1bc 1f09 9c3d bd3a c2bd
00000010: d12a e73d 125e aabc 4547 a43d 5706 333e
00000020: c76d e9bd e1ca dcbb 2ed5 d63c 36ba e5bd
00000030: a587 7fbd cf0c bfbd 0a1b 43bd d982 ae3c
00000040: a10d a5bd 3586 913d 605e cebd 2293 2a3e
00000050: 92de 1ebe 23da 0a3e 24df 67bd 77b9 98bd
00000060: 7486 2ebd 97f2 84bd 0d77 e03d 0093 05be
00000070: 718f 30be 57c3 013e e66c 52bd 1924 33bd
00000080: 44a3 04bb 64dd 93bd ed50 363e 310e cb3d
00000090: 9a6f e7bd 07a3 043e 5544 18be 2c7d bebd
000000a0: 966e 333e fb1f 0cbe 85bd 1c3d 715a c0bd
000000b0: 37cb fabd bd24 033e 302d 21bd 49a5 0bbd
000000c0: 6ce9 ab3c b69f 9f3d 4b33 c03d 0fbc c6bd
000000d0: eb42 99bd 3591 1f3e 5057 17be dbfa c73d
000000e0: 77cf f0bd 4824 49bd 39c0 44bd 962f 423e
000000f0: 4f20 37be 7cad 27be 4d7d 213e 3861 eebd
00000100: 9588 23be ff09 273e 475f bebd d49b f3bb
00000110: bafc e3bc cc93 afbd 2ace 2a3e 5ae4 8abd
00000120: 3cc0 92bd 2b7c f23c 0ada 933d a257 a93a
00000130: 5624 0c3e 34eb e03d 1679 a83d ebd0 b8bd
00000140: c962 f8bb a5d4 2a3d dd60 f0bd bb19 073e
00000150: d5c0 653d b64a 4a3d 35e0 39bd 35c7 583d
00000160: 9c6d 38bd 06d5 6f3b ebdb 13bd 33b6 0f3e
00000170: ce52 e53d 0494 3a3e d71c 1fbe 970a c43d
00000180: 695b a13c 05f3 1cbe 86a7 1abe 8149 473d
00000190: 6904 ca3d a9c8 293e 29a0 943d 024c 98bd
000001a0: 2c38 ed3d 0834 8a3d 838b 19be e1ca 2ebe
000001b0: d01d a8bd 3f89 bcbd af69 9f3d 5df1 15be
000001c0: bdf4 163e 8ff7 ebbd 004c 4ebd fbfd 383d
000001d0: 7121 08be f5e3 1fbe 8e53 273e 1eb1 debd
000001e0: 1f40 803c a18d 073e 382c 30bd 3643 573d
000001f0: 4875 e5bd 0104 3f3d 08c5 0a3e 1dae 443e
00000200: 8f0b 163e f4cb 2ebe c87a 2dbe 91eb 0cbe
00000210: 8ef4 cf3d 308a b73c 4702 343d e68d 07be
00000220: 1e8d 093e 0592 10be 3ec1 2c3e a6db 37be
00000230: 0ab5 25bd deae 183e 76c6 313e 75cb 10be
00000240: f16f 3abe c867 353d 3e11 f13d f46c 493d
00000250: b0cd 18be 7d10 163e 6ae7 97bb 79b5 0dbd
00000260: 0382 d0bd 3d6e e2bd 5f59 903c d3d3 433d
00000270: ef61 db3d 9694 72bd ecb0 c83d 49d0 0abe
00000280: 26bb 01bd 48b7 623d e077 143e 15c9 253e
00000290: 7077 f03c a400 eabd 59ba c3bc 8df4 bd3d
000002a0: 4945 d2bd cabd 903d b1d3 25be 6f85 d03d
000002b0: f4db 0f3e 117f 83bd 9ba4 e2bc ef6a 03be
000002c0: 37bc 8cbd cd40 8dbd 29aa 8ebd a734 bfbc
000002d0: e2f8 aebd 6487 e6bc 36f9 53bc 6758 293d
000002e0: d6ae 153e 49a1 95bd d100 d4ba d65a 8ebd
000002f0: b419 6f3d d758 c23d d832 4a3b 7a3d c93d
00000300: 54e2 8fbd 0de1 923d 718d b1bc 2d4c 31be
00000310: fe42 c33d 4cdd 213e fe57 19bd d06c 0f3d
00000320: 6fbf 12be e799 c43d ed4c 5abd 05e8 d13d
00000330: 923c 2dbe 1159 ae3d e938 423d b8dc e73c
00000340: 8761 86bd 52fa a93d 8982 d2bd 034a e83d
00000350: 5640 9abd 3c90 973d 8508 e83d 2b27 ecbb
00000360: d1ff d8bd 734a 11bd 6366 fc3d 3c3d e4bd
00000370: 2d1b 21be 50ba 163e c4bb c2bd 91f2 e83d
00000380: cb92 e53d 2395 22be 324b 54bd 78e2 1dbe
00000390: 789c 393e 9c30 ffbd d1ca bc3d 896a 02be
000003a0: 2f8d 0c3c c71c 233e 643b 1fbe 4bb2 ffbd
000003b0: 3ce8 7fbd 0650 00bd 6b17 013e 4608 533c
000003c0: cbd3 20be 80c4 cdbb 406d cf3d b31c 0e3e
000003d0: a5f9 b4bd df02 18be ce19 113d a128 e9bc
000003e0: a751 a23d ee1d bebb 4cc1 c2bb d07e a9bd
000003f0: d857 373d 53d7 60bd 25d0 2e3e d4b0 eebd

embed.embedding_net.conv1.nn.2.bias f4 [32]
-0.08790913 0.065210894 -0.027004747 0.12523158 -0.019831542 0.13094334 -0.14981905 -0.095242955
-0.086323805 -0.10563415 -0.052611675 0.13108982 -0.17658785 0.16653512 0.11041237 0.116471805
0.09935924 -0.16201004 0.0026306505 0.064640045 0.06939104 0.12207076 0.16559315 0.04385451
0.13559568 -0.089545086 -0.096096 0.1139491 -0.051982895 -0.13426027 0.068456635 -0.10872864
00000000: b409 b4bd 4a8d 853d 0f39 ddbc b53c 003e
00000010: c275 a2bc 0316 063e 2a6a 19be bd0e c3bd
00000020: 89ca b0bd b856 d8bd 577f 57bd 693c 063e
00000030: 72d3 34be 2f88 2a3e e11f e23d c588 ee3d
00000040: db7c cb3d f6e5 25be fe66 2c3b 0062 843d
00000050: e41c 8e3d 3c00 fa3d 4091 293e c9a0 333d
00000060: 98d9 0a3e 6a63 b7bd fbcd c4bd 255e e93d
00000070: 04ec 54bd 867b 09be fe32 8c3d 1fad debd

embed.embedding_net.bn1.weight f4 [32]
0.99835294 1.0123811 0.9997349 0.99079055 0.9986962 0.9980612 0.99981725 1.0139432
0.9995617 1.008586 0.99955153 1.0144051 1.0081543 0.9876988 1.0117525 1.0026152
0.99696606 0.9961276 0.98470956 1.0168246 1.0122106 1.0039984 1.0024455 1.0173025
1.0045583 1.0148817 1.0106379 1.0062355 0.9958886 1.0048444 1.0115129 0.99150467
00000000: 0f94 7f3f b495 813f a0ee 7f3f 73a4 7d3f
00000010: 8eaa 7f3f f080 7f3f 06f4 7f3f e4c8 813f
00000020: 47e3 7f3f 5919 813f 9ce2 7f3f 07d8 813f
00000030: 330b 813f d4d9 7c3f 1b81 813f b255 803f
00000040: 2b39 7f3f 3802 7f3f ed15 7c3f 4f27 823f
00000050: 1e90 813f 0583 803f 2250 803f f836 823f
00000060: 5e95 803f a5e7 813f 955c 813f 53cc 803f
00000070: 8ef2 7e3f be9e 803f 4179 813f 40d3 7d3f

embed.embedding_net.bn1.bias f4 [32]
-0.001657899 0.009823823 -0.010174928 -0.009792496 -0.0040903185 0.0036581706 0.0016223328 0.010438949
0.0013788319 0.01046532 -0.0009395008 -0.008948631 0.014644439 -0.0098936595 0.009012363 -0.010612206
-0.0035945147 -0.0056658764 -0.013555881 0.0036579107 0.011220928 -0.00015324504 0.002236228 0.011220341
0.010518155 0.0017433276 0.0020603656 0.0020026786 -0.0083735 0.0069776317 0.0022363383 -0.0039956933
00000000: dc4d d9ba 1af4 203c beb4 26bc b570 20bc
00000010: 1408 86bb ebbd 6f3b 75a4 d43a 2008 2b3c
00000020: ecb9 b43a bc76 2b3c d548 76ba 479d 12bc
00000030: 3bef 6f3c 0419 22bc 97a8 133c d1de 2dbc
00000040: f391 6bbb d1a8 b9bb 7c19 5ebc 8fb9 6f3b
00000050: fcd7 373c 67b0 20b9 ae8d 123b 85d5 373c
00000060: 5754 2c3c 5e80 e43a 3307 073b 5f3f 033b
00000070: 0131 09bc 9ea4 e43b 888f 123b 4eee 82bb

embed.embedding_net.bn1.running_mean f4 [32]
-0.12878156 0.113197856 0.07813532 0.0027002539 -0.0024251672 0.17996038 -0.2747695 -0.20265813
-0.025068019 -0.21966219 -0.24646801 0.12117123 -0.37017882 0.27590182 0.015493217 0.031317685
0.19635674 -0.07383951 0.28400978 0.16621959 0.14641254 0.16863851 0.09536974 0.09140031
0.0818544 -0.16407141 -0.09781804 0.20896436 0.10188393 -0.02834335 0.26155552 -0.06677171
00000000: 50df 03be 47d4 e73d 6905 a03d bef6 303b
00000010: 8eef 1ebb 8947 383e 97ae 8cbe 9d85 4fbe
00000020: 725b cdbc 20ef 60be 1c62 7cbe 9f28 f83d
00000030: 1488 bdbe 0143 8d3e 43d7 7d3c f946 003d
00000040: be11 493e 2b39 97bd bb69 913e 7835 2a3e
00000050: 2bed 153e 93af 2c3e 3651 c33d 1630 bb3d
00000060: 48a3 a73d 5602 28be d354 c8bd c1fa 553e
00000070: 86a8 d03d 5030 e8bc 9bea 853e 9bbf 88bd

embed.embedding_net.bn1.running_var f4 [32]
0.006677027 0.00906662 0.003768837 0.00514225 0.004327369 0.001761444 0.003098396 0.0039472207
0.0021602146 0.013077954 0.0063861273 0.0014947278 0.0025136133 0.012559057 0.005813761 0.0026420786
0.0040399623 0.002881744 0.012910226 0.0043163053 0.003806242 0.009109437 0.0038245916 0.0038438346
0.0020618865 0.0020207514 0.0030551597 0.006498383 0.009172557 0.001313529 0.011533485 0.0063105915
00000000: f6ca da3b 298c 143c 98fe 763b 5280 a83b
00000010: 9acc 8d3b 41e0 e63a 750e 4b3b b057 813b
00000020: 6392 0d3b ea44 563c b842 d13b beea c33a
00000030: 6fbb 243b 81c4 4d3c 5d81 be3b b926 2d3b
00000040: a961 843b a4db 3c3b 6a85 533c cb6f 8d3b
00000050: 2572 793b bf3f 153c 00a6 7a3b d8e8 7b3b
00000060: b720 073b 956e 043b 1339 483b 63f0 d43b
00000070: 7e48 163c b82a ac3a f1f6 3c3c 14c9 ce3b
