trained_managers/70_150_5_MH_gin_32.pth (torch, 271880 bytes, 74 tensors)

key_policy.weight f4 [64, 32]
000000 31 af 6a 3c a7 b4 02 3c b6 26 3d 3e d8 8b 93 3c
       0.014323995 0.007977641 0.18471798 0.018011019
000010 a3 f3 dd bd c7 85 a2 bc 38 6b 4e 3d c1 14 90 3d
       -0.10837486 -0.01983918 0.05039522 0.070352085
000020 cc bc 54 ba 41 35 06 be b7 2e 6d bd 6a 0a bc bc
       -0.0008115291 -0.13106252 -0.05790588 -0.022954185
000030 fb ff ee 3c c1 12 a6 3d 3d 69 e0 bd 35 be bf 3d
       0.029174795 0.08109046 -0.109575726 0.09362451
000040 16 98 fc 3d 73 31 16 3d e3 fb 5f bd 34 45 ca bd
       0.123336956 0.036668252 -0.054683577 -0.09876481
000050 2a cf 00 be e3 7e ba bd 2c 84 12 bd 83 f9 eb 3d
       -0.12579027 -0.09106233 -0.03577058 0.115222
000060 55 db 22 3d 6a e6 2c bd 92 4e 01 be 06 b6 02 3e
       0.039759953 -0.042211927 -0.12627628 0.12764749
000070 5c 69 de bd d2 ad 11 bd 9a 7e fe bb f2 30 31 be
       -0.108599395 -0.03556616 -0.007766557 -0.17303827
000080 a1 d2 f6 3d e3 0b 1b be cb 7b c6 3d 9b b9 8c 3d
       0.12051893 -0.15141253 0.096915804 0.06871339
000090 a2 bd 65 bd 34 fd da bd d2 f7 0c 3e 9f b1 a6 bd
       -0.05608905 -0.10692826 0.13766411 -0.08139347
0000a0 f8 ea 0f 3e c1 d7 db ba c1 04 2c 3e 77 76 fa 3d
       0.14054477 -0.0016772674 0.16798688 0.122296266
0000b0 57 ac 5d bd 3b a0 0d bd e2 91 c4 3b b1 39 d5 3d
       -0.054119434 -0.034576636 0.005998836 0.104113944
0000c0 9f 92 76 3c 2d 2a b5 bd 9f 86 e7 ba d3 90 d3 bc
       0.015049606 -0.08845935 -0.0017664022 -0.025825894
0000d0 9c 12 1f 3e be 0a 8f 3d 00 be eb bd a8 1e 01 be
       0.15534443 0.06984471 -0.11510849 -0.1260935
0000e0 2e f8 d7 bd 34 70 d8 3d 54 e4 46 3c b7 fd 9c bd
       -0.105453834 0.10568276 0.012139399 -0.0766558
0000f0 f0 8c 1e 3d 1e ac ef 3d f9 0d 1c 3c be f1 78 3d
       0.038708627 0.117027506 0.009524816 0.06077742
000100 e7 fe 70 bc 0f 6c 66 3d 8a 1d cd 3d af a9 cd bc
       -0.014709211 0.056255396 0.100154 -0.025105326
000110 fb 7c 50 bd 01 7c 62 bd 56 eb 69 3d 41 a7 af bd
       -0.05090044 -0.05529404 0.0571092 -0.08576823
000120 8a a6 35 3e 06 96 c3 3d c7 28 22 be 03 d1 77 bd
       0.17739311 0.09550099 -0.15835868 -0.060502063
000130 72 87 22 3e 44 c2 72 bd af 3b 2a be 81 b7 d8 3d
       0.15871981 -0.059267297 -0.1662433 0.105818756
000140 1b 7e 0f be 2e c0 54 bd 53 8f 49 bd 99 1b b4 bd
       -0.14012949 -0.05194109 -0.04920895 -0.08794326
000150 2f 0f 28 3e 1d 19 c6 3d 9f 24 93 bd 32 cf 99 bc
       0.16412042 0.09672759 -0.07184719 -0.018775556
000160 1a 68 41 bd 43 c8 4a bd 4a 5e 94 3d a1 4a 0d bd
       -0.04721842 -0.04950739 0.07244547 -0.034495
000170 ef f2 45 3d 5d 93 05 bd 21 70 14 be 7e 02 35 3e
       0.048327383 -0.03261124 -0.14495899 0.17676732
000180 01 f6 35 3e 54 27 c9 bd 4e cd 79 bd 39 a0 d6 bd
       0.17769624 -0.09821954 -0.06098681 -0.10479779
000190 96 c5 cd 3d 18 b4 b1 3d d5 fd 82 3d 3d b8 42 bd
       0.10047452 0.08676928 0.06396071 -0.047538985
0001a0 8f c7 03 3c 0d f5 ee 3d a9 95 4d 3d bb 4d 2c 3e
       0.008043184 0.116678335 0.050191555 0.16826527
0001b0 79 55 b5 3d 01 1c f6 bd ce 62 14 be e0 27 f0 3d
       0.08854193 -0.1201706 -0.14490816 0.117263556
0001c0 b6 be dc bc c4 e0 86 bd 08 c5 ba 3d 54 53 5d bd
       -0.026946407 -0.065858394 0.09119612 -0.054034546
0001d0 94 04 06 be de 30 a3 bd b8 bd 00 bd 24 76 77 bd
       -0.13087684 -0.07968305 -0.03143093 -0.060415402
0001e0 85 ba 04 3d b0 3c 41 bd 26 56 2a 3e b7 89 78 3d
       0.03240444 -0.047177017 0.16634426 0.06067821
0001f0 88 12 ad bd 94 96 c3 bd da 8c a1 bd 35 2e d1 3d
       -0.084508 -0.09550205 -0.078881934 0.102138914
000200 83 b2 94 bd 3f ec ba 3c c3 0a 10 3e 07 88 68 bd
       -0.07260611 0.022817729 0.14066605 -0.05677035
000210 81 a5 a4 bc 9d 22 b1 bd 59 2b 1b 3e e6 9e 2f 3d
       -0.02009845 -0.0864918 0.15153255 0.042876147
000220 7b 7f c9 bc a2 de 9e bd 8e f8 1c 3e 72 93 bc 3d
       -0.02459692 -0.077573076 0.15329191 0.092078105
000230 c7 e5 4f 3d a0 f3 b1 3d ec 73 19 3e f0 fa 88 3d
       0.050756242 0.08689046 0.14985627 0.066884875
000240 26 50 1e be d4 23 8b bd 3e ca 7a bd 17 38 3b 3e
       -0.15460262 -0.06793943 -0.06122803 0.18283115
000250 b0 42 c3 3d fc ee d7 bd 91 72 d6 3d 3e f9 b7 bd
       0.09534204 -0.105436295 0.104710706 -0.08983086
000260 1e d0 3d 3e a0 ab 2a bd 1b 9f 84 3d 3c c1 f6 3d
       0.18536422 -0.04166758 0.064756595 0.12048575
000270 d5 eb eb 3d 60 e6 69 bd 27 48 1c 3e 3d 2d 0e 3d
       0.11519591 -0.05710447 0.15261899 0.03471111
000280 c8 ae 12 bd d5 a7 2a be 36 3e 30 3d 47 57 82 3b
       -0.035811216 -0.16665585 0.04302808 0.0039776894
000290 bf c7 f0 bc 37 64 72 bd 6c f9 23 3e 87 9f 79 bd
       -0.029392121 -0.059177604 0.16013116 -0.060943153
0002a0 57 6d 94 bd 3d ee 52 bd 4d fe 3b bd dd ac d3 bd
       -0.072474174 -0.051496733 -0.045896817 -0.103357054
0002b0 da 23 2d 3e 50 96 2a 3e 57 0b ee bd f6 19 c6 bd
       0.16908208 0.16658902 -0.11623257 -0.096729204
0002c0 e5 38 14 3d bd 3b 76 3d 9c 7d 85 bd 7e 6b 2b be
       0.03618707 0.060115565 -0.06518099 -0.16740224
0002d0 1a 92 27 3e 4b c5 2a bd b0 60 07 3e 55 21 9c bd
       0.16364327 -0.04169206 0.13220477 -0.07623545
0002e0 af 22 5a bd e1 19 a8 3d 6b 2b f4 3b 41 fd 09 bd
       -0.053255733 0.08208061 0.007451465 -0.033688787
0002f0 e6 e7 24 bd 19 60 ef 3d 4d 59 aa 3d ce c5 aa 3c
       -0.040260218 0.11688251 0.08317814 0.020846274
000300 cd df 1c 3e ff 4b 95 3c b5 38 45 3e 37 b6 bd bc
       0.15319748 0.018224714 0.19259913 -0.023158176
000310 2b 3d 24 3e 5f a3 1d 3d 08 2c 02 be 24 5b a8 bd
       0.16038959 0.03848588 -0.12712109 -0.08220509
000320 5f 4e 35 be 3f d5 94 3d cb ed b8 3d 85 0c 30 3e
       -0.17705677 0.07267236 0.090297304 0.17192276
000330 25 62 fa bd 1e b5 f3 bc e7 d0 18 be c0 3d f8 3d
       -0.12225751 -0.02974945 -0.1492344 0.12121153
000340 e3 53 99 bc c9 82 b2 bd 9d 17 fb bc 3e 7a 76 3d
       -0.018716758 -0.087163515 -0.030650908 0.060175173
000350 32 b0 1b 3e 65 79 88 bd 2b 26 16 3b b6 45 e4 bd
       0.15203932 -0.06663779 0.0022910933 -0.11146109
000360 21 8a 50 3d 2b fa e2 3c 6d cd 8d 3d 5a ac f7 3d
       0.05091298 0.02770718 0.069239475 0.1209342
000370 7d 7f 9d 3d ab 19 f7 3c 4b ac 1a be 6a d6 92 bc
       0.07690332 0.030163607 -0.15104787 -0.017924506
000380 f2 74 bd bd 17 09 a0 3c 77 79 c8 bd bf 7b e4 bb
       -0.09250821 0.019535584 -0.097887926 -0.0069727595
000390 b1 b1 17 be 8b 81 02 3e 03 e1 bf bd bd 12 cc bd
       -0.14813878 0.12744729 -0.093690895 -0.099645115
0003a0 a0 23 25 3e c1 b0 09 3d ea 13 0a be b9 18 e2 bd
       0.16126871 0.03361583 -0.13484159 -0.11039872
0003b0 27 2d 67 bc 69 32 30 be d8 27 d8 3d 3d de c8 3d
       -0.014109886 -0.1720673 0.105544746 0.098080136
0003c0 c9 2b 14 be f1 bb be 3c 1f 2a 0e 3e 69 72 bb bd
       -0.14469828 0.023282977 0.13883255 -0.091526814
0003d0 05 d3 1a be 8f 00 7e bd 0a 51 04 be 3d 53 37 3d
       -0.1511956 -0.06201225 -0.12921539 0.044757117
0003e0 48 e0 75 bd e6 c7 1d be 97 c4 f1 bd 03 c2 22 3e
       -0.060028344 -0.15408286 -0.11805075 0.15894322
0003f0 9b 9a f7 bd bb 26 6a 3d e8 a4 ac bd 2e 07 a0 bd
       -0.120900355 0.057165843 -0.08429891 -0.078138694

key_policy.bias f4 [64]
000000 ee db 5b bd 08 c3 89 bc 45 7c e5 bd 0a 09 36 3e
       -0.05367654 -0.016816631 -0.11205343 0.17776886
000010 8f 6f 04 be e3 4f f7 bd 48 4d ad bb c3 d6 82 3d
       -0.12933181 -0.12075784 -0.0052887537 0.06388619
000020 7d 11 a4 3d 9a 01 20 3e f6 14 b4 3d a6 29 26 be
       0.08011148 0.15625611 0.087930605 -0.16226825
000030 9a be 09 bc 97 b2 87 3d 0e 5e c0 bc a3 fd e1 3d
       -0.008407259 0.0662586 -0.023482349 0.110347055
000040 08 04 ee bd fc 79 6f 3c 01 e3 50 bd f1 fc 39 bd
       -0.11621863 0.014616486 -0.050997738 -0.04540724
000050 cb 03 28 be 4c 9a d3 3d 14 32 1c be 9d 40 92 bc
       -0.16407697 0.10332164 -0.15253478 -0.017853076
000060 96 6b 38 3d 0f 68 a3 bb 21 6c 01 3e eb 11 23 3d
       0.045024477 -0.00498677 0.12638904 0.03981201
000070 32 70 fc 3d 81 20 c5 bd 23 ee 82 3d 58 c5 27 bd
       0.12326087 -0.0962534 0.06393077 -0.040959686
000080 e7 97 26 3e 97 40 d6 bd c5 9d 2b 3e 5e 79 aa bd
       0.16268884 -0.10461538 0.16759403 -0.0832393
000090 a7 59 10 3e 5e 54 78 3d f3 ce cb 3d 09 35 0d 3e
       0.140967 0.060627334 0.09951582 0.13789763
0000a0 2d 7b f1 3d 51 a0 16 be 41 b5 10 3d f8 66 29 bd
       0.11791072 -0.14709593 0.035329107 -0.041357964
0000b0 6c f6 16 3e 08 79 2a 3e 35 fb 03 3e 68 96 66 bd
       0.1474244 0.16647732 0.12888797 -0.056295782
0000c0 3e 3b 08 be f8 5f 9f 3d 3a a8 d8 bd 02 7e 23 be
       -0.13303849 0.077819765 -0.10578962 -0.15966037
0000d0 5b 34 00 3e 9a e4 01 3e c0 2b b9 bc f6 96 56 3d
       0.12519972 0.12684861 -0.02260387 0.05239006
0000e0 a5 5a b1 3d e4 36 e3 3c b3 2d db bd da 18 83 bc
       0.08659867 0.027736135 -0.10702076 -0.016003061
0000f0 d6 ba f1 3d 74 b4 67 3d d5 df 24 be b7 9a 9d 3b
       0.11803214 0.056568578 -0.1610101 0.004809703

q_policy.weight f4 [64, 64]
000000 30 c8 2b bd b0 bf 47 3d 40 79 f1 3d 3b 57 7f bd
       -0.04193896 0.04876679 0.11790705 -0.06233905
000010 b9 3c 75 3d f5 bd fc bd a3 ca fa 3d 9d f0 01 be
       0.059872363 -0.12340919 0.12245681 -0.12689443
000020 86 58 ff bd b3 0b 12 3d 45 f9 0c be e2 80 0e 3e
       -0.124680564 0.03565569 -0.13766964 0.13916352
000030 2c 58 c6 bd 41 9a ad 3c 50 26 17 3d 91 b8 dc 3d
       -0.09684786 0.021191718 0.036901772 0.10777391
000040 c2 5a 42 bd 3a 27 05 3e e2 4c 57 bc b6 be ab bd
       -0.047449835 0.13003245 -0.013140889 -0.083859846
000050 4b 8c 64 bd e7 d3 4c 3c d1 a3 a2 3c d1 dd fb bd
       -0.055797856 0.012501693 0.019853504 -0.122981675
000060 d5 b3 0d bd 76 a4 8d bd 50 e2 67 bd 04 09 35 bd
       -0.03459533 -0.06916134 -0.056612313 -0.04419805
000070 05 f2 62 bd e5 15 ff 3c 39 22 42 bd 77 0e 23 3c
       -0.05540659 0.03113837 -0.04739592 0.009952179
000080 06 aa 07 be 3b 77 07 3d 03 9b b1 bd 95 25 06 3d
       -0.13248453 0.03307269 -0.08672144 0.032750685
000090 15 e6 0b be d8 d1 a4 3d d5 90 bb 3d 8a 2f e1 3c
       -0.13661988 0.08047837 0.09158484 0.027488489
0000a0 5f cb 0d 3d b6 b6 20 bd de 33 f3 3d c2 f6 9a 3d
       0.034617778 -0.039236747 0.11875127 0.075665966
0000b0 22 bf 23 bd a7 24 cc bd df 99 92 bd 4c ce 4e bd
       -0.0399772 -0.099679284 -0.07158255 -0.05048971
0000c0 11 96 fd 3b 58 d5 c0 3d e1 5f 8c bd 77 e0 ea 3c
       0.0077388366 0.09415692 -0.06854225 0.028671486
0000d0 dc 0c 88 3d d5 e1 af 3d b2 cc a5 3d 52 7b 74 bd
       0.06643078 0.08587996 0.08095683 -0.05968792
0000e0 8e 3a e6 3d 21 24 b7 3d ba 9d 77 3d be 89 da 3b
       0.11241637 0.08942438 0.060453154 0.006669252
0000f0 5b c4 9d 3d e3 0e ae 3d 1a 9b da 3d 1e 7f f2 bd
       0.077034675 0.08498933 0.106741145 -0.11840652
000100 ae c5 04 3e 6b 11 e4 3c 14 d7 92 bd 92 b9 87 3c
       0.12966034 0.027840337 -0.07169929 0.016567979
000110 4c cb 23 3d 4c 60 bf bd 91 bc 58 bd 79 6d 60 3d
       0.0399888 -0.09344539 -0.052914206 0.0547919
000120 c6 1c 89 bd 9c c0 77 bd 8e a4 a6 3c 67 4a 43 3d
       -0.06694941 -0.06048642 0.020342138 0.047678377
000130 c0 4f e6 3d 60 9e c7 3d 9a 5f ca bb 1f 58 cc 3d
       0.1124568 0.097470045 -0.0061759474 0.09977745
000140 4e d3 ea bc b9 b1 0b 3e bf 2a cb bc 4b af 8e 3d
       -0.028665211 0.13642015 -0.024800656 0.06967028
000150 4e 4e d3 bc 06 eb 8a bc 8b 8b 5a 3d 48 e9 a0 3d
       -0.025794175 -0.016957771 0.053355735 0.07856995
000160 99 ed a3 bc 7f 21 bc 3c 16 00 c2 bd 57 55 a8 3c
       -0.020010756 0.022965191 -0.09472673 0.020548506
000170 f5 82 64 bd 8d 2a a9 bc 7e e7 98 3d 5f 48 ec bd
       -0.055788953 -0.020650173 0.07466029 -0.11537241
000180 72 d6 a2 bd 94 aa ea 3d d5 c6 8d bd ad 4f 9d 3d
       -0.079510584 0.114583164 -0.0692269 0.076812126
000190 6e cb 35 bd ce 2b 94 bd d0 48 9b 3d 68 7b 9d 3c
       -0.04438346 -0.072349176 0.07582247 0.019223884
0001a0 f6 fa 1c 3d f3 ec 67 bd b5 44 56 bd 77 a5 cc 3d
       0.038325273 -0.056622457 -0.052311618 0.099924974
0001b0 54 d5 f7 3c cd 08 03 3e 10 24 d8 bd d9 0a d0 3c
       0.03025309 0.12796326 -0.105537534 0.025395798
0001c0 ab bb 97 3b 77 8a 8a bd 55 f9 af 3d 60 e3 92 3d
       0.004630526 -0.06764691 0.08592478 0.071722746
0001d0 ee 26 81 bb 92 3d a4 bc da 31 3b 3b 1a e7 84 bd
       -0.0039414084 -0.02004889 0.002856365 -0.064893916
0001e0 01 1b a1 3d 06 88 b6 3d 72 11 c1 bc 6e 2b a7 bd
       0.07866479 0.08912663 -0.023567889 -0.081625804
0001f0 ac 5a e5 3d 50 40 8e 3d 85 5a 3e bd 89 da 1e bc
       0.11198935 0.069458604 -0.046473045 -0.0096956575
000200 84 a8 e8 3d 1f d3 3b bd 00 bf ea bc f6 b1 89 bc
       0.11360267 -0.045855638 -0.028655529 -0.016808491
000210 dc 4c 9f bd 9c b7 02 bd 1f 5b 75 3c 7f 73 b0 bd
       -0.07778332 -0.031913385 0.014975338 -0.08615779
000220 26 da f2 3d 0a 16 1b 3d 87 c8 bc 3d f1 7f eb bd
       0.11858015 0.037862815 0.09217935 -0.11499012
000230 a1 20 d1 bd 38 34 8b 3d b1 5a cf bd bd 91 11 3d
       -0.102113016 0.06797069 -0.1012472 0.035539377
000240 58 7a 02 bd 00 4b bd bc ab 5f e0 3d 0d e3 47 bb
       -0.031854957 -0.023107052 0.10955747 -0.0030500323
000250 4a 5a 78 3d e6 a6 77 3d fe 38 03 be 17 54 9e bc
       0.06063298 0.0604619 -0.1281471 -0.019327207
000260 af a6 a1 bd 4b 45 97 3d 55 9f 3a bd 29 90 e4 3d
       -0.078931205 0.073862635 -0.045562107 0.11160309
000270 fa 19 d7 3d 32 46 b6 3d 72 bd ca 3d 0f ff 9a 3d
       0.105030015 0.089001074 0.09899415 0.0756818
000280 c8 77 f1 3d 6c a0 0d bc ed e7 d0 bc 2a a4 fa bd
       0.117904246 -0.008644205 -0.025501216 -0.12238343
000290 c3 33 87 bd c3 43 73 bd fa b5 b2 bd dd a9 bd 3d
       -0.0660167 -0.059390794 -0.087261155 0.092609145
0002a0 f0 2a 8e 3d 64 be 9e 3d 32 e5 3e bd 61 7f 3a bd
       0.069417834 0.07751158 -0.046605296 -0.045531634
0002b0 55 66 c3 3d 9d 24 88 3d c4 92 93 3c 95 a4 92 3c
       0.09541003 0.066476084 0.01801432 0.017900744
0002c0 72 98 db bd 0c cd e1 bd f4 98 e9 bd f8 05 a9 3d
       -0.10722436 -0.11025438 -0.114061266 0.082530916
0002d0 f4 22 81 bd d8 3f a2 bd 1d f7 bc 3d 3c d0 94 bd
       -0.06305495 -0.079223335 0.092268206 -0.0726628
0002e0 f4 64 e9 3d a6 38 c8 3d 2c a3 d1 3d 0a 09 b4 3c
       0.113962084 0.0977643 0.10236201 0.021976966
0002f0 02 fe 25 bd 67 38 c4 bd 01 4f 8b bd 24 17 b7 3d
       -0.040525444 -0.095810704 -0.06802178 0.089399606
000300 80 26 4b bd 64 2a 9f bd 2d f1 33 3d fc f9 a7 bd
       -0.049597263 -0.07771757 0.043931175 -0.082019776
000310 3f a5 73 ba 17 e3 1a 3d 70 4d a8 bd a0 36 a6 3b
       -0.0009294338 0.037814226 -0.08217895 0.00507243
000320 54 e9 ba 3d 7d 9c 96 3c 5d 61 be bd af 78 94 bd
       0.09126535 0.018385166 -0.09295914 -0.07249581
000330 db 90 ce 3d b9 57 e5 bd 04 80 3e 3c b8 5e c8 bc
       0.10086223 -0.111983724 0.011627201 -0.024459228
000340 8f 74 d6 3d 32 94 76 3d 84 d4 33 3d f1 7f 24 bc
       0.104714505 0.060199924 0.043903843 -0.010040269
000350 61 89 a3 bd 1a d4 cc bd 51 ff e0 bd ed 31 ca 3c
       -0.07985187 -0.10001393 -0.10986198 0.02468201
000360 6b 5e 46 3d 87 3b 80 bd 8f 52 e7 bc b6 1f 5c 3d
       0.048429888 -0.06261354 -0.02823761 0.05374118
000370 82 4f cf 3d cf 92 89 bd 9e da d8 3d 6e 33 98 bc
       0.10122587 -0.06717455 0.10588573 -0.018579211
000380 31 dd 9c bd b8 6c 19 3c d1 a8 c6 3d 72 69 dc bc
       -0.076593764 0.0093642995 0.09700168 -0.026905749
000390 c3 64 d7 bd 99 41 41 bd af a5 b4 3d dd 4c 20 3d
       -0.10517266 -0.0471817 0.08820664 0.039135803
0003a0 37 89 c7 bb 85 fd 57 bb 8e fa 10 bb 6a c1 7f 3d
       -0.0060893553 -0.0032957506 -0.0022121998 0.062440313
0003b0 51 7a da bd c9 33 84 bd ae 80 de 3d 30 87 46 bd
       -0.10667861 -0.0645519 0.108643875 -0.04846877
0003c0 bc 4f 51 3c 38 95 d6 bd 72 97 cd bd 04 98 16 bd
       0.012775358 -0.1047768 -0.100386515 -0.036766067
0003d0 50 8d 56 3d f8 7a 99 3d ab df 1b bc 04 44 35 bd
       0.05238086 0.074941576 -0.009513776 -0.044254318
0003e0 7b a8 9a 3d 67 f3 7c bd 29 29 81 bd 9a 72 7d 3b
       0.07551666 -0.061755564 -0.06306679 0.0038673044
0003f0 29 ea e7 3d 90 83 c1 3d 4f 5b 81 3d d2 84 8d bc
       0.113239594 0.09448922 0.06316244 -0.017275248

q_policy.bias f4 [64]
000000 57 af ae bd 76 ea fb bd d3 36 a3 3a 9f 6a 9e 3a
       -0.08529537 -0.12300579 0.0012452252 0.0012086219
000010 a1 53 05 be 9e 1f 47 3d 31 c4 09 be 43 bd b0 bd
       -0.13020183 0.048614137 -0.13453747 -0.08629849
000020 47 ef 17 3b 6c a1 8a bd 67 79 bd 3b af f9 39 3b
       0.0023183392 -0.0676907 0.0057822946 0.0028377583
000030 e9 b1 3d 3d 58 16 45 bc 9f 42 8c 3d 82 66 1d be
       0.046312246 -0.012029253 0.068486445 -0.15371135
000040 60 c9 14 3e 9d d9 98 bc 5d 6d 8c bd 7b 5c bd 3b
       0.14529943 -0.018658454 -0.06856797 0.005778847
000050 bb b4 31 bd f9 ab b6 3c 8f 91 b9 3d 5e 06 af 3b
       -0.04338525 0.0222988 0.09060966 0.005341335
000060 ef 6b 0a be 9f 84 e9 bd 38 09 f9 3a e4 b6 1f be
       -0.13517736 -0.114022486 0.001899994 -0.15597111
000070 c3 de a1 3d b8 ad 51 3d 5d a8 89 bc de 89 62 3d
       0.079038166 0.05119106 -0.016803915 0.05530726
000080 43 52 20 3e 05 e9 ca 3d a4 21 a8 bd 9e fc a2 3d
       0.1565638 0.09907726 -0.082095414 0.07958339
000090 01 22 93 3d c1 b5 08 bd 14 b5 99 bd 9c cb d4 bc
       0.0718422 -0.03337646 -0.07505241 -0.025975995
0000a0 8a f9 02 be ca 9c 06 be 15 83 9a 3d 4a 8a bc bd
       -0.12790504 -0.13145748 0.07544533 -0.09206064
0000b0 9b 6d 60 bd e4 e9 49 ba 77 95 bf bd 1e 6e 8e 3d
       -0.054792028 -0.0007702394 -0.0935468 0.06954597
0000c0 c4 1c 03 bc e6 81 d2 3d 28 0e cd bd bf 4b 37 bc
       -0.008002464 0.102786824 -0.10012466 -0.011187493
0000d0 ca 60 16 be cb 5a a0 3c f3 59 18 3a 22 9d 95 bd
       -0.1468536 0.019574543 0.00058117433 -0.07305361
0000e0 73 4c 9d bd 59 a5 f9 bd 67 af bf 3c 75 0d cf 3c
       -0.07680597 -0.12189741 0.023399068 0.025274972
0000f0 48 15 98 3d 97 0f 23 be 0c 32 14 3d cd 97 8c bd
       0.07425934 -0.15923916 0.03618054 -0.06864891

embed.embedding_net.lin1_1.weight f4 [32, 4]
000000 31 e5 88 3e 7a 37 1a 3e 0f ec 09 bc e3 9c 25 bb
       0.2673736 0.15060225 -0.008418097 -0.0025270514
000010 70 f5 38 3e 29 66 c1 3e 73 1f f3 be ce fd 7f 3e
       0.18062377 0.37773255 -0.4748493 0.24999163
000020 a3 18 c4 3e 28 bf 7c 3d b6 43 02 be 04 31 c1 be
       0.38300046 0.06170574 -0.12721142 -0.37732708
000030 88 80 8b be 7a 9d f1 3c d2 a0 40 be a6 6c 42 3e
       -0.272465 0.029494036 -0.18811348 0.18986759
000040 75 b6 db 3e 81 d4 97 3e f7 37 08 3e 17 ba 7e 3e
       0.4291264 0.29654315 0.13302599 0.24875675
000050 cf 4d 9f be f0 14 04 bd 6f 42 18 be bd 4f 57 3e
       -0.3111405 -0.03224653 -0.14869092 0.21026511
000060 70 71 59 be 5c d4 91 3c bb fd 03 be 13 ff 27 3d
       -0.21234679 0.017801456 -0.12889759 0.041014742
000070 a0 9e df 3c a7 70 b3 bd 95 cd 10 3c e6 12 99 be
       0.027297318 -0.08761721 0.008838077 -0.2989723
000080 81 a4 d4 be 74 19 b0 3e d5 1f 88 3e 08 40 93 3e
       -0.41531757 0.3439442 0.26586786 0.2875979
000090 1b 9e 7e 3e ba db 16 3e a6 be a1 bb 36 78 dd be
       0.24865 0.14732257 -0.004936057 -0.43255776
0000a0 91 7a 91 be ce c6 9c be 25 68 a0 bc 88 dd ae 3e
       -0.28413823 -0.30620426 -0.01958091 0.3415339
0000b0 2b 1d dc 3e b3 43 f0 be 4d 30 ee 3e 3c 7e 2b 3e
       0.42991003 -0.4692665 0.46521226 0.16747373
0000c0 7e 66 41 be e4 0c 17 be 8b 68 fa bd 8d 6b eb 3e
       -0.18886754 -0.14751011 -0.12226971 0.45980492
0000d0 83 33 ed be 58 17 e6 bc be ca d7 3d a3 41 ad 3e
       -0.46328363 -0.028087303 0.10536717 0.3383914
0000e0 90 8e 85 3e b7 b5 92 be bd 69 ef 3d 7d 7e b3 bd
       0.2608533 -0.28654262 0.1169009 -0.0876436
0000f0 96 fd b0 3e de 74 00 3f b1 01 9e bd 63 91 e1 3e
       0.3456847 0.50178325 -0.07715166 0.44056234
000100 24 a8 d6 bd 5d c0 bf be 71 36 9b bd 9a d2 b5 3e
       -0.10481289 -0.3745145 -0.07578743 0.3551224
000110 39 00 42 be ff a2 aa be 2c 31 6f be 39 ef 96 3e
       -0.18945397 -0.3332748 -0.23358601 0.29479387
000120 8f ab 39 3e b1 d3 c4 be a3 81 f1 3e 0e a1 c6 3e
       0.1813185 -0.38442758 0.47169217 0.3879475
000130 1c 9e f0 be b8 8f ca 3e ba 6c 85 3e c0 91 4d 3e
       -0.46995628 0.39562774 0.26059514 0.2007513
000140 af 21 aa 3e 33 98 72 be 42 6f ff bd b1 cd 87 3d
       0.33228824 -0.23690872 -0.124723926 0.066310294
000150 d9 c9 c6 be d3 a1 37 3d 02 2d ca 3e 27 b4 ab 3e
       -0.38825873 0.044832062 0.39487463 0.33535883
000160 de 98 cb be 9f 7a b8 be fb ff 1c be bd 9f 96 3e
       -0.39765066 -0.36031052 -0.15332024 0.29418746
000170 dd ef 40 3d 61 ba ba 3e 5b b7 6b 3e 53 58 e1 3e
       0.04710375 0.3647032 0.23019163 0.440127
000180 83 08 e5 be 1e 31 9d bd 33 0e d0 bd d8 ca a6 3e
       -0.44733056 -0.07675384 -0.10158958 0.32576632
000190 3d cf bf bd ff 9d c0 3b a4 ae bd 3e 49 4b bf be
       -0.093656994 0.0058782096 0.37047303 -0.37362126
0001a0 6d 12 63 be 70 75 d5 3e 1a c4 32 be 54 00 e6 be
       -0.22174998 0.4169116 -0.1745762 -0.44922125
0001b0 4f 0a 95 3e 9b 36 db 3d fc 13 b7 be 82 6e ad be
       0.29109427 0.107037745 -0.35757434 -0.33873373
0001c0 32 d3 00 3f 97 d8 94 bb 89 00 f2 3e cb 00 db bd
       0.5032226 -0.004542421 0.47266033 -0.106935106
0001d0 70 fc 0f be 01 ad d5 3e 25 da b8 be 48 ed 50 3d
       -0.14061141 0.41733554 -0.3610393 0.05100754
0001e0 16 39 5d be aa a1 c4 3e 92 aa 62 be f8 36 a7 bd
       -0.21603808 0.3840459 -0.2213538 -0.08164781
0001f0 74 a4 ef be 8e 0f 9e 3e bd b1 97 3e 6e 60 75 be
       -0.46805155 0.30871242 0.2962779 -0.23962566

embed.embedding_net.lin1_1.bias f4 [32]
000000 f4 d5 5c be 2c be a7 bb 8c dc 87 bd 1b 14 fb be
       -0.21565992 -0.005119106 -0.06633863 -0.49038777
000010 d4 72 66 be 83 a3 90 be c4 78 a9 be dd b6 c9 3d
       -0.22504741 -0.2824975 -0.3309995 0.098493315
000020 1a cc cf 3d 85 99 b8 be 3c 9d dc be a0 71 b7 bd
       0.10146351 -0.36054626 -0.4308871 -0.08957219
000030 f2 56 93 be 77 ed e3 3e 32 75 b2 be c8 60 e6 39
       -0.28777272 0.4451711 -0.34855038 0.00043941126
000040 99 25 21 be fb 25 54 3e fc ef 5b 3e 7f 5f ca be
       -0.15736999 0.20717613 0.21478266 -0.39525983
000050 6b d0 de be ec 5a b9 3e 2f 21 61 be 57 6f fa 3c
       -0.43518385 0.3620218 -0.21985315 0.03057067
000060 74 d1 3c 3e 0f 0f 9a be cd 22 fe bd 1e 2e d6 3e
       0.18439275 -0.30089614 -0.124089815 0.4183206
000070 f9 f6 7d be 2d f4 92 3e 6c 54 73 3e 25 20 c5 be
       -0.24801244 0.28701916 0.23762673 -0.38501087

embed.embedding_net.bn1_1.weight f4 [32]
000000 1f d3 82 3f 4e d3 80 3f f7 03 7c 3f e0 e7 80 3f
       1.0220679 1.0064485 0.9844355 1.0070763
000010 d4 2b 7f 3f a7 37 80 3f b7 22 7f 3f d6 6c 80 3f
       0.9967625 1.0016984 0.99662346 1.0033214
000020 53 ac 80 3f 4b 10 81 3f 5f 56 7e 3f 4c d1 7e 3f
       1.0052589 1.0083097 0.9935054 0.9953811
000030 8d 02 7e 3f 9d 5b 7f 3f 9a 13 82 3f 6e 5d 7f 3f
       0.9922264 0.99749166 1.0162232 0.9975194
000040 fb 5d 80 3f 4d 0b 80 3f 6c 55 7f 3f a2 7d 7e 3f
       1.002868 1.0003449 0.9973972 0.9941045
000050 0a b0 82 3f f9 d6 7e 3f 58 80 80 3f e4 06 80 3f
       1.0209973 0.9954677 1.0039167 1.0002103
000060 d3 f7 7e 3f 7b ee 7c 3f 25 01 7c 3f 0b 7b 80 3f
       0.995969 0.9880139 0.98439246 1.003755
000070 1d 19 7d 3f e8 fa 7d 3f 6a c8 7e 3f ea 6e 81 3f
       0.98866445 0.9921098 0.9952456 1.0111973

embed.embedding_net.bn1_1.bias f4 [32]
000000 af 71 b9 3b cd 19 e9 3b d5 11 7c bc 8f f1 b3 3c
       0.005659304 0.0071136714 -0.015385111 0.02196577
000010 b5 f6 8a 3b d3 aa e7 3b d6 dd 14 3a 97 fa 92 bb
       0.0042408356 0.0070699244 0.0005678808 -0.004485439
000020 12 ec 2b bb f0 2f a4 b9 0a 6c 59 bb 94 4c 68 bc
       -0.0026233238 -0.00031316234 -0.0033175969 -0.014178414
000030 84 27 85 bb 2d 3f c4 bb 21 aa 88 bb e7 18 22 3c
       -0.0040635485 -0.0059889765 -0.0041706716 0.0098936325
000040 4c 81 b6 bb 8c dd 15 bc 55 27 32 bb 9f 7a f2 ba
       -0.0055696126 -0.009147059 -0.0027184088 -0.0018499679
000050 0f c4 d8 ba b4 08 da bb 4f 69 f9 3a 62 44 05 3c
       -0.0016537922 -0.0066538695 0.0019028577 0.0081339795
000060 83 45 ad ba 48 44 db 3b 7f 19 fd bb ba 52 05 3c
       -0.0013219569 0.0066914894 -0.0077239866 0.008137399
000070 f1 af 0e 3c 29 bd 9e bb ff cd 9b ba 8a d4 aa 3c
       0.00870894 -0.004844327 -0.0011886953 0.0208533

embed.embedding_net.bn1_1.running_mean f4 [32]
000000 fa 29 f7 bc 09 34 33 3f 77 75 df bf 21 ac 03 bd
       -0.030171383 0.70001274 -1.7457722 -0.032146577
000010 16 8a bb 3f ad 83 8e 3e 9f 44 de be 81 24 a3 bf
       1.4651515 0.27834836 -0.4341173 -1.2745515
000020 27 18 e2 3f c2 82 08 c0 5a cd 4b 3f 7a 36 ac 3f
       1.7663621 -2.1329808 0.79610217 1.3454125
000030 1b 80 b9 3f 3f 35 f2 3f 28 c6 15 bf 11 c9 13 40
       1.449222 1.89225 -0.5850549 2.3091471
000040 0f ed 8c 3f d6 aa 6f 3f 55 00 25 40 90 1b 5e 3f
       1.1009845 0.9362005 2.5781453 0.8676081
000050 f0 d1 8b be 22 45 13 40 68 29 02 3f d3 ef 24 40
       -0.27308607 2.3010945 0.5084443 2.5771377
000060 7e 05 a0 3f 09 61 be bf 6b dc 14 c0 49 f5 b9 bf
       1.2501676 -1.4873363 -2.3259532 -1.452798
000070 7d f1 62 3e 4a 2c f0 3d 20 23 c2 be a0 5f 8e bf
       0.22162433 0.117271975 -0.37917423 -1.1122932

embed.embedding_net.bn1_1.running_var f4 [32]
000000 4f 04 01 3c eb 9f a5 3d 4d 25 66 3e 7a 48 92 3c
       0.007874562 0.080871426 0.22475167 0.017856825
000010 c8 b6 0f 3e 9a 61 c0 3c 6e 34 2f 3c b1 96 a6 3d
       0.1403457 0.02348404 0.010693653 0.08134211
000020 5f 57 85 3e 32 a9 3e 3e 64 9f ec 3d 01 24 aa 3e
       0.2604322 0.1861923 0.11553839 0.33230594
000030 6e 87 0d 3e 29 5c 3b 3e 59 95 82 3c a0 1e 30 3e
       0.13821194 0.18296875 0.015940355 0.17199183
000040 96 fd c9 3d 99 8f 26 3d b8 0b 14 3f bd 1f 45 3e
       0.09862821 0.04066429 0.5783038 0.19250388
000050 5d ed 95 3c 65 68 d6 3e 53 2f 7a 3d da 77 bf 3e
       0.01830166 0.41876522 0.06108029 0.37396127
000060 98 6a a2 3d 7c d3 3b 3d 34 47 ae 3e a1 4f c2 3e
       0.079304874 0.045855984 0.340387 0.37951377
000070 94 35 07 3e 45 ba bc 3d 4d 18 ad 3d b1 4e 48 3d
       0.13204032 0.092152156 0.08451901 0.04890317

embed.embedding_net.lin1_2.weight f4 [32, 32]
000000 d2 60 48 be 19 5e 6d 3d 95 7a 68 3d 7a 24 71 bc
       -0.19568184 0.057951067 0.05675753 -0.014718169
000010 4d cc 7a bd f7 7f 25 3e 25 c3 20 be d4 19 f8 bd
       -0.061229993 0.16162096 -0.15699442 -0.12114301
000020 43 59 05 3d 99 8f 01 be be d0 99 bd 2c b3 d8 3d
       0.03255583 -0.12652434 -0.075105175 0.10581049
000030 69 4a 9f 3d 6a b8 fa bc f0 f1 02 3e 20 ee b1 bb
       0.077778645 -0.030605514 0.12787604 -0.005429998
000040 93 1b ed bc 6b cf 49 bd 35 e5 ac bd 32 f6 0d 3e
       -0.028943812 -0.049270075 -0.08442155 0.13863447
000050 d6 8f c2 3d 38 5a 12 be 82 cc 35 3e ee c5 b1 bc
       0.09500091 -0.14292228 0.17753795 -0.021700826
000060 3b cb c5 3c 94 ca 0e 3d 69 60 21 3e 8d 6e 88 bd
       0.02414476 0.034861162 0.15759434 -0.06661711
000070 0d 4d f2 bc 7f 89 64 bd 5e ae 18 3d 09 7d 2b be
       -0.029577756 -0.05579519 0.037275665 -0.16746916
000080 5b 9e 1f bd 2b dc 74 3d c9 15 13 3e 0a 92 35 be
       -0.03896938 0.05978028 0.14363779 -0.1773149
000090 fc 82 2d be af 87 23 3e c8 fe 94 3c d2 11 77 bd
       -0.16944498 0.15969728 0.018187895 -0.06031973
0000a0 4c 11 a5 3d 8a 5b 17 be 9c 5c 84 bd ea 8b 51 bd
       0.0805994 -0.14781013 -0.06462976 -0.051158823
0000b0 23 7d 49 3d d7 0a fe bb 59 99 42 bd 81 3d aa bd
       0.049191605 -0.007752757 -0.047509525 -0.08312512
0000c0 d2 fb 11 be 40 34 ae bd f5 8b dd bd 05 a7 be 3d
       -0.14256218 -0.0850606 -0.1081771 0.093092
0000d0 d7 e5 26 3e 99 fd ce bd 24 b7 0e 3d 22 c5 9d bd
       0.16298614 -0.10106964 0.034842625 -0.07703616
0000e0 2f 35 5a bc 86 c5 8a 3c 4b a9 05 3e 9d 72 0b 3e
       -0.013318344 0.01693989 0.13052861 0.1361794
0000f0 83 91 99 bd 0c 94 fe 3d 8a 67 68 3c 74 aa 88 bd
       -0.07498457 0.124305815 0.014184842 -0.06673136
000100 e4 e7 79 3d 38 c0 c9 bc 84 fa 25 be 78 0f 48 bd
       0.061012164 -0.02462779 -0.16208845 -0.048842877
000110 aa 42 fa 3d cc d1 7b bd 20 79 3c bd 53 15 30 bc
       0.122197464 -0.061479375 -0.04601395 -0.010747272
000120 02 02 c6 3c ad 3c 05 bd d5 e0 25 3e 9c d0 51 bc
       0.02417088 -0.032528568 0.16199048 -0.012806084
000130 b2 da 21 3e 8c 4d 03 3e f0 20 fa bd 64 fe b3 3c
       0.15806082 0.1282255 -0.122133136 0.021971889
000140 da 31 0b 3e 23 4e 2c 3c 70 0f 3d 3c ea 1f bf 3d
       0.13593236 0.010516676 0.011539325 0.09332259
000150 12 f6 c1 3c 0c 48 8f 3d f8 b2 97 3d fc 02 eb bd
       0.023676906 0.06996164 0.074071825 -0.114751786
000160 e6 0f 17 3e 35 62 07 bd a1 c6 22 3e 03 df 9e bd
       0.14752159 -0.033052642 0.15896083 -0.0775738
000170 c8 c9 b9 bd 75 46 d3 bb 08 27 e5 3c 78 28 18 3a
       -0.0907169 -0.006447608 0.027972713 0.000580437
000180 e9 e7 85 bd 9a 2d c9 bd e0 2e e9 3d a1 e3 ab bd
       -0.06538374 -0.09823151 0.11385894 -0.08393026
000190 62 69 39 bd e8 3f 4a bd 4b 26 cd 3d fc c7 fb bc
       -0.045266517 -0.049377352 0.100170694 -0.030735008
0001a0 29 1a 59 bd 7a 6f 12 3e c1 65 43 3d 66 ea f5 bd
       -0.053003464 0.14300337 0.047704462 -0.120075986
0001b0 78 1c 12 3c 6c 8d d0 bd b5 db aa 3d ba dc 76 bd
       0.00891792 -0.10183224 0.08342687 -0.060269095
0001c0 fb 92 de bb 5c 58 fd bd c7 e4 b7 bd e9 48 9e 3d
       -0.006792424 -0.12370369 -0.08979183 0.0772875
0001d0 b0 2a 8b 3d d0 aa 0c be 85 90 17 3e f5 a3 dc bd
       0.06795251 -0.13737035 0.14801224 -0.1077346
0001e0 a3 4f 2b bd f1 ae 14 3e 1b 80 ac 3a c0 82 c0 3b
       -0.041823994 0.1451986 0.0013160737 0.0058749616
0001f0 47 50 e2 3d 01 46 cf bd 79 57 76 3d 1b fe 25 be
       0.11050468 -0.10120774 0.060142014 -0.16210215
000200 17 f9 43 be ee d7 13 be 43 b2 0e 3e dc d5 91 3d
       -0.19137989 -0.1443784 0.13935189 0.071208686
000210 0e 2d 03 3e 38 f1 78 3d 10 14 0b 3e ac d1 13 3e
       0.12810156 0.06077692 0.13581872 0.14435452
000220 f6 e4 b3 bd a0 3c b1 3d 8b b9 e3 3d c8 2b b7 3d
       -0.08783905 0.086541414 0.11119374 0.089438975
000230 0b cb 8c 3d ec 8e 0e be e2 09 9f bb f5 ea b0 bd
       0.06874665 -0.13921708 -0.004853473 -0.086385645
000240 9f 33 31 3e de c8 d0 3d 1a aa f1 bb 4c 79 b6 bd
       0.17304848 0.101945624 -0.007375014 -0.08909854
000250 40 5e 77 bb 89 01 2e 3e 7f 2e 24 3e 72 52 2c be
       -0.0037745386 0.16992773 0.16033362 -0.16828325
000260 91 41 05 bd 6c 71 12 be e5 46 3d bd c3 3b 1e 3e
       -0.032533232 -0.1430108 -0.04621019 0.15452485
000270 cc 77 dd 3d 10 d6 2f be a8 0d 8d bd 29 06 bd bd
       0.10813865 -0.17171502 -0.0688737 -0.092296906
000280 95 da 25 be f4 cd a8 3c 80 71 8d bd be fa 1b be
       -0.16196664 0.020606019 -0.06906414 -0.1523237
000290 9c 13 04 3d 26 b2 48 bc 30 32 f8 3d 4e 28 24 bd
       0.032245263 -0.012249505 0.121189475 -0.0400775
0002a0 88 39 92 3d 7b aa 0c 3e 94 36 c2 3c 33 c4 92 bd
       0.071398795 0.13736908 0.023707666 -0.07166328
0002b0 80 4b 28 bc 4f bd d0 bd 10 ad 8e 3c e0 4b 9a bd
       -0.010271907 -0.10192358 0.017416507 -0.07534003
0002c0 3c 1b 1d 3e 46 e0 2a be 84 46 b4 3b 8c 73 b4 bd
       0.1534242 -0.16687116 0.00550157 -0.08811101
0002d0 43 66 dc 3d ae 95 13 3e b5 49 a2 3d 69 31 65 3d
       0.107616924 0.14412567 0.07924215 0.055955324
0002e0 94 b2 1f be 37 2b a4 3d 0a 09 c8 ba cd a7 96 3d
       -0.15595466 0.08016055 -0.0015261483 0.07356224
0002f0 0d 2b 8c bc 2b 98 6f bd a6 2e 64 3d 4c f0 0f be
       -0.017110372 -0.058494728 0.05570855 -0.1405651
000300 5e 62 fa 3c 67 9e 61 3d b1 67 70 bc 8d f2 16 3e
       0.030564483 0.055082705 -0.014673159 0.14740963
000310 fc e3 cb 3d 8f 42 24 be 43 36 54 3d 75 e1 b9 3c
       0.09955594 -0.16041015 0.05180956 0.022690514
000320 65 9d e6 bb 41 40 1e be df af ea bd 26 8e c4 3d
       -0.007037806 -0.15454198 -0.11459326 0.09597425
000330 2a 6c d6 bc 26 67 8f 3d 35 88 22 be 8f 66 d3 3d
       -0.026174624 0.07002096 -0.15872271 0.10322296
000340 36 be 98 bd 33 2b 38 3d 41 41 1c be 24 90 09 3e
       -0.07458155 0.044963073 -0.15259267 0.13433892
000350 56 52 5a 3a a5 68 fd 3d 0e 71 2b be ee 0b 2b be
       0.0008328309 0.12373475 -0.16742346 -0.1670377
000360 69 02 61 bc 0e 85 09 bd bc 11 25 3e f5 bc 8b 3d
       -0.013733485 -0.033574156 0.16120046 0.0682315
000370 f3 f2 60 3d 8e d7 5f bc 30 06 e9 3b 34 ec 85 bc
       0.054919194 -0.013662232 0.0071113333 -0.016347982
000380 a3 58 ef bd fc d5 99 3c c2 d1 af 3d 74 48 15 3d
       -0.11686828 0.018778794 0.0858493 0.03644605
000390 68 01 fb bd 5c 27 16 be 59 c9 aa 3d b0 16 81 bd
       -0.122561276 -0.14663452 0.08339185 -0.063031554
0003a0 e7 2a a6 3d b1 37 49 bd dc 0d 09 bd a3 be 06 be
       0.08113652 -0.049125377 -0.033460483 -0.1315866
0003b0 4c a9 ab 3d eb 10 e4 3d ee 0e 1e be 30 23 9f 3d
       0.083819 0.11136039 -0.15435383 0.07770383
0003c0 ea be 73 bc ea d5 b1 bd 8a 58 ee 3b fd b7 d5 bd
       -0.01487706 -0.08683379 0.0072737383 -0.104354836
0003d0 09 fd 3b 3d 1a c1 50 3c ef f4 bc 3d 68 dd 2f 3d
       0.04589561 0.0127413515 0.09226405 0.04293576
0003e0 b8 e4 c2 3d a7 76 3c bd 48 cc 06 3e 03 45 1f 3d
       0.09516281 -0.046011593 0.13163865 0.038884174
0003f0 90 86 df 3d c1 30 31 be 13 61 1d be 61 71 15 be
       0.10914338 -0.17303754 -0.15369062 -0.14594032

embed.embedding_net.lin1_2.bias f4 [32]
000000 ea d1 e2 bd f3 ea 1f bd a7 fd 32 3d 07 27 d3 3d
       -0.11075194 -0.039042424 0.043698933 0.10310178
000010 4b e4 7a 3d da d5 a6 bb 02 e2 d5 bd fc c3 bf bd
       0.061252873 -0.005091411 -0.10443498 -0.09363553
000020 2b 8f 11 be ad c0 d0 bd 48 c1 54 bc f1 b5 0f 3e
       -0.1421477 -0.10193 -0.012985535 0.14034249
000030 1e b7 df 3d 87 a9 45 bd 48 83 ff 3d 23 d8 2e 3e
       0.10923599 -0.048257377 0.12476212 0.17074637
000040 95 ed 6a 3d e5 ba 1f 3d 03 ee ce 3d 0d f6 6b bc
       0.057355482 0.038996596 0.10103991 -0.014401925
000050 ed 76 c8 bd a0 c6 88 3d 8e 58 8a 3d a2 94 fe 3d
       -0.09788308 0.0667851 0.06755172 0.12430693
000060 ab 38 b1 3c 93 e0 3c 3e 37 8c 22 3e 35 e2 fb bc
       0.021633467 0.18445043 0.158738 -0.030747512
000070 41 0e 56 bc ce 30 f4 3c 08 6e c9 3d c0 ce 20 bd
       -0.013064922 0.029808428 0.0983544 -0.039259672

embed.embedding_net.conv1.nn.0.weight f4 [32, 32]
000000 3d cb d0 bd 13 53 89 3d 26 7e 12 be 41 5b cb bd
       -0.101950146 0.06705298 -0.14305934 -0.09929515
000010 76 c2 b4 3d 4e 9a e5 bd f8 5a 0a 3e ea 6d dc 3d
       0.08826153 -0.11211072 0.13511264 0.10763152
000020 50 d5 81 3d 15 33 99 3d f0 ec 14 3e 29 0f fc bd
       0.06339514 0.07480446 0.1454351 -0.12307579
000030 12 9a dd bd be 27 0f be 79 52 f5 bd 31 4c df bc
       -0.10820402 -0.13980004 -0.11978621 -0.02725801
000040 af 9d 9e 3d 57 6e 30 be 5d ce 5b bd 88 76 d2 3d
       0.077449195 -0.17229591 -0.0536636 0.10276514
000050 8c eb 1f be dc 6e f4 bd 71 80 88 3d 21 78 7f 3c
       -0.15617198 -0.11935207 0.06665123 0.015592606
000060 0a 8f 34 3d 37 b9 ad bc b5 85 c8 3d 63 aa d3 bc
       0.044081725 -0.021206481 0.097911276 -0.025838083
000070 ca 58 1e 3e 42 14 a1 3c 4e 64 0f be ff a9 ef bd
       0.15463558 0.01966298 -0.14003107 -0.11702346
000080 d3 64 28 3e 95 52 1a be 68 e8 23 3e ff 4e ad bd
       0.16444711 -0.15070565 0.16006625 -0.08462333
000090 25 d8 fd 3d 7c b6 87 bc 94 d8 80 bd 31 c4 28 3d
       0.12394742 -0.016566508 -0.06291309 0.041202728
0000a0 a2 08 f3 bd b0 9d 14 3e 5c 68 20 bd 6b c3 34 3c
       -0.11866881 0.14513278 -0.039162025 0.011032919
0000b0 d0 4f cb 3d 4e 78 ce bc 76 76 8f 3d d6 cd 81 3d
       0.099273324 -0.02520385 0.070050165 0.06338088
0000c0 b4 6b 27 3e dc 26 83 bd 18 18 0c be c5 e7 fa bc
       0.16349679 -0.06403896 -0.13681066 -0.030628094
0000d0 2d 19 7d bd 0a 9a 2a bd be d0 14 be 39 c4 c9 bd
       -0.061791588 -0.04165081 -0.14532754 -0.098518796
0000e0 69 da 10 3e 1d 9c e2 bb e9 5e c6 3d fa c9 c0 3c
       0.14145817 -0.006915583 0.096860714 0.02353381
0000f0 c5 91 89 bc 17 c7 5c 3d 62 56 0c 3e 5c 04 d0 bd
       -0.016793141 0.053900804 0.13704827 -0.101570815
000100 b4 5e ec 3d c2 de 17 bd 8c 54 e7 3d 72 57 f7 3d
       0.11541501 -0.037077673 0.11295423 0.12077226
000110 5d 8b 06 be dd 69 02 be 11 47 96 bc 55 05 9a bc
       -0.131391 -0.12735696 -0.018344434 -0.01880137
000120 78 f7 0d 3e 70 ba 24 3e 5a ad 0b be 75 af 8b 38
       0.13863933 0.16086745 -0.13640347 6.660718e-05
000130 eb 43 19 3c f6 3c 8e 3d ae 0d cb 3d ab 63 ae 3d
       0.009354572 0.06945221 0.099147186 0.08515104
000140 a7 9b 17 3e 9e c2 0b be 13 40 c7 bd 46 9e 83 bd
       0.1480547 -0.1364846 -0.09729018 -0.06426673
000150 30 7f b1 bd 44 95 7a bc 92 b7 d2 bd 40 38 bf 3d
       -0.08666837 -0.015294377 -0.102889195 0.09336901
000160 58 f1 b7 3d f5 8b a8 3d 62 19 b9 bd 9e 86 17 3e
       0.089815795 0.0822982 -0.090380445 0.14797446
000170 ac e6 38 be 96 6f ef 3c cc 99 de bd aa b5 98 bd
       -0.18056744 0.029228013 -0.10869178 -0.07456525
000180 28 90 1e bd ce 05 69 3d 28 c4 0a be 52 22 17 3d
       -0.038711697 0.0568903 -0.1355139 0.036897965
000190 3a 5f 8d bd 4a f5 17 bc 38 90 3d bd e0 dc 48 bd
       -0.06902929 -0.00927479 -0.046280116 -0.049038768
0001a0 4a aa 56 bd e7 cb 38 3e 1b 22 2a be ba 9e 23 be
       -0.052408494 0.18046533 -0.16614573 -0.15978518
0001b0 cb a6 2f 3e 75 3c ef bd 10 6a e6 bc 5a c7 2d 3e
       0.1715347 -0.11681453 -0.028126746 0.16970578
0001c0 70 91 95 bd a6 75 d8 3d 59 8d 01 3e 52 c8 ba bc
       -0.073031306 0.10569315 0.12651576 -0.022800598
0001d0 8b 9a 09 be c8 cc 62 3d fb 13 2d 3c 62 bd 16 3d
       -0.1343786 0.055371076 0.010563846 0.036801703
0001e0 a2 3a 48 3d b6 c9 14 3e 4d 7f 37 3e ab b2 89 3c
       0.04888404 0.14530072 0.17919655 0.016808828
0001f0 fc 12 32 3e 02 5c 1e bd 9c ea 33 3d 88 77 db bd
       0.17390054 -0.038661964 0.043924913 -0.10716158
000200 e2 0b c3 bd 31 b4 a4 bd 05 64 1d 3e ed 1c f2 3c
       -0.09523751 -0.08042181 0.15370186 0.029554809
000210 1e 44 de bd f2 c2 7b bd 13 da f1 bd 4a 89 17 3e
       -0.10852836 -0.06146521 -0.118091725 0.14798465
000220 24 ed 2f be 04 fb 7b 3d ee 68 1b be 8f b7 93 3d
       -0.17180306 0.061518684 -0.15176746 0.072127454
000230 7a 62 08 3e 6a 70 19 be 83 3f 2a bb c0 a1 f4 3c
       0.13318816 -0.14984289 -0.0025977797 0.029862285
000240 63 08 1d be 7c b5 c8 bd be cf 6c 3d ab ba 27 3d
       -0.1533523 -0.098002404 0.057815306 0.040949505
000250 6a 14 df bd 8e af 19 3e 05 b4 03 3e 31 5c 2c 3e
       -0.108925655 0.15008375 0.12861641 0.16832043
000260 5b 27 98 bd ad 39 fc bd 7c 71 cc bd 56 71 11 be
       -0.074293815 -0.12315688 -0.09982583 -0.1420339
000270 08 18 88 3d 8e 2f 7a 3c 85 de 1a 3e 44 e7 46 bd
       0.066452086 0.015270127 0.15123947 -0.048560396
000280 bb 41 8a bd e5 e6 89 3d 6e 3e be 3d 2b 02 d8 bb
       -0.06750818 0.06733493 0.09289251 -0.0065920553
000290 15 99 44 bb b5 90 54 bd 5d a6 bf 3c a4 48 84 3d
       -0.002999847 -0.051895816 0.023394758 0.064591676
0002a0 44 9b 5a 3d 5b 0d 0e be 46 0d 08 be da de e3 bd
       0.05337073 -0.13872282 -0.13286313 -0.1112649
0002b0 ee 98 58 bc 4e f3 cc bd 1d d6 23 be d9 76 20 3e
       -0.013220055 -0.10007344 -0.15999646 0.15670337
0002c0 9f 6a 06 3e 70 d4 08 3d 8a 24 dc 3a e6 41 f1 bd
       0.1312661 0.03340572 0.0016795557 -0.11780147
0002d0 af 61 22 be 4b be b2 bd 8d 3b 24 be d0 cc f6 3d
       -0.15857576 -0.08727702 -0.16038342 0.12050784
0002e0 63 5b 05 3e 47 9e 9f bd e1 8c 31 be 71 43 2a be
       0.13023143 -0.07793861 -0.17338897 -0.1662729
0002f0 09 0b 21 3e a2 6c 20 be 01 45 18 be 2a 20 2d 3e
       0.15726866 -0.1566644 -0.14870073 0.16906801
000300 f1 fe 2c be 0e 5b 56 3d c9 a7 bf bd 8c 99 80 bd
       -0.16894127 0.05233293 -0.09358174 -0.06279287
000310 9f c5 02 be d6 61 13 3d 95 95 23 3d 90 94 19 3d
       -0.12770699 0.035981975 0.039937574 0.037495196
000320 19 18 bf bd 1a 5e 28 be 03 60 02 3e 3d 18 a5 bd
       -0.09330768 -0.16442147 0.12731938 -0.08061264
000330 fb b8 f4 bd e7 91 1e 3e 09 88 0b 3e d9 6f 38 bd
       -0.11949345 0.15485345 0.13626112 -0.04502854
000340 ec 31 2c be 95 21 0a be 13 60 33 3e dc 53 2b be
       -0.16815919 -0.13489373 0.17517118 -0.16731209
000350 62 a0 87 bc 92 c3 f2 3d 12 c8 d3 3d 8f 19 92 bd
       -0.016555969 0.11853708 0.10340895 -0.07133781
000360 a0 01 89 3d 3f 26 fe 3d d7 4f 16 3b a6 d8 34 bd
       0.06689763 0.124096386 0.0022935772 -0.044151925
000370 69 3f 23 3c 47 9b ea 3d 90 e0 d3 bc 4a e0 50 3d
       0.009963849 0.11455398 -0.025863916 0.05099515
000380 56 44 e7 bd 9d ae 08 be bc 10 61 3d 6d ef 21 be
       -0.11292331 -0.1334786 0.0549476 -0.1581399
000390 c2 88 5c 3d 9d d7 0d be 6b 01 1f be 1b d0 c3 bd
       0.05384136 -0.13851781 -0.15527885 -0.09561177
0003a0 40 27 39 bd f5 5e 50 3d 7d 05 8d 3c ac 74 87 ba
       -0.045203447 0.050871808 0.017214531 -0.0010334454
0003b0 d3 8e 86 3c b6 fe 07 bc 8d 12 c0 3d aa 30 b4 ba
       0.016425526 -0.008300474 0.09378538 -0.0013747413
0003c0 5d 87 1b 3d dc e9 1d 3e 97 b5 9b bc e7 38 5a bc
       0.03797089 0.15421242 -0.019007487 -0.013319231
0003d0 eb 24 40 3d 90 09 bf bd b7 72 99 bd 5b a3 d7 3b
       0.046910208 -0.09327996 -0.07492583 0.006580753
0003e0 35 37 11 3d da b4 12 be 10 31 8d 3c 7b 36 21 3d
       0.03545304 -0.14326802 0.017235309 0.039358597
0003f0 23 5a 9d 3d 79 04 a2 3d 56 be 12 bd 1c a7 9d bc
       0.07683208 0.07911009 -0.03582605 -0.019244723

embed.embedding_net.conv1.nn.0.bias f4 [32]
000000 a8 6f d9 3d 84 5e 0c be 64 2b 04 be 9e 52 04 bd
       0.10617 -0.1370793 -0.12907177 -0.032305352
000010 e7 54 96 3d b5 6a 58 bd df 31 ab bd b1 ca b1 3d
       0.073404126 -0.05283614 -0.083591215 0.086812384
000020 66 97 a5 3d 55 76 19 be f4 85 1a 3e 2d 9b 18 be
       0.080855176 -0.14986546 0.15090162 -0.14902945
000030 bf b1 63 bd d1 fb 28 be 93 c9 30 be c1 7b 0a 3d
       -0.055589434 -0.1650231 -0.17264394 0.033809427
000040 8a de ad 3d f3 54 b7 bd 69 09 8e 3d 95 37 f3 bd
       0.084897116 -0.0895175 0.069353886 -0.11875836
000050 bf ab af bd aa 66 08 3e db e1 08 bd f5 12 af 3d
       -0.0857768 0.13320413 -0.033418518 0.08548538
000060 9b e2 03 3e 9a af 7e bd 36 2a 7a 3d 4a d9 c1 3d
       0.12879412 -0.062179185 0.06107541 0.09465273
000070 d5 55 47 3d 24 9b ab 3d 4b 94 82 3d c1 5f 2d 3e
       0.04866584 0.083792 0.06375941 0.16931058

embed.embedding_net.conv1.nn.2.weight f4 [32, 32]
000000 e4 58 d8 bd cd 4f 1c bd 89 ad 8e 3d 44 4e c3 bd
       -0.105638295 -0.03816204 0.06966693 -0.09536412
000010 b0 94 e2 3d 55 14 e2 bc ec 26 9c 3d f9 c5 2b 3e
       0.11063516 -0.027597586 0.07624611 0.1677474
000020 b5 17 f7 bd ae 40 c3 3b 76 fb 03 3d 18 bc f0 bd
       -0.12065069 0.005958638 0.032222234 -0.11754626
000030 76 80 93 bd 3f 0c c4 bd 48 ed 58 bd 77 67 d2 3c
       -0.07202236 -0.09572648 -0.052960664 0.025684102
000040 37 12 af bd cd 12 70 3d 8e 96 c2 bd 25 a1 29 3e
       -0.08548396 0.05861168 -0.09501372 0.16565378
000050 92 dc 27 be f5 7b fb 3d 5f 0a f5 bc 54 de 97 bd
       -0.16392735 0.12279502 -0.029912172 -0.074154526
000060 4d 0d 2a bd b9 57 84 bd cb 3a d7 3d 93 83 04 be
       -0.04151659 -0.06462044 0.10509261 -0.12940817
000070 a1 85 2d be a3 9c 05 3e ac 0b 61 bd 63 c3 04 bd
       -0.16945507 0.13048033 -0.05494277 -0.032412898
000080 44 a3 04 bb 83 45 9a bd 4c 7c 2f 3e ce 1e db 3d
       -0.0020238915 -0.075327896 0.17137259 0.10699235
000090 c5 60 e7 bd e4 e5 02 3e ed 86 18 be 78 29 be bd
       -0.11297754 0.12783009 -0.1489522 -0.09285253
0000a0 08 7f 35 3e 98 c9 0f be f0 10 15 3d 31 2b a4 bd
       0.1772424 -0.14041746 0.036393106 -0.080160506
0000b0 e1 53 f9 bd ee b6 ee 3d 4e 5e 45 bd b2 8e 08 bd
       -0.12174202 0.11655985 -0.04818564 -0.03333921
0000c0 5c dc b1 3c cf 1d ae 3d 6e 58 cf 3d 7f 2d b4 bd
       0.02171152 0.08501779 0.101242885 -0.0879774
0000d0 c9 65 a4 bd 41 02 22 3e a0 36 00 be 03 ce cc 3d
       -0.080272265 0.15821172 -0.12520838 0.10000231
0000e0 cc 71 ea bd 79 7f 44 bd 0a d8 2d bd 07 85 46 3e
       -0.11447486 -0.04797313 -0.04244236 0.19386683
0000f0 1d 27 3c be 54 95 1e be ca 3d 1c 3e 1c a1 e0 bd
       -0.18374296 -0.15486652 0.15257946 -0.10968229
000100 95 88 23 be 77 75 28 3e 55 be a1 bd b9 17 07 bc
       -0.1597007 0.1645106 -0.07897631 -0.008245402
000110 9a a9 07 bd fa b3 b2 bd ff d8 15 3e bc 02 84 bd
       -0.03312073 -0.08725734 0.14633559 -0.06445834
000120 ce 51 99 bd 44 58 f3 3c 40 4c 6c 3d 14 08 1b ba
       -0.07486306 0.029705174 0.057689905 -0.00059139845
000130 e9 bf 1e 3e 72 b0 d6 3d 47 f8 a5 3d 4a 9c c8 bd
       0.15502895 0.10482873 0.08103996 -0.09795435
000140 2a 21 3a 3b 62 cd 74 3d 17 63 05 be 3d 26 08 3e
       0.0028401115 0.05976618 -0.13026081 0.13295837
000150 d0 ce 72 3d d2 e5 67 3d c8 5d 90 bd 96 bd 1f 3d
       0.059279263 0.056615658 -0.07049137 0.038999163
000160 ec 04 85 bd bc c6 77 bc 12 10 48 bd 23 c5 04 3e
       -0.064950794 -0.015123066 -0.04884345 0.12965827
000170 11 0c e7 3d 07 5d 29 3e 96 dd 22 be bd eb c7 3d
       0.11281598 0.16539393 -0.15904841 0.097617604
000180 69 5b a1 3c 15 2f 13 be b0 1d 0f be 4c 56 5a 3d
       0.019696908 -0.14373429 -0.13976169 0.053304955
000190 4d 8b ca 3d 5a e0 31 3e 81 9b 88 3d fd 3d 82 bd
       0.09889851 0.1737074 0.06670285 -0.063594796
0001a0 56 3b 00 3e 8d d1 9e 3d a7 37 20 be 9d 4d 29 be
       0.12522635 0.077548124 -0.1564623 -0.16533513
0001b0 31 fa a3 bd 71 94 d2 bd a1 da 89 3d d0 ac 16 be
       -0.080067046 -0.10282219 0.06731153 -0.1471436
0001c0 ad a9 25 3e 4a 22 e3 bd e6 1d 46 bd 65 07 45 3d
       0.16178007 -0.110905245 -0.048368357 0.048102755
0001d0 f0 f0 f3 bd b2 95 18 be a7 bd 29 3e e3 df e2 bd
       -0.119111896 -0.14900854 0.16576253 -0.11077859
0001e0 46 1e ac 3c fc b5 13 3e 97 43 16 bd 95 fc 7b 3d
       0.02101053 0.1442489 -0.036685552 0.061520178
0001f0 a9 ff 04 be cf fd 41 3d f1 7b 07 3e 5c 98 2d 3e
       -0.12988152 0.04736119 0.13230874 0.16952652
000200 8f 0b 16 3e c7 3d 30 be 29 dc 1e be 43 9e 14 be
       0.14652847 -0.17211066 -0.15513672 -0.14513497
000210 91 b9 bf 3d e7 88 05 3c 7b 85 21 3d 1f f7 04 be
       0.09361566 0.008150316 0.039433938 -0.12984894
000220 f7 12 03 3e 4d 32 08 be 56 c4 2c 3e 8f 55 3e be
       0.12800203 -0.13300438 0.16871771 -0.18587326
000230 12 bb d5 bc 84 05 16 3e da 1a 35 3e 38 69 18 be
       -0.026090179 0.14650542 0.17686024 -0.14883888
000240 b4 aa 3d be e2 da 2c 3d 4f 41 d2 3d b7 f7 1c 3d
       -0.1852215 0.04220093 0.10266363 0.038322177
000250 d3 8a 14 be 09 8b 0e 3e 55 e6 fa bc 36 57 29 bd
       -0.14506082 0.13920225 -0.030627409 -0.041342936
000260 07 7f e0 bd 38 60 05 be 66 93 49 3c 59 f8 0c 3d
       -0.109617285 -0.13024986 0.012303209 0.03441653
000270 97 31 ff 3d 58 28 8f bd c6 9e c3 3d 32 07 e3 bd
       0.124606304 -0.06990117 0.09551768 -0.11085357
000280 26 bb 01 bd 7f 70 6b 3d 01 14 18 3e 08 60 35 3e
       -0.03167262 0.05748033 0.14851381 0.17712414
000290 e3 cc e2 3c 6d d0 ec bd d9 e8 22 bd be 29 ad 3d
       0.027685588 -0.115631916 -0.039772842 0.08455227
0002a0 f7 cf cf bd f6 ff 53 3d 3f 3b 28 be db 85 de 3d
       -0.10147088 0.051757775 -0.1642885 0.10865375
0002b0 15 c2 04 3e b5 35 61 bd bc b9 01 bd 9f da 05 be
       0.12964661 -0.05498286 -0.03167127 -0.13071679
0002c0 78 96 65 bd 36 24 3b bd e2 45 80 bd cb 84 28 bd
       -0.0560517 -0.04568883 -0.06263329 -0.041142266
0002d0 ba 0a a0 bd bb 66 9c bc e7 fa 8a bc 8d c5 6a 3d
       -0.07814546 -0.019091954 -0.016965343 0.057317305
0002e0 af 03 10 3e 9d 41 a1 bd 83 3f 92 bc b1 f5 8e bd
       0.14063905 -0.07873843 -0.01785255 -0.06980456
0002f0 6f e0 83 3d 06 81 ae 3d 99 41 ce 3a b8 29 90 3d
       0.06439292 0.08520703 0.0015736102 0.07039207
000300 54 e2 8f bd 2c 6e af 3d 6d 87 17 bd a4 bc 26 be
       -0.070255905 0.085659355 -0.036994386 -0.16282898
000310 74 d9 cd 3d 6f ff 28 3e 15 9e 35 bd 49 c1 d2 3c
       0.100512415 0.1650369 -0.044340212 0.025726931
000320 9d d0 12 be 1f d5 9d 3d a6 06 84 bd 28 4d e3 3d
       -0.14337392 0.07706665 -0.064465806 0.11098701
000330 80 32 37 be 06 d6 af 3d 53 4b 62 3d d1 20 1c 3d
       -0.17890358 0.085857436 0.055247616 0.038117234
000340 7d 97 7d bd ea ce a2 3d c6 70 d9 bd b0 87 b6 3d
       -0.06191205 0.07949622 -0.10617213 0.08912599
000350 b3 dc 96 bd 48 99 c1 3d b9 e7 c8 3d fe 06 f3 3b
       -0.07366314 0.09453064 0.098098226 0.007416605
000360 d7 70 e8 bd 11 1c 34 bd 9a 31 f7 3d 20 17 fc bd
       -0.113496475 -0.04397208 0.120700076 -0.12309098
000370 da d9 13 be b7 67 04 3e a0 47 a8 bd 49 7c bf 3d
       -0.14438573 0.12930189 -0.082167864 0.093498774
000380 cb 92 e5 3d 2f 11 1b be 61 fd 2e bd 39 b8 24 be
       0.11209639 -0.15143274 -0.04272211 -0.160859
000390 04 e7 34 3e 5b 55 ee bd e8 02 da 3d 60 fa 02 be
       0.1766625 -0.11637374 0.106450856 -0.12790823
0003a0 17 e9 ca 3b f0 3f 35 3e 0f 14 10 be 6f 8d 06 be
       0.0061923373 0.17700171 -0.14070152 -0.1313989
0003b0 62 bb 2d bd a1 0f 0e bd 56 89 ec 3d 23 67 ab 3c
       -0.04241503 -0.034682874 0.11549632 0.020923203
0003c0 4d 6d 25 be a4 66 41 3c a0 35 bf 3d da e6 11 3e
       -0.16154976 0.011804257 0.093364 0.14248219
0003d0 0c 51 b2 bd 1d ec 0e be c5 a5 7f 3d 87 81 cb bc
       -0.08706865 -0.13957258 0.06241395 -0.024842037
0003e0 04 12 ac 3d e4 58 02 bc 85 39 97 3a ae ec 97 bd
       0.08401874 -0.0079557635 0.0011537528 -0.0741819
0003f0 6f 33 41 3d 9a 47 2b bd da 9d 3a 3e ce 94 e1 bd
       0.04716819 -0.04181633 0.18224278 -0.1101471

embed.embedding_net.conv1.nn.2.bias f4 [32]
000000 63 c4 aa bd ef 10 96 3d a1 66 bb bc db fe 0c 3e
       -0.08338239 0.073274486 -0.022876086 0.13769095
000010 f3 62 05 bd 2e ac 0b 3e cf 70 2d be a7 db a3 bd
       -0.03256507 0.136399 -0.16937564 -0.0800088
000020 87 fd c0 bd 05 56 b4 bd 8a 3f 3a bd e8 df dc 3d
       -0.094233565 -0.088054694 -0.04547075 0.10784894
000030 82 30 3d be ca 81 25 3e 2b 01 dd 3d 55 c6 ff 3d
       -0.18475536 0.16162792 0.107912384 0.12489001
000040 c6 34 b3 3d 15 b5 18 be 54 e7 84 3c b9 b2 81 3d
       0.087503 -0.14912827 0.016223587 0.06332917
000050 41 f6 a1 3d eb 87 01 3e 09 c7 1c 3e f5 cb 1b 3d
       0.07908297 0.12649505 0.15310301 0.038036305
000060 5c 87 08 3e c6 20 99 bd 85 cf b1 bd f4 ef fc 3d
       0.13332886 -0.07476954 -0.08682159 0.12350455
000070 e5 e9 53 bd ae 5f 15 be 84 c5 85 3d ca 46 cd bd
       -0.05173673 -0.1458728 0.06531814 -0.100232676

embed.embedding_net.bn1.weight f4 [32]
000000 cd 8f 7f 3f 6b f5 81 3f bf eb 81 3f af a8 7f 3f
       0.998288 1.0153021 1.0150069 0.99866766
000010 39 cc 80 3f 46 59 81 3f d7 09 80 3f fa 46 81 3f
       1.0062324 1.0105369 1.0003003 1.0099785
000020 81 57 82 3f b5 c9 80 3f 9c c7 80 3f 89 6f 7f 3f
       1.0182954 1.0061556 1.0060916 0.99779564
000030 7f 62 83 3f 36 73 7e 3f 13 16 7f 3f 26 b7 80 3f
       1.0264434 0.9939455 0.9964306 1.0055892
000040 4b f6 7e 3f 84 a9 80 3f f6 19 80 3f 02 13 7f 3f
       0.99594563 1.0051732 1.0007923 0.9963838
000050 9b ca 7f 3f 7d 0c 80 3f db d1 82 3f f2 98 81 3f
       0.99918526 1.0003811 1.0220293 1.01248
000060 f6 89 82 3f 36 9c 82 3f 4c 14 81 3f 07 83 81 3f
       1.0198352 1.0203922 1.0084319 1.0118111
000070 b8 9e 7f 3f 7e d0 80 3f 3d f4 80 3f 4f 04 80 3f
       0.9985156 1.0063627 1.0074536 1.0001315
