trained_managers/70_150_10_MH_gin_32_minmax.pth (torch, 450582 bytes, 104 tensors)

key_policy.weight f4 [64, 32]
00000000: 17ef 593c 1270 e83b 692e 333e 1c54 043d
00000010: 5a10 cdbd 56b5 6bbc 8566 693d c94b c03d
00000020: 2469 4e3b ac5c 08be 1e77 6dbd ebc7 a9bc
00000030: 4e16 133d 87dc a13d ada7 cdbd 2b8f c43d
00000040: b5b7 eb3d be22 2e3d f5b2 73bd e75b debd
00000050: 20e7 ecbd edbb babd 0284 67bd d9b9 eb3d
00000060: 6e8b c23c 22d0 1fbd 8f0f 05be 1328 053e
00000070: 3dc1 d6bd 3e00 eabc 2fc9 8bbb 6b01 33be
00000080: 6a59 043e 0513 16be 6ac8 c43d 1146 603d
00000090: a29e 85bd b747 c8bd bfdb 0a3e 53e8 95bd
000000a0: 2359 173e 0c57 11bc c1f2 293e 81db fe3d
000000b0: 7084 44bd d165 11bd 65dd 5bbb b3de ea3d
000000c0: 36a6 703c 792a b5bd 115b 20bc bc7c 01bd
000000d0: c00c 2f3e 0b44 8c3d 7155 fcbd 99a3 fdbd
000000e0: 24e6 efbd 5bd9 cb3d e09b 033c f8b6 52bd
000000f0: cf23 323d 68e1 e53d 19c2 693b f6de 813d
00000100: bffb ecbb 3064 3a3d df9b 003e 8878 00bd
00000110: c38e 71bd 0984 6bbd c96d 833d 59e0 bbbd
00000120: 20cf 3d3e b27d b43d f1ff 21be 6177 7ebd
00000130: 5af1 2b3e fc9f 87bd bc57 31be 8544 cf3d
00000140: 4414 0ebe d6d0 45bd 95a5 3ebd 9a71 bfbd
00000150: 4de6 2f3e 664a d73d 2d7c bbbd 6056 70bb
00000160: 2624 45bd 9eaa 79bd d2e3 683d 1714 cfbc
00000170: d6f5 7c3d 4989 c2bc fcdb 06be 0fbf 483e
00000180: bfef 313e 2120 b0bd d59d 4abd 0066 ccbd
00000190: f633 ae3d 2ae7 bc3d 4257 833d 3cc3 83bd
000001a0: 733d 9b3c 5f15 d43d 1f31 403d bb03 203e
000001b0: f4a9 a13d 3894 0bbe ffd7 12be 597d ce3d
000001c0: 36a4 14bd d93d 98bd 715a b63d c0fc 1bbd
000001d0: e56d 0bbe 0cee 84bd 5f49 d1bc 01d5 56bd
000001e0: 7194 7b3d 98f5 80bd cd92 343e e625 893d
000001f0: 99c9 c8bd 7056 d9bd 9361 a3bd 950a e83d
00000200: 69bb 9ebd 05b1 543c d979 043e 16f7 83bd
00000210: 9ff1 16bc 75ce c4bd b519 0e3e 6cb0 6e3d
00000220: f6c4 f5bc 69a8 8dbd 4d88 123e e3e4 c73d
00000230: fce0 4f3d 1138 d23d 0ef2 1e3e 8f7f 8f3d
00000240: de39 1dbe 73ad 86bd e056 87bd f3b3 3b3e
00000250: 2b12 b63d 35b2 d1bd fb20 a63d a941 b5bd
00000260: f27d 223e fb88 32bd 6182 803d d453 fc3d
00000270: 1349 fa3d 751d 43bd 5ae3 153e 4ee0 3b3c
00000280: f096 f4bc 18da 21be 0ace 0d3d a154 383c
00000290: 4693 eebc fc9e 77bd c7fd 183e c1ab 2ebd
000002a0: 5893 90bd 4f8a 53bd 9024 5bbd cab9 d1bd
000002b0: 61ac 2c3e 6141 243e 05c5 edbd 7db2 e2bd
000002c0: 4419 d23c 5b2c 793d 2fc5 95bd 6291 2dbe
000002d0: 7850 2b3e d1a1 fdbc 7c7d e23d 7ba4 92bd
000002e0: d44f 45bd fb3f a03d 92ea bbba 7639 babc
000002f0: 2b5c 15bd 11c2 de3d 408d 9f3d 1fd2 9a3c
00000300: c2d4 1e3e 4591 bb3c eeb7 363e 378c 9fbc
00000310: 143c 303e bc40 0c3d 091c 06be c487 96bd
00000320: 5be0 42be d721 9f3d 6e56 b43d a002 363e
00000330: ff80 06be 1762 edbc ee1c 19be 3bd5 eb3d
00000340: fa4c ccbc 5afd adbd 8d9a e5bc c9b3 713d
00000350: 5fc0 153e a299 90bd c9df 343c af1b 02be
00000360: 8736 653d 7a19 173d d821 9d3d c9b4 e13d
00000370: 4e3a 9f3d 182a 153d 894f 15be c9c9 d7bc
00000380: 3c15 c7bd 6bc9 823c 240f e2bd 092e 0f3c
00000390: a5a1 02be 72d0 f83d a144 a1bd b53c bfbd
000003a0: f2a1 383e 6912 3c3d a122 ffbd 1714 b2bd
000003b0: 508d ddb8 a3a9 20be 8fd5 e83d f044 d83d
000003c0: 9ed5 02be 60cb 7f3c e616 243e f771 acbd
000003d0: 53bf 20be 50ab 59bd 3caa ecbd df94 603d
000003e0: 4f95 82bd e4de 16be bb2a ebbd b4bf 113e
000003f0: 0825 02be 5258 903d 2a04 9fbd 8dbd acbd
0.013301632 0.007093438 0.17498173 0.032306775 -0.100128844 -0.014386496 0.056982536 0.09389455
0.0031495774 -0.13316602 -0.057974927 -0.020725211 0.035909943 0.079033904 -0.10041747 0.095976196
0.11509649 0.0425136 -0.05949684 -0.10857373 -0.11567521 -0.09117875 -0.056522377 0.11510057
0.023748126 -0.03901685 -0.12994216 0.13003568 -0.10486076 -0.028564569 -0.0042659263 -0.1748101
0.12924734 -0.14655693 0.096085384 0.05475432 -0.065243974 -0.097793035 0.13560389 -0.07319703
0.14780097 -0.008870851 0.1659651 0.12444211 -0.047977865 -0.03549749 -0.003354871 0.11468258
0.014688065 -0.08845992 -0.009787337 -0.031613097 0.17094707 0.06848916 -0.12320984 -0.123847194
-0.11713818 0.09953567 0.008032769 -0.051444024 0.04349118 0.112246335 0.003566867 0.063413545
-0.007232159 0.045505702 0.1255946 -0.031364948 -0.05897404 -0.057498965 0.06417424 -0.0917365
0.18536043 0.08813037 -0.1582029 -0.062125567 0.16791287 -0.066223115 -0.17318624 0.10120491
-0.13874918 -0.048294865 -0.04654463 -0.0934784 0.17177697 0.10512237 -0.09154544 -0.0036672577
-0.048130177 -0.06095373 0.05685789 -0.025278134 0.061757885 -0.023747103 -0.13169855 0.19604133
0.17376612 -0.08599878 -0.049466927 -0.099803925 0.085060045 0.092237785 0.064131275 -0.064337224
0.0189502 0.10355639 0.046921846 0.15626423 0.07893744 -0.1363076 -0.14340208 0.10082502
-0.036289416 -0.074336715 0.08903969 -0.038082838 -0.1361614 -0.06490716 -0.025547681 -0.05244923
0.06142086 -0.06296843 0.17634125 0.06696682 -0.09804077 -0.1061219 -0.07977595 0.11330143
-0.077505894 0.012981658 0.12937106 -0.06443612 -0.00921288 -0.09609691 0.13876994 0.058273718
-0.030001145 -0.06916887 0.14309807 0.097604536 0.05075167 0.102646 0.15522024 0.07006752
-0.15354106 -0.065760516 -0.06608367 0.18330364 0.08890184 -0.102390684 0.08111759 -0.08850414
0.15868357 -0.043587666 0.06274868 0.123206764 0.12220969 -0.047635514 0.14637509 0.011467053
-0.029857129 -0.15805852 0.034620322 0.011250646 -0.02912296 -0.060454354 0.14940558 -0.042644266
-0.070593536 -0.051645573 -0.053501666 -0.102405146 0.16862632 0.16040565 -0.11609844 -0.110692
0.025646813 0.060833316 -0.073130004 -0.1694999 0.16729915 -0.03096095 0.110590905 -0.071602784
-0.048171833 0.07824703 -0.0014336875 -0.022732478 -0.03646485 0.10876859 0.07790613 0.018899022
0.15510848 0.022896418 0.17843601 -0.01947604 0.17210418 0.034241423 -0.13096632 -0.07350114
-0.19030897 0.07770126 0.08805548 0.17774439 -0.13135146 -0.028977437 -0.14952442 0.1151528
-0.024939049 -0.084955886 -0.028027797 0.059009347 0.14624165 -0.07060553 0.011039683 -0.12705873
0.055960204 0.03688953 0.07672471 0.1102081 0.077747926 0.036417097 -0.14581122 -0.026341336
-0.09720847 0.015965184 -0.11038044 0.008739003 -0.12756975 0.12149133 -0.07874418 -0.09337751
0.18030527 0.045915995 -0.12457777 -0.08695238 -0.00010564423 -0.15689711 0.11368858 0.10560024
-0.12776801 0.015612453 0.1602436 -0.084201746 -0.15697984 -0.053141892 -0.11555907 0.054829475
-0.063761346 -0.14733464 -0.114827596 0.14233285 -0.12709439 0.07048096 -0.07764466 -0.084345914

key_policy.bias f4 [64]
00000000: 4c8d 36bd 8f69 4dbc c274 dcbd ff0d 323e
00000010: 7790 02be 0105 e3bd c780 0abc 4ce2 913d
00000020: f234 963d 2e94 1d3e e4f0 af3d 1edb 22be
00000030: 5282 763b 70b4 973d 99c4 8bbc d752 e43d
00000040: de67 dcbd e64e b93c 63db 47bd 4928 53bd
00000050: 2ccf 20be 78ed d53d b922 15be 83ea c6bc
00000060: c82c 2b3d 9e57 d7bb d7e8 023e 7000 173d
00000070: 983c ff3d 582c dabd 3528 843d b38d 29bd
00000080: f3a0 253e de4e cfbd 2e7a 2f3e 7e51 abbd
00000090: d31f 163e 28ff 693d 3ae3 c63d 8930 123e
000000a0: a131 ef3d 56b5 13be 6b6a 123d 02ed 31bd
000000b0: 7e1a 193e 3166 353e 2f6d 073e 63b8 78bd
000000c0: 0fdc 09be 0b83 a13d 165a e6bd 339f 26be
000000d0: bdc2 023e 4ca3 0a3e 9933 bebc a135 743d
000000e0: 5a3c b93d ea6c e13c 152a dabd aeba 8abc
000000f0: 0a70 fd3d 0466 713d 3780 21be 1058 baba
-0.044568345 -0.012537374 -0.10764457 0.17388152 -0.12750421 -0.11084939 -0.0084535545 0.07123241
0.07334317 0.15388557 0.08590868 -0.15903899 0.0037614298 0.074074626 -0.017061519 0.11148613
-0.107619986 0.02262063 -0.048793208 -0.05155209 -0.1570403 0.10445684 -0.14564027 -0.024281746
0.041790754 -0.006571724 0.12784134 0.03686565 0.12462729 -0.10652989 0.064529814 -0.0413949
0.16174679 -0.101224646 0.17136452 -0.08365153 0.14660577 0.0571281 0.09711309 0.14276327
0.11679388 -0.14424643 0.03574602 -0.04343892 0.14951512 0.17714764 0.13225244 -0.06072272
-0.13462852 0.078863226 -0.11247651 -0.16271667 0.127696 0.13538855 -0.023217963 0.059621457
0.09044714 0.027517755 -0.10652558 -0.016934719 0.123748854 0.05893518 -0.15771566 -0.0014216918

q_policy.weight f4 [64, 64]
00000000: 3a28 2cbd 9241 693d 0e21 e13d 2140 85bd
00000010: a944 7e3d 5bec dbbd 3374 fa3d abca f3bd
00000020: bac7 febd 2f76 cc3c d176 0ebe f484 043e
00000030: b82d e1bd 2788 a03c 53c4 f63c b306 e73d
00000040: c8a1 25bd 3e82 013e 836b 9ebc 3094 a4bd
00000050: e5fb 85bd 723a d4bb 5e2c 9a3c 91ca eabd
00000060: ce44 34bd b741 69bd 0c34 5bbd 773c febc
00000070: 9cda 37bd 8812 1f3d c65c 6dbd 4b87 2c3b
00000080: 1371 01be 08cf 4f3d b0e8 c4bd 7517 393c
00000090: a67f 03be e94e 893d ee46 de3d 2c8b d33c
000000a0: 6a23 0f3d 87e5 4cbd 3e08 c63d b57a a63d
000000b0: e56a 02bd 33da adbd 2c45 85bd 1389 a9bd
000000c0: cdc8 703c ca86 9b3d faab 97bd 1a61 093d
000000d0: ec65 573d 41b7 7f3d e53f cd3d 35db a9bd
000000e0: 8a09 ce3d b1a0 c53d 7794 aa3d fc39 19bc
000000f0: 2574 813d a22d 9c3d 9bab b33d 1d82 08be
00000100: 5f95 103e ea1e 0a3d 0567 85bd fb88 c13c
00000110: 6cb9 323d fb52 9fbd babf 5cbd 01d9 4b3d
00000120: a29a 97bd e499 66bd 3dc8 5b3c 7c6c 763d
00000130: 816e dc3d 251a de3d 27da 3ebb 4f50 c83d
00000140: 049c c7bc d660 f83d 9f92 10bd 5d6a 9a3d
00000150: 0b31 14bd dfe2 20bc 6fcc 553d 2e65 8b3d
00000160: 6ad5 f2bc 1848 013d aaa5 e4bd 332b 853c
00000170: 5e5c 7abd 4f74 4fbc 2cdc a33d 7993 f5bd
00000180: ec0d c4bd 079e ea3d c59d 7bbd 0d35 873d
00000190: 495f 07bd ee5a c6bd 4470 8e3d e5a7 343c
000001a0: 5b3d 033d adb0 37bd 3ba5 3dbd 86d0 c13d
000001b0: aef6 1c3d 8238 f33d ebc0 c5bd 593a 4e3c
000001c0: b5f8 163b 5d70 79bd 4abe c63d 023c a93d
000001d0: 035d e4b8 492b d6bc 3278 9a3c 33e7 b0bd
000001e0: c08f 9f3d 319f c13d 2cf2 89bc f443 abbd
000001f0: 2002 d23d d059 6a3d 8c1b 1dbd 319a f13b
00000200: 8ae6 0c3e c7c6 09bd 64d3 02bd 30cd 41bd
00000210: b996 9dbd 9db7 0abd 07ad c33b a9e9 a8bd
00000220: 88d3 073e c2a9 ea3c d148 a93d 70e7 02be
00000230: 75f7 eabd e0fb 903d 6bff bbbd b4df 103d
00000240: c797 49bd 59f5 1cbc bcba e03d a135 bdba
00000250: 8bf7 6d3d 9781 5b3d 802c f6bd d9b8 dcbc
00000260: bb2a adbd ef27 8e3d a262 87bd 7024 e73d
00000270: 13b1 c53d a386 bf3d 6045 bf3d d7c6 9a3d
00000280: 9c94 d63d f2c0 253b e6a3 12bd e8f5 18be
00000290: 3566 87bd a691 8cbd 1dc6 b9bd 0963 d03d
000002a0: 1a66 283d 9b63 9d3d cf94 60bd dc45 40bd
000002b0: 51b3 b53d 2515 a23d f093 df3c ae6f 463c
000002c0: 833e c9bd fb65 09be 0054 cbbd 0ad0 a63d
000002d0: 41ab 9abd 7aff d7bd fdf3 e73d 5462 9ebd
000002e0: 3a86 e53d acec be3d 0bb4 de3d bdc3 7f3c
000002f0: 7f6a d7bc 0a46 dcbd bcd1 49bd 7456 c63d
00000300: b970 4dbd 32c3 9abd 01ac 153d 34df c3bd
00000310: 908b 613c a63b 223d 1e18 d7bd 47ed 11bb
00000320: 817f bb3d 57dd 303c c8cf aebd 17ed 59bd
00000330: 1f84 de3d 840c dfbd 24c8 3d3c 977b cbbc
00000340: 92fe eb3d c792 413d 8767 373d b3cb 93bb
00000350: fc68 84bd b015 ccbd f93d cabd 6c9b fa3c
00000360: b977 513d bdd2 53bd 908f 1fbd ec58 0f3d
00000370: b8b6 c13d 604f 7dbd db23 cf3d e318 0dbd
00000380: 329e 71bd 614e 093a b2be a63d 8f93 e2bc
00000390: e0eb bfbd 91e0 63bd c0ce a73d f96e 423d
000003a0: d33d 82bc 9a3b 063c c54a f1bb 56e4 753d
000003b0: ae94 eebd e18c a3bd 924a f43d f576 19bd
000003c0: 3af3 2b3c 0c38 f0bd 021c 97bd 8468 fdbc
000003d0: 014c 563d 4361 633d 009b bfbb 1083 56bd
000003e0: 9d70 a33d 1e63 6ebd 0ffd 9fbd 297b d2bb
000003f0: 9944 ed3d 930c c93d 7f4f 8e3d e303 24ba
-0.04203055 0.0569473 0.10992633 -0.06506372 0.0620772 -0.107384406 0.122291945 -0.1190389
-0.124404386 0.024958698 -0.13912512 0.12941343 -0.10995048 0.019596172 0.030122912 0.11280575
-0.04043749 0.1264734 -0.019338375 -0.08036077 -0.06542186 -0.006476694 0.018819984 -0.11464418
-0.04401093 -0.056947436 -0.053516433 -0.031034691 -0.044886217 0.038836032 -0.057949804 0.0026325758
-0.1264079 0.05073455 -0.09614694 0.0112970965 -0.12841663 0.06704504 0.108533725 0.025823198
0.034945883 -0.05002358 0.09669541 0.08128873 -0.031840224 -0.08488884 -0.06507334 -0.08278098
0.014696312 0.07594068 -0.07405849 0.03353987 0.052587435 0.062430624 0.100219525 -0.082937635
0.10060413 0.0964979 0.08329099 -0.009352203 0.06320981 0.07625891 0.087729655 -0.13330884
0.1411948 0.03372089 -0.0651379 0.023624888 0.043633863 -0.07779499 -0.053893782 0.049767498
-0.07402541 -0.056299105 0.01341444 0.060162053 0.107632644 0.108448304 -0.0029121728 0.09780943
-0.024366386 0.12127845 -0.03529608 0.075398184 -0.036179584 -0.009819715 0.052196916 0.06806408
-0.02964278 0.031562895 -0.111644104 0.01625595 -0.061123244 -0.0126620075 0.08000979 -0.11991019
-0.09572968 0.114559226 -0.061429758 0.066019155 -0.033049855 -0.09685312 0.06955007 0.011026357
0.032040935 -0.044846226 -0.046300154 0.09463601 0.03832119 0.118760124 -0.09655937 0.012587153
0.0023036425 -0.060898174 0.097042635 0.08263399 -0.00010889212 -0.026143687 0.018856142 -0.08637848
0.0779109 0.094541915 -0.01683911 -0.083625704 0.102543116 0.057214558 -0.03835635 0.0073731174
0.13759819 -0.033636834 -0.03193988 -0.047314823 -0.07694764 -0.033866514 0.005971554 -0.08247692
0.13264287 0.0286454 0.08265842 -0.12783599 -0.1147298 0.07079291 -0.091795765 0.03536959
-0.04921701 -0.00957998 0.10973117 -0.0014435538 0.058097403 0.053590383 -0.120202065 -0.026943611
-0.08455416 0.069412105 -0.066106096 0.11286247 0.09652915 0.09351852 0.09339404 0.07557457
0.10477564 0.0025292006 -0.035800837 -0.14937556 -0.06611291 -0.06863718 -0.0907099 0.101751395
0.041112997 0.07685014 -0.054829415 -0.046941623 0.088720925 0.07914189 0.027292222 0.012111587
-0.09826376 -0.13417809 -0.09928131 0.08145149 -0.07552195 -0.10546775 0.11325834 -0.07733598
0.11207242 0.09322485 0.10874184 0.0156106325 -0.026295898 -0.107555464 -0.049272284 0.096844584
-0.05015633 -0.07556762 0.03654099 -0.09564057 0.013766184 0.039607666 -0.10502647 -0.0022266672
0.09155179 0.010794959 -0.08535725 -0.053204622 0.10865044 -0.10891059 0.011583362 -0.024839206
0.11523165 0.04725912 0.044776466 -0.004510367 -0.06465337 -0.09965074 -0.098751016 0.030591689
0.051139567 -0.051714648 -0.03895527 0.034996912 0.09458679 -0.061843276 0.10114261 -0.034447562
-0.058988757 0.00052378146 0.08141841 -0.027658252 -0.093711615 -0.055634085 0.08193731 0.047469113
-0.01589862 0.008192921 -0.0073636496 0.06003221 -0.11649452 -0.07985855 0.11928286 -0.037466962
0.010495001 -0.1172944 -0.07378389 -0.030933626 0.052318577 0.055512678 -0.005847335 -0.052371085
0.07980464 -0.058199994 -0.07811939 -0.0064233732 0.115853496 0.098168515 0.069487564 -0.00062566827

q_policy.bias f4 [64]
00000000: ff31 90bd a40c 0ebe f369 bc3c 8155 173a
00000010: 769e 19be b16c 393d dc09 10be bdfa 97bd
00000020: 80c5 0cbc 6c4f 71bd d7a5 163c 4084 e33b
00000030: a42e c53c 4cc2 adbc de31 423d ba78 26be
00000040: 4954 213e 53ae 353b f189 b6bd 6a8a b53c
00000050: 328b 0ebd 7f38 4c3d f76e c23d 60a6 62bb
00000060: a0cb 1bbe e8fe 08be 73b4 a9bc e3fd f5bd
00000070: 6d5b bb3d 68d8 803d 07ab adbb 24db 4b3d
00000080: 9759 093e 5956 bc3d 8aa0 86bd 7d40 9b3d
00000090: 110d c23d aca8 07bc 8948 d6bd 0c2d 043a
000000a0: 5e17 12be 59f7 25be 226f a33d 38fe debd
000000b0: 3f6a 8bbd a6dd efbc ac2f cfbd 5b78 543d
000000c0: 103c 07bd d3c8 033e c309 b6bd 21d0 bcba
000000d0: 2c25 20be 7273 273d 6513 dd3c a535 bfbd
000000e0: af59 c2bd 0078 03be edf2 8c3b 596d 163c
000000f0: 74a3 a53d eb05 27be e8bb 013c bc60 acbd
-0.07040786 -0.1387201 0.02299974 0.0005772934 -0.15001854 0.04526967 -0.14066261 -0.074208714
-0.00859201 -0.058913633 0.009194813 0.0069432557 0.024070092 -0.021210812 0.04741084 -0.16256991
0.15754808 0.0027722314 -0.08913029 0.022160728 -0.034800716 0.049858566 0.09493821 -0.003458403
-0.15214396 -0.13378489 -0.020715928 -0.12011316 0.091482975 0.06291276 -0.005299929 0.049769536
0.13413082 0.09196157 -0.06573589 0.075806595 0.094751485 -0.008279961 -0.10463054 0.0005042113
-0.14266726 -0.16207637 0.07980181 -0.10888332 -0.06807374 -0.029280495 -0.101165146 0.051872592
-0.033016264 0.12869577 -0.08888581 -0.0014405289 -0.1563918 0.04088158 0.026986787 -0.09336404
-0.09489762 -0.12838745 0.00430142 0.009181344 0.08087817 -0.16310851 0.0079183355 -0.08416888

embed.embedding_net.lin1_1.weight f4 [32, 4]
00000000: 0eb5 8c3e 4caf 103e d644 4fbc 2dd1 f6bb
00000010: 6ef0 173e d17b ba3e c598 f9be 3e8e 7a3e
00000020: 1f84 ba3e c4bf ae3d 75c4 0fbe cf81 c7be
00000030: 6630 8abe 20ab 4a3b f811 48be e107 3c3e
00000040: 7c1c de3e ecfc 943e c205 083e 8c39 7b3e
00000050: a0bf 9abe 100f 36bc 3eff 14be 2728 5f3e
00000060: 9ccc 6abe d0a0 a43c 0223 e8bd 4c27 5c3d
00000070: ae1f 2b3d a264 b8bd 401f af3c d785 94be
00000080: 1bc9 cdbe f904 b33e 75f1 873e 13f1 983e
00000090: 4ad4 7f3e 33a5 173e 2c7a b4bb 7078 ddbe
000000a0: 236e 95be d73b 9bbe 4de9 a9bb d607 ae3e
000000b0: e2c5 d23e 6568 f0be d523 f63e 955f 2a3e
000000c0: c130 2cbe 1d41 16be f251 fdbd 88d3 ef3e
000000d0: 56c3 ecbe 5514 18bd 7874 d53d 1c97 ad3e
000000e0: 83e7 823e c927 94be acdd f83d ac5e a7bd
000000f0: 3bbe b73e 5c01 fe3e 6841 acbd 1f9f df3e
00000100: d183 efbd 958d c1be 3c26 99bd d56e b33e
00000110: 67d8 32be a16a abbe 20c2 5fbe 9467 9e3e
00000120: a136 493e 9ab8 c1be 3d2b f13e b4b5 c43e
00000130: dfa0 ecbe a4bb c13e 4d21 8f3e 7bbb 5d3e
00000140: 170a ad3e 03a7 63be a7c1 04be ba6b 8c3d
00000150: 9b25 c6be 497b 0b3d 5a15 ca3e a712 ad3e
00000160: 1ea5 d6be 12bc aebe 0b00 14be 532f 983e
00000170: 8bb0 5d3d dbdb c93e 43eb 513e 7377 d63e
00000180: 5702 e4be 3c99 8dbd df64 c2bd ec6b a93e
00000190: fb83 cabd 8f10 9c3c 3faf b53e 1d02 c7be
000001a0: 3423 79be 0900 d83e ca36 2abe 1784 ddbe
000001b0: 5c02 943e 08fb d73d 909a b9be 0a92 adbe
000001c0: ac61 033f 3009 0abb bb48 ed3e 6396 e7bd
000001d0: 9734 0abe 1699 ce3e bcb7 bfbe 31b8 5f3d
000001e0: 04f3 66be 6bdf bd3e c5cb 68be e08d b8bd
000001f0: 0daa e5be a56a a43e eb10 9d3e 1430 6dbe
0.27481884 0.1412937 -0.012650689 -0.00753226 0.1483781 0.3642259 -0.48749366 0.24468324
0.36428925 0.0853267 -0.14039786 -0.38966224 -0.2699005 0.0030924752 -0.19538105 0.1836238
0.43381107 0.29099214 0.13283446 0.24533671 -0.30224323 -0.01111199 -0.14550492 0.2179266
-0.22929615 0.020096213 -0.11334802 0.053748414 0.04177826 -0.09003569 0.021377206 -0.29008362
-0.40192494 0.3496473 0.26551405 0.29871425 0.24983326 0.14809112 -0.005507728 -0.4325595
-0.2918559 -0.30319092 -0.0051852823 0.33990353 0.41166598 -0.46954647 0.48074213 0.16638024
-0.16815473 -0.14673276 -0.123691455 0.46841073 -0.4624278 -0.037128765 0.10422605 0.3390435
0.25567254 -0.28936604 0.121516556 -0.08172354 0.35887322 0.49610412 -0.08410913 0.43676087
-0.11695064 -0.3780333 -0.07477996 0.35045496 -0.17465363 -0.3347979 -0.21851397 0.309384
0.19649746 -0.37836152 0.471033 0.38419878 -0.46216485 0.3783847 0.27955094 0.2165355
0.3379676 -0.22231679 -0.12964498 0.06856485 -0.38700566 0.03405312 0.39469415 0.33803293
-0.4192285 -0.3412786 -0.14453141 0.29723606 0.054123443 0.3942555 0.20499901 0.41888008
-0.44533035 -0.06913993 -0.09491896 0.3309015 -0.098884545 0.019050865 0.35485265 -0.388688
-0.24329835 0.42187527 -0.16622463 -0.4326484 0.2890805 0.10545927 -0.36250734 -0.3390048
0.5132091 -0.0021062605 0.4634455 -0.11307981 -0.13496624 0.4035117 -0.37444866 0.054619018
-0.2255364 0.37084517 -0.22733982 -0.090114355 -0.448563 0.32112613 0.3067697 -0.23162872

embed.embedding_net.lin1_1.bias f4 [32]
00000000: a8dd 64be 6710 a6bb 25c7 8ebd 5646 f4be
00000010: bfd5 6abe 545e 90be 28ef b4be 8899 d33d
00000020: ffef ba3d 58fa b0be c568 e6be b67d 82bd
00000030: 83e1 92be 1b9c ee3e a33f b8be b37a 84bc
00000040: 79b5 0fbe 21bb 563e fbd7 593e 3787 c5be
00000050: 38a0 d9be bbcb bc3e 2648 58be 6b32 d33c
00000060: 1f87 4b3e 838e 9fbe 13cd 04be be83 d43e
00000070: edc0 74be de6e 903e 84c7 783e 0223 c7be
-0.2235018 -0.0050678733 -0.069715776 -0.47709912 -0.229331 -0.28196967 -0.35338712 0.10332018
0.09127807 -0.34565997 -0.45001808 -0.06371634 -0.28687677 0.46603474 -0.3598605 -0.016171789
-0.1403407 0.20969822 0.21273796 -0.38579723 -0.4250505 0.36874184 -0.21121272 0.025780877
0.19875763 -0.31163415 -0.12968855 0.4150676 -0.2390172 0.28209585 0.24294859 -0.38893896

embed.embedding_net.bn1_1.weight f4 [32]
00000000: f0b5 813f b9b7 803f e88e 7d3f 7eca 803f
00000010: b133 803f e48f 7f3f 03af 813f aa5c 7e3f
00000020: 5560 803f 2391 803f c596 7e3f e853 7e3f
00000030: 70c1 7e3f fb1e 7f3f 1706 833f 61e1 7f3f
00000040: 6248 803f 8923 803f fb87 7e3f 7863 7d3f
00000050: e79c 803f 1bf8 7e3f 6e34 803f b247 803f
00000060: 8995 7d3f 4e58 7f3f 6869 7e3f da1c 803f
00000070: c411 7e3f 40ed 7e3f 825e 803f 7f5a 7f3f
1.0133648 1.0056068 0.9904618 1.0061796 1.0015775 0.99828935 1.0131534 0.99360144
1.0029398 1.0044292 0.99448806 0.9934678 0.9951391 0.9965665 1.0236233 0.99953276
1.002209 1.0010844 0.9942624 0.989799 1.0047883 0.9959733 1.0016 1.002188
0.990563 0.9974412 0.9937959 1.0008805 0.9924586 0.99580765 1.0028841 0.9974746

embed.embedding_net.bn1_1.bias f4 [32]
00000000: 16ce a73b adda ad3c b371 473a 21a3 253b
00000010: 1792 0dba 1ad6 1c3c a163 133c 2f89 64bc
00000020: f3da 7cba bff3 11bc 5b4d 013c fef3 c3bb
00000030: 01b5 96bb 492d 9a3b a223 093c 57ff af3b
00000040: c661 533c 7b41 103b 9129 753b beea d0bb
00000050: 8616 6bba 91c5 a1bb 3f7b 8ab7 bcec 083c
00000060: 5c7a adbb 673d 083b 19a0 d93a 85cd 10bc
00000070: b79b 3d3a 2874 a03a 90e9 c53c 6845 9abb
0.005121003 0.021222437 0.000760819 0.0025274234 -0.0005400492 0.00957253 0.008995921 -0.013948723
-0.0009645663 -0.008908211 0.007891978 -0.005980014 -0.004599214 0.0047051054 0.008370312 0.005371015
0.012901729 0.0022011686 0.0037408809 -0.0063756397 -0.0008967895 -0.004936882 -1.6508273e-05 0.008357223
-0.0052941274 0.0020788552 0.0016603499 -0.008838062 0.0007232981 0.0012241649 0.024159223 -0.004707981

embed.embedding_net.bn1_1.running_mean f4 [32]
00000000: 516c 8dbd 9272 223f d025 e9bf f39f 8abd
00000010: 4de8 b83f fbae aa3e 46a8 c3be bf2d 9abf
00000020: 6861 e83f 897a 07c0 27b5 493f 7079 b03f
00000030: 8ba0 bf3f cf3b f43f ea08 11bf de08 1140
00000040: e379 8b3f 0225 843f 1038 2440 c979 783f
00000050: a32f 7ebe 5b07 1440 7b90 0a3f 6b28 1d40
00000060: 1677 a63f 0318 cbbf 9417 10c0 9fa3 bbbf
00000070: 37ac 483e f201 d83d c6d9 ddbe f8f1 85bf
-0.06905425 0.6345607 -1.8214664 -0.06768789 1.4445893 0.33336625 -0.3821432 -1.2045211
1.8154726 -2.116854 0.7879204 1.378706 1.4970869 1.9080752 -0.56654227 2.2661662
1.0896572 1.0323794 2.5659218 0.9706083 -0.2482286 2.312949 0.5412671 2.455592
1.3005092 -1.5866703 -2.251439 -1.4659308 0.19596945 0.10547246 -0.4333021 -1.0464468

embed.embedding_net.bn1_1.running_var f4 [32]
00000000: f88d 063c 9ebe ae3d b2c0 7b3e 0173 8e3c
00000010: cfa3 0d3e 411c cb3c cc6e 0a3c 13ee 933d
00000020: 45e6 8a3e cfcc 3f3e 452f f93d 926e b03e
00000030: 93d7 123e 5fed 3b3e 2162 843c 7a32 2a3e
00000040: 2d9e c63d 7802 393d 51bf 123f 1e79 5e3e
00000050: 6f6d 973c 74e2 d83e a784 833d 2314 a93e
00000060: 7c97 ab3d 314d 483d d858 a23e 68ef c53e
00000070: 3c34 003e 4511 c53d 1c6c ba3d d60e 4a3d
0.008212559 0.08532451 0.24585226 0.017388823 0.1383202 0.024793746 0.008449268 0.072231434
0.27128807 0.18730472 0.12167219 0.34459358 0.14340048 0.18352269 0.016160073 0.16620818
0.096981384 0.04516837 0.57323176 0.2172589 0.0184848 0.4236027 0.06421786 0.33023176
0.08378503 0.04890174 0.31708407 0.38659215 0.12519926 0.096224345 0.091026515 0.049330555

embed.embedding_net.lin1_2.weight f4 [32, 32]
00000000: 60a5 3cbe 11db 7b3d 63de 6f3d af23 4abc
00000010: 2b01 7fbd 4623 2b3e 3af6 1abe b9be f9bd
00000020: 211e 0e3d 253f fcbd 0f27 aebd 22d2 c43d
00000030: eb22 8f3d bcdf 05bd d594 c83d 8c47 8dbb
00000040: 1f0e 37bd db29 81bd 0d1a bcbd 17cd 123e
00000050: cd74 a03d 99d2 14be 03b7 2d3e aed7 b6bc
00000060: a0e9 c23c 8044 353d ee79 293e 61f0 83bd
00000070: 5151 0cbd 7e98 3fbd 9cf0 453d ce19 1cbe
00000080: 8391 0dbd f25b 993d 2a1b 1c3e a1a6 38be
00000090: a44d 32be 0abd 223e f243 c63c e417 50bd
000000a0: ebfc 923d b837 0cbe 4020 7bbd 0e0a 3ebd
000000b0: 375c 543d 44f6 37bc 66ad 65bd 4da9 b9bd
000000c0: 7d21 0abe 20ff 8ebd 2ee0 d8bd 107c a83d
000000d0: 35a5 193e a081 d7bd c0b2 353d 24c4 a9bd
000000e0: f30c 71bc c351 713c 1d2e 153e b795 163e
000000f0: b11a 9bbd 14fa 0f3e ecce f03c 98c7 babd
00000100: e490 7e3d bcc6 e6bc 1e3b 25be cd12 5ebd
00000110: 50e5 ff3d 49f6 8dbd 3f68 46bd 209c 30bc
00000120: eb3a e03c 4f22 05bd e39b 223e 4171 2dbc
00000130: 0dd2 1d3e 0187 023e c676 e5bd 839c bf3c
00000140: e854 073e 9ddd df3a 56f5 4d3c 976c c63d
00000150: 90f4 023d 6d54 923d f9ee 873d f848 e6bd
00000160: 129f 113e f6eb 12bd 3b4a 1f3e 8c8f 9fbd
00000170: 1154 afbd 5833 24bc 9695 c33c fc34 b33b
00000180: 02da 90bd 4da9 cabd 8a8c fe3d 0033 b7bd
00000190: 3a29 32bd cbae 38bd 78a0 be3d 4598 a1bc
000001a0: 31b5 37bd ee7d 1b3e f765 4f3d 7a2b f8bd
000001b0: 1490 5a3c ea7f c2bd 3849 c63d 4d08 6bbd
000001c0: 74aa f4bb 640c 01be c26c b3bd 4c83 b03d
000001d0: f7a1 9e3d 2fd9 05be a400 173e bd5c d0bd
000001e0: 403d 11bd b8aa 103e 68b0 ff3a c4ad 7c3c
000001f0: 5526 de3d 2ffe d8bd cf02 613d 4d0f 25be
00000200: 64d8 3dbe 34be 19be c3c6 0a3e 151e 853d
00000210: 0c69 003e a5f2 7c3d 2824 f83d 44fd 0a3e
00000220: 5c77 a1bd 9e33 a93d ebe1 db3d 7a85 a73d
00000230: 008d 803d 31c6 09be 8dc8 e8bc b88d b4bd
00000240: 80d9 263e d1eb ba3d 7e47 36bc 4f92 9cbd
00000250: af26 84bc 7853 333e 4e48 223e d281 29be
00000260: 31ca f8bc ce91 17be c569 54bd 384c 193e
00000270: 61d3 ce3d cc6c 34be 42dc 94bd 62b6 91bd
00000280: 4b28 18be a942 f13c 9292 90bd 01ff 06be
00000290: 1a37 243d cf6d 933a 0826 123e f3e3 23bd
000002a0: a2ea 923d ed6f 0e3e 44ac b13c 9c57 97bd
000002b0: 6019 00bc 2bce d0bd 8b75 30bc 328a 84bd
000002c0: 48ae 193e e3c8 26be b7aa a33b ec82 b4bd
000002d0: 8a06 a53d 75e6 123e 0ce0 ae3d 5c1f 743d
000002e0: 49b3 1abe f6f2 cc3d f756 413c a9ce 993d
000002f0: e29e 73bc 73b1 2fbd 4b7e 963d 0a30 09be
00000300: a45e ab3b abac 4f3d 114b 97bb 90c3 143e
00000310: 0ae8 c03d 34b9 20be 3c86 763d b468 1a3d
00000320: 8c07 c1ba e381 14be 11d3 d5bd 98c7 d53d
00000330: de1b 96bc 5160 a23d f920 19be 73c7 c03d
00000340: 52e4 84bd 2083 503d 71f5 13be f9e1 0e3e
00000350: 530c 7ebb df1b 073e 9819 22be 70a5 29be
00000360: fd3a c2bb 1448 9abc 6a67 303e d773 a33d
00000370: 2ebc 5d3d 854d fcbb 1f34 813c afc3 b3bc
00000380: 9824 e1bd af33 893c 5398 b43d 588c 4e3d
00000390: a4f3 febd 7187 0ebe c060 c33d 1b0a 68bd
000003a0: 4e1e b03d 5f1b 39bd 9629 37bd 0170 14be
000003b0: 58c3 993d 9b55 e23d 68bd 3dbe d7e9 9f3d
000003c0: 09ee 0ebd ecc6 d0bd 57a0 c6ba 8714 c7bd
000003d0: 7323 b73c 25b4 4b3c 432e b03d 92cf 333d
000003e0: 52fe c13d aa6c d5bc aa72 0f3e b772 323d
000003f0: 569b cd3d e1ec 2abe f881 13be 8cdd f9bd
-0.1842246 0.061488215 0.058561694 -0.012337609 -0.062256973 0.16712674 -0.1513299 -0.121945806
0.034696702 -0.12316731 -0.085035436 0.09610392 0.06989082 -0.032684073 0.097940125 -0.0043115076
-0.0446912 -0.063068114 -0.09184656 0.14336048 0.07834778 -0.14533462 0.16964345 -0.022319641
0.023793042 0.04425478 0.16550419 -0.06442333 -0.034257237 -0.046776287 0.048325166 -0.15244219
-0.0345626 0.0748824 0.15244737 -0.18032314 -0.1741243 0.15892425 0.02420232 -0.050804034
0.071771465 -0.1369313 -0.061310053 -0.046396308 0.051845755 -0.011228148 -0.05607357 -0.09065495
-0.13489337 -0.06982255 -0.10589634 0.08226788 0.15004428 -0.10522771 0.044359922 -0.08289364
-0.01471256 0.014728966 0.14568372 0.14705549 -0.0757345 0.14060241 0.029395543 -0.09120101
0.062149897 -0.028170936 -0.16135833 -0.05421715 0.1249491 -0.06931741 -0.04843926 -0.010779411
0.027371844 -0.032503422 0.15879779 -0.010586084 0.1541216 0.12746812 -0.11204295 0.02339006
0.13215983 0.0017079596 0.0125707 0.096886806 0.031971514 0.07145009 0.06637377 -0.112443864
0.14220837 -0.03586956 0.1555566 -0.07791051 -0.08560956 -0.010022007 0.02387504 0.0054689627
-0.07072832 -0.09895573 0.124291494 -0.08945274 -0.043496348 -0.04508857 0.09307951 -0.019725928
-0.044850532 0.15184757 0.05063435 -0.121176675 0.013340015 -0.09497054 0.09681934 -0.057380963
-0.0074666087 -0.12602383 -0.08760978 0.08618793 0.07745736 -0.1307113 0.14746338 -0.101739384
-0.035458803 0.14127624 0.0019507529 0.015422288 0.10847155 -0.10595357 0.05493432 -0.16119118
-0.18539578 -0.15013963 0.13552384 0.06499878 0.12540072 0.06175484 0.12116271 0.13573176
-0.07884094 0.08261798 0.1073645 0.081797555 0.062768936 -0.1345451 -0.028415943 -0.08816093
0.16293907 0.0912701 -0.0111254435 -0.07645094 -0.016131727 0.1751231 0.15847895 -0.16553429
-0.03036985 -0.14801714 -0.051858682 0.14970481 0.10098911 -0.17619628 -0.07268573 -0.07114865
-0.1485912 0.029450731 -0.07059206 -0.13183214 0.04009161 0.0011247935 0.1427232 -0.04001231
0.07173659 0.13909884 0.021688588 -0.07389757 -0.00781855 -0.101955734 -0.010770212 -0.06471671
0.1500789 -0.1628757 0.004994716 -0.08814034 0.08057888 0.14345725 0.08538827 0.05960022
-0.15107454 0.100072786 0.011800519 0.075101204 -0.014869424 -0.04289384 0.07348307 -0.13397232
0.005229788 0.05070178 -0.004617103 0.14527726 0.09419258 -0.1569565 0.06018661 0.03769751
-0.0014726981 -0.14502673 -0.10440648 0.1043846 -0.018323835 0.07928527 -0.14953984 0.09413042
-0.06488861 0.0509063 -0.14449097 0.13953389 -0.003876467 0.13194226 -0.15830076 -0.16567016
-0.005927442 -0.018833198 0.1722695 0.07981079 0.05413454 -0.0076996707 0.015771924 -0.021943895
-0.10993308 0.016748277 0.08818116 0.05042681 -0.124488145 -0.13918854 0.09539938 -0.056650262
0.0859953 -0.04519212 -0.044717394 -0.14495851 0.07507962 0.11051484 -0.18529284 0.07808273
-0.034894977 -0.10194191 -0.0015153986 -0.09720712 0.02235577 0.0124330865 0.08602574 0.043899126
0.09472336 -0.026052792 0.14008585 0.04356643 0.100393936 -0.16691925 -0.14405048 -0.1220046

embed.embedding_net.lin1_2.bias f4 [32]
00000000: 5008 e5bd de32 1abd f812 3c3d 0950 e13d
00000010: 9d44 593d 637c 4dbb 3076 bbbd d916 bebd
00000020: d831 0fbe fc67 debd 8571 ecbb e706 0d3e
00000030: 4456 dc3d 4c0f 3ebd a8ed f93d 2ac8 2c3e
00000040: ea39 663d 9186 1c3d 5036 c43d 7124 85bc
00000050: a482 babd 2619 8f3d 065e a53d e86d fd3d
00000060: 4968 a83c f55f 343e dd86 163e ade3 1cbd
00000070: c608 9bbc 5fef f93c febd b13d f098 dabc
-0.11183226 -0.037646167 0.045916528 0.110015936 0.05304395 -0.0031354658 -0.09153402 -0.092817016
-0.13983858 -0.10859677 -0.007215681 0.13772164 0.10758641 -0.046401307 0.122035325 0.16873232
0.056207575 0.03821427 0.09580672 -0.016252728 -0.09106949 0.069872186 0.08074574 0.123744786
0.02055754 0.1761473 0.14699884 -0.038303066 -0.018925082 0.030509649 0.08678816 -0.026684254

embed.embedding_net.conv1.nn.0.weight f4 [32, 32]
00000000: 3dcb d0bd 1353 893d 267e 12be 415b cbbd
00000010: 76c2 b43d 4e9a e5bd f85a 0a3e ea6d dc3d
00000020: 50d5 813d 1533 993d f0ec 143e 290f fcbd
00000030: 129a ddbd be27 0fbe 7952 f5bd 314c dfbc
00000040: af9d 9e3d 576e 30be 5dce 5bbd 8876 d23d
00000050: 8ceb 1fbe dc6e f4bd 7180 883d 2178 7f3c
00000060: 0a8f 343d 37b9 adbc b585 c83d 63aa d3bc
00000070: ca58 1e3e 4214 a13c 4e64 0fbe ffa9 efbd
00000080: c3af 2c3e be13 14be 01d9 213e 9660 b8bd
00000090: b377 d93d 5302 d4bc cc62 54bd 4bcc 6d3d
000000a0: 6079 fcbd 6bf0 1d3e 1419 56bd 67b7 c6b9
000000b0: d854 c63d 4e81 02bd 4d2e 7b3d b059 6b3d
000000c0: 74c3 193e e5c6 74bd ec55 14be 27af 4bbc
000000d0: a4ed 81bd d6b7 67bd e4b2 1ebe 7a18 d2bd
000000e0: f387 013e e8a1 3abc f69a ca3d 3635 1a3d
000000f0: a3c1 e7bb 4483 423d d4c9 0b3e 9bf6 bbbd
00000100: 37b9 fe3d c99a fdbc 8898 d43d fa1a 073e
00000110: 4b06 0dbe f8b0 f6bd 54f1 82bc 4b29 97bc
00000120: 1a5e 083e 2e76 293e 19f4 13be 030f 5e3b
00000130: 0baa 233b d8ac a23d ba21 c53d 88ab a73d
00000140: 2ee5 0f3e d187 02be 4d52 e2bd f1aa 87bd
00000150: b795 b9bd 5818 86bc 838f d1bd f3e4 a53d
00000160: 5be6 c73d e60f 973d 5ac5 afbd 8991 1b3e
00000170: fc55 33be 26c9 af3c 9bb0 02be c01e b1bd
00000180: a708 f9bc addf 6b3d 4ac5 0ebe 3d4a 0d3d
00000190: cc11 a6bd 1a5e 36bc f0bb 65bd 0b71 2abd
000001a0: 4739 6ebd 5f0b 323e f9d8 2ebe b47c 1fbe
000001b0: 359b 293e dc8d efbd 1246 23bd 05a4 1e3e
000001c0: 0de5 a3bd 4e42 a73d 1291 ec3d abc5 53bc
000001d0: ae07 00be 9459 2a3d f6ed d03c 9a13 b33c
000001e0: 9651 6d3d 67e2 0b3e a5c8 1e3e ec8a 5c3c
000001f0: 0d3c 343e a4e8 47bd 29fa 023d 4b09 03be
00000200: efd6 dbbd d78b a7bd d925 163e 4e7c 023d
00000210: ce3c f2bd 9b11 76bd 0bd0 e1bd f79b 183e
00000220: add1 31be 4483 5a3d 3a1b 1abe b97b a63d
00000230: 71cc fa3d 3f9c 12be 98d9 db3a 2a2e 083d
00000240: b90e 21be 2ad8 c7bd 41dd 3b3d 1906 0d3d
00000250: 9240 d3bd 848b 1e3e be37 143e e2f8 243e
00000260: ccdb 7fbd a354 01be 3dce d9bd 0646 0abe
00000270: 8a9e 9b3d 6857 903c fcfa 133e 4d63 68bd
00000280: f130 83bd 6b21 943d 3672 b23d ebb8 62ba
00000290: 3990 17bc 5f42 43bd 230c e03c 8f5e 8e3d
000002a0: 0133 3e3d 7dd3 0bbe 291f 05be ceb7 d8bd
000002b0: 342b 9fbc f5e9 c7bd 0d6f 28be b0a5 1a3e
000002c0: fb64 ff3d 73e0 113d 7873 b2bb f3be e6bd
000002d0: 261c 2abe 0745 bcbd 0cb3 18be 5126 e83d
000002e0: 334b 0a3e 9267 acbd ad43 29be 7f91 2fbe
000002f0: b91a 243e 0dca 25be 31ef 1fbe 2291 283e
00000300: 4c4f 24be 9cef 793d d8d1 d3bd 4686 48bd
00000310: 38c4 f3bd 21c5 4f3d db20 093d 31c0 253d
00000320: ab16 cabd 6296 1fbe 2cfd fe3d e969 a4bd
00000330: 5e0d ffbd fe21 283e 285a 073e ff59 35bd
00000340: 5b0b 30be 9265 f8bd 5846 333e 7467 24be
00000350: b269 f5bc 8bc6 e53d a427 b53d ec12 96bd
00000360: b6b5 613d f3d9 f23d e233 7a3c c3f5 36bd
00000370: 33ec aa3a 6f34 d73d c730 f2bc a77f 2b3d
00000380: 31f0 f2bd 376b 0ebe 0f4d 3b3d fdb2 1fbe
00000390: 5fac 2c3d aa88 11be 6574 1bbe d2aa debd
000003a0: 3558 27bd 7696 523d 70ab 953c e558 9f3b
000003b0: ee92 f33b de58 01bc d13f c93d 3213 72ba
000003c0: 2c11 fa3c 9b64 1f3e 2614 1ebd 206a eabc
000003d0: 59a0 5e3d a7ed 99bd 83dc 5ebd 09eb 0cbc
000003e0: 5fa9 643d 085b 13be bd36 6d3c e20e 2d3d
000003f0: d49a 9b3d 60ce a23d 4af5 50bd 552d 19bd
-0.101950146 0.06705298 -0.14305934 -0.09929515 0.08826153 -0.11211072 0.13511264 0.10763152
0.06339514 0.07480446 0.1454351 -0.12307579 -0.10820402 -0.13980004 -0.11978621 -0.02725801
0.077449195 -0.17229591 -0.0536636 0.10276514 -0.15617198 -0.11935207 0.06665123 0.015592606
0.044081725 -0.021206481 0.097911276 -0.025838083 0.15463558 0.01966298 -0.14003107 -0.11702346
0.16863923 -0.14460656 0.15805437 -0.09002797 0.10618534 -0.025880015 -0.051852033 0.058056157
-0.12327838 0.15423743 -0.05227001 -0.00037902148 0.096841514 -0.031861596 0.061323453 0.05745858
0.15015966 -0.059759993 -0.14485902 -0.012431896 -0.063441545 -0.056571804 -0.15497929 -0.10258575
0.12649517 -0.0113911405 0.09892838 0.037648402 -0.007072644 0.047488466 0.1365121 -0.09177896
0.12437671 -0.030957596 0.103806555 0.13193884 -0.13771932 -0.12045473 -0.015984215 -0.018452307
0.13317147 0.16548988 -0.14448585 0.003388346 0.002497318 0.079431236 0.096255735 0.08187014
0.14052269 -0.12747122 -0.11050854 -0.06624401 -0.09061759 -0.01636903 -0.10232451 0.08100309
0.09760734 0.07376079 -0.08582564 0.15192236 -0.17513269 0.02145822 -0.12762682 -0.08648443
-0.030399634 0.05758636 -0.13942447 0.034494627 -0.08108863 -0.011130834 -0.056087434 -0.041611712
-0.058160093 0.1738715 -0.17074956 -0.15574914 0.16563113 -0.116969794 -0.039861746 0.15492256
-0.08002672 0.081669435 0.115511075 -0.012925546 -0.1250293 0.041589335 0.025504094 0.021859933
0.057939135 0.13660584 0.15506227 0.013460856 0.17601033 -0.048805848 0.031976853 -0.12796514
-0.10734355 -0.08180969 0.14662875 0.031856827 -0.11828004 -0.060075384 -0.11026009 0.14903246
-0.17365141 0.05334784 -0.15049449 0.08129067 0.12246025 -0.14317416 0.0016773222 0.03324715
-0.15728272 -0.09758027 0.0458653 0.034429643 -0.1031505 0.15482908 0.14474389 0.16110566
-0.062465474 -0.12629943 -0.1063504 -0.13503274 0.07598598 0.017619804 0.14451212 -0.056735326
-0.06405819 0.072329365 0.0871319 -0.0008648771 -0.009250694 -0.04767072 0.027349537 0.06951629
0.04643536 -0.13654895 -0.13000168 -0.10581933 -0.01942978 -0.09761421 -0.16448613 0.15102267
0.12470432 0.035614442 -0.005445894 -0.112668894 -0.166123 -0.091928534 -0.14912051 0.11335433
0.13505249 -0.08418192 -0.16529723 -0.17145346 0.16025819 -0.16190358 -0.15618588 0.16461614
-0.16045874 0.061019525 -0.10342759 -0.048956178 -0.1190266 0.050725106 0.0334786 0.04046649
-0.09867605 -0.1558471 0.124506325 -0.08028013 -0.124537215 0.16419217 0.13217986 -0.04427528
-0.17191832 -0.12128748 0.17507303 -0.16055089 -0.029957626 0.1121951 0.088454515 -0.07327828
0.055104934 0.11857977 0.015271159 -0.04466797 0.0013040364 0.10508048 -0.029564274 0.041869786
-0.11862219 -0.13908087 0.045727786 -0.15595622 0.042156573 -0.1421229 -0.1518112 -0.10872425
-0.040855605 0.051413022 0.018270224 0.004862892 0.007433287 -0.007894723 0.09826625 -0.00092344277
0.030525766 0.15565722 -0.038593434 -0.028615057 0.05435214 -0.07516032 -0.054409515 -0.008600959
0.055825587 -0.14390194 0.014478383 0.04225052 0.075978905 0.07949519 -0.051015176 -0.037396748

embed.embedding_net.conv1.nn.0.bias f4 [32]
00000000: a86f d93d 72e8 18be ac50 0abe 915b 29bd
00000010: e960 913d 9f68 6bbd 4934 b2bd 1bbc a93d
00000020: 3932 b93d b192 15be 7091 163e cd9c 20be
00000030: 908c 7cbd f4ef 24be 479a 30be 21f0 ef3c
00000040: 71e9 cb3d 427f a3bd b713 883d 565b e3bd
00000050: aaf2 adbd 4e0d 0b3e d729 3cbd c594 b83d
00000060: 190d 0d3e 4591 87bd 61fd 793d 1c8f ba3d
00000070: 75b5 253d 51c4 fa3d d6b8 993d 720d 2b3e
0.10617 -0.14932421 -0.13507336 -0.04134709 0.07098562 -0.05747282 -0.08701379 0.082878314
0.09042782 -0.1460674 0.14703918 -0.15684815 -0.06165749 -0.1610716 -0.17246352 0.029289307
0.09956635 -0.07983257 0.06644385 -0.11101405 -0.0849355 0.13579294 -0.04593834 0.090127505
0.13774528 -0.06619505 0.061032657 0.09109327 0.040456254 0.12244476 0.07505958 0.16704348

embed.embedding_net.conv1.nn.2.weight f4 [32, 32]
00000000: e458 d8bd cb92 1ebd df61 b23d 0b56 d5bd
00000010: 26c0 d83d 69d4 19bd 3c0e 8b3d 92a9 2f3e
00000020: 0f05 01be b428 bc3c e281 e23c fd92 ffbd
00000030: c9f6 67bd ca8a c2bd 95f1 51bd fb13 3b3c
00000040: df6f 8bbd 63c3 963d c22d c1bd cf1c 293e
00000050: fecf 24be a934 e03d 65eb 19bd 5720 9cbd
00000060: d61e 42bd 0136 a1bd 5506 ea3d 42ae febd
00000070: 7251 28be aa94 f93d 818d 57bd bf2b d2bb
00000080: 44a3 04bb e4e8 a0bd fe9b 273e 4461 bc3d
00000090: d9a6 f2bd 57e4 f83d 1ca3 0ebe 5f74 c3bd
000000a0: c064 303e 44d2 14be 30c5 653d 89dd c6bd
000000b0: 5207 f6bd d4c9 013e d162 18bd 1d0b cdbc
000000c0: 4f2d af3c 5eec a33d d29c c03d a39c d9bd
000000d0: 8889 8fbd c0c0 273e c9ab 22be a49b eb3d
000000e0: 305f debd 25e5 fbbc 5297 43bd 9404 463e
000000f0: 16db 3ebe d45f 16be da57 243e 78b1 f6bd
00000100: 9588 23be cee8 243e a34a cabd c270 a5bc
00000110: 48aa f5bc 3113 a1bd 8156 253e 4096 87bd
00000120: d563 9abd d005 093d fdaa 843d 9286 cbbb
00000130: d22f 123e a47d cb3d 81a4 a83d c160 c0bd
00000140: 9056 463c 90cc 843d d6d1 08be f001 033e
00000150: 96c8 3a3d 3213 463d f5d4 88bd 1ef8 1e3d
00000160: 2557 65bd 1f7f 84bc ad3a 20bd d3ef 043e
00000170: f852 f03d d95e 303e 8292 1fbe 315a ac3d
00000180: 695b a13c 151f 1cbe c784 2bbe 53fa 873d
00000190: 86b1 bd3d 5c6b 2b3e 7341 5b3d dd4f a3bd
000001a0: d931 e43d d854 6e3d d100 34be da2f 2bbe
000001b0: dbb7 9fbd 071c dcbd 8529 a93d 6992 12be
000001c0: 276c 163e 7875 e9bd faba 42bd ad1f 253d
000001d0: d1bd 06be f9b1 0ebe f78d 0d3e aa57 efbd
000001e0: 192f 2dbc a4be fd3d 2421 5ebd c1c4 4a3d
000001f0: 18e7 dcbd 8446 133d b716 123e a716 283e
00000200: 8f0b 163e 4f61 2dbe 1add 19be bf5d 0fbe
00000210: 5b9d b53d 9b77 9c3c 22af 823d bb66 07be
00000220: f59a 033e cdf1 11be a208 303e 6818 35be
00000230: 8b71 32bd 34eb 293e 47c7 303e 8db9 0fbe
00000240: 4af9 40be 7413 e93c 1956 f23d c2aa 2e3d
00000250: a6b8 17be 65f0 183e 00d3 273c e5e1 e0bc
00000260: 4cce c9bd 6646 dfbd dbbd 7e3c a49d 2e3d
00000270: 2a9e f03d 7a0c 85bd 2896 d93d bc4b d8bd
00000280: 26bb 01bd e22d 373d 21ae 293e 19f9 193e
00000290: 263a 523c ab4c f3bd 77e6 cebc 15f2 a73d
000002a0: cecb f1bd 221d 9d3d 95be 1ebe befa b33d
000002b0: 3601 223e 21ee 52bd 69af dcbc 511b 01be
000002c0: d068 4dbd fb24 5bbd 94c9 91bd ff8a d6bc
000002d0: 958e b1bd 4ec2 03bd 07b0 abbb e125 463d
000002e0: 680d 063e 7d2e c2bd 92fe 3dbc b757 99bd
000002f0: d229 6e3d b97e c13d 7f20 583c 8916 a63d
00000300: 54e2 8fbd e684 983d b167 0cbd 8c06 17be
00000310: 1b29 d43d b00d 273e 029c 0abd 1766 053d
00000320: 718a 10be d92a b83d 35b6 7dbd 1208 f73d
00000330: 6a70 3bbe c70d c23d dff3 633d 1644 2d3d
00000340: bf4c 7dbd 9827 963d 235d 8cbd 50cd f93d
00000350: a93e a6bd 44e1 c03d 802a d83d 618e 4f3c
00000360: e5ca e2bd 66c1 dfbc 8d40 f13d 4ccb aabd
00000370: ae65 13be f0a4 1e3e 0e4a 9dbd 65f6 c33d
00000380: cb92 e53d 4b7c 28be 53c8 81bd 7ea6 2abe
00000390: e555 353e dbd2 f7bd 3e3a b93d 8bf8 0dbe
000003a0: 3c2a a7b8 88be 303e 203c 20be e653 0ebe
000003b0: 1e98 3fbd dd95 04bd 77d3 fa3d 15b3 c23c
000003c0: 47e1 18be aa35 553c e9e3 a83d eeef 123e
000003d0: 21ad b6bd 2705 0cbe 0062 623d 0ccf 02bd
000003e0: c035 913d 939c 27bc 3d26 93bb 9069 acbd
000003f0: 0344 1c3d 6755 34bd a9d1 343e 7848 dbbd
-0.105638295 -0.03871421 0.08710074 -0.10416802 0.105835244 -0.037556086 0.06789824 0.1715453
-0.12599586 0.022968628 0.027649824 -0.12479208 -0.056631837 -0.09499128 -0.05125578 0.011418338
-0.06808447 0.07361486 -0.09432556 0.16514896 -0.16094968 0.10947544 -0.037578005 -0.07623356
-0.04739269 -0.078716286 0.11426989 -0.12435581 -0.16437319 0.121865585 -0.052625183 -0.0064139063
-0.0020238915 -0.0785692 0.163681 0.091982394 -0.1184823 0.12152927 -0.13929409 -0.095436804
0.17225933 -0.14533335 0.056096256 -0.09710223 -0.12013115 0.12674648 -0.037203614 -0.025029713
0.02138391 0.08004068 0.09404911 -0.10625579 -0.07008654 0.16382122 -0.15885843 0.115042955
-0.10857999 -0.030748913 -0.047751732 0.19337684 -0.18638262 -0.14684993 0.16049138 -0.12045568
-0.1597007 0.16104433 -0.09877517 -0.020195369 -0.029988423 -0.078649886 0.1614628 -0.06620455
-0.07538573 0.03345281 0.06477926 -0.0062111104 0.14276055 0.099360734 0.08234502 -0.09393454
0.012105599 0.0648433 -0.13361296 0.12793708 0.04560145 0.04835815 -0.06681243 0.03881084
-0.05599131 -0.016173897 -0.039118458 0.1298211 0.11734575 0.17223682 -0.15583232 0.0841564
0.019696908 -0.15246232 -0.1674987 0.066395424 0.092623755 0.16740173 0.053529214 -0.07974217
0.1114232 0.058186382 -0.17578436 -0.16717473 -0.077987395 -0.10747533 0.08259872 -0.14313664
0.14689694 -0.113993585 -0.047541596 0.04031341 -0.13158347 -0.13935079 0.13823687 -0.116866425
-0.010570311 0.123898774 -0.054230824 0.049504045 -0.10786265 0.03595592 0.14266478 0.16414891
0.14652847 -0.16931652 -0.1502575 -0.14000605 0.08867904 0.019100001 0.0638106 -0.13222782
0.1285208 -0.14252396 0.17190793 -0.17685091 -0.043565314 0.16593629 0.17263518 -0.14035626
-0.18845096 0.028451659 0.11832828 0.042643316 -0.14816532 0.14935453 0.010243177 -0.027451465
-0.09853801 -0.10902099 0.015548195 0.042630807 0.117489174 -0.0649652 0.10624343 -0.1056132
-0.03167262 0.04472149 0.16570331 0.1503643 0.0128312465 -0.11879858 -0.025256379 0.0820047
-0.11806451 0.07671572 -0.15502389 0.0878806 0.15820774 -0.05149663 -0.02693911 -0.12608077
-0.050148785 -0.053502064 -0.07118526 -0.026189325 -0.086697735 -0.032167725 -0.00523949 0.048375968
0.13091052 -0.09481523 -0.011596339 -0.074874334 0.05814535 0.094479986 0.013191341 0.08109767
-0.070255905 0.07447223 -0.034278575 -0.14748591 0.10359403 0.16313815 -0.033840187 0.032568064
-0.14115311 0.089925475 -0.061941344 0.12062086 -0.18304601 0.09475284 0.055652495 0.04230126
-0.06184077 0.07331771 -0.06853702 0.121973634 -0.0811742 0.09417966 0.10554981 0.012668223
-0.11073855 -0.0273139 0.1177989 -0.08339557 -0.14394256 0.15492606 -0.076801404 0.095684804
0.11209639 -0.16453664 -0.06337037 -0.16665074 0.17708547 -0.12100764 0.09044312 -0.13864343
-7.971047e-05 0.17260182 -0.15647936 -0.13899192 -0.04677593 -0.032369483 0.12247365 0.023767034
-0.14929686 0.013013283 0.082465954 0.14349338 -0.089197405 -0.1367384 0.05526924 -0.031935737
0.0709033 -0.010230201 -0.0044906423 -0.08418572 0.0381508 -0.04402676 0.17658104 -0.10707182

embed.embedding_net.conv1.nn.2.bias f4 [32]
00000000: a734 c9bd 4bdb 933d 8399 8bbc 69d5 103e
00000010: 3a8b 2abd 5c0e 143e 0966 1abe 1318 c9bd
00000020: a4e8 c0bd 25f0 a1bd b4c7 5fbd a0d4 de3d
00000030: 9d3b 21be 684c 303e ddda d53d 691c ff3d
00000040: 275b a23d 2eef 17be 9ec4 1e3c d731 123d
00000050: 3a78 8f3d e42d e83d cc64 263e 7809 6e3d
00000060: 7da2 163e c504 8fbd e8c2 b1bd b026 e43d
00000070: 9871 96bd db48 0abe f7cc 833d de4f d3bd
-0.09824496 0.07219561 -0.017040974 0.1414391 -0.041636683 0.14458603 -0.15077986 -0.09819045
-0.09419373 -0.07907132 -0.05463381 0.10880399 -0.15745397 0.17216647 0.104421355 0.12456591
0.07927542 -0.14837334 0.009690432 0.035692062 0.07005353 0.11336878 0.16249388 0.0581145
0.14710422 -0.069833316 -0.086797535 0.111401916 -0.07345885 -0.13504355 0.06435578 -0.10317968

embed.embedding_net.bn1.weight f4 [32]
00000000: e926 803f b276 803f 7977 803f 0db5 7b3f
00000010: 1b7e 813f 12ec 7e3f 3b48 803f 11e1 803f
00000020: 8a32 813f 2be9 7f3f 3d4b 7e3f b6ec 803f
00000030: dfc0 813f 4103 7e3f 2970 803f 429d 7e3f
00000040: 2c7a 7f3f 932f 803f 6a6d 7e3f 426a 803f
00000050: b150 813f 0833 823f f75b 803f 7116 823f
00000060: 7435 823f cf34 803f f5e4 7d3f fa63 813f
00000070: 5bcc 7f3f 172b 823f 359e 813f 1e7c 803f
1.0011874 1.0036223 1.003646 0.98323137 1.0116609 0.99578965 1.0022043 1.0068685
1.0093548 0.9996516 0.99333555 1.0072238 1.0136985 0.99223715 1.0034229 0.99458706
0.99795794 1.0014518 0.993857 1.0032427 1.010275 1.0171824 1.0028065 1.0163099
1.0172563 1.0016116 0.99177486 1.0108635 0.99921197 1.01694 1.0126406 1.0037878

embed.embedding_net.bn1.bias f4 [32]
00000000: 231c ed3b 9f9e dfbb 95c1 b83b c539 86bc
00000010: c2fb b63b df86 38bc 0d6f 78bb cc29 45ba
00000020: 7d8c 443c 3319 9dbc ace3 afbb 4aea 7ebb
00000030: 96fd 6a3b 7ab9 fb3a 5722 e53b e0e2 39b9
00000040: c9b5 7c3b 93f6 cf3b 1c79 4dbc 6384 9bba
00000050: 8fa0 233b 817c df3c f999 7eba 35e7 983c
00000060: a595 393c 48e2 abbb 382d 1bbc 046a a5b9
00000070: abb1 a0ba 3865 9e3a 1ebf d63b b861 b83b
0.00723602 -0.006824329 0.005638311 -0.016384969 0.005584211 -0.0112626245 -0.0037907988 -0.0007521182
0.011996386 -0.019177055 -0.005367717 -0.0038896971 0.0035856715 0.0019205057 0.006992619 -0.00017727492
0.00385605 0.0063465326 -0.012541082 -0.0011865016 0.0024967527 0.027281048 -0.0009712275 0.018664936
0.011327182 -0.0052454807 -0.00947123 -0.0003155024 -0.001225998 0.0012084609 0.0065535447 0.0056268834

embed.embedding_net.bn1.running_mean f4 [32]
00000000: abeb eabd 982e 4a3e b616 b33c 15ca f6bc
00000010: 17a9 a93d 7d68 a33d afd2 2cbe d7ae 35be
00000020: a18e 45bd 1770 3fbe 6dc0 b9be 82b8 dd3d
00000030: 701f 7bbe 9be7 3a3e 30f4 1dbd e760 00bd
00000040: 6409 ae38 47a9 0bbe c9f7 a33e 3828 3f3e
00000050: cc5c 153e 8708 723e 832a 24bc f604 eb3b
00000060: ceef 423e c462 59be 71a4 4ebd c6eb 613d
00000070: 787a 543d f89f 92bc f0e0 6c3e aac7 e6bc
-0.11470731 0.19744337 0.021861415 -0.030125657 0.082842045 0.07978914 -0.16877244 -0.17742477
-0.048231725 -0.18695103 -0.36279622 0.10826208 -0.24523711 0.18252413 -0.038562953 -0.031342413
8.298716e-05 -0.13638793 0.32024983 0.18667686 0.1458618 0.23636065 -0.010019901 0.0071722222
0.1903679 -0.21229082 -0.050449792 0.05515649 0.051874608 -0.017898545 0.23132682 -0.02817138

embed.embedding_net.bn1.running_var f4 [32]
00000000: 0b3f e53b cf98 f63b b598 503b c25a 763b
00000010: 29fa 1f3b 4a9f 183b cd0d 203b f598 4f3b
00000020: 6fd7 343b 4fe1 ea3b 0688 cc3b a9fa d03a
00000030: 17c9 583b 9ec2 313c 9a54 413b ba7a 473b
00000040: 19cf b13b 1790 7b3b 14d1 fe3b a7bf 043c
00000050: e197 9d3a 75ea ca3b 4c83 023c 3924 853b
00000060: a6b7 843b 9312 223b a1d5 513b 204a c43b
00000070: 0071 1d3c 3eab 163b fdf4 083c 81ac 5c3b
0.0069960407 0.0075255404 0.0031829302 0.0037590717 0.0024410582 0.0023288303 0.0024422288 0.0031676863
0.0027594229 0.007167972 0.006241801 0.0015943843 0.0033078843 0.010849623 0.002949989 0.003043814
0.0054262993 0.0038385445 0.007776389 0.008102334 0.0012023413 0.0061925002 0.007965874 0.004063156
0.004050213 0.002473031 0.0032018202 0.0059902817 0.009609461 0.0022990252 0.008359191 0.0033672156
